Experiment/EEGClassification/classifier_LSTM_embed_128_ReLU_5_95_test/model.pth (torch, 617165 bytes, 8 tensors)

backbone.lstm.weight_ih_l0 f4 [512, 128]
000000 4c 4d b0 3c 8e b5 88 bd f2 e9 bd bc 7c 2e a0 3d
       0.021521233 -0.06675254 -0.023182843 0.07821366
000010 c9 30 77 3d c1 e6 01 bc 31 be 47 3d 2d a4 95 3d
       0.06034926 -0.007928551 0.048765365 0.07306705
000020 cf 30 e3 3c 40 91 cf bd 5b 05 8a bc 55 ff dd 3c
       0.027733235 -0.10135126 -0.016848257 0.02709929
000030 5e fc 27 3d 1a 46 85 3c 99 32 95 3d 38 02 fb bc
       0.04101216 0.016268779 0.07285041 -0.030640706
000040 51 86 95 3c 0a 0a b7 3a 14 40 b5 3c d2 a2 ec 3c
       0.018252524 0.0013964784 0.022125281 0.028886233
000050 e0 72 0e 3c d9 42 52 3d a0 8c ff 3c 8b 1b fd bc
       0.0086943805 0.051333282 0.031194985 -0.030896923
000060 77 9d 11 3e e4 c7 88 3d 3c cf 41 3d fb 83 1d bc
       0.14220224 0.06678751 0.047316775 -0.009613986
000070 05 82 41 bc c9 3b b4 3c 29 16 68 bc 11 26 a9 3c
       -0.011810784 0.022001164 -0.01416544 0.020648034
000080 d6 8b 76 3c 70 e4 b2 3d 10 2a 7e 3d 24 2a 84 bd
       0.015047988 0.08734977 0.062051833 -0.0645335
000090 fc 68 08 bd e5 3f ae bc 58 b1 d1 3c 38 a3 42 bd
       -0.033303246 -0.021270702 0.02559726 -0.04751894
0000a0 8c b2 02 3b f8 df 82 bd 02 3f 80 bd b9 49 81 bd
       0.0019942848 -0.06390375 -0.06262018 -0.063128896
0000b0 cb aa a0 bc c7 4d 77 3b 2d 68 76 3d 97 43 53 bc
       -0.01961269 0.0037735568 0.060157944 -0.012894533
0000c0 97 d2 a4 bc 66 a4 bc 3d 0a 16 0b 3d 9c 11 d9 3c
       -0.020119948 0.09211044 0.033956565 0.026497655
0000d0 95 35 71 3d 3c 48 8d bd c8 05 03 bd 0c 1b 58 bd
       0.05888899 -0.06898543 -0.031987935 -0.05276017
0000e0 91 48 b0 bd 73 7f 84 3c 30 5f 84 bd a3 6b a1 bc
       -0.08607591 0.016174054 -0.06463468 -0.019704645
0000f0 0f b4 b4 bd 03 2d 39 bd 2d 92 b1 bc d7 bd de bc
       -0.08823406 -0.045208942 -0.021676147 -0.027190132
000100 b9 22 aa 3d c4 f5 65 bd cf 56 30 bd ec 23 ed bb
       0.08307404 -0.056142583 -0.043051537 -0.0072369482
000110 63 30 3c bd c4 40 a9 3c 9c ff 07 3a a8 81 07 bd
       -0.045944583 0.020660765 0.000518793 -0.033082634
000120 e3 1d 16 bd cd 32 4d bd 16 dc 98 bc 0c 49 7d bc
       -0.036649596 -0.050097276 -0.018659633 -0.01545931
000130 7c 5d 67 bd 33 10 3a 3d 76 48 fb bd 45 d8 a6 3d
       -0.056485638 0.045425605 -0.1226968 0.08146719
000140 aa ec 8a 3d 5c 90 7a bd f8 6f bd 3b f0 58 24 3d
       0.06783421 -0.061172828 0.00578117 0.04012388
000150 f5 82 a6 3b c6 15 c2 3c f9 c1 3e bc 40 64 66 bd
       0.0050815293 0.023692023 -0.011642926 -0.05624795
000160 55 7e 17 bd 10 30 d3 bc 4a 61 be bb 27 ac 97 bd
       -0.036985714 -0.025779754 -0.0058099376 -0.07405882
000170 2a 39 9a 3d 46 03 47 bd ad 92 13 bb f0 36 26 bd
       0.075304344 -0.048587106 -0.0022517846 -0.040579736
000180 9e 6e bf bc 43 32 9a bd b7 30 b2 3d 9e 24 22 3d
       -0.023368176 -0.07529118 0.08700698 0.039585702
000190 ca 79 80 3d b0 9d 9e 3d b3 c7 8e bc a7 f4 d8 3c
       0.062732294 0.0774492 -0.017429208 0.026483847
0001a0 30 fd 8f 3c 32 63 8c bd 32 80 cb 3d 48 78 42 bd
       0.017576784 -0.068548575 0.09936561 -0.04747799
0001b0 38 5c 0f bd f6 0c 00 3e 14 4f 25 bc c7 89 9a 3d
       -0.035000056 0.12504944 -0.0100896545 0.0754581
0001c0 ca 11 d3 3a 1a 7e 11 bd cd ed 05 bc 67 1b c2 bc
       0.0016103324 -0.03552065 -0.008174372 -0.023694707
0001d0 5a 5a ae bc aa 69 ce bd 4f fa ad bc 8f 69 30 bd
       -0.021283317 -0.100787476 -0.02123752 -0.04306942
0001e0 37 f1 72 bd ab 63 b3 bb 28 76 9a 3d ec ff 28 bd
       -0.05931207 -0.005474528 0.07542068 -0.04125969
0001f0 78 61 60 3c 58 12 00 bd f2 3c f3 bb d2 17 30 bd
       0.013695113 -0.031267494 -0.0074230367 -0.042991467
000200 47 1a cc 3d 7f 7a d8 3d de e5 cc bd 15 12 a0 3c
       0.099659495 0.10570239 -0.10004781 0.019539872
000210 cd 7f 94 3c 51 60 29 3e b3 d9 5a bb b2 ea 91 3d
       0.018127346 0.16540648 -0.003339392 0.07124843
000220 e3 b0 39 bd c0 e1 cf 3b 05 98 19 bd ba 7b 8d bd
       -0.045334708 0.00634405 -0.037498493 -0.069083646
000230 06 a1 41 3c 15 46 22 3d f7 dd 2b ba 0e f7 44 ba
       0.011818176 0.039617617 -0.00065562077 -0.00075136207
000240 4d c5 a8 3d 07 f7 6b bd 59 b1 a9 bd ab 34 29 bd
       0.08240757 -0.05760863 -0.082857795 -0.041309994
000250 ab fc 64 bd 10 2f 03 3d 4f 05 ae 3a 09 a6 2b bd
       -0.055905025 0.032027304 0.0013276729 -0.04190639
000260 13 2c 21 bc 25 99 c8 3d aa be 69 bd 99 cd 2f bd
       -0.009837168 0.09794835 -0.057066597 -0.042920683
000270 37 ac ed 3c 28 2f 28 bd 70 69 bc bd e1 7e ce bc
       0.029012782 -0.041060597 -0.09199798 -0.025206985
000280 82 48 aa bc de ed 2b bd 02 db a1 bd 2f 7d a2 bd
       -0.020786528 -0.041974895 -0.079031006 -0.07934033
000290 42 c3 c5 bd 39 7e 0c 3d f3 0c 43 3d 72 47 b1 3c
       -0.09656383 0.034300063 0.04761977 0.021640513
0002a0 4c e8 87 3c 66 98 7e 3c 56 a1 c7 bc 4d 78 06 bd
       0.01659026 0.015539264 -0.024368923 -0.03282957
0002b0 1d d8 6f bd 39 af 34 3d d1 dd c0 bd f8 5d a4 bc
       -0.05855571 0.044112418 -0.09417308 -0.020064339
0002c0 c5 78 8d bc ec e2 f0 bd 80 af 91 bc 73 34 ec bc
       -0.017269501 -0.11762032 -0.01778388 -0.028833603
0002d0 ec 4c 88 3b 86 ca 94 3b 73 61 48 3d ab 9c ed be
       0.0041595604 0.0045407442 0.04892106 -0.4640859
0002e0 10 c8 54 bd 39 0f 64 3d b0 0b 85 3d a4 bd 59 3d
       -0.051948607 0.05567858 0.0649637 0.05315937
0002f0 69 58 15 3d 5e f3 15 3d c6 9c a7 bd dd a1 8f 3d
       0.036461268 0.036609046 -0.08184199 0.07013295
000300 4e 5a 77 bd ab 9a 13 bd 3a d3 aa bb 47 21 92 3b
       -0.060388856 -0.036036175 -0.0052131684 0.0044595334
000310 36 ed 55 bd e3 e0 d6 3c 08 21 7c 3d d1 73 d9 bd
       -0.052228175 0.026230281 0.06155494 -0.10617793
000320 3a 05 3a be a8 9c 92 3d b7 b5 2f 3d 34 de 53 3d
       -0.18166056 0.07158786 0.042897906 0.05172558
000330 69 b9 96 bd 04 c0 a3 3d 0e ca ac 3d 0d 06 90 3c
       -0.07359583 0.079956084 0.084369764 0.01758101
000340 0a fe 9d bd 20 9a e3 3c 1d 49 76 3d 1a bb 26 be
       -0.0771447 0.027783453 0.06012832 -0.16282311
000350 17 a7 9a 3c de 35 6c bd dc 84 57 3c 63 b1 22 3d
       0.018878503 -0.05766856 0.013154235 0.03971995
000360 02 3e aa 3d 10 1e 15 3d 49 b4 c4 bc e7 f9 fb 3c
       0.08312608 0.036405623 -0.024011748 0.030758811
000370 2c 13 33 bd 61 a6 5b bc 60 ea 31 3d a3 d1 8e bd
       -0.043719456 -0.013406367 0.043436408 -0.06973579
000380 05 a2 6b bd de c6 49 3d 81 91 76 bd 12 5a 9d 3d
       -0.05752756 0.04926192 -0.060197357 0.07683195
000390 13 2b ca 3d f0 ea 3f be da 4d e3 3c af c2 e1 3d
       0.09871497 -0.18741965 0.027747083 0.11023461
0003a0 83 76 2b 3e 24 c7 23 3d ad 25 90 3d ed 37 9b 3d
       0.16744427 0.039984837 0.07038436 0.07579026
0003b0 8e 63 30 bc c2 d9 69 3d f8 83 59 3d c6 b8 31 3d
       -0.010765923 0.057092436 0.05310437 0.043389104
0003c0 43 42 42 3d ee 01 8a 3d b7 82 a3 3d b6 93 de 3c
       0.047426473 0.06738649 0.07983916 0.027170043
0003d0 dc 5e 5c bd bc 1d bc 3d 8a f7 b6 3d 9d 15 4b bd
       -0.053801402 0.09185359 0.08933933 -0.04958116
0003e0 d0 58 a3 bb dd 8a a9 bb ed 59 c4 3c de 87 9c 3d
       -0.0049849525 -0.0051740245 0.023968661 0.07643102
0003f0 f8 fa 27 bc 4c c0 87 3a 79 7a 28 3b e0 7a bc 3d
       -0.010252707 0.0010356992 0.0025707765 0.09203124

backbone.lstm.weight_hh_l0 f4 [512, 128]
000000 84 b6 9c bd 1a ff cb bc 8e a8 69 3c f0 47 15 bc
       -0.076519996 -0.024901915 0.014261378 -0.0091113895
000010 56 e0 08 3c 9c 05 ae bc be 0e 5c bc 59 a4 36 bd
       0.008354267 -0.02124291 -0.013431249 -0.044590328
000020 19 71 10 3d 9f 3d b5 3b df 12 54 3d 06 08 63 bd
       0.03526411 0.0055310274 0.05177581 -0.055427574
000030 75 b9 e6 bc fa 8a 22 bb cb 40 fb bd 66 8e 2e 3d
       -0.028164605 -0.0024802075 -0.12268218 0.04261627
000040 d2 1d bf 3d a1 77 88 3c 38 ac 43 bd ab b5 35 3b
       0.0933186 0.016658606 -0.047771662 0.002772669
000050 2d d8 1c 3e ef 58 12 bd 45 f3 c2 bb 16 a0 31 bd
       0.1531684 -0.035729345 -0.00594941 -0.04336556
000060 e3 9d af bd de b7 7c bd 5d 74 f5 bc 60 87 08 3c
       -0.085750364 -0.061698787 -0.029962713 0.008333057
000070 92 08 84 3d c7 f3 ab bd e0 da 63 bc 34 33 83 bc
       0.06446947 -0.08396106 -0.013907164 -0.016015626
000080 bb 10 71 3c 0c a8 05 3d 72 2c 49 bd dc d0 6d 3d
       0.0147134615 0.032630965 -0.049114652 0.058060512
000090 4e 9b d2 bc 30 68 51 3c d5 d5 0b 3d a7 11 74 bd
       -0.02570882 0.012781188 0.034139473 -0.059587147
0000a0 1a 39 96 3d 96 59 05 bd 94 2a 80 3b d9 47 86 3c
       0.0733511 -0.03255614 0.0039113257 0.016391682
0000b0 c2 27 3d 3b 04 2c 35 3d a1 17 f0 bc 44 1f 5e 3b
       0.0028862809 0.04423143 -0.029308142 0.0033893147
0000c0 dc a1 8d 3c 89 b4 1c 3d 4a 72 ee 3c ca c3 83 3c
       0.017289095 0.03825811 0.029107232 0.01608457
0000d0 2f 8f 03 3e e6 0f 6b 3d e8 e4 d1 3c c7 65 18 bc
       0.12847589 0.05738821 0.025621846 -0.009301609
0000e0 5f 34 69 3d 0f a8 b6 3d 37 05 b3 ba fc 92 ee 3c
       0.05693471 0.089187734 -0.001365817 0.029122822
0000f0 db b0 f0 3c 47 1f 99 bd 9f d8 04 bd 7c b9 43 bd
       0.029381206 -0.07476669 -0.03243315 -0.047784314
000100 4a c2 77 3c df eb 2f bd 26 fe b0 39 4b 16 89 bd
       0.015122006 -0.042949554 0.0003375869 -0.06693705
000110 60 5e 50 bd cd 7a 53 bc d4 a6 b0 bc 2f 34 a0 bd
       -0.050871253 -0.012907696 -0.021563925 -0.07822453
000120 0c 83 49 3d 9a 13 ee bd 7b 3e 1b bd f3 af ce bc
       0.04919724 -0.116248325 -0.037901383 -0.025230384
000130 39 b1 63 3d 1d 7e f5 bb bb 70 40 3d 05 b9 d0 39
       0.055588935 -0.0074918405 0.04698251 0.00039810702
000140 29 f6 a1 bc 5a 9a 07 3d 8b 54 83 3d e7 26 82 3b
       -0.019770699 0.033106185 0.0641261 0.0039719227
000150 c4 e4 c3 bd f3 93 86 3d 5c 9c 3d bb 01 65 93 bc
       -0.09565118 0.06571188 -0.0028932309 -0.017992498
000160 fd 75 15 3d 99 26 08 3d 1c fb 67 bd 48 f7 2a 3d
       0.036489476 0.033239935 -0.05663596 0.041739732
000170 e4 1f 59 bc 9e 00 1a 3d b7 68 95 bc 64 7e ec bb
       -0.013252232 0.037598245 -0.018238408 -0.0072172154
000180 d6 44 34 be 60 d8 95 3d a4 bd ce 3d 6b 33 2b 3d
       -0.17604384 0.07316661 0.10094765 0.041797083
000190 6d 7f 6c bd 08 da 71 bc c1 14 9c bc d9 42 91 bc
       -0.05773871 -0.014761455 -0.019052865 -0.01773207
0001a0 39 5d 1c bc b5 d8 27 3c a0 85 a6 bc 86 e0 1a bc
       -0.00954371 0.010244538 -0.02032739 -0.009452945
0001b0 1c 45 8e 3d 58 f7 55 bc a2 3e b7 bc 84 81 d7 3c
       0.06946775 -0.01305946 -0.022368733 0.026306875
0001c0 d3 da d3 ba 18 34 13 3c 61 f3 bd bd 85 67 a7 bd
       -0.0016163237 0.008984588 -0.092749365 -0.08174042
0001d0 da 97 98 3d 89 76 18 3c 04 72 1a 3d 53 c8 b1 3d
       0.074508384 0.009305605 0.03770639 0.08680787
0001e0 aa 1b e8 3c 7d 06 e5 3c 71 b0 d0 bb b6 0c 12 bd
       0.028333504 0.027957195 -0.0063686897 -0.035656653
0001f0 cf 51 6f 3d 21 d7 af 3a 6d 4a 19 bd d0 c9 8b 3c
       0.058427628 0.0013415554 -0.037424494 0.017064005
000200 40 15 86 bb c5 bb dd 3d 59 28 49 3d 3c 69 3b bd
       -0.0040918887 0.1082683 0.049110744 -0.045754656
000210 5c 59 cd bc d2 c2 c9 3c b4 55 8f bd de d4 5a 3d
       -0.025067024 0.02462903 -0.069987684 0.053425662
000220 7d b5 81 3c 09 c6 7b bc 2f 81 86 bc f1 66 8f 3c
       0.01583361 -0.0153670395 -0.016419021 0.017505141
000230 e3 aa 78 3d b7 e1 87 bd e8 f9 a5 3d ca 94 0c 3d
       0.060709845 -0.066348486 0.081043065 0.034321584
000240 73 a2 a4 bd b0 c9 44 bd cd ef 99 3c 83 d9 e5 3c
       -0.08038797 -0.048043907 0.018791104 0.02805782
000250 f9 1c 3a bd 05 d3 8e 3d 75 fb 2a 3d 33 51 27 bc
       -0.045437787 0.069738425 0.041743714 -0.0102122305
000260 46 5f 67 3d e8 df f3 3c 89 5e a1 3c b8 85 e4 bd
       0.056487344 0.029769853 0.019698398 -0.11158317
000270 89 3a ea bc 24 ab 02 3d 8e 1f f6 bc 90 be 7c be
       -0.028592365 0.031901494 -0.030044343 -0.24682069
000280 3c 6e 85 3c ee 82 e3 3c 2c c4 01 3c 0a d5 94 3c
       0.016287915 0.027772393 0.007920306 0.018167991
000290 3a b5 f2 3c 06 7a 59 bd a7 72 a7 bc 39 fb af bd
       0.029627431 -0.053094886 -0.020440413 -0.08592839
0002a0 f6 22 4d bd a4 cb 2b 3d 82 47 c4 3b a1 7e 8d bd
       -0.05008217 0.041942254 0.0059899697 -0.06908918
0002b0 3b a6 a6 bd 2d a0 1c 3c 48 66 b5 3d c0 f0 0c 3c
       -0.08137175 0.009559673 0.08857399 0.008602321
0002c0 e4 de ab 3c 5b 37 5f 3d 5c aa 57 3b 73 40 29 bd
       0.020980306 0.05449615 0.0032907939 -0.04132123
0002d0 eb bd 24 be d4 85 11 bc 14 c1 86 3c 20 fd 78 bd
       -0.16088073 -0.008882005 0.016449489 -0.060788274
0002e0 87 fb b6 bc 4a d2 b3 bd 2e 3a 6f 3d 38 cc 44 bd
       -0.022336734 -0.08780344 0.058405094 -0.04804632
0002f0 a5 ad 14 bd 93 1c 0e 3e 05 a9 49 3e 6b 39 cb 3c
       -0.036298413 0.13878088 0.19693382 0.024807652
000300 89 09 d1 3c 44 a5 84 3d ad ae 38 bd da df 97 bd
       0.025517242 0.064768344 -0.04508846 -0.07415743
000310 83 37 55 3d 6a fd ec 3a be 1f 72 3d 21 b5 eb 3c
       0.052054893 0.0018080894 0.059112303 0.028772892
000320 bb 0f 34 3c e3 ec 13 3d 08 7c 9e bc d0 81 0a 3d
       0.010990079 0.036114585 -0.019346252 0.033815205
000330 bf 8a 9f 3d f0 a0 a2 3c 7f 58 2c 3d 41 e4 23 bd
       0.077901356 0.019852132 0.042076584 -0.0400126
000340 49 72 1e bd 18 1a 67 bd 43 50 fc 3c f1 4f f4 3b
       -0.03868321 -0.05642137 0.03079999 0.007455819
000350 1d e0 b8 3d 0b 3c 27 bd 88 b4 5b bc 8a 9f 52 bb
       0.09027121 -0.040828746 -0.013409741 -0.003213855
000360 d8 65 14 bd 80 76 5c 3d f4 7c ae 3c 26 66 a6 bc
       -0.03622994 0.053823948 0.021299817 -0.02031238
000370 df 9d b4 bc 64 1f 11 bd 80 1e 0e 3d 2b e1 df 3c
       -0.022047935 -0.035430327 0.034697056 0.027329048
000380 47 94 2e 3e 27 90 5f be 13 36 08 be 74 2d c8 3d
       0.17048751 -0.21832334 -0.13301878 0.097742945
000390 ba c8 4e bd 9b 6d 75 bd 0a e0 b6 3d 50 f9 6e 38
       -0.050484397 -0.05991898 0.08929451 5.6975812e-05
0003a0 1c d5 45 bb 3a af f9 bd af 7c 25 bd 0e 11 7b bd
       -0.0030186838 -0.12191625 -0.04040211 -0.06129556
0003b0 f8 cf c8 bb 2e 63 81 3d d5 bb 3a 3c 96 37 17 3d
       -0.0061283074 0.06317745 0.011397322 0.036918245
0003c0 fc 35 e3 bc 6d 5f 2f 3d f3 2f a8 3c 8f aa 9e 3e
       -0.027735703 0.042815614 0.020530676 0.309895
0003d0 ca 3c 39 be ef 35 97 3b 53 4c f1 bd 47 df 9f bd
       -0.18089595 0.0046145837 -0.11782136 -0.07806259
0003e0 c1 5d 0b 3c 63 96 8a 3d 15 32 ce 3d ac 53 d9 bc
       0.008506239 0.06766965 0.10068146 -0.026529156
0003f0 14 a7 78 bd bc 34 13 bd c0 3d de 3d 58 3b 0c bc
       -0.060706213 -0.035938963 0.10851622 -0.0085590705

backbone.lstm.bias_ih_l0 f4 [512]
000000 92 ca 85 3d 8c f0 06 bd 07 9b 9f 3d 4e 08 5f 3c
       0.06532778 -0.032944247 0.07793241 0.01361282
000010 22 87 ed bc bc bb 8b 3d b9 51 30 3d 67 e6 66 bd
       -0.0289951 0.06822917 0.043046687 -0.056372073
000020 8f 8f c5 3d 7f 04 28 bb 04 45 80 3d 81 76 db 3c
       0.09646522 -0.0025637446 0.06263164 0.026789906
000030 61 fd 0d 3d 58 13 50 3d ac 9e c0 3b fc 64 0d 3d
       0.03466547 0.050799698 0.00587829 0.034520134
000040 f1 7a a3 ba 90 f7 13 3d c5 f7 b6 3c 0e fe 10 bc
       -0.0012472552 0.036124766 0.022334943 -0.008849634
000050 8d d6 aa 3d e5 17 7c 3c ab 16 92 3d f2 10 e5 b9
       0.083417036 0.015386556 0.0713323 -0.0004369091
000060 49 55 6c 3d 74 98 41 bd f9 35 73 bc 36 ec 6b 3d
       0.05769852 -0.04726453 -0.014844411 0.057598315
000070 cf 89 71 3d 17 1b a6 3d c5 86 62 3d df 6f 85 3c
       0.058969315 0.08110636 0.055304307 0.016288696
000080 36 67 09 3d f4 7d 66 3d 16 1d b8 3c 13 c0 83 3d
       0.033545695 0.056272462 0.022474807 0.064331196
000090 cc 8c fd bb b1 48 a9 3d a6 8d 66 3d b0 e5 da 3d
       -0.0077377316 0.08265818 0.05628743 0.10688341
0000a0 44 e7 9c 3d fc 08 69 bd 79 8c 9d 3d b2 1d 33 3d
       0.07661298 -0.056893334 0.07692809 0.04372949
0000b0 01 d8 99 bb 66 8e 8b 3d 21 e1 1f bb 54 ce 78 3c
       -0.004694939 0.0681427 -0.0024395662 0.015185911
0000c0 13 ca 12 3d fe 52 4b 3d ea 99 b2 bc b4 41 61 bd
       0.035837244 0.049639694 -0.021801908 -0.0549943
0000d0 6b da bb bd 31 fa 84 3d ec 1e 41 3d 2b 92 42 3d
       -0.09172519 0.06493033 0.04714863 0.047502678
0000e0 03 b4 91 3d dd aa 90 3b ee 94 f5 3d 65 05 21 3c
       0.07114413 0.0044148997 0.11991297 0.009827946
0000f0 2d 5f 2f 3d 7a 91 4d 3d cc 1a 08 bd bb c8 54 3d
       0.042815376 0.050187565 -0.03322868 0.051949244
000100 86 89 ad 3d bc fa da 3c 64 33 b1 bb 68 ab a2 3d
       0.08473496 0.026730888 -0.0054077376 0.079428494
000110 23 5b a3 3d 49 d9 ae 3c 43 f3 70 bd a0 5a a6 3c
       0.07976367 0.021343844 -0.058825742 0.020306885
000120 6a 2e 3f 3d 3c a8 4c 3d 34 ee 1d bd 39 c7 13 3e
       0.046675123 0.04996513 -0.038557246 0.14431466
000130 9e f3 f5 3c 55 9b c5 3c 01 00 2e 3d bf 5a 4d 3d
       0.030023392 0.02412192 0.042480472 0.05013537
000140 62 3a af 3c ee b8 0c 3d 93 15 d1 bb 95 de b4 3c
       0.021390144 0.03435605 -0.0063807457 0.022078792
000150 6a 61 2c 3d 4c 26 cc 3c 2a 2b 78 3d 9e aa d5 3c
       0.04208509 0.024920605 0.06058804 0.026082333
000160 30 5c f8 3c 9d 9f fc 3c e9 de f8 bb b0 5f b7 3c
       0.030317396 0.030837828 -0.0075949323 0.022384495
000170 c4 4b 99 3d 70 ec 8a 3d ac 37 06 3d c0 4b 27 3d
       0.07485154 0.06783378 0.032767937 0.040843725
000180 c9 84 8b ba 54 b9 0d 3d 1b c7 29 3d 92 b9 52 3d
       -0.0010644431 0.03460057 0.041449647 0.051446505
000190 63 05 73 3d fd 34 5b 3d bf 60 e9 bb 89 be 55 3d
       0.05933131 0.05351733 -0.0071221287 0.05218366
0001a0 91 cd 6b 3a 48 a7 4c bd 7c 70 63 3d 5a 92 ff 3c
       0.00089951704 -0.04996422 0.055527195 0.031197716
0001b0 8e 50 83 3d d1 1a 24 bd 78 5e b7 3c 0a b5 85 3d
       0.06411849 -0.040064637 0.022383913 0.06528671
0001c0 a8 60 33 bb b5 dc 9e 3d 19 bf 02 3c ce 67 fb 3c
       -0.0027370844 0.0775694 0.007980132 0.030689146
0001d0 46 0b 50 bd 60 91 9e bc 24 45 5c bc 2a 0c b3 3d
       -0.050792 -0.01935643 -0.013444219 0.087425545
0001e0 67 16 8a 3d 97 86 40 3d 3f 2f a0 3d eb 81 2b 3d
       0.06742554 0.047003355 0.078215115 0.041871946
0001f0 af 53 e3 3c e1 cf 4e bc 7d 42 69 3d da cf 80 3a
       0.027749864 -0.012622804 0.056948174 0.000982757
000200 5a 7e 39 3d 3d 9b 0c 3e 5e a4 aa 3d 67 89 e4 3d
       0.045286514 0.13731094 0.08332132 0.1115902
000210 44 94 99 3b 41 9c 55 3c 7d db 42 3d 73 f3 37 3d
       0.004686864 0.013037742 0.0475726 0.044909906
000220 4b cd be 3d eb 73 7c 3c 6e 61 9f 3d 3e 4a 20 3e
       0.093165 0.015408496 0.07782255 0.15653321
000230 80 36 df bc ad 8c cd 3c 54 21 d9 3c bb 5d a7 3d
       -0.027247667 0.025091494 0.02650515 0.081721745
000240 db 81 88 bc e5 d9 2f bc f7 24 8b 3d 3a a8 01 3d
       -0.016663482 -0.010733102 0.0679416 0.031654574
000250 99 ef de 3d ec 07 22 bd 09 90 a2 3d 49 7d 4b 3d
       0.108855434 -0.039558336 0.07937629 0.049680028
000260 23 66 eb 3d 86 55 a9 3d 40 f7 59 3d ad 3d ef bb
       0.114940904 0.082682654 0.05321431 -0.0073010535
000270 45 1c 82 3d 80 ae cc 3d 58 35 1a bd d1 28 02 3d
       0.06353048 0.09994221 -0.03764853 0.031777207
000280 4e 29 d3 3a cc 28 b3 3d 28 3e ea 3d c2 f2 b8 3d
       0.0016110332 0.08748016 0.114376366 0.090306774
000290 15 cf df ba 02 f2 e5 3d 60 ae 45 3c a0 fa 4f 3d
       -0.0017075265 0.112278 0.0120655 0.050776124
0002a0 2d ce ae 3c 5c 68 07 3b 5f 0f 24 bd 9f 82 98 3d
       0.021338547 0.0020661568 -0.04005372 0.07446789
0002b0 ac a3 6d 3d c7 71 c1 3d 68 dd dc 3c d0 68 c4 3d
       0.058017418 0.094455294 0.026961043 0.09590304
0002c0 ca 6c 07 3e 40 0b 41 3d 36 8a 9d 3d c0 9e fe bb
       0.13225093 0.04712987 0.07692377 -0.0077703893
0002d0 40 16 22 3e b8 15 f5 3d 9a 20 9d 3c c0 3e ad 3d
       0.158288 0.11967033 0.019180585 0.08459234
0002e0 f6 94 92 3d d5 5c 89 3b 63 5c 0c 3d 30 3c 8c 3c
       0.07157318 0.0041919746 0.034267794 0.017118543
0002f0 0b 1c f9 3c fc 9a d4 3c 33 7f 20 ba a0 77 bc 3d
       0.03040888 0.025952809 -0.000612247 0.09202504
000300 07 de d5 bc 02 13 0e bc be cc 6c 3d 96 61 a6 3b
       -0.026106847 -0.008671524 0.057812445 0.005077551
000310 76 21 cc 3c bf e3 70 3c 15 27 c7 3d 2d 3e 80 3d
       0.0249183 0.014702736 0.09724251 0.06261859
000320 20 e1 20 3d f5 55 e5 3d 0d 83 d7 bb 37 b4 28 3e
       0.039277196 0.11198036 -0.006576902 0.16474997
000330 81 da 06 3c 9a 1d 01 bd c9 c5 be 3d 81 86 f9 bb
       0.008230806 -0.03152237 0.09315068 -0.007614911
000340 b5 e2 b5 3d 4e d5 88 3d 80 ac 84 3c ee ce 9d 3d
       0.088811316 0.0668131 0.016195536 0.07705484
000350 2f dc 0c 3d a8 08 37 3b 88 da c4 3d 27 2f 3e bd
       0.03438967 0.0027928744 0.09611994 -0.046431687
000360 23 49 8b 3d 43 c3 95 3d 0a f1 f2 3d 9d a5 18 3d
       0.06801059 0.07312634 0.11862381 0.037267316
000370 fe 32 d8 3b 23 0b 75 3c aa 79 4a 3c 18 93 a8 3d
       0.0065978756 0.0149562685 0.012358109 0.08231181
000380 42 7d 0e 3e f8 1e d5 3c 26 46 03 3d 43 25 6c 3d
       0.1391497 0.026015744 0.03204932 0.057652723
000390 9b 75 ce 3d 40 5b 57 3d b3 df d0 3c 5a 9b 31 3d
       0.10081025 0.052577257 0.025497293 0.043361045
0003a0 e4 ce c0 3d 7b d5 42 3d a1 db 84 3d cc 59 5c 3d
       0.09414461 0.047566872 0.064872034 0.053796574
0003b0 76 9f 8f 3d 2d e4 32 3d 0c f1 5b 3d f0 bd 9f 3d
       0.07012837 0.043674637 0.053696677 0.077998996
0003c0 07 62 b0 3d 9e ee 48 3d 89 00 11 3e 07 27 0d 3e
       0.08612447 0.049055688 0.1416036 0.13784419
0003d0 e3 b3 d0 3d 4c 62 ac 3c 91 d0 83 bc 3c ee 57 bb
       0.10190561 0.021042965 -0.016090663 -0.0032948395
0003e0 ba 1b 5a 3d f9 42 db 3d a0 85 85 3d c2 10 8e 3d
       0.0532491 0.107061334 0.065196276 0.0693679
0003f0 4c 3e 90 bb 6b 79 09 3d 81 1a b2 3d 8a 9c bd bc
       -0.0044019576 0.03356306 0.086964615 -0.023145933

backbone.lstm.bias_hh_l0 f4 [512]
000000 cc a0 b1 ba 42 4b b5 bc 2f 44 19 3d 62 ed 0e 3d
       -0.001355195 -0.022130612 0.03741854 0.034894355
000010 78 6a 3f bd 3d e2 04 3d ae 58 8b 3c 6f 0c 5a bd
       -0.046732396 0.03244232 0.01701006 -0.053234514
000020 3b 74 e1 3d b4 10 db 3c 58 85 49 3d e5 c7 cc ba
       0.11008497 0.026741363 0.049199432 -0.0015623538
000030 17 c3 b6 3c 59 aa 4f 3d ca 6b 9b 3c 34 ed 55 3d
       0.022309823 0.050699566 0.018972296 0.052228168
000040 15 fb 95 bc bb cb 68 3d 2f 33 30 3d 4a d0 bc 3d
       -0.018308202 0.056834918 0.043017562 0.092194155
000050 81 e4 63 bd 95 00 c1 3c 2e 4e 0d 3d 0d 8d f0 3d
       -0.05563784 0.023559848 0.034498386 0.11745653
000060 e4 63 8f 3d c7 8e 55 bd f9 4e 9d 3c 6c cb d0 bc
       0.070014745 -0.052138116 0.019202696 -0.025487624
000070 0a 28 c1 3d d9 e0 ef 3d 55 0b ec 3b ef 87 e4 bc
       0.09431465 0.11712808 0.0072034993 -0.02789685
000080 8c 4b 2d 3d 4b e1 fa 3c 37 28 25 3d ac ad 90 3c
       0.042308375 0.030625006 0.040321555 0.017660938
000090 15 57 a1 bb fa 3a 44 3d 52 97 47 3d b7 b4 ba 3d
       -0.004923711 0.047907807 0.048728295 0.091165
0000a0 93 b9 1d bc f0 68 8c 3b 5c db a7 bb 47 79 08 3d
       -0.009626764 0.0042849705 -0.005122585 0.033318784
0000b0 dc ba a2 3d c6 cb 2f 3d f6 29 08 ba ab 69 9c bb
       0.07945797 0.042918943 -0.0005194241 -0.004773339
0000c0 e8 ed 74 3d 31 f9 da 3b 8c a2 68 3d 0f 05 f7 ba
       0.059797198 0.006682538 0.05679564 -0.0018846112
0000d0 87 af 97 bd d4 3a d7 3d dc 8b e0 bb c4 81 19 bd
       -0.07406526 0.105092674 -0.00685261 -0.03747727
0000e0 c6 90 82 39 a8 56 d6 b9 1c 8d 84 3d f1 97 4b 3d
       0.00024903397 -0.00040881825 0.06472227 0.04970545
0000f0 30 87 84 3b fd 20 96 3d 35 e0 98 bd 20 16 26 bc
       0.004044436 0.07330511 -0.07464639 -0.010137111
000100 04 cb b5 3d ab 9f 7d 3d 7c 9e ba bc c0 39 bf 3d
       0.08876613 0.06191985 -0.02278065 0.09337187
000110 13 7f 31 3d 0f 96 c7 3c 17 88 b9 bb d6 80 5a 3c
       0.043334078 0.024363546 -0.005661975 0.013336381
000120 21 a5 a8 bb 72 01 3a 3d 90 00 04 bd 74 87 bb 3d
       -0.005146638 0.045411535 -0.0322271 0.09156695
000130 c9 0c 81 3c f0 56 e8 3c 83 b6 9f 3a 59 c7 15 3d
       0.015753167 0.028361768 0.001218513 0.036567066
000140 9d 75 42 bc 73 9e 74 3d ba 8e 07 3d f4 f2 53 bb
       -0.0118688615 0.05972142 0.0330951 -0.0032340856
000150 0a bb bf bb ef f5 16 bd c2 f7 81 3d e6 16 a0 bc
       -0.005851154 -0.036855634 0.06346084 -0.019542169
000160 79 7e f2 38 1f c1 81 3c 20 a0 9d bc 4d 0b 85 3c
       0.000115630166 0.015839158 -0.019241393 0.01624074
000170 af b7 2e 3d f7 97 aa 3c f6 71 36 3d 0d f6 f7 3c
       0.042655643 0.020824416 0.044542275 0.030268693
000180 5d e3 bb bd e2 02 00 3d 0c a6 db 3c ba 7f 2a 3d
       -0.091742255 0.03125275 0.026812576 0.041625716
000190 b7 6d b1 3c ae 34 23 bb f7 99 c7 bc 1e 11 3c 3c
       0.021658761 -0.0024903226 -0.024365408 0.01147869
0001a0 3a ac 18 3d 0a 1a 5d 3b 9e fb 68 3c e6 c6 c2 3c
       0.037273623 0.0033737444 0.014220146 0.023776483
0001b0 37 f9 67 3d b5 9d 69 3d 14 e4 10 bd 1b ae 9c 3d
       0.056634154 0.057035167 -0.035373762 0.076503955
0001c0 81 4f b1 3c 02 50 d5 3d 4d da 9c 3d 15 ee cc bc
       0.021644356 0.10415651 0.07658825 -0.02501587
0001d0 5d 22 03 bd c7 41 6a bd 41 3b e3 bc 5a f9 3d 3d
       -0.032015193 -0.057191636 -0.027738215 0.04638038
0001e0 33 84 2b 3d 34 db 01 3d 1e 92 59 3d 4d c0 8c 3d
       0.041874122 0.03170319 0.053117864 0.06872616
0001f0 18 ee 89 3d fe 88 26 3d cb 72 6c bc bb 32 94 b6
       0.06734866 0.04065799 -0.014431666 -4.4166495e-06
000200 ef b5 3f 3d 1b 9f 17 3e 9d 90 03 3e 9b 7a 4f 3d
       0.046804365 0.14806788 0.12848134 0.050654035
000210 6d a5 8e 3d f4 52 30 3d 30 7f 29 3d a2 7a c7 3d
       0.06965146 0.04304786 0.04138106 0.09740187
000220 d3 c4 e9 3d 7e 92 ac bb e6 a5 9c 3d b0 cd 20 3e
       0.11414494 -0.0052664867 0.0764883 0.15703464
000230 06 f0 3d bc a0 c7 bf 3d 56 00 05 3e c6 ab ab 3d
       -0.011592871 0.09364247 0.1298841 0.083823726
000240 69 16 d4 3b 4d 36 a5 bc b0 1b 59 bb c3 f7 e1 3d
       0.006472398 -0.020167494 -0.0033128075 0.11033585
000250 79 5c cc 3d 17 96 05 bc d2 31 c9 3d 0a 0b 15 bd
       0.09978575 -0.00815346 0.098239556 -0.03638748
000260 98 de d3 3d 91 7e 2d bc c3 9a 07 3d e3 03 40 bc
       0.10345191 -0.010589258 0.033106577 -0.011719677
000270 56 87 aa 3d 11 2e 00 3e 00 ca 34 3b 3f 13 07 3d
       0.083265945 0.12517573 0.0027586222 0.03297734
000280 a4 cb 97 3d 6d 7e a3 3d 5a 03 0f 3e 36 11 63 3d
       0.07411888 0.07983098 0.13966122 0.055436336
000290 e9 5f e4 bc f3 89 09 3d e8 cb 86 3c d8 99 86 3c
       -0.027877765 0.033578824 0.016454652 0.01643078
0002a0 58 7b 00 3d 8d e0 40 3c be c7 0a bd a7 b0 d5 3b
       0.03136763 0.011772287 -0.033881895 0.0065213027
0002b0 cf 78 ac 3d 86 d3 5d 3d e6 a7 26 3d 68 6c 8b 3c
       0.0842148 0.054156803 0.040687464 0.017019466
0002c0 79 ad 88 3d dc 8a 06 3e 55 3f 92 3d 74 bd 11 bc
       0.06673712 0.13138908 0.07140986 -0.008895267
0002d0 42 e0 99 3d b9 34 da 3d 10 98 b2 3d 32 d5 fa 3d
       0.07513477 0.10654587 0.0872041 0.12247695
0002e0 7a c4 8d 3c 57 a4 f3 3c 31 f3 a3 ba a8 3a 85 3c
       0.017305601 0.02974145 -0.001250839 0.016263321
0002f0 80 02 68 3d 8a 5f bd 3c 40 26 f1 3d a1 c7 05 3d
       0.05664301 0.023116846 0.11774874 0.032661084
000300 ba 1a f0 3c 2a 6c 43 3d 71 50 2c 3e 99 50 36 3d
       0.02930962 0.047710575 0.16827561 0.044510458
000310 b9 c1 56 3d 49 0b 9f 3d b4 48 e0 3d 37 3a 10 3d
       0.052430842 0.07765824 0.10951367 0.035211768
000320 e0 56 24 3d 94 6c b7 3d 51 34 45 3d 00 d2 58 3d
       0.040121913 0.089562565 0.048145596 0.052934647
000330 af d6 d1 3d 53 47 1b bd 0f 55 95 3d e3 2c 32 3d
       0.10246026 -0.037909817 0.07291614 0.04349984
000340 d5 6b cd 3d de 8b ca 3d 76 2e d8 3d b6 b1 00 3d
       0.10030333 0.09889959 0.10555737 0.03141948
000350 08 4b fc 3c ff da 95 3d 5f 18 a2 3c 7b 15 9e 3d
       0.030797496 0.07317161 0.019787012 0.07718941
000360 ba 88 58 3d e6 bf 8d 3c 98 5d 51 bc f3 30 b3 3d
       0.052864768 0.017303418 -0.012778662 0.08749571
000370 73 18 27 bd f1 88 9f 3d f8 fa 9d 3c 00 4a 0e 3e
       -0.0407948 0.077897914 0.01928471 0.13895416
000380 50 0c e9 3d 73 b2 fe 3d 4a 9f 82 3d 3e e2 9d 3d
       0.113793015 0.1243638 0.06378038 0.07709168
000390 be f0 33 3d 5f 59 03 3e ad 39 02 3d d9 8e b3 3d
       0.04393076 0.12827061 0.031793285 0.087674804
0003a0 d2 d5 7e 3d ec 35 30 3d 79 31 87 3d a9 41 78 3d
       0.062215634 0.043020174 0.06601233 0.060609493
0003b0 52 67 69 3d 06 1f 3d 3d d3 f9 34 3d 34 6e 0c 3e
       0.0569833 0.046172164 0.044183563 0.13713914
0003c0 5e 9e d4 3d 7a 0f 7a 3d b8 33 19 3e e6 2f 1e 3e
       0.10381769 0.061049916 0.14961135 0.1544796
0003d0 b2 f8 9b 3d cb 25 11 3a 4c 5e 83 bc 97 90 71 3d
       0.07615794 0.00055369426 -0.016036175 0.058975782
0003e0 86 df 02 3d 20 2d db 3d 10 01 a2 3d 77 96 fa 3d
       0.03195145 0.10701966 0.07910359 0.1223573
0003f0 9d a7 78 3d 93 65 bf 3d 0a df 91 3d 35 31 74 bb
       0.060706723 0.093455456 0.071226195 -0.0037260775

backbone.output1.weight f4 [128, 128]
000000 ff 3a 81 28 dc a5 d8 27 58 fb be a4 ff 1a 53 32
       1.4347462e-14 6.013187e-15 -8.282516e-17 1.2287955e-08
000010 64 eb 64 21 4a e0 da 1c cb ea f0 35 5f 62 f3 1c
       7.756094e-19 1.4484007e-21 1.7949727e-06 1.6105819e-21
000020 70 5b 9b b1 6f 59 ac 9e 0a a5 9b 24 e0 ec 42 0f
       -4.521489e-09 -1.8248197e-20 6.750012e-17 9.610559e-30
000030 e4 28 ee 26 d8 3b 4a 2d 21 79 7f ae 56 15 46 25
       1.6525651e-15 1.1495659e-11 -5.808787e-11 1.7180991e-16
000040 e1 2e 41 25 0f 45 aa ad 62 ca 71 a6 31 d4 42 ae
       1.6755965e-16 -1.935743e-11 -8.388795e-16 -4.4298957e-11
000050 19 64 bf 33 14 93 6d 30 cc f3 a4 28 47 c6 d9 ac
       8.912338e-08 8.642911e-10 1.8313388e-14 -6.189524e-12
000060 8b 88 04 b0 f6 8a 01 b6 66 b9 fb 91 2b e8 d8 a6
       -4.821536e-10 -1.9303384e-06 -3.9715078e-28 -1.505094e-15
000070 c6 8d 92 2a fb 3d c4 2c fe cd 63 a6 ad 1d 26 36
       2.6033185e-13 5.5775363e-12 -7.9035617e-16 2.4753201e-06
000080 15 49 6a 99 49 8a 07 aa 94 7f 15 b6 63 1e dc 33
       -1.2112275e-23 -1.2038386e-13 -2.227699e-06 1.02500756e-07
000090 40 ee 57 33 82 ad ca aa cd f2 12 30 9d b8 72 2f
       5.0275275e-08 -3.6002803e-13 5.345953e-10 2.207536e-10
0000a0 79 e6 f1 af fb 98 b7 26 e9 8f 44 ae 1b fc 3d b2
       -4.4001405e-10 1.2739641e-15 -4.469306e-11 -1.105857e-08
0000b0 5c f3 1f b3 e2 15 d0 2d b3 b5 d3 2e 2b 2e a9 af
       -3.7241406e-08 2.365658e-11 9.6274454e-11 -3.0773725e-10
0000c0 26 a5 f6 ab 89 1d 48 22 5c c3 bb ad ea e6 f7 b2
       -1.7525189e-12 2.712069e-18 -2.1346196e-11 -2.8859592e-08
0000d0 5d 48 a2 2e 87 5c 96 af 71 00 48 13 63 d9 12 2b
       7.3797614e-11 -2.7350586e-10 2.5243767e-27 5.2171304e-13
0000e0 06 8a 1d a8 e7 8e bb a3 fc 35 94 2e 08 0e a9 a0
       -8.74518e-15 -2.0335102e-17 6.73985e-11 -2.8639e-19
0000f0 93 5f 5c 34 ed 1a 94 33 a6 b9 c1 a4 fa 26 e0 27
       2.0523866e-07 6.896685e-08 -8.401491e-17 6.2214748e-15
000100 ec 68 50 27 09 de c7 36 c7 ba ff ad a7 16 b4 b4
       2.8922677e-15 5.9565104e-06 -2.907309e-11 -3.3544094e-07
000110 f5 d9 5b 97 72 34 99 28 69 68 e0 31 8c a0 5b ad
       -7.1037817e-25 1.7009157e-14 6.531128e-09 -1.2484357e-11
000120 92 d6 c3 b1 06 90 41 a2 4e 1b b7 2d ea f0 31 a0
       -5.6996408e-09 -2.6232623e-18 2.0816817e-11 -1.5072195e-19
000130 39 be 68 32 bd 7f 2a a4 f7 ed 84 24 ad 92 8f b0
       1.3547429e-08 -3.6971072e-17 5.7649e-17 -1.0446307e-09
000140 66 3e 11 b3 a7 8e 97 28 75 e6 04 a1 6e e0 48 2d
       -3.3817194e-08 1.6826233e-14 -4.5028347e-19 1.1418517e-11
000150 32 e6 6a af 30 25 29 b7 0c 37 09 2c 4b 79 b1 a2
       -2.1363958e-10 -1.0081843e-05 1.9499428e-12 -4.810437e-18
000160 d5 04 a7 a0 c1 fc d2 a0 2d 49 4e 32 2a e6 48 b4
       -2.8294098e-19 -3.5742642e-19 1.2007416e-08 -1.8710185e-07
000170 51 47 3a 2e e8 06 e7 ad a4 7b b9 b1 cc ce a0 ae
       4.2354845e-11 -2.6264727e-11 -5.398265e-09 -7.312692e-11
000180 db 54 66 a9 bb f9 47 12 e0 a5 fb 2a c8 04 a0 2c
       -5.114386e-14 6.3101145e-28 4.4701656e-13 4.5480043e-12
000190 d2 e2 8b 2f 4f ff 07 b4 eb 60 f5 1d 25 9c a6 9d
       2.5445118e-10 -1.2665735e-07 6.495117e-21 -4.4101284e-21
0001a0 ec fd 0c 33 c8 77 68 2c c1 18 95 34 55 d1 44 a2
       3.282723e-08 3.3035675e-12 2.7771424e-07 -2.6673773e-18
0001b0 0f 85 f1 ae ce a8 c3 2b 1e 7c 07 2f d4 02 6f b4
       -1.0983047e-10 1.3902436e-12 1.2322274e-10 -2.2259638e-07
0001c0 a7 c6 36 30 69 86 bd 2a de 13 6c 2a 01 52 de 9f
       6.6493516e-10 3.366641e-13 2.0967904e-13 -9.415632e-20
0001d0 a6 7d d7 8d 15 e3 fb 2e 0e d4 b2 2e c0 32 0b b7
       -1.3280647e-30 1.14544964e-10 8.132171e-11 -8.296862e-06
0001e0 55 1f 7d 32 25 6c 15 b4 ec 94 2b 2f 2e 38 84 b5
       1.4733662e-08 -1.3916049e-07 1.5605267e-10 -9.851117e-07
0001f0 1a b7 25 20 83 2f 38 ae 7e 8c 20 31 75 81 12 26
       1.4036627e-19 -4.1878955e-11 2.3362925e-09 5.082937e-16
000200 08 9e d4 3c 5a b2 0c 3e f5 71 58 3d 62 88 fb 3b
       0.025954261 0.1373991 0.052843053 0.00767617
000210 99 fd 96 3d 26 41 e3 bd 9e 9c e8 bd be bb 5b bd
       0.07372589 -0.110964105 -0.11357997 -0.05364584
000220 f7 ba 71 3d 64 ee b1 3a f8 44 5b bc 7d 45 ab bb
       0.059016194 0.0013575074 -0.013383143 -0.0052267895
000230 b8 94 16 be 73 44 ce bd 34 d3 9a 3d 07 de 79 3d
       -0.14705169 -0.100716494 0.07559815 0.061002757
000240 ff 03 83 3d 95 82 17 3e e7 ed bf bd ce e0 11 3d
       0.063972466 0.14795907 -0.09371548 0.03561478
000250 52 32 0c 3e 5f 6c 0f be e8 94 f9 bd f5 88 ed bc
       0.1369107 -0.14006184 -0.12186605 -0.02899597
000260 76 83 e8 bc b0 8a 39 bd 7e 8f ef bc a8 1a ae bd
       -0.028382998 -0.04529828 -0.029243227 -0.08501178
000270 07 d4 1a 3e f9 e8 09 3d 0f 13 2a bc 7a e2 d6 3d
       0.15119945 0.033669446 -0.0103805205 0.10492416
000280 66 27 05 bd be 90 9a 3d bd 25 0a be d0 f4 33 bb
       -0.032508276 0.07547139 -0.13490959 -0.0027459152
000290 b4 ef c9 bd f8 dd 75 bd fd 1a 45 bd 0e b9 cc bd
       -0.09860173 -0.06002614 -0.04812144 -0.09996234
0002a0 7c 1a b5 3d 87 29 f6 3c 24 35 12 3e 41 2b 3d bd
       0.08842942 0.030049099 0.14278084 -0.04618383
0002b0 5a 58 29 bd 2a df 9e 3d 05 82 7f bb db a4 cd bd
       -0.041344024 0.07757409 -0.003898741 -0.10041209
0002c0 6e a5 dd 3d 55 49 82 3c 60 d5 25 3c 76 6a d0 3d
       0.10822569 0.015904108 0.010121673 0.10176556
0002d0 df b6 92 3e 34 f9 f4 3d 85 52 d5 3c 96 6a 08 3d
       0.28655145 0.11961594 0.026040325 0.033304773
0002e0 9d 4e 3a 3c c6 1b 1c 3e 66 7b 00 bd 07 cc 00 3e
       0.011371282 0.1524497 -0.031367682 0.1257783
0002f0 fa ad cb bd 7e bd 99 bd 97 7d ad bd 5c 4c 45 3d
       -0.09945293 -0.07506846 -0.0847122 0.048168525
000300 1b 80 00 3c dc 89 24 bd 7c 16 66 3e 1c 3d cb 3c
       0.007843043 -0.040170535 0.22469515 0.024809413
000310 9f 36 d8 bd 84 da cb 3c 0b 29 df bd 2b b8 2d 3a
       -0.10557293 0.02488447 -0.108965 0.00066268694
000320 ee 8a 53 3d 34 5e 0d be c6 6e c2 bd 4c c9 05 be
       0.051646166 -0.13805467 -0.094937846 -0.1306507
000330 d5 94 2d be a8 d4 89 bc 54 0d f0 3d c0 73 d5 3c
       -0.16951306 -0.016825035 0.11721292 0.02605617
000340 c5 cc 4c 3e ca 64 42 bd 3d 14 00 bd 60 cf 25 3b
       0.19999988 -0.0474594 -0.0312693 0.0025300607
000350 72 f4 d4 bd 20 08 f2 3d 58 e2 b4 bc 0b ac f0 3c
       -0.10398187 0.11817956 -0.022080585 0.029378911
000360 d9 0c cd bd ce 28 fb 3d 8b be e4 bd 1f 14 0f 3d
       -0.10012216 0.12263642 -0.11169156 0.0349313
000370 7f 22 ec 3d 41 fb ab bc 7f 93 08 be d8 01 f4 bc
       0.11530017 -0.02099383 -0.13337515 -0.029786035
000380 d1 ef 0e be ec 4e 17 3e c8 5b c3 3c f1 08 7d 3c
       -0.1395867 0.147762 0.023847476 0.015444026
000390 68 45 25 bd 22 16 3c bd f9 74 24 bd 86 71 89 3d
       -0.040349394 -0.045919545 -0.040150616 0.06711106
0003a0 d0 a8 0f 3e bf 4f 01 bd 30 e4 6f bd cb 2b c9 bd
       0.1402924 -0.031570192 -0.058567226 -0.09822806
0003b0 b4 ac 09 3e 72 f7 87 3b 46 41 96 bc d9 9b 08 bd
       0.13444787 0.004149371 -0.018341672 -0.033351753
0003c0 52 0a 42 3d 4f 54 cf bd da ad 68 bd e2 d3 64 be
       0.047373123 -0.101235025 -0.056806423 -0.22346452
0003d0 10 92 23 3e e0 59 fd 3d ad 65 00 3e 24 4d 56 bd
       0.15973687 0.12370658 0.12538786 -0.05231966
0003e0 ec 68 01 3c bd 6d 29 bc 94 3b 49 3d 48 83 a2 bd
       0.0078985505 -0.010341105 0.049129084 -0.07935196
0003f0 a5 4f fb 3b 74 20 b0 bd 43 c9 85 bd 24 20 64 3c
       0.0076694065 -0.0859994 -0.06532528 0.013923679

backbone.output1.bias f4 [128]
000000 11 c7 26 bc 35 eb 1b bb e9 dc ab 3d e3 15 81 3d
       -0.010179297 -0.0023791317 0.08391745 0.06303003
000010 f2 aa 11 3d 78 ef 05 3d e7 67 85 3d 19 21 00 3e
       0.035563417 0.03269908 0.065139584 0.12512626
000020 5d 8c 06 3e 9a a5 c2 3b 88 88 0a 3e b6 66 4e 3d
       0.13139482 0.0059401514 0.13528645 0.05039092
000030 b4 e7 a7 3d f8 b8 b8 3d 78 d7 ce 3d df a7 91 3c
       0.08198491 0.09019655 0.10099691 0.017780242
000040 76 35 55 3d 39 ec 3e bc 93 44 fc 3d 29 14 05 3e
       0.052052937 -0.011653 0.12317767 0.12995972
000050 9e 28 b3 3d f6 8d 05 3d 43 9e e1 3d 25 13 c1 3c
       0.087479815 0.032606088 0.11016514 0.0235687
000060 7a 46 13 3d 43 24 04 bd bc 43 8c 3c ae 34 ac bc
       0.035955884 -0.032261144 0.017122142 -0.021021213
000070 92 17 12 3e 9f ba 95 3c d8 e3 f2 3d bd f4 06 3e
       0.14266804 0.018277464 0.11859864 0.13179298
000080 b0 11 f9 ba 03 f1 39 3d 4e ea 62 3d 4d f7 0d 3e
       -0.0019002464 0.045395862 0.05539923 0.13863869
000090 0b 37 0e 3e f3 0b 46 bc b2 b7 94 3d 95 b2 94 3c
       0.13888185 -0.01208781 0.072615996 0.01815156
0000a0 e4 45 7e 3c 2e 19 33 3d 1c 97 07 bc ff 50 35 3d
       0.015519593 0.043725185 -0.008275773 0.044266697
0000b0 a6 0d 40 bb 01 05 9d 3c fc 5e 90 bc b0 4e af bc
       -0.002930501 0.019167425 -0.017623417 -0.021399826
0000c0 5f f1 48 bc b5 5a 04 bd f3 e7 6c bd 7f a0 a8 bc
       -0.012264579 -0.032313067 -0.05783839 -0.020584343
0000d0 94 03 0f 3c f2 95 80 bc 54 45 36 bd 6b 1a 33 3c
       0.00872888 -0.0156965 -0.04449971 0.0109315915
0000e0 d2 48 4c bd 21 9e e3 bc a4 93 06 bd 14 82 d7 bc
       -0.049874134 -0.027785363 -0.032855645 -0.026307143
0000f0 4f fb c6 3b ae 3e 48 bd 40 46 de bc 4b 80 a4 bb
       0.006072439 -0.0488879 -0.027133107 -0.0050201765
000100 c5 81 3d bd d9 45 04 bd 42 59 1b bd 90 38 e3 bc
       -0.046266336 -0.032293174 -0.03792692 -0.027736932
000110 0f a4 72 bc 49 06 50 bc 22 73 bc bc 26 69 04 bd
       -0.014809622 -0.012696811 -0.023004118 -0.03232684
000120 b8 fa 1b 3d 63 c1 ce bc 86 c1 16 3d 52 ad 44 3b
       0.0380809 -0.025238698 0.036805652 0.0030010534
000130 12 6f 8b 3b 30 6e 82 bc d9 ff 01 bd 81 97 22 3d
       0.004255184 -0.015921682 -0.031738136 0.039695267
000140 26 e0 a0 bc 26 5b 10 bc 6d 7d 2e bd 7f 37 16 bd
       -0.019638132 -0.008810794 -0.042600084 -0.03667402
000150 f9 64 20 bc 2c f2 bd bc af 2c 15 bd 2e 5f 2a bd
       -0.009789699 -0.023186766 -0.036419567 -0.041594677
000160 0e ed d3 bc b9 69 cb 3b 51 25 a9 bb 40 79 2e 3d
       -0.025869872 0.0062076715 -0.005161919 0.0425961
000170 c8 84 c6 bb 60 d2 aa bc 6b 76 b1 bc a8 42 a2 bc
       -0.006058309 -0.020852268 -0.021662911 -0.019807175
000180 23 12 26 3d 5a fc bc 3b bd 34 1a bd d5 9a ca bc
       0.04054464 0.0057673873 -0.03764795 -0.024732033
000190 0f 36 16 bc 14 7a 19 bd 16 91 2c bd 2c e0 88 bc
       -0.009168162 -0.03746994 -0.042130552 -0.016708456
0001a0 57 17 5d ba c0 c3 08 bd 32 33 01 3d be 74 1b bd
       -0.0008433959 -0.033389807 0.031542964 -0.03795313
0001b0 be ce 87 bc 4a 39 d1 bc 44 48 36 3d d6 d3 a1 3b
       -0.016578075 -0.025540013 0.04450251 0.004938583
0001c0 83 83 74 bc 65 02 10 bd 7e 3a 75 bc be b6 a2 bc
       -0.014923933 -0.035158534 -0.014967559 -0.019862529
0001d0 d5 7f fd 3c 05 2e e6 bc 1a e9 83 bc 80 95 fb bc
       0.030944744 -0.028098116 -0.016102362 -0.030710936
0001e0 36 9c fe ba 6c e0 19 bd 0b 7c 3e 3d b1 a0 fa 3b
       -0.0019425217 -0.03756754 0.046505015 0.0076485504
0001f0 26 02 b7 bb 76 e8 ad 3c 96 c6 52 bc 96 12 d8 bc
       -0.005584973 0.02122901 -0.012864729 -0.02637605

classifier.0.weight f4 [40, 128]
000000 d1 22 69 3c d6 42 47 3d 42 c5 80 bd df 2a aa bd
       0.014229492 0.048647724 -0.06287624 -0.08308958
000010 97 f9 c1 3c f1 e9 39 3d bb d5 77 bc fe 9d 96 3d
       0.023678584 0.04538912 -0.015126641 0.07354353
000020 48 82 d7 bc a1 13 3a bd 9d e5 8a bd 6b 44 36 3d
       -0.02630724 -0.045428876 -0.067820765 0.044498842
000030 5f 44 b3 3d cb 38 2c 3d ce 4b 7c bd 49 0d 60 bd
       0.08753275 0.04204635 -0.06159573 -0.05470017
000040 1b 71 95 3c 5e 2c 03 3c ac 6e b3 3c 7e 50 52 bd
       0.01824241 0.008006183 0.021903358 -0.051346295
000050 3f de 90 bd 0e 04 76 3d 14 bf 41 3c 23 9f 73 bd
       -0.0707364 0.06006246 0.011825342 -0.059477936
000060 fe 34 9c 3d 0b 97 9e bc d4 98 9b 3d 74 b5 65 bd
       0.07627295 -0.019359132 0.07597509 -0.05608125
000070 64 8b 78 3d 8c c7 b4 bd 40 53 4a bd 0f b1 b2 3c
       0.06067981 -0.08827123 -0.0493958 0.021812944
000080 2b da 2a bd a1 26 54 bd a1 05 b2 3d c1 4a 63 bc
       -0.041711967 -0.051794652 0.0869248 -0.013872803
000090 f0 c6 46 3d c4 43 23 3d b7 c0 9f bc 60 49 98 bd
       0.048529565 0.03985955 -0.019501073 -0.0743587
0000a0 f4 e8 f7 bb 76 74 5d bc 50 e2 60 3d 71 cd a5 3d
       -0.007565612 -0.013516536 0.05490333 0.080958255
0000b0 23 fe 81 3d d2 90 77 3d f1 32 a7 3b f5 0d 2a bc
       0.06347301 0.060440846 0.0051025082 -0.010379304
0000c0 39 0f 97 bd 12 24 ff 3c 76 30 50 bd 8c 3b 21 bc
       -0.0737595 0.03114513 -0.050827466 -0.009840857
0000d0 9b d7 c5 bc dd 99 ac 3c b1 aa 6d 3c 98 33 1a 3d
       -0.02415066 0.021069461 0.014506028 0.03764686
0000e0 bc ee b4 3d bf d3 4e 3d df c2 1c 3c 55 45 9d bd
       0.088345975 0.050494906 0.009567945 -0.0767924
0000f0 21 c9 ca bc 98 ea 7a 3d 4d e1 9a bd 24 00 8a bd
       -0.024754109 0.061258882 -0.07562504 -0.06738308
000100 cf 46 af 3d 2c f6 a2 3d f4 ac a4 bd e7 9b 83 bd
       0.085584275 0.0795711 -0.08040801 -0.064262204
000110 b9 9b 56 3d ef 58 99 3d b1 21 ad 3d b9 35 73 3d
       0.052394602 0.07487666 0.08453692 0.059377406
000120 91 5e 08 bc 53 60 89 bd 89 aa 5f bd 79 66 7f 3d
       -0.008323328 -0.067078255 -0.054605994 0.062353585
000130 5c cd 91 3d 74 8e 9b bd 75 02 0a 3c ad e4 36 3d
       0.07119247 -0.0759553 0.008423437 0.044651676
000140 bb 0e ad bd a1 21 3c bd d0 21 b0 3c c1 d6 8b 3d
       -0.08450075 -0.04593051 0.021500498 0.068280704
000150 34 a0 ae 3d bc 14 94 3d ec 0b 80 bc c8 aa 02 3d
       0.0852665 0.07230517 -0.015630685 0.03190115
000160 04 16 f7 3c 9b b9 26 bd 9a 57 86 bd 2b 4d de 3c
       0.030161865 -0.04070435 -0.065596774 0.027136406
000170 28 e9 84 bd 53 93 56 3d bc 47 14 3d bd 62 1e bd
       -0.064897835 0.052386593 0.036201224 -0.038668383
000180 6d 05 2c bd 64 c3 6e bd 3e 69 a4 bd a1 fe 71 3d
       -0.041997362 -0.058291808 -0.08027886 0.059080724
000190 cd 91 5a bd 9b 9e 04 3d 4d 66 76 bd 4b fd 0c 3c
       -0.053361703 0.03237782 -0.060156155 0.008605312
0001a0 4e 63 95 3d 71 0f f5 bc cd 54 85 3d d6 80 85 bc
       0.072943315 -0.02991459 0.06510315 -0.016296785
0001b0 31 e1 b1 3c ef 09 a6 3d 16 5c 92 bb 84 26 02 bd
       0.021713825 0.081073634 -0.004466544 -0.031775013
0001c0 10 d1 ae bd 42 45 45 bd 63 ec 65 bd bc 28 18 3d
       -0.08535969 -0.048161753 -0.05613364 0.037148222
0001d0 5d 92 34 bd f3 27 9f 3d e0 13 c8 3c 49 1b 7d 3c
       -0.044084895 0.077712916 0.02442354 0.0154484
0001e0 9d e6 57 3d bb 30 f3 bc ae 3d de bc fd 37 34 3d
       0.052710164 -0.029686322 -0.02712902 0.043998707
0001f0 b5 17 53 3c 40 93 4f 3b fa ce cb bc 71 cc 05 3d
       0.01288407 0.0031673461 -0.024878968 0.032665674
000200 a8 07 8f bd cf 72 b0 3d 07 7e 3c 3c 85 da 3f 3d
       -0.06983882 0.08615648 0.011504657 0.046839256
000210 a4 f1 87 bd 87 c0 40 bd 9a f4 51 bb 0b c1 95 bd
       -0.06637886 -0.04705861 -0.0032036663 -0.07312211
000220 6e 30 54 3c d7 8c c3 bc 0c 8f 86 bd e6 f0 f5 3c
       0.012951 -0.023870869 -0.06570253 0.030022096
000230 2b 1c a7 bd 94 4e 61 bd 62 a8 d6 bc c3 cc 5b bd
       -0.081596695 -0.05500658 -0.026203338 -0.053662073
000240 81 81 0c bc 6d c4 a7 3b d9 30 15 bd 20 89 83 3d
       -0.008575798 0.0051198513 -0.036423538 0.06422639
000250 c6 65 9e 3d bc b4 2e bd 8a 86 94 bd c6 57 1b bd
       0.077342555 -0.04265283 -0.07252224 -0.037925504
000260 c7 59 31 3c 27 4c a4 3d e8 67 bc bc 4b 7a cd bb
       0.010824627 0.080223374 -0.022998765 -0.006270682
000270 3d cc e4 3c 34 f8 5b 3d 0c 19 13 3d 6f c9 88 bd
       0.02792942 0.0537035 0.03591256 -0.066790454
000280 16 c6 4d 3c cb f4 6b bd fd 1e 9a 3d e8 67 a3 bb
       0.012559434 -0.0576065 0.07525442 -0.004986752
000290 5c c0 ac bd 19 7b b4 bd ab 03 93 bb 18 03 95 3d
       -0.08435127 -0.088125415 -0.0044865212 0.07275981
0002a0 18 b0 99 bd 44 37 e3 bc b8 2d 3b bd ab 8b 82 bd
       -0.0750429 -0.027736314 -0.045697898 -0.06374296
0002b0 87 63 96 bd a3 dc 99 3d 8b 9b b9 3c 91 e0 a1 bd
       -0.07343202 0.07512786 0.022657176 -0.07904161
0002c0 cc 94 f1 bb 25 1c c7 3a f3 75 92 bd f9 c2 05 3c
       -0.0073724743 0.0015190883 -0.07151403 0.008164161
0002d0 95 f2 f4 bb 1e 82 85 bd 8c 16 77 3c c0 9f 61 bd
       -0.007475207 -0.065189585 0.015081059 -0.05508399
0002e0 89 e8 44 3c 55 30 0c bd 1b 67 13 3c cc a6 d1 3c
       0.012018331 -0.03422578 0.00899675 0.02559223
0002f0 0f 6f 99 bd 74 db 85 3a be d1 a7 3d 43 db 0c bc
       -0.07491886 0.0010212497 0.08194302 -0.008597198
000300 1e 9a 8e bd 6a 25 85 bd 15 ad 3e bc d3 7e 2f 3c
       -0.06962989 -0.06501277 -0.011637946 0.01071139
000310 23 be 98 3d 2d 20 89 bd 57 06 9b 3d f8 be a2 3d
       0.07458141 -0.0669559 0.075695686 0.07946581
000320 df f6 a6 bd 88 e8 19 3d 29 8d 56 bd 02 ff b0 3d
       -0.08152556 0.037575275 -0.052380715 0.08642389
000330 f2 ff a2 3d 53 f4 7f bd 5e d7 70 bd 5c 1d 80 3c
       0.07958974 -0.062488865 -0.05879914 0.015639
000340 3c 98 2f bd bd 73 43 bd 63 56 aa bd 28 50 74 3d
       -0.04286979 -0.0477178 -0.08317258 0.059646755
000350 aa 6b a8 bd b1 18 85 3c 93 6f 27 bc 70 a3 95 bd
       -0.0822366 0.016247125 -0.010219472 -0.07306564
000360 4e a4 39 3d e6 63 3e bd b7 89 81 bc f1 03 d5 bc
       0.04532271 -0.04648199 -0.015812738 -0.026002856
000370 ad 76 87 3d de 6b 9f bd 6a fe 4a 3d 98 c5 43 3d
       0.066144325 -0.07784246 0.049559034 0.047795862
000380 9f b0 6e bd 8c dc 3e 3c b0 57 8b 3d a7 a9 02 bd
       -0.058273908 0.011649262 0.068038344 -0.031900074
000390 88 08 67 3b e5 e5 7d 3d ac 04 aa bd fb 36 6f 3c
       0.0035252888 0.061986823 -0.08301672 0.014600511
0003a0 c5 01 ce bc 9f 0c 6b bc 94 c2 61 3d eb c2 ce 3c
       -0.025147328 -0.014346271 0.055117205 0.025239429
0003b0 92 f2 90 bd 61 ce 5e 3d 9a a0 59 3d ab 16 03 3c
       -0.070775166 0.054396037 0.053131677 0.00800101
0003c0 c5 ff 14 3c a4 cb 12 bd c4 98 2f bc 58 95 76 bd
       0.009094183 -0.035838738 -0.0107175745 -0.06020102
0003d0 db f3 99 3d aa fa a5 bb d8 db 88 3d 2c bf e1 bc
       0.07517215 -0.005065282 0.06682557 -0.027556978
0003e0 8e e5 24 3d ec d7 b7 3c 33 62 bd bc 26 27 0a bd
       0.040257983 0.022441827 -0.023118114 -0.03372874
0003f0 f4 21 20 3d 15 1a 38 bc 89 90 a0 bc 47 41 86 bd
       0.03909488 -0.011236687 -0.01960017 -0.065554194

classifier.0.bias f4 [40]
000000 63 35 61 3d 7e cd 80 bc be a7 04 bd c5 50 eb bc
       0.054982554 -0.015722986 -0.032386534 -0.028725037
000010 1b da 05 bd e5 e7 81 bc e5 68 26 3d 6c c0 0d bd
       -0.032678705 -0.015857646 0.04062738 -0.034607336
000020 00 82 e3 3c 11 70 15 bc 8e 5d ab bd 04 9a a0 b9
       0.02777195 -0.009120957 -0.083674535 -0.0003063233
000030 cd 3f 81 bd d9 30 26 3b 3a ff 90 bd 72 3f a5 bd
       -0.06310997 0.0025358705 -0.070799306 -0.08068742
000040 9a a2 ee 3c 30 5f dc 3c b6 81 54 bd 6a 89 34 bd
       0.029130269 0.026900858 -0.051881514 -0.04407636
000050 ce 2f 07 bd b2 1c e5 bc a2 17 e1 bc dc e9 a6 3d
       -0.033004574 -0.027967785 -0.02747709 0.08150074
000060 9e a4 32 3d 18 c7 99 3d 9a 34 93 bd 36 4e 4c bc
       0.043614022 0.07508677 -0.07187767 -0.012469819
000070 fd 1f 30 bd 43 9a 99 bd 05 36 e5 bb d6 94 a2 3c
       -0.042999256 -0.07500126 -0.006994965 0.019846361
000080 ac 36 21 3d 2e 90 03 3d 95 08 66 3d 74 16 1b bd
       0.03935878 0.032119922 0.05616053 -0.03786321
000090 1d 8f a1 bd cf 0d 5b bc d4 73 80 bd a0 2c a2 bb
       -0.07888625 -0.013369991 -0.062720925 -0.0049491674
