Experiment/EEGClassification/classifier_classic_LSTM_embed_128/model.pth (torch, 617165 bytes, 8 tensors)

backbone.lstm.weight_ih_l0 f4 [512, 128]
000000 fd 0a 91 bd e7 2e 63 be e5 a4 4d be 15 d6 21 3d
       -0.07082174 -0.2218586 -0.20082434 0.039510805
000010 d9 65 3e 3d 88 25 c3 3d 14 82 f4 3d b1 53 e2 3d
       0.04648385 0.09528643 0.11938873 0.11051119
000020 00 da 17 be bb 69 7c bd 72 2b 32 3e 23 39 7a 3d
       -0.14829254 -0.06162427 0.17399386 0.061089646
000030 24 e7 4f 3d 3b 73 0a 3d 06 c5 11 3e 30 14 3e bd
       0.050757542 0.0338013 0.14235315 -0.04640597
000040 b1 26 85 3d 65 6c 06 3d cb 9a 0a be ab 9d 27 3e
       0.065015204 0.032818217 -0.13535611 0.1636874
000050 b4 47 41 3d 2e f6 e0 3d 1c a2 a5 3d e5 a0 e0 bc
       0.047187522 0.10984455 0.080875605 -0.02742047
000060 d6 d6 2a 3e 71 09 89 3d 05 19 18 3e ec 22 f5 b8
       0.16683516 0.06691254 0.14853294 -0.00011689015
000070 a5 39 f6 3c da 76 84 3d fb f1 18 3d be 00 8f 3d
       0.030056784 0.06467982 0.037340146 0.069825634
000080 30 b9 48 bd 6d 6f 1c 3d 19 fb ea 3d b7 68 8b bd
       -0.049004734 0.0381922 0.11473674 -0.06807082
000090 8c f7 11 be bb ef 1d 3e a7 ca 9e 3d 6f f1 6b 3b
       -0.14254588 0.15423481 0.077534966 0.003600206
0000a0 a6 e3 ae 3d 42 ae 03 bd 74 03 59 be 61 49 c9 bc
       0.08539514 -0.032148607 -0.21192724 -0.024571123
0000b0 6c 67 18 3d 04 27 85 3d 5b 8b 39 3a 44 a7 b8 3d
       0.037208006 0.06501582 0.00070779555 0.090162784
0000c0 48 7d 04 3d 65 ca cb 3d ab 8b a6 bd 5d 5a c2 3d
       0.03234604 0.09950713 -0.08132108 0.09489892
0000d0 28 8a 96 3d 69 69 fe bd 06 ff 58 3b 4b de 84 3c
       0.0735057 -0.12422449 0.003311099 0.016219279
0000e0 1e 7d 06 be ea 48 14 3e 2a 02 57 bd 68 28 16 3d
       -0.13133666 0.1448094 -0.0524923 0.03665963
0000f0 d0 85 19 be 58 34 71 bd a6 a4 f8 bc 6b 8b ef 3c
       -0.14992452 -0.05888781 -0.030351948 0.029241284
000100 fe f0 96 3a 5e ac ac bc b8 93 91 bc ae 08 9e bd
       0.0011515913 -0.021078285 -0.017770633 -0.07716499
000110 a2 5c b9 3d 79 d8 1e 3e 7f 75 0c be 9a f6 92 bd
       0.090508714 0.15512265 -0.13716696 -0.07175942
000120 93 85 12 be 8c e8 90 3b da a4 30 bc b5 47 49 bd
       -0.14308767 0.004422253 -0.010781491 -0.04914065
000130 ba f4 8a 3d 63 0f b8 3d 53 89 71 bc 39 9b 02 3e
       0.06784959 0.0898731 -0.014742213 0.12754525
000140 bb 1a 7d 3d 95 6c 73 bd e0 83 e8 bd cc 3e 17 be
       0.06179307 -0.059429724 -0.11353278 -0.14770049
000150 a0 61 76 3c f1 3e 0f 3c 31 e9 10 bd a2 ae 2c bd
       0.015037924 0.008743034 -0.03537864 -0.04215873
000160 55 d3 42 bc 5d bc 61 bb ec 83 3f 3b 92 bf c0 bd
       -0.011891206 -0.0034444549 0.0029222919 -0.09411539
000170 d1 d5 d8 bc 5a a4 a9 bd 81 14 5b 3d 07 44 5b 3d
       -0.026469143 -0.08283301 0.05348635 0.053531673
000180 7b 33 ff 3d c9 a5 22 bd 55 4f 27 3d ee 1c 16 bb
       0.12460991 -0.039708886 0.04084714 -0.0022905427
000190 0f ea 34 3d 76 00 f9 3d da 87 20 be c1 88 84 3d
       0.04416853 0.12158291 -0.15676823 0.06471396
0001a0 89 cc a2 3d 3f 14 3f be 73 d0 d1 ba 9d b7 8c 3c
       0.07949168 -0.18660067 -0.0016007557 0.017177397
0001b0 da f5 ac 3b ae b8 4d 3e 90 95 82 be f2 69 30 3d
       0.005278331 0.20089981 -0.25504732 0.043069787
0001c0 2d 16 3e 3d ac 25 c1 bc 55 37 8b bc 41 8f 22 3c
       0.046407867 -0.023577534 -0.016994158 0.00992185
0001d0 e5 bf f8 bc 0b 1d 11 3e 58 f3 a4 3d 03 26 e5 3c
       -0.03036494 0.14171235 0.08054227 0.027972227
0001e0 63 1c 3d bd 56 ab 2e 3d 6b 37 6b 3d 41 a7 23 bd
       -0.04616965 0.042643867 0.057425898 -0.039954428
0001f0 3d 79 ee 3d de 6d 22 3d 81 23 ab bd a5 32 0f 3d
       0.11644218 0.03965556 -0.08356381 0.034960408
000200 36 30 fa bd 9a b3 b5 3d 1a a7 04 be a7 a9 a4 bc
       -0.12216227 0.08872147 -0.12954369 -0.020100428
000210 46 91 cc bd 08 9d 31 3e c9 51 7b bd 12 a8 9f 3c
       -0.09988646 0.17345059 -0.061357293 0.019489322
000220 79 92 d2 3d 03 a7 a4 bd d0 d2 2a bd 98 14 bc bd
       0.10281844 -0.080396675 -0.041704953 -0.091836154
000230 07 80 c7 3d 0d 14 65 3d 53 51 da ba 1b 89 51 bd
       0.09741216 0.055927325 -0.0016656317 -0.051156145
000240 7a 43 a6 bc 5b b8 57 bd 08 da 52 3d 0f 1b 67 bd
       -0.020295847 -0.05266605 0.051477462 -0.05642229
000250 0b fd 9b bd 0a ac e2 3c ab c2 5c 3c 0a de 27 3d
       -0.076166235 0.027669925 0.013474147 0.040983237
000260 66 2b f6 3c 28 53 b6 3d 07 89 5f bd 1f 47 24 bd
       0.03004999 0.089025795 -0.05457404 -0.04010689
000270 45 e2 a9 bd 43 de 29 bc 48 9e 8b bd 2e a2 36 bc
       -0.082951106 -0.010367933 -0.06817299 -0.011147065
000280 4c c3 a8 bd 4b 0d 9d 3b d2 75 6e bc b7 62 74 bd
       -0.08240375 0.0047928444 -0.014554458 -0.059664454
000290 d0 04 cf bd 84 75 2e be 67 95 da 3c ce e7 06 bd
       -0.1010834 -0.17037016 0.026682569 -0.03293591
0002a0 50 ad b7 bc 3d 29 7d bc 64 cb db 3c 60 66 68 bd
       -0.022421509 -0.0154517265 0.026830383 -0.056738257
0002b0 93 c7 a0 be 18 07 a1 bc 89 f2 15 3e 3b 8d 97 be
       -0.31402263 -0.019656703 0.14643301 -0.29599938
0002c0 6a 38 3f bd 21 28 84 3e 5d 69 a3 bd fb 15 86 3d
       -0.04668466 0.25811866 -0.07979081 0.06547161
0002d0 5c 02 51 bc c8 6b 46 bd 94 0d 20 bc 8b e1 cd be
       -0.01275691 -0.048442632 -0.009768862 -0.40211138
0002e0 90 7e b0 bd 8d ba 43 bd f8 3b 6f 3d 70 00 03 3c
       -0.0861789 -0.04778533 0.0584068 0.00799571
0002f0 50 84 07 3d ed 09 50 3c c4 33 2c bc ae c2 2e 3c
       0.033085167 0.012697679 -0.010510389 0.010666532
000300 08 f5 52 bd 2c 88 cd bc f6 bd bf bc f8 be b6 bd
       -0.05150321 -0.025089346 -0.02340601 -0.08923143
000310 3d d5 23 be 29 0c 6d 3d 96 81 de 3d fe cc 22 3d
       -0.15999313 0.057872925 0.1086456 0.039746277
000320 ac 6d 28 3d 2b 15 85 3d 57 7d 3c 3d 44 ff 97 3d
       0.041120216 0.06498178 0.04601797 0.07421735
000330 ec aa 49 be d2 ac 40 3e b9 79 19 3e ac 5c 4d 3e
       -0.19694108 0.18815926 0.1498784 0.20054883
000340 7d 97 bc bd 96 89 97 3c df ee f5 3d a8 40 4d 3d
       -0.092085816 0.018498223 0.12008452 0.05011049
000350 2a 65 40 3c aa 93 06 3e 69 74 b1 bc ca 74 24 3c
       0.011742869 0.13142267 -0.021661954 0.01003761
000360 2d 04 ad 3c 8b 88 06 bd 53 67 99 3c fb e3 21 bd
       0.021120155 -0.03284506 0.018726027 -0.03952406
000370 09 1b a2 bd 09 65 a5 bd 8a 0f 3b 3c 71 bf d4 bd
       -0.07915313 -0.080759116 0.011417279 -0.10388077
000380 aa 34 a4 be 02 55 f0 bd 94 4c 9c 3c 4e a2 92 3d
       -0.3207143 -0.11734964 0.019079484 0.071598634
000390 4d fb af 3c 0f 10 38 be 78 58 2a 3d 59 31 36 3d
       0.021482134 -0.17974876 0.041588277 0.044480655
0003a0 65 1d 68 3e 7e a0 f6 3b 38 8f 84 3c fa 10 8f 3d
       0.22667463 0.0075264564 0.016181573 0.0698566
0003b0 86 2e d9 3b 27 32 10 3e 6c d9 67 3e 5b e6 ad bc
       0.0066278605 0.14081632 0.22641534 -0.021228006
0003c0 cb 37 0c 3c c1 43 50 3d b8 55 88 3d 1b 13 27 bc
       0.008558224 0.050845865 0.066569746 -0.010197426
0003d0 e6 50 40 3e d0 6d 0d be 98 bc ac 3c f3 20 ca bd
       0.1878086 -0.13811421 0.021086022 -0.09869566
0003e0 19 ce ca bc a7 76 2f bd bc f0 2a 3d 66 58 8e 3d
       -0.024756478 -0.042837765 0.04173349 0.069504544
0003f0 de d1 66 3d 3a 78 6c bd 71 c7 02 3e 6b 80 ea 3d
       0.05635249 -0.057731844 0.12771393 0.11450275

backbone.lstm.weight_hh_l0 f4 [512, 128]
000000 42 20 55 bd ad 1e 04 bd 72 fa cf ba 35 09 ad bc
       -0.052032717 -0.032255817 -0.0015867485 -0.021122554
000010 48 00 e9 bb 78 8d 7f bc a3 84 d1 bd 39 0f 19 3d
       -0.007110629 -0.015597694 -0.102303766 0.037368033
000020 f0 21 9a bc 62 a6 b1 3c bd f5 4d 3d 02 31 b6 bc
       -0.01881501 0.021685783 0.050283182 -0.022240166
000030 a1 61 7c bb 0f be 9d 3d 15 1e 00 3d 25 e2 74 bd
       -0.003851034 0.077022664 0.03127869 -0.05978598
000040 ac 19 ec 3c 8d ed 90 bc 6b 61 bd 3d 80 aa ae bd
       0.028820835 -0.017691398 0.09247097 -0.08528614
000050 1f 09 b3 3b 6d 68 14 be 5b 75 54 3c b8 6e 20 bd
       0.005463734 -0.1449296 0.012967433 -0.03916809
000060 7f 2b 6d 3c ab 0a d6 bd 99 e2 01 be 42 48 55 bd
       0.014475702 -0.104512535 -0.12684096 -0.052070864
000070 58 a3 01 3d e5 24 46 3b 14 6f 21 3d 87 1f fc bb
       0.031649917 0.0030234393 0.039412573 -0.007694188
000080 d4 36 c7 3c 40 2e 1e 3d ce ee 8c bd 93 a8 a5 3c
       0.024318136 0.038618326 -0.06881486 0.020221984
000090 db 12 87 bd f3 9f 4c 3d 72 94 0d bd de 2a 2f bd
       -0.06595393 0.049957227 -0.034565397 -0.04276549
0000a0 2e 64 28 3d 08 3b 40 3d 5e 99 59 bd 53 3a 9e bd
       0.041111164 0.046931297 -0.053124778 -0.07725968
0000b0 eb 16 82 3c 18 e1 c8 3d 27 60 cb 3c dc 58 5c 3d
       0.015880069 0.09808558 0.024826122 0.05379568
0000c0 be 88 23 bd a1 b4 75 3d a5 aa 02 3e 15 1b cd bc
       -0.03992533 0.059986714 0.12760408 -0.025037328
0000d0 2f 1d 58 3d 67 8a 79 bc b3 5f 83 3d 27 94 81 3d
       0.052762207 -0.015230752 0.064147376 0.06327086
0000e0 25 df 9f 3d 30 3f 59 bc f6 03 b2 3d a0 d0 8d bb
       0.07806233 -0.013259694 0.08692162 -0.0043278486
0000f0 52 31 13 3d d8 2c 60 bc ee a3 08 bd 6e 92 af bd
       0.035935707 -0.013682567 -0.03335946 -0.08572851
000100 fc f5 3a bc 55 2e b0 3b 53 07 c9 bb a3 7c d5 3d
       -0.011411186 0.005376617 -0.0061349063 0.10424163
000110 01 ba 73 bc fe 02 2e 3d cc 69 b8 bb 6b f0 c6 bd
       -0.01487589 0.042483322 -0.0056278463 -0.09713825
000120 22 04 73 bd 1f 2b ab bc 7a dc 5f 3c 5a 51 93 3c
       -0.059330113 -0.020894585 0.013663406 0.017983127
000130 58 d2 be bc 80 80 21 3c 04 13 24 bd c9 f3 db bc
       -0.02329366 0.009857297 -0.040057197 -0.026849644
000140 f1 cc 49 3d 13 26 8f 3d 66 b5 a6 bd bf d0 a0 3c
       0.049267713 0.06989684 -0.08140068 0.019630788
000150 d9 86 25 bd 72 84 2e 3d 9c b0 9c bd 4b fc e8 3d
       -0.040411804 0.04260678 -0.07650873 0.11376246
000160 8e 27 d4 3d 2b 80 4f 3b 1b ec 2c be 34 03 2e 3d
       0.10359107 0.0031662087 -0.16886942 0.042483523
000170 eb c2 68 bd 88 71 83 3d 7f ee b7 3c 19 a3 f6 3c
       -0.056826513 0.06418139 0.022452591 0.030107068
000180 35 06 6f 3b 70 79 df bb da d9 60 bd db 9b ff 3d
       0.0036472206 -0.0068198964 -0.05489526 0.12480899
000190 c6 e9 01 bd a6 55 99 bc d1 8f e4 3c 1f 60 d8 bc
       -0.031717084 -0.018717598 0.027900608 -0.026413022
0001a0 3c 1f ae bd b1 c8 7e bd 21 20 d1 bc f7 2c 91 3d
       -0.08502051 -0.062203113 -0.025528016 0.070886545
0001b0 06 22 81 3d 4a 81 2c bd 4c 26 0c ba a6 0c 05 3d
       0.063053176 -0.042115487 -0.0005346283 0.032482766
0001c0 22 ef 54 bd 85 29 e0 3d 76 8f 40 bd aa c1 28 39
       -0.051985867 0.10945419 -0.047011815 0.00016093874
0001d0 bb 87 27 3d 4f 16 f0 3c 18 c6 79 bc 8f c2 bd 3d
       0.040900927 0.029307513 -0.015244983 0.09265625
0001e0 a7 b9 8d 3a 51 d8 bb 3c 65 47 8c bc 33 9d 81 3d
       0.0010812775 0.022930296 -0.017123887 0.063288115
0001f0 5e cd 9f 3d 10 9f ca 3c d9 7e 87 bc 1f 9d d8 3c
       0.078028426 0.02473405 -0.016539978 0.026442109
000200 3a 54 20 3d 2d 66 b8 bb 87 3f ea bc 34 42 0e bd
       0.039142825 -0.0056274147 -0.028594745 -0.034731105
000210 b8 36 c9 bd 9b 3e d6 bc aa 23 8c 3c 38 38 2c 3d
       -0.0982489 -0.0261529 0.01710685 0.042045802
000220 91 ec b4 bc 98 61 0f 3d 88 2c cf 3d fb c3 05 bd
       -0.02208546 0.035005182 0.101159155 -0.032657605
000230 3d f0 86 3d f8 5e cf bd 6f 68 3e bd 23 12 f2 bb
       0.065887906 -0.10125536 -0.046486314 -0.007387416
000240 e1 13 c6 39 6c 3e 71 3c e9 37 dc 3b 29 9d 9c ba
       0.00037780314 0.014724355 0.006720532 -0.0011948693
000250 69 7f ff 3d b0 2c a8 3d 08 16 f5 3d 1e 76 7d 3d
       0.124754734 0.082116485 0.11967093 0.061880223
000260 87 6c 9b 3c e4 26 6f 3d b8 ce 9e bc a5 52 f9 3d
       0.018972648 0.0583867 -0.01938568 0.12173966
000270 bd b1 43 3d 37 62 a6 ba 2d ad e6 bd 5a ae e7 bd
       0.047776926 -0.0012694065 -0.112634994 -0.11312552
000280 68 ca 6f bd 9d 43 fb bc 19 64 af 3d b9 00 4f 3b
       -0.05854264 -0.030671889 0.08564014 0.0031586124
000290 43 34 c7 bc 71 f4 ca bc 45 07 5f bd af 69 09 bd
       -0.024316913 -0.024774762 -0.054450292 -0.033548053
0002a0 73 47 db bd f4 b7 ec 3d fd 2c e2 3c 90 f8 bf 3b
       -0.10706987 0.11558524 0.027609343 0.0058584884
0002b0 60 2f af bc 6d 4e 68 bd 88 5e c1 bc ed 6e 00 bd
       -0.021384895 -0.056715418 -0.023604646 -0.031355787
0002c0 32 ad 88 bc 3a b5 95 3c 84 a5 b7 3c 3a d0 5b 3d
       -0.016684148 0.018274892 0.022417791 0.053665377
0002d0 5f 90 3f bd 56 b4 90 bc 3f ab 4d 3d f0 c7 a8 bd
       -0.046768542 -0.017664116 0.05021214 -0.0824126
0002e0 6f df c6 3c a7 98 ea bd c9 d0 88 3d a3 56 b5 bd
       0.024276463 -0.114548974 0.066804476 -0.08854415
0002f0 b0 6c c8 bd f6 97 96 3c 9e a7 02 3e a8 7e a7 bd
       -0.097863555 0.018383007 0.12759253 -0.08178455
000300 83 b6 16 3c af 4f 80 3d ea c8 06 3d 88 ed 10 3c
       0.009198788 0.062651984 0.03290645 0.008845694
000310 c8 33 d0 3d 67 29 3d 3d d0 b7 57 bd ef 37 1f 3d
       0.101661265 0.046182062 -0.05266553 0.0388717
000320 34 e6 fc bc 97 2a c4 bd b8 1b 1f bd d1 6d 85 3d
       -0.030871488 -0.09578436 -0.038844794 0.065150864
000330 5b 3f 47 3d 6b 1a ce 3d e8 63 06 3d df f6 3f 3d
       0.048644405 0.100636326 0.03281012 0.046866294
000340 82 24 9e bd 58 55 ae bc be 09 41 bd bb ba 05 3d
       -0.07721807 -0.02128093 -0.04712843 0.032648783
000350 ef bd fd 3d f2 d0 73 bd 40 53 46 bb ea 94 9b bc
       0.123897426 -0.059525438 -0.0030262023 -0.018991906
000360 45 55 27 3c fe a0 f3 3b d2 c9 7e 3d 9a b0 88 bd
       0.010213201 0.0074349632 0.06220419 -0.06674309
000370 42 7e 06 3c e2 33 87 bd e5 71 cd 3d 2a ff c2 3b
       0.008208813 -0.06601693 0.10031489 0.005950828
000380 c6 f0 24 bd aa ce 52 3c 48 2d c1 bd a4 6a 17 3c
       -0.040268682 0.012866655 -0.09432465 0.009241734
000390 3b 04 18 bd de a9 2d 3e 42 fd b4 3d 82 63 c9 3b
       -0.03711341 0.1695933 0.088373676 0.0061458955
0003a0 bf 1a 29 bd c6 a8 02 bd b0 6b 11 3c 2a 88 49 bd
       -0.041285273 -0.031899236 0.008875772 -0.04920212
0003b0 24 37 72 bc 79 c2 54 3d a2 b2 cd 3d fe 6d c2 3d
       -0.014783654 0.051943276 0.10043837 0.094936356
0003c0 c2 a0 9e bd 05 53 cf 3c a6 0f bf 3c b7 2a bd 3d
       -0.07745506 0.025308141 0.023322891 0.09236663
0003d0 4e d7 a3 bc b5 45 50 3d b8 b1 85 3d 00 1e bd bc
       -0.020000126 0.050847728 0.06528038 -0.023085594
0003e0 23 a6 f4 3c 26 e2 dc 3d 10 7b 65 3d 80 2a 5c 3d
       0.029864376 0.10785322 0.056025565 0.05375147
0003f0 e5 37 a0 bd b2 c6 5b bc 3c ad fa 3d b4 76 df bd
       -0.07823161 -0.013414072 0.12240073 -0.10911313

backbone.lstm.bias_ih_l0 f4 [512]
000000 ee 65 eb 3c 2b 2b b9 bd 44 1d 9d 3d cb 3c 50 bd
       0.028735127 -0.09041437 0.076715976 -0.050839227
000010 25 1e 60 bc c3 0e 89 3d bf cf 72 3d 37 e7 85 bd
       -0.013679062 0.06692269 0.059280153 -0.06538241
000020 85 23 d1 3d b0 6d 18 3c 7d b9 dd 3d d3 de 83 3c
       0.10211853 0.009303495 0.10826395 0.016097462
000030 d3 87 14 3e 58 95 ae 3d 5e df 33 3d 0d 0c a2 3c
       0.14504938 0.08524579 0.04391419 0.019781137
000040 0b b8 c5 3c 66 7b 7c bc c1 5b 4a 3d 50 91 f4 3b
       0.02413561 -0.01541028 0.04940391 0.0074636117
000050 c4 60 37 3d 71 4a cd 3b 99 a4 d1 3c 97 fb 2b bd
       0.044770017 0.0062649776 0.025591182 -0.04198798
000060 30 5e a6 bc 1d f1 be bd 03 87 85 bd db eb 07 3e
       -0.020308584 -0.093233325 -0.06519892 0.13273565
000070 c6 44 f2 3a c4 ed 38 3d 79 cc bd 3d a7 7c 82 3c
       0.0018483631 0.045148626 0.09267516 0.01592858
000080 32 c0 9f 3b 5b fb f6 3d 9b ad bb 3b fe fc fc 3d
       0.0048752064 0.12059661 0.0057274825 0.12352942
000090 ad 72 17 3d 5c ea d7 bb 92 c1 53 3d 82 39 ed 3d
       0.036974598 -0.006589217 0.051698275 0.11583234
0000a0 9a 88 f2 3d 74 f0 03 bd b3 65 bf 3d 07 f6 4b bd
       0.11842461 -0.032211736 0.093455695 -0.049795177
0000b0 73 f6 08 bd bd 58 15 3e a6 01 69 bc 78 4c 42 bd
       -0.033438157 0.14584632 -0.014221584 -0.047436208
0000c0 8a 9a 35 3c 71 0c 73 3d e0 e1 9c bc b6 12 b0 bd
       0.011084208 0.059338037 -0.019150674 -0.08597319
0000d0 72 1b 01 be 89 04 57 3d 6c 0d 19 bc 48 c9 33 3d
       -0.12608126 0.05249456 -0.009341579 0.04389313
0000e0 d7 7e e6 3c cb 9b 80 bc 85 20 ce 3d 2d d1 0f bc
       0.028136654 -0.015699288 0.10064796 -0.008777899
0000f0 bd df 2f bc 8e 31 ed 3c d0 45 09 bd b5 71 9b 3d
       -0.010734496 0.028954294 -0.033513844 0.07590047
000100 9e 36 7d 3d 32 db f4 bc 12 fc a6 3d 81 3f 27 3d
       0.061819665 -0.029889677 0.08153547 0.040832046
000110 63 0d bd 3d c4 83 e8 bc 2e 40 cb 3c 05 57 e5 3c
       0.09231069 -0.028383143 0.024810877 0.027995596
000120 75 52 13 3d 2d b0 d5 3c ed 5c 6c bd a0 7a 7b 3c
       0.03596731 0.026084984 -0.05770581 0.01534906
000130 6f 36 3d 3d f2 cb 6f 3d 1e 90 3b 3d 37 52 06 3d
       0.04619449 0.058544107 0.045791738 0.03279325
000140 d1 06 2b 3d 14 3d 8a 3d dd bc 43 bd c4 eb c7 3d
       0.041754548 0.06749931 -0.047787536 0.097617656
000150 31 cc 44 3c 20 da 43 3d f8 6d 78 bc 63 01 98 3d
       0.012011574 0.047815442 -0.015162937 0.074221395
000160 bc c3 2d 3d 04 ff 80 3d 4d 17 5b 3c 58 73 ea bc
       0.042422995 0.0629864 0.013372255 -0.028619453
000170 2c f2 74 3d 58 92 d0 3d 31 0b 63 bc e4 d4 f1 bc
       0.059801266 0.10184163 -0.013857649 -0.02952046
000180 af 9c 9b 3d 5c 5b 7c 3d 6d 32 81 3c e7 da ad bc
       0.075982444 0.061610565 0.015771115 -0.021222545
000190 62 99 2e 3d 84 45 9f 3c 5b 5b 02 3c 73 31 d4 3b
       0.042626746 0.019442327 0.007956351 0.0064756214
0001a0 30 ec 35 bc f3 10 5c bd 5b 1d a6 3d 3d 1e 28 bc
       -0.011103675 -0.0537271 0.08111068 -0.010261116
0001b0 b0 7b 83 3d 33 c9 18 3d d4 26 f5 3c 06 85 3d 3c
       0.06420076 0.037301254 0.029925741 0.01156736
0001c0 f8 b6 eb bd d8 11 19 bc 20 55 04 ba b3 2b 9b 3d
       -0.11509508 -0.009342633 -0.0005048085 0.07576694
0001d0 85 ca 72 3b cc 41 c8 bc 39 e3 69 3b 4a 3a e5 3d
       0.003704698 -0.024445437 0.0035688414 0.111927584
0001e0 dc 22 9a 3d 02 83 8a 3d a9 78 c2 3d a0 5d bd bc
       0.0752618 0.06763269 0.0949567 -0.023115933
0001f0 e0 b6 72 bd 12 2b 93 bb 0f b0 00 3d 11 ad 63 3d
       -0.059256434 -0.0044912184 0.031417903 0.05558497
000200 40 19 aa 3c d5 2f c7 3d e4 da 9b bb 87 19 cf 3d
       0.020763993 0.0972592 -0.0047563184 0.10112291
000210 a5 dd 13 bd 1d 5e af bc 33 52 e0 3d 88 54 9d 3c
       -0.03610005 -0.021407181 0.10953178 0.019205347
000220 28 23 01 3e 88 86 fe 3c d7 c6 0f 3e 85 dc f8 3d
       0.12611067 0.031070009 0.14040695 0.12151436
000230 61 be 46 3d c4 52 09 bd 12 2e 12 3d 6e df 7a 3d
       0.048521403 -0.033526197 0.035688467 0.061248235
000240 10 45 3d bc ad a3 01 3a bb b5 9c 3d 4c 45 9d 3c
       -0.01155211 0.0004945349 0.0765185 0.019198082
000250 c3 14 b0 3d 09 4a 1c bd b9 db 7c 3c 90 22 3b 3e
       0.0859771 -0.038156543 0.015433245 0.18274903
000260 44 42 91 3c 97 88 ec 3d 4b 8c e5 3c ff e7 59 3c
       0.017731793 0.1154949 0.028020998 0.013299941
000270 e0 31 64 3c 32 8b 17 3d 18 a3 e6 bc 80 ce ad 3d
       0.013927907 0.03699798 -0.028153941 0.084866524
000280 17 2a 3c bd b0 00 2d 3d 5a 9a 21 3d 93 7e b3 3d
       -0.045938578 0.042236984 0.03945384 0.087643765
000290 69 62 9e bc bb fd 9e 3d 16 7f 32 3d ea 3d b5 3d
       -0.019334035 0.07763239 0.04357823 0.088497
0002a0 2f 53 da 3d 5a df 43 3c 6f c2 fa bc 86 64 03 3e
       0.10660397 0.011955107 -0.030610291 0.12831315
0002b0 17 09 16 3d fb 77 8b 3d 1c b2 eb 3c de 0d e1 3d
       0.036629763 0.06809994 0.028771453 0.10988973
0002c0 0b 66 c6 3d fa 24 9e bc bb 9b cf 3d 01 d9 ba b9
       0.09687432 -0.019304741 0.10137125 -0.00035638365
0002d0 80 17 29 3e 3f 8e 0d 3e 1f f3 47 3d 47 00 db 3b
       0.16512871 0.13823794 0.048815843 0.0066833827
0002e0 b3 3d c1 3d ec 65 b4 3b 66 51 8a 3d 3d 1e 8b 3c
       0.09435596 0.005505314 0.06753807 0.016982192
0002f0 a9 63 fd bb 74 87 a5 3d d0 b0 b0 3c 8b 19 b1 3d
       -0.0077328277 0.08082476 0.021568686 0.0864745
000300 c2 e9 0b bd c4 81 a6 3c 63 0a 84 3d 03 ca d9 3d
       -0.034158476 0.020325549 0.064472936 0.10634234
000310 50 ff 51 3d fc e9 e7 bb 43 b3 f7 3d 1a 42 ab 3d
       0.051268876 -0.0070774537 0.12094738 0.08362217
000320 c3 d7 ce 3d 98 7e 0b 3e db 38 85 bc 14 3c c2 3d
       0.10099747 0.1362251 -0.016262462 0.09484115
000330 7e 05 90 3c e7 dc 63 bb f2 b9 83 3d ae a3 61 3d
       0.017580744 -0.003476912 0.06431951 0.055087738
000340 b7 75 a9 3d 01 e7 c3 3d b1 77 a5 ba 0d 36 02 3e
       0.082744054 0.09565545 -0.0012624172 0.12715931
000350 f5 1e 7c 3d f9 88 53 bd 06 76 33 3d e9 d4 9c bd
       0.06155296 -0.0516443 0.043813728 -0.07657797
000360 3f cc 4a 3c a8 fd 04 3e 9f 78 9e 3d 82 c9 76 bc
       0.012377798 0.12987387 0.077378504 -0.015062692
000370 58 7d 9b 3c 1b 8a d1 3c 55 46 c6 3d 60 56 5e 3c
       0.018980667 0.02557855 0.096813835 0.013570398
000380 9c f5 b2 3d 6a 1a 53 bc 7d 76 30 3d af f7 8b bb
       0.087382525 -0.012884716 0.04308175 -0.0042714695
000390 96 30 3b 3e f5 24 e2 3c 86 e8 32 3d 34 e6 da 3d
       0.18280253 0.027605513 0.043678783 0.10688439
0003a0 90 20 e8 3d a2 e2 7a 3c d7 3d ad 3c d8 a0 53 bd
       0.11334336 0.015312823 0.021147652 -0.051667064
0003b0 cd 8f df 3c d6 fd 85 3d 8f 07 0d 3d 2c 05 ec 3c
       0.02729025 0.06542556 0.034431037 0.02881106
0003c0 ea 13 5b 3e fe 1e e5 bb 2f 61 21 3e 31 65 87 3d
       0.21394315 -0.00699222 0.15759729 0.066110976
0003d0 fb 1a f2 3d 44 f7 0d 3c 59 85 4c bd ee 9d a8 3c
       0.11821552 0.00866491 -0.049931858 0.02058312
0003e0 0f 4e 9b 3c 61 79 16 3e da b3 87 3d c8 d1 3c 3d
       0.01895812 0.1469474 0.06626101 0.0460985
0003f0 5a e7 0b bd 2b d0 9a bb a7 af 20 3e c5 db c6 3b
       -0.03415618 -0.0047245226 0.15692006 0.006068679

backbone.lstm.bias_hh_l0 f4 [512]
000000 77 4d 6f bd 17 e1 9f bd e6 59 8f 3c 32 0d 85 bc
       -0.058423486 -0.07806604 0.017498922 -0.016241644
000010 98 15 05 bd cc 3c b5 3c 71 e2 ab 3c 82 ad 7c bd
       -0.032491297 0.022123717 0.020982 -0.061688907
000020 d4 37 fa 3d 50 1f 65 3d e3 0a ad 3d 6b cc f2 bc
       0.122176796 0.055938065 0.08449342 -0.02963849
000030 13 56 07 3e b1 49 ae 3d 72 2c 59 3d 01 15 53 3d
       0.13216428 0.08510149 0.053020902 0.051533703
000040 14 b8 de 3b 72 83 96 3c 00 10 9d 3d 7a cb 07 3e
       0.006796846 0.018373225 0.076690674 0.13261214
000050 cb 1a b7 bd 13 73 88 3c 10 7b 03 bd 59 df c5 3d
       -0.08940657 0.016656434 -0.032099783 0.09661741
000060 e5 bb f3 ba 80 bc cd bd a2 35 de bc 09 fb ff 3c
       -0.0018595426 -0.10045719 -0.027125183 0.031247633
000070 5e 3f 9c 3d f1 66 cf 3d 47 c0 c5 bb 8a ba b2 bc
       0.07629274 0.101270564 -0.006034884 -0.021817464
000080 d4 79 94 3c 6a fd b4 3d 6e 07 18 3d 4b 28 77 3d
       0.018124498 0.088373974 0.03711646 0.06034116
000090 ec 57 27 3d 6b 56 5f bd a9 c8 28 3d cf 90 bd 3d
       0.040855333 -0.054525774 0.04120699 0.09256136
0000a0 d7 7c f4 3b 5c 33 15 3d 66 42 87 3b 00 df 88 bd
       0.007461171 0.036425933 0.0041277884 -0.06683159
0000b0 f4 2b 7f 3d 57 a9 e0 3d 1a 01 47 bc 83 6e 9f bd
       0.062297776 0.10969799 -0.012146259 -0.0778475
0000c0 e1 24 5e 3d 0e a0 18 3c f8 33 b2 3d 89 50 c8 bc
       0.05423439 0.009315504 0.087013185 -0.024452465
0000d0 8b e3 dc bd 83 34 d2 3d 37 f2 e1 bd 9f d3 88 bd
       -0.10785588 0.10263922 -0.11032527 -0.066809885
0000e0 a7 8d a9 bd 20 f6 af bc 76 9f c9 3c 00 49 17 3d
       -0.08278971 -0.021479666 0.02461217 0.036934853
0000f0 e1 5f 98 bd 07 c2 68 3d 38 da 9d bd f7 e3 8b bc
       -0.074401625 0.056825664 -0.077076375 -0.017076476
000100 08 2a 88 3d 88 ef cc 3c 49 e4 81 3d e3 14 64 3d
       0.06648642 0.025016561 0.0634237 0.05568398
000110 9f b9 4f 3d a0 50 bb bc d8 cb a2 3d 7e 90 a2 3c
       0.05071413 -0.022865593 0.07949036 0.01984429
000120 27 0e 4f bd 01 65 9c 3c 4c 22 4b bd 00 ab 76 bd
       -0.050550606 0.019091131 -0.049593255 -0.060221672
000130 78 c4 03 3d 1a f2 84 3d 24 0e 6a bc bc 16 89 3c
       0.03216979 0.0649149 -0.014285598 0.016734473
000140 5c 3d f6 3b fa 93 c3 3d c7 58 b5 ba 90 39 83 3d
       0.007514639 0.09549709 -0.0013835662 0.064074636
000150 e0 7a 4c bd 10 24 78 bd da bf 37 bc cc a3 c6 3c
       -0.04992187 -0.060581267 -0.011215175 0.024248026
000160 b9 89 d0 bb 2d da 35 3d 3d 96 90 3a db a0 28 bd
       -0.006364074 0.04439752 0.0011031103 -0.04116903
000170 88 02 04 3d d5 b2 51 3d 01 9d 06 bb 9a c0 4c bd
       0.032228976 0.05119594 -0.002054036 -0.049988367
000180 b3 7a 34 bc c7 8c 70 3d 6c 86 19 bb 2f 7e 2e bd
       -0.011015582 0.058728006 -0.002342607 -0.042600807
000190 16 91 3b 3c a7 ae c8 bd b6 25 02 bc 25 f6 23 bd
       0.011448165 -0.09798937 -0.007943561 -0.040029664
0001a0 c2 65 4a 3d b1 0b b3 3a bb 40 b1 3c b2 c0 b5 bc
       0.04941345 0.00136601 0.021637311 -0.02218661
0001b0 02 2e 61 3d a1 a7 11 3e 05 36 c1 bc 15 2d f5 3c
       0.054975517 0.14224102 -0.023585329 0.029928723
0001c0 1d a3 86 bd 09 23 0a 3d c9 7b ba 3d 18 28 b0 3c
       -0.0657408 0.03372482 0.091056414 0.021503493
0001d0 ef 8e 8c 3c 26 bc 7d bd bb 04 39 bc cf 30 88 3d
       0.017158 -0.06194701 -0.011292632 0.066499345
0001e0 47 e8 1a 3d 9a 28 4a 3d ee 3d 78 3d 10 bb ed 3c
       0.037819173 0.049355127 0.060605936 0.029019862
0001f0 f9 19 7e bc c2 3b a9 3d e0 55 86 bd 26 70 5f 3d
       -0.015509122 0.08263351 -0.06559348 0.054550312
000200 4b 0f b9 3c 0e 8e df 3d 3c 6c 56 3d 2b fa e6 3c
       0.0225903 0.10915767 0.052349314 0.028195461
000210 45 83 02 3d b6 27 6b 3c 2f 36 cf 3d 61 71 a2 3d
       0.03186347 0.01435273 0.101177566 0.079317816
000220 f3 68 1d 3e 25 fe 91 3a d9 ba 0d 3e 77 5d fa 3d
       0.15372066 0.0011138363 0.13840808 0.12224858
000230 7e e8 84 3d 38 b5 6c 3d 2d c9 e8 3d 65 9e 83 3d
       0.06489657 0.05779001 0.11366496 0.06426696
000240 2e 7c 4a 3c 96 ed 4f bc 22 95 c3 bb cf 75 dd 3d
       0.012358708 -0.012690922 -0.0059687058 0.10813486
000250 fa 04 9e 3d ce 09 a2 ba 29 81 2e 3d 50 fc bb 3d
       0.07715793 -0.0012362541 0.042603645 0.09178984
000260 a8 0a a1 3b f1 15 ed b8 a5 80 09 3c a6 50 02 3c
       0.0049146004 -0.000113051276 0.008392488 0.007953798
000270 20 4f 40 3d a3 bc 8c 3d f4 dd 1e 3d 2a 03 b0 3d
       0.04695046 0.06871917 0.03878589 0.085943535
000280 50 ce 54 3d cd 5f 09 3d 63 c9 96 3d 4f 57 50 3d
       0.051954567 0.03353863 0.0736263 0.050864514
000290 9d 9d 4a bd de 4e c9 bc b9 b0 48 3d 1f e3 50 3d
       -0.049466718 -0.02457374 0.04899666 0.05099785
0002a0 7b 8b f2 3d 25 5c b6 3c bd d5 c2 bc 3e b1 3c 3d
       0.1184301 0.022260735 -0.023783559 0.04606747
0002b0 79 6d 8a 3d 29 51 50 3c 41 36 33 3d 17 26 6a 3b
       0.067591615 0.012714663 0.043752912 0.003572827
0002c0 57 35 b1 39 9d 31 97 3d 20 f1 c0 3d 1d 44 d2 ba
       0.00033799812 0.0738251 0.09420991 -0.0016042028
0002d0 9d a6 9d 3d 03 e3 ff 3d 16 ed 1d 3e f4 ef 4c 3d
       0.076977946 0.12494471 0.15422472 0.050033525
0002e0 31 e0 95 3c ae a7 11 3d fb 73 c3 3c 1c 61 83 3c
       0.01829538 0.035560302 0.023859015 0.016037516
0002f0 e4 b1 e2 3c 20 dc 9e 3d 2b 3b 0f 3e 05 08 31 3c
       0.027672715 0.07756829 0.13987415 0.010805135
000300 2f 8e 00 3d 76 7e c9 3d 51 03 39 3e a2 de 19 3e
       0.031385597 0.09838574 0.18067671 0.15026334
000310 99 69 ae 3d 0d aa c2 3d b1 24 09 3e a8 c7 58 3d
       0.08516235 0.09505091 0.13392903 0.052924782
000320 3d 5f d1 3d d5 5a db 3d 7f 50 2a 3d c7 e3 30 bd
       0.102232434 0.10710684 0.041580673 -0.043185975
000330 01 70 e4 3d 6d c6 46 bc 2d 56 0f 3d 4c 9e f0 3d
       0.111541755 -0.012132269 0.034994293 0.11748943
000340 0b a5 c0 3d 8d 37 03 3e d9 a3 c9 3d 36 e4 83 3d
       0.094064794 0.1281416 0.098457046 0.06440012
000350 eb 51 6b 3d ea 65 60 3d 49 ca 25 bd ac 10 82 3d
       0.05745117 0.054784693 -0.040476117 0.06350836
000360 b1 52 3c bc ee 84 76 3d 01 cb 7e bd fe 40 6c 3d
       -0.011494325 0.060185365 -0.06220532 0.05767917
000370 64 b6 d0 bc 85 a9 cb 3d 50 01 d6 3d 70 15 b4 3d
       -0.025477596 0.09944443 0.10449469 0.087931514
000380 3b ba 7f 3d 2e 60 a5 3d 30 d0 9e 3d 6c 53 df 3c
       0.062433463 0.080749854 0.07754552 0.027261458
000390 8a b6 01 3e 53 5f 1b 3e 7f c3 4c 3d 68 bf 1d 3e
       0.1266729 0.15173082 0.049991127 0.15405047
0003a0 d9 dd 83 3d 3e af 2f 3c cd 4e b9 3c 97 b3 2d bd
       0.064387985 0.010722933 0.022620583 -0.0424076
0003b0 5f 7e 42 3c e4 45 8b 3d 91 d6 d0 3c a4 ab de 3d
       0.0118709495 0.0680044 0.025492938 0.108725816
0003c0 da 72 76 3e 53 72 12 3c 4e 35 2a 3e d4 e3 a7 3d
       0.2406725 0.00893839 0.16621897 0.08197752
0003d0 2f ca c2 3d d5 cb 32 bc 73 48 4c bd cd f9 ae 3d
       0.0951122 -0.010912855 -0.04987378 0.085437395
0003e0 22 3b 08 bc 8c 6d 16 3e 2b 96 ac 3d 6d 75 0c 3e
       -0.00831488 0.14690226 0.0842708 0.1371667
0003f0 cb 48 03 3d 6f 20 a0 3d a5 ba 0b 3e 58 12 df 3c
       0.032051843 0.07818686 0.13645418 0.027230427

backbone.output1.weight f4 [128, 128]
000000 45 ff 81 3e 9a e2 f8 3d 66 c0 8a 3b e1 e8 21 bc
       0.25390068 0.12152596 0.0042343615 -0.009882183
000010 6a 4e e6 bc cd 60 50 3e bc e6 73 bd b4 72 05 3e
       -0.028113563 0.20349427 -0.059546217 0.13032037
000020 51 d1 24 bd 6a 93 33 bd 50 e2 ff 3d 5a 02 77 bd
       -0.040238682 -0.043841757 0.124943376 -0.060304977
000030 5a 6d 56 3e ac ca 21 3e ae 01 67 3c 21 c4 47 bd
       0.20940152 0.1579997 0.014099522 -0.048771027
000040 32 21 21 be 75 c8 43 be df 10 0b bd 15 42 75 bc
       -0.1573532 -0.19119437 -0.033951636 -0.014969368
000050 2f 8b 56 bd cf 38 30 3e e8 a5 ee 3c 89 0f 8c bd
       -0.05237883 0.17209171 0.029131845 -0.068389006
000060 11 c8 0e bd 61 2a a6 bd c7 51 9d bd 9e a1 01 be
       -0.034858767 -0.08113552 -0.076816134 -0.12659308
000070 93 35 17 bc 1c 27 3d bc f6 1f 7f 3c a9 5a e8 3d
       -0.009229082 -0.011544969 0.015571585 0.11345417
000080 c6 b1 2f 3e 51 7f 81 bb 5c 10 16 bd 56 c7 9b 3d
       0.17157659 -0.003951945 -0.036636695 0.0760638
000090 29 67 67 3c c0 18 1b be 40 20 89 3d be d4 62 3d
       0.014123716 -0.1514616 0.06695604 0.055378668
0000a0 25 6e 47 bd e2 8a 85 3d 35 33 48 3b a0 3b 79 be
       -0.048689026 0.065206304 0.00305481 -0.24339151
0000b0 39 fb d2 bd b2 d5 2c 3e 6f d6 b9 bc db 93 0e be
       -0.10301823 0.16878393 -0.022685258 -0.1392359
0000c0 e8 f2 a7 bd b1 d4 da 3d 13 37 57 be b8 98 29 be
       -0.082006276 0.10685099 -0.21017103 -0.16562164
0000d0 7c d5 0a be 23 8b 49 bd 7c a4 f7 bd 84 9f db bc
       -0.13558 -0.049204957 -0.1209192 -0.026809461
0000e0 c2 fe d1 bd b9 be 1e 3b d5 ea 9a 3c 5c 13 b8 3a
       -0.10253669 0.0024222566 0.018910805 0.0014043855
0000f0 f0 75 88 3c 22 ca 43 3e 07 d7 88 bc 41 5c d4 3d
       0.0166578 0.19120076 -0.016704096 0.103691585
000100 17 d8 3d 3d d3 d6 ff 3d 7c 5f 2c be b0 35 21 3d
       0.046348657 0.12492146 -0.168333 0.03935784
000110 b5 73 f8 bd 05 3a 48 3d 15 1d f5 3d 09 33 d1 bc
       -0.12131444 0.048883457 0.119684376 -0.02553703
000120 22 15 97 be 93 92 d6 bd b1 97 df bc 38 71 96 3e
       -0.2950831 -0.104771756 -0.027294012 0.29383254
000130 e1 21 0d 3d 18 c1 b1 bd de 65 8e bc 30 5b 03 be
       0.034456138 -0.08679408 -0.017382558 -0.12827754
000140 55 1f 9e bd 15 c9 36 3d 24 18 45 be c2 b2 39 3e
       -0.0772082 0.04462536 -0.1924749 0.18134597
000150 3f 5a 0f be a6 0c b2 3c 21 21 9f bc 46 f0 c9 bd
       -0.1399927 0.021734547 -0.019424977 -0.09860282
000160 87 4f 27 3d 09 53 e0 3d 42 4d 27 3c 11 f0 a4 bd
       0.040847328 0.10953338 0.010211291 -0.080536015
000170 04 ed af 3d 60 06 51 3d a5 c0 e5 bd f3 67 cd bd
       0.08590129 0.05103147 -0.11218385 -0.10029592
000180 27 9c 9a 3d 68 08 68 bd 4e 94 84 3d e8 b1 9e 3d
       0.07549315 -0.05664864 0.064735994 0.07748777
000190 09 15 7b bc e9 24 97 be 87 44 02 bd a2 36 ba 3c
       -0.015324839 -0.29520348 -0.031803634 0.02273113
0001a0 29 5e 35 3e 8a a4 0b bc d9 a8 f7 bc 24 c9 ea bd
       0.177117 -0.008523116 -0.03023188 -0.11464146
0001b0 d4 62 b3 bd c7 68 e8 3d 02 7a cb 3d 08 88 c1 bd
       -0.08759084 0.1134811 0.099353805 -0.09449774
0001c0 27 c2 30 bd 06 2c b5 3d 2d 52 9c 3e 8f 33 37 bb
       -0.043153908 0.088462874 0.30531445 -0.0027954315
0001d0 e9 a2 99 bd ae fd 1b bd c8 5e ab bd 9a aa 8c bd
       -0.07501776 -0.038083725 -0.083676875 -0.06868477
0001e0 5a c9 31 3e c7 c7 a9 3d 7f 05 1f 3e 10 ef ec 3d
       0.17361966 0.08290058 0.1552944 0.11569035
0001f0 a4 c6 97 3d 60 9f 1c bd 33 a0 73 be 8e d3 3c 3e
       0.074109346 -0.03823793 -0.2379158 0.18440077
000200 f3 9f 4b be b7 c8 80 3e 60 13 aa bc 3b a8 ba 3c
       -0.19885235 0.25153133 -0.020761192 0.022785297
000210 5a 7e ac 3d 50 68 01 be ee 50 92 bd 2c 50 af 3c
       0.08422537 -0.12637448 -0.07144342 0.021400534
000220 f9 d3 15 3d 1f c8 af 3b 52 20 e2 bd f7 43 02 bc
       0.036579106 0.0053644325 -0.11041321 -0.007950774
000230 d4 e3 d6 bd 5c 3a 03 be 91 f7 ab bd 7d 7f b4 3d
       -0.104926735 -0.12815231 -0.08396829 0.08813379
000240 f4 d2 cb 3c ae a0 e4 3d 4c 78 93 bd 78 91 fc 3c
       0.024880864 0.1116346 -0.07200679 0.030831084
000250 b7 ab 2d 3d 19 47 4c be f3 4b 0f be 2c 33 52 3d
       0.04240009 -0.19948997 -0.13993816 0.051318333
000260 db 4e 5b bd 8c 0c 9b bd 0f 77 a9 3d 7e f8 9c bd
       -0.053542 -0.075707525 0.08274662 -0.076645836
000270 db 13 70 3e 0a 38 82 3d f0 b7 18 bc 95 97 33 bc
       0.23445074 0.06358345 -0.009321198 -0.010961433
000280 5f 56 1a be 32 ae 20 3d e0 7d af bd b7 61 36 bd
       -0.1507201 0.039228626 -0.085689306 -0.044526782
000290 24 1d 04 be bb f8 a4 bc 35 bb 5f bd 22 ea 89 bd
       -0.12901741 -0.020138135 -0.054621894 -0.067341104
0002a0 f0 b1 17 bd 83 a7 51 3d 9f 99 00 3e 21 33 0c 3e
       -0.03703493 0.051185142 0.12558602 0.13691379
0002b0 27 ce ed 3a 09 88 fa 3b c8 6b 52 3d cc ab 0e bd
       0.0018143103 0.007645611 0.05137232 -0.034831807
0002c0 c8 54 ef 3d 27 40 d7 bc 1a d7 7a 3c f4 4a 18 3e
       0.116860926 -0.026275707 0.015310073 0.14872342
0002d0 4a 12 59 3e 68 30 f9 3d 58 0d 08 3e c6 6d a1 3d
       0.21198383 0.12167436 0.1328634 0.07882266
0002e0 b7 cb b2 3a 11 ee 2c 3e 9c 8f 01 3d ef b6 dd 3d
       0.0013641034 0.1688769 0.031631097 0.108259074
0002f0 03 f3 f1 bd 64 c9 3b bd 34 21 de bd 52 21 09 3d
       -0.11813929 -0.045846358 -0.10846177 0.033479042
000300 cd da be bd cd 95 99 3c 6b 8d 24 3e b7 29 55 3d
       -0.09319077 0.018748188 0.16069572 0.052041736
000310 05 bb 04 bd f8 17 a3 3d a3 23 06 be b2 11 90 3d
       -0.03240492 0.07963556 -0.13099532 0.07034625
000320 59 4c 17 3e 91 ae 8d be 66 93 8f 3d 13 ec 95 be
       0.14775218 -0.27672246 0.07010536 -0.29281673
000330 61 66 fb bd 7b 7e bc 3d 32 18 d0 3d d7 0e 46 3d
       -0.122753866 0.09203812 0.10160865 0.048353996
000340 b2 c2 20 3e d6 eb ac bc d7 c6 cf 3d e6 fc 25 bb
       0.1569927 -0.02110855 0.101453476 -0.0025327741
000350 d8 4e a7 bd b9 8e c9 3d ca 7f 12 bb b7 71 54 3c
       -0.08169335 0.09841675 -0.0022354 0.012966565
000360 39 bb 9b bd 5c 03 cc 3d 87 0e 61 bd 61 56 05 3d
       -0.07604069 0.09961578 -0.054945495 0.03255308
000370 ad 9b 9a 3d 01 55 3a bd 64 45 a7 bd e2 bf 67 bd
       0.07549224 -0.045491222 -0.08167532 -0.056579478
000380 c0 53 84 bd 79 d6 97 3d 00 f6 44 bd c3 ac 01 3d
       -0.064612865 0.07413954 -0.048086166 0.0316589
000390 cc 6f 29 3d f1 33 12 3e b9 7a fa 3b ba 8e a4 3d
       0.041366383 0.14277627 0.007644024 0.080350354
0003a0 eb d3 a8 3d 20 41 c5 bc 09 c5 57 bd d0 13 1b 3d
       0.08243545 -0.024078906 -0.05267814 0.03786069
0003b0 6b 51 3f 3e e5 ae 40 be 4c 53 65 3c b2 c9 9a 3c
       0.18683402 -0.18816717 0.01399691 0.018895004
0003c0 5f 57 19 3e f2 db 16 be 50 73 b7 bc 48 71 e8 bd
       0.14974736 -0.1473234 -0.022393852 -0.11349732
0003d0 66 b6 ae 3d 7b 33 21 3e eb 0e 64 3d 4d 39 f5 bd
       0.085308835 0.15742294 0.05567829 -0.1197382
0003e0 96 be e7 bc 1c dd e4 bd 8f 4c bf 3a 77 2d 40 be
       -0.02828912 -0.11174986 0.001459496 -0.18767343
0003f0 13 f5 20 bd e0 58 91 bd fc 27 3f 3d db 42 05 bd
       -0.03929622 -0.0709703 0.04666899 -0.03253446

backbone.output1.bias f4 [128]
000000 21 83 5a bc c9 d9 84 bc d0 e3 3d 3d db 5a 41 3d
       -0.013336928 -0.01621713 0.046359837 0.047205787
000010 01 b8 70 3c 76 3c 2c bb 0a 82 13 3d d5 b9 ca 3d
       0.014692307 -0.0026281155 0.036012687 0.09898726
000020 39 8c e4 3d d4 f0 e9 bb 4e 60 c6 3d 48 eb 4e 3d
       0.11159558 -0.0071393047 0.096863374 0.05051735
000030 02 b2 8e 3d f1 7b 8b 3d 2f 34 be 3d 81 ee b2 bc
       0.06967546 0.06810749 0.09287297 -0.021842243
000040 2e 0a 15 3d 92 15 1c bd 21 80 cd 3d 1d f6 c7 3d
       0.03638666 -0.03810651 0.10034204 0.09763739
000050 0f 18 8d 3d 2b 51 62 3c 0a 9c 97 3d 0a fa 7b 3b
       0.068893544 0.013813297 0.07402809 0.0038448595
000060 3f 5f 11 bc e6 21 48 bd 39 ef 20 bb 24 e0 e4 bc
       -0.008872806 -0.048860453 -0.002455665 -0.02793891
000070 b0 d2 dc 3d 54 43 ae bc 06 70 d9 3d 4e 77 dc 3d
       0.10782373 -0.021272339 0.1061707 0.10764943
000080 8c 0c 17 bd 7f be 00 3c ab 38 47 3d c7 f8 fe 3d
       -0.0368772 0.007857918 0.048638027 0.12449794
000090 e2 d7 d7 3d 7a fb a6 bc 03 6d 63 3d 0b 2a cb 3c
       0.10539223 -0.020383585 0.055523884 0.024800321
0000a0 66 4e 4a bd e7 48 7f bc 78 42 a2 bd 73 ae 91 bc
       -0.049391173 -0.015581346 -0.07922834 -0.01778338
0000b0 4e 6d 91 bd 4f ba 2b bd b5 38 c9 bd 94 58 cb bd
       -0.07100926 -0.041925725 -0.09825269 -0.09929004
0000c0 c9 c3 1c be f4 4a 2b be 4f 9f 0d be bc 05 25 be
       -0.15309061 -0.16727811 -0.13830303 -0.16115469
0000d0 d0 fc 59 bd 9e d8 c9 bd 0b a4 0f be 32 5c 5e bd
       -0.053219616 -0.098557696 -0.14027421 -0.054287143
0000e0 69 96 14 be 92 c5 ea bd 8a d7 08 be ab 03 d9 bd
       -0.14510502 -0.11463465 -0.13363472 -0.10596403
0000f0 8c 86 69 bd ab b0 11 be c0 fb 21 be 59 cf 95 bd
       -0.05701308 -0.1422755 -0.15818691 -0.07314939
000100 31 84 1e be d8 74 ea bd d3 e2 06 be 09 c1 ef bd
       -0.15480115 -0.114480674 -0.13172464 -0.117067404
000110 4e 8d ad bd a1 9b 1f be 0e fe ec bd 75 4d ee bd
       -0.08474217 -0.15586711 -0.115718946 -0.116358675
000120 54 bd a0 bc e7 a6 0b be 46 9e c3 bc 99 66 73 bd
       -0.019621529 -0.13637887 -0.023879182 -0.059424017
000130 33 1c 6c bd 98 e9 ba bd 9f 37 0d be 15 77 7f bc
       -0.05764408 -0.09126586 -0.13790749 -0.015592356
000140 fa e6 17 be 05 df a1 bd 05 71 1a be 2c eb 08 be
       -0.14834204 -0.07903866 -0.15082176 -0.13370961
000150 cc df 9f bd 2f e7 c5 bd 80 c9 24 be d4 54 0f be
       -0.07806358 -0.096632354 -0.16092491 -0.13997203
000160 f7 b3 de bd ef 2d 76 bd 6d 5a 95 bd b4 c3 91 bc
       -0.10874169 -0.0601024 -0.07292638 -0.017793514
000170 2d 49 90 bd 02 26 22 be 1d 54 cc bd 8f 4f c9 bd
       -0.07045207 -0.15834811 -0.09976981 -0.09829628
000180 c2 7f 93 bc a3 2e 74 bd 15 f9 ff bd ea 2b cc bd
       -0.018005256 -0.05961479 -0.124986805 -0.099693134
000190 4f 1f a0 bd ae cf f9 bd c2 09 05 be 84 86 ac bd
       -0.07818472 -0.12197815 -0.12992004 -0.08424094
0001a0 28 13 8b bd 52 3b 19 be ef 42 e4 bc eb b3 0e be
       -0.06790763 -0.14964035 -0.027863948 -0.13935821
0001b0 26 31 be bd 9a 51 d8 bd 40 f7 8e bc e0 55 70 bd
       -0.09286718 -0.10562439 -0.017451882 -0.058675647
0001c0 aa e4 f4 bd ed fd 01 be 17 8d 24 be 9f 86 1c be
       -0.11957677 -0.12694521 -0.16069447 -0.15285729
0001d0 12 b1 c5 bc b7 6b 00 be 7a 01 b0 bd e5 60 1c be
       -0.024132285 -0.1254109 -0.08594032 -0.15271337
0001e0 0b d7 8e bd 8b 5c f8 bd c9 64 2b bc 24 99 60 bd
       -0.0697461 -0.12127026 -0.010461041 -0.054833546
0001f0 90 a7 a2 bd 2a f0 1a bd e7 df a4 bd 0f 4c cb bd
       -0.07942116 -0.037826695 -0.080505185 -0.099266164

classifier.0.weight f4 [40, 128]
000000 d1 22 69 3c d6 42 47 3d 42 c5 80 bd df 2a aa bd
       0.014229492 0.048647724 -0.06287624 -0.08308958
000010 97 f9 c1 3c f1 e9 39 3d bb d5 77 bc fe 9d 96 3d
       0.023678584 0.04538912 -0.015126641 0.07354353
000020 48 82 d7 bc a1 13 3a bd 9d e5 8a bd 6b 44 36 3d
       -0.02630724 -0.045428876 -0.067820765 0.044498842
000030 5f 44 b3 3d cb 38 2c 3d ce 4b 7c bd 49 0d 60 bd
       0.08753275 0.04204635 -0.06159573 -0.05470017
000040 1b 71 95 3c 5e 2c 03 3c ac 6e b3 3c 7e 50 52 bd
       0.01824241 0.008006183 0.021903358 -0.051346295
000050 3f de 90 bd 0e 04 76 3d 14 bf 41 3c 23 9f 73 bd
       -0.0707364 0.06006246 0.011825342 -0.059477936
000060 fe 34 9c 3d 0b 97 9e bc d4 98 9b 3d 74 b5 65 bd
       0.07627295 -0.019359132 0.07597509 -0.05608125
000070 64 8b 78 3d 8c c7 b4 bd 40 53 4a bd 0f b1 b2 3c
       0.06067981 -0.08827123 -0.0493958 0.021812944
000080 2b da 2a bd a1 26 54 bd a1 05 b2 3d c1 4a 63 bc
       -0.041711967 -0.051794652 0.0869248 -0.013872803
000090 f0 c6 46 3d c4 43 23 3d b7 c0 9f bc 60 49 98 bd
       0.048529565 0.03985955 -0.019501073 -0.0743587
0000a0 f4 e8 f7 bb 76 74 5d bc 50 e2 60 3d 71 cd a5 3d
       -0.007565612 -0.013516536 0.05490333 0.080958255
0000b0 23 fe 81 3d d2 90 77 3d f1 32 a7 3b f5 0d 2a bc
       0.06347301 0.060440846 0.0051025082 -0.010379304
0000c0 39 0f 97 bd 12 24 ff 3c 76 30 50 bd 8c 3b 21 bc
       -0.0737595 0.03114513 -0.050827466 -0.009840857
0000d0 9b d7 c5 bc dd 99 ac 3c b1 aa 6d 3c 98 33 1a 3d
       -0.02415066 0.021069461 0.014506028 0.03764686
0000e0 bc ee b4 3d bf d3 4e 3d df c2 1c 3c 55 45 9d bd
       0.088345975 0.050494906 0.009567945 -0.0767924
0000f0 21 c9 ca bc 98 ea 7a 3d 4d e1 9a bd 24 00 8a bd
       -0.024754109 0.061258882 -0.07562504 -0.06738308
000100 cf 46 af 3d 2c f6 a2 3d f4 ac a4 bd e7 9b 83 bd
       0.085584275 0.0795711 -0.08040801 -0.064262204
000110 b9 9b 56 3d ef 58 99 3d b1 21 ad 3d b9 35 73 3d
       0.052394602 0.07487666 0.08453692 0.059377406
000120 91 5e 08 bc 53 60 89 bd 89 aa 5f bd 79 66 7f 3d
       -0.008323328 -0.067078255 -0.054605994 0.062353585
000130 5c cd 91 3d 74 8e 9b bd 75 02 0a 3c ad e4 36 3d
       0.07119247 -0.0759553 0.008423437 0.044651676
000140 bb 0e ad bd a1 21 3c bd d0 21 b0 3c c1 d6 8b 3d
       -0.08450075 -0.04593051 0.021500498 0.068280704
000150 34 a0 ae 3d bc 14 94 3d ec 0b 80 bc c8 aa 02 3d
       0.0852665 0.07230517 -0.015630685 0.03190115
000160 04 16 f7 3c 9b b9 26 bd 9a 57 86 bd 2b 4d de 3c
       0.030161865 -0.04070435 -0.065596774 0.027136406
000170 28 e9 84 bd 53 93 56 3d bc 47 14 3d bd 62 1e bd
       -0.064897835 0.052386593 0.036201224 -0.038668383
000180 6d 05 2c bd 64 c3 6e bd 3e 69 a4 bd a1 fe 71 3d
       -0.041997362 -0.058291808 -0.08027886 0.059080724
000190 cd 91 5a bd 9b 9e 04 3d 4d 66 76 bd 4b fd 0c 3c
       -0.053361703 0.03237782 -0.060156155 0.008605312
0001a0 4e 63 95 3d 71 0f f5 bc cd 54 85 3d d6 80 85 bc
       0.072943315 -0.02991459 0.06510315 -0.016296785
0001b0 31 e1 b1 3c ef 09 a6 3d 16 5c 92 bb 84 26 02 bd
       0.021713825 0.081073634 -0.004466544 -0.031775013
0001c0 10 d1 ae bd 42 45 45 bd 63 ec 65 bd bc 28 18 3d
       -0.08535969 -0.048161753 -0.05613364 0.037148222
0001d0 5d 92 34 bd f3 27 9f 3d e0 13 c8 3c 49 1b 7d 3c
       -0.044084895 0.077712916 0.02442354 0.0154484
0001e0 9d e6 57 3d bb 30 f3 bc ae 3d de bc fd 37 34 3d
       0.052710164 -0.029686322 -0.02712902 0.043998707
0001f0 b5 17 53 3c 40 93 4f 3b fa ce cb bc 71 cc 05 3d
       0.01288407 0.0031673461 -0.024878968 0.032665674
000200 a8 07 8f bd cf 72 b0 3d 07 7e 3c 3c 85 da 3f 3d
       -0.06983882 0.08615648 0.011504657 0.046839256
000210 a4 f1 87 bd 87 c0 40 bd 9a f4 51 bb 0b c1 95 bd
       -0.06637886 -0.04705861 -0.0032036663 -0.07312211
000220 6e 30 54 3c d7 8c c3 bc 0c 8f 86 bd e6 f0 f5 3c
       0.012951 -0.023870869 -0.06570253 0.030022096
000230 2b 1c a7 bd 94 4e 61 bd 62 a8 d6 bc c3 cc 5b bd
       -0.081596695 -0.05500658 -0.026203338 -0.053662073
000240 81 81 0c bc 6d c4 a7 3b d9 30 15 bd 20 89 83 3d
       -0.008575798 0.0051198513 -0.036423538 0.06422639
000250 c6 65 9e 3d bc b4 2e bd 8a 86 94 bd c6 57 1b bd
       0.077342555 -0.04265283 -0.07252224 -0.037925504
000260 c7 59 31 3c 27 4c a4 3d e8 67 bc bc 4b 7a cd bb
       0.010824627 0.080223374 -0.022998765 -0.006270682
000270 3d cc e4 3c 34 f8 5b 3d 0c 19 13 3d 6f c9 88 bd
       0.02792942 0.0537035 0.03591256 -0.066790454
000280 16 c6 4d 3c cb f4 6b bd fd 1e 9a 3d e8 67 a3 bb
       0.012559434 -0.0576065 0.07525442 -0.004986752
000290 5c c0 ac bd 19 7b b4 bd ab 03 93 bb 18 03 95 3d
       -0.08435127 -0.088125415 -0.0044865212 0.07275981
0002a0 18 b0 99 bd 44 37 e3 bc b8 2d 3b bd ab 8b 82 bd
       -0.0750429 -0.027736314 -0.045697898 -0.06374296
0002b0 87 63 96 bd a3 dc 99 3d 8b 9b b9 3c 91 e0 a1 bd
       -0.07343202 0.07512786 0.022657176 -0.07904161
0002c0 cc 94 f1 bb 25 1c c7 3a f3 75 92 bd f9 c2 05 3c
       -0.0073724743 0.0015190883 -0.07151403 0.008164161
0002d0 95 f2 f4 bb 1e 82 85 bd 8c 16 77 3c c0 9f 61 bd
       -0.007475207 -0.065189585 0.015081059 -0.05508399
0002e0 89 e8 44 3c 55 30 0c bd 1b 67 13 3c cc a6 d1 3c
       0.012018331 -0.03422578 0.00899675 0.02559223
0002f0 0f 6f 99 bd 74 db 85 3a be d1 a7 3d 43 db 0c bc
       -0.07491886 0.0010212497 0.08194302 -0.008597198
000300 1e 9a 8e bd 6a 25 85 bd 15 ad 3e bc d3 7e 2f 3c
       -0.06962989 -0.06501277 -0.011637946 0.01071139
000310 23 be 98 3d 2d 20 89 bd 57 06 9b 3d f8 be a2 3d
       0.07458141 -0.0669559 0.075695686 0.07946581
000320 df f6 a6 bd 88 e8 19 3d 29 8d 56 bd 02 ff b0 3d
       -0.08152556 0.037575275 -0.052380715 0.08642389
000330 f2 ff a2 3d 53 f4 7f bd 5e d7 70 bd 5c 1d 80 3c
       0.07958974 -0.062488865 -0.05879914 0.015639
000340 3c 98 2f bd bd 73 43 bd 63 56 aa bd 28 50 74 3d
       -0.04286979 -0.0477178 -0.08317258 0.059646755
000350 aa 6b a8 bd b1 18 85 3c 93 6f 27 bc 70 a3 95 bd
       -0.0822366 0.016247125 -0.010219472 -0.07306564
000360 4e a4 39 3d e6 63 3e bd b7 89 81 bc f1 03 d5 bc
       0.04532271 -0.04648199 -0.015812738 -0.026002856
000370 ad 76 87 3d de 6b 9f bd 6a fe 4a 3d 98 c5 43 3d
       0.066144325 -0.07784246 0.049559034 0.047795862
000380 9f b0 6e bd 8c dc 3e 3c b0 57 8b 3d a7 a9 02 bd
       -0.058273908 0.011649262 0.068038344 -0.031900074
000390 88 08 67 3b e5 e5 7d 3d ac 04 aa bd fb 36 6f 3c
       0.0035252888 0.061986823 -0.08301672 0.014600511
0003a0 c5 01 ce bc 9f 0c 6b bc 94 c2 61 3d eb c2 ce 3c
       -0.025147328 -0.014346271 0.055117205 0.025239429
0003b0 92 f2 90 bd 61 ce 5e 3d 9a a0 59 3d ab 16 03 3c
       -0.070775166 0.054396037 0.053131677 0.00800101
0003c0 c5 ff 14 3c a4 cb 12 bd c4 98 2f bc 58 95 76 bd
       0.009094183 -0.035838738 -0.0107175745 -0.06020102
0003d0 db f3 99 3d aa fa a5 bb d8 db 88 3d 2c bf e1 bc
       0.07517215 -0.005065282 0.06682557 -0.027556978
0003e0 8e e5 24 3d ec d7 b7 3c 33 62 bd bc 26 27 0a bd
       0.040257983 0.022441827 -0.023118114 -0.03372874
0003f0 f4 21 20 3d 15 1a 38 bc 89 90 a0 bc 47 41 86 bd
       0.03909488 -0.011236687 -0.01960017 -0.065554194

classifier.0.bias f4 [40]
000000 63 35 61 3d 7e cd 80 bc be a7 04 bd c5 50 eb bc
       0.054982554 -0.015722986 -0.032386534 -0.028725037
000010 1b da 05 bd e5 e7 81 bc e5 68 26 3d 6c c0 0d bd
       -0.032678705 -0.015857646 0.04062738 -0.034607336
000020 00 82 e3 3c 11 70 15 bc 8e 5d ab bd 04 9a a0 b9
       0.02777195 -0.009120957 -0.083674535 -0.0003063233
000030 cd 3f 81 bd d9 30 26 3b 3a ff 90 bd 72 3f a5 bd
       -0.06310997 0.0025358705 -0.070799306 -0.08068742
000040 9a a2 ee 3c 30 5f dc 3c b6 81 54 bd 6a 89 34 bd
       0.029130269 0.026900858 -0.051881514 -0.04407636
000050 ce 2f 07 bd b2 1c e5 bc a2 17 e1 bc dc e9 a6 3d
       -0.033004574 -0.027967785 -0.02747709 0.08150074
000060 9e a4 32 3d 18 c7 99 3d 9a 34 93 bd 36 4e 4c bc
       0.043614022 0.07508677 -0.07187767 -0.012469819
000070 fd 1f 30 bd 43 9a 99 bd 05 36 e5 bb d6 94 a2 3c
       -0.042999256 -0.07500126 -0.006994965 0.019846361
000080 ac 36 21 3d 2e 90 03 3d 95 08 66 3d 74 16 1b bd
       0.03935878 0.032119922 0.05616053 -0.03786321
000090 1d 8f a1 bd cf 0d 5b bc d4 73 80 bd a0 2c a2 bb
       -0.07888625 -0.013369991 -0.062720925 -0.0049491674
