Experiment/CVPR2017-LSTM4-440-128.pth (torch, 618820 bytes, 8 tensors)

weight_ih_l0 f4 [512, 128]
0	0x3dc32a6c	0.09529576
1	0xbea611ff	-0.32435605
2	0x3ebfaed5	0.37438074
3	0x3db98f60	0.0906055
4	0xbd95ae5c	-0.07308647
5	0xbeeba886	-0.4602701
6	0x3e3f0eca	0.18657985
7	0x3e600487	0.21876727
8	0xbdbed542	-0.093180194
9	0xbf1999d4	-0.6000035
10	0x3e01fd20	0.12694216
11	0x3e958d6f	0.29209468
12	0x3e24a722	0.16079381
13	0x3db2badf	0.08727049
14	0xbde0df37	-0.10980075
15	0xbca3d37f	-0.01999831
16	0x3dbdd2bd	0.09268711
17	0x3e7592f9	0.23981847
18	0xbe045c8e	-0.12925932
19	0xbad59642	-0.0016295391
20	0x3d4f08f6	0.050545655
21	0xbc15ad2f	-0.0091355285
22	0xbd52cd6d	-0.05146544
23	0x3d4969b3	0.04917307
24	0x3ddb2ab1	0.10701502
25	0x3d123654	0.035696343
26	0x3c27954b	0.010228465
27	0x3dd7ccae	0.105370864
28	0xbd3ef186	-0.046617053
29	0x3d6b7acb	0.05749015
30	0x3d323858	0.043510765
31	0x3d9090d2	0.07058872
32	0x3da8a8ad	0.08235297
33	0xbe8cffdb	-0.27538952
34	0xbdb6cf0f	-0.08926212
35	0xbe1f35d4	-0.15547878
36	0x3eb2d8eb	0.3493112
37	0x3e203975	0.15646918
38	0xbe12cd03	-0.14336018
39	0xbe464feb	-0.19366424
40	0x3de56571	0.11200989
41	0xbda6541c	-0.08121511
42	0x3ec6e09f	0.38843247
43	0xbc48a407	-0.012246138
44	0x3eb92b99	0.36166075
45	0xbe53fec4	-0.20702654
46	0x3cf15cf5	0.02946327
47	0x3e63378f	0.22189163
48	0xbd2094b7	-0.039204326
49	0x3ec10cec	0.3770517
50	0x3efd60f0	0.4948802
51	0xbe43c476	-0.19117913
52	0x3ee93662	0.45549303
53	0x3c2bf927	0.010496414
54	0xbdc80cec	-0.0976809
55	0x3e965d29	0.2936795
56	0x3d0c40a3	0.03424133
57	0x3e1ffafd	0.15623088
58	0x3c97a775	0.018512467
59	0xbd218ea3	-0.03944267
60	0x3dd541e1	0.10412956
61	0x3b4b73a2	0.0031044264
62	0x3eb6320b	0.35585055
63	0x3ec0a4bc	0.37625682
64	0xbc7a2ae2	-0.015269013
65	0x3dc57a77	0.09642499
66	0x3dd62a84	0.10457328
67	0x3e745832	0.23861769
68	0x3e905501	0.28189853
69	0xbc5d3dce	-0.013503505
70	0xbe8db27b	-0.27675232
71	0xbd96e068	-0.07367021
72	0x3e9fa775	0.31182447
73	0xbdc82488	-0.09772593
74	0x3d2d9636	0.04237958
75	0xbea38031	-0.3193374
76	0x3e2652a1	0.16242458
77	0xbe8c4541	-0.27396587
78	0x3ecedd3f	0.40403172
79	0x3e9d98b0	0.30780554
80	0xbe59c181	-0.21265222
81	0x3cd2741f	0.025690136
82	0xbe0df111	-0.13861491
83	0xbcba25c2	-0.022723082
84	0x3e3e1129	0.18561234
85	0x3ec9ce1a	0.39415056
86	0xbcb70702	-0.022342209
87	0x3e64df49	0.22350802
88	0x3dd2acbc	0.10286853
89	0x3e0cbccc	0.13743895
90	0xbd1ca300	-0.038241386
91	0x3e8205a0	0.25394917
92	0xbe53445c	-0.20631546
93	0x3cfe3ae7	0.031033946
94	0x3e3febc7	0.18742286
95	0x3e2707ca	0.16311565
96	0x3d878410	0.06616986
97	0x3c360dcd	0.011111689
98	0x3e5191bf	0.20465754
99	0x3d82a872	0.06379785
100	0xbd4f389e	-0.050591104
101	0x3e09945c	0.13435501
102	0x3d1b778c	0.037955806
103	0x3e11036b	0.1416146
104	0x3e1245fb	0.14284508
105	0xbd7c3e4b	-0.061582845
106	0xbe689dec	-0.22716492
107	0x3df84d86	0.121241614
108	0x3dd55031	0.10415686
109	0xbeceac48	-0.40365815
110	0x3e8357dd	0.25652972
111	0x3e32fc5c	0.1747908
112	0xbcf9f687	-0.030513061
113	0x3e09215f	0.13391636
114	0x3e7ec687	0.2488042
115	0x3dcc7919	0.09984035
116	0xbdee916c	-0.11648831
117	0xbee9a0a9	-0.45630386
118	0xbe03f2b1	-0.12885548
119	0x3ddc8f15	0.10769478
120	0xbe26c907	-0.16287623
121	0xbe3a6acd	-0.18204804
122	0x3de38ca9	0.11110813
123	0xbf4eba32	-0.8075286
124	0x3d29b75d	0.041434634
125	0x3ddee04a	0.108826235
126	0x3d04e76f	0.032447275
127	0x3ec9b1df	0.39393517
128	0xbe38d512	-0.1805003
129	0x3e6958f8	0.22787845
130	0xbd24de33	-0.04025097
131	0x3ce78485	0.028261432
132	0xbe0887f5	-0.13333113
133	0x3e8427a6	0.258115
134	0xbecea546	-0.4036047
135	0xbe0703a7	-0.13184987
136	0xbebc097b	-0.36725983
137	0x3dbb80d2	0.0915543
138	0x3ecb5f67	0.39721224
139	0x3c2fd296	0.01073136
140	0x3e13b5f7	0.14424883
141	0x3c0aafd0	0.0084647685
142	0x3cef7f56	0.029235523
143	0x3df1487e	0.11781405
144	0xbb53bdcf	-0.003230918
145	0x3c025966	0.007955885
146	0xbd5b45d3	-0.053533386
147	0x3dfa139c	0.122107714
148	0x3dae0400	0.08496857
149	0x3d35e7b6	0.04441043
150	0x3c315b1a	0.010824943
151	0x3ea22aab	0.31673178
152	0x3e707638	0.23482597
153	0x3e80fff6	0.25195283
154	0xbc6b2188	-0.014351256
155	0xbd8256ae	-0.06364189
156	0xbcda4bfb	-0.026647558
157	0xbd041378	-0.03224513
158	0xbb397515	-0.0028298546
159	0xbdbb2404	-0.09137729
160	0x3ed2898b	0.41120562
161	0x3cd3494d	0.025791788
162	0x3eee1b3b	0.4650515
163	0x3de23fe5	0.11047343
164	0xbeb181e5	-0.34669414
165	0xbce9307e	-0.028465506
166	0xbc5c46cd	-0.013444615
167	0x3e6c845a	0.23097363
168	0x3e0ae3ab	0.13563411
169	0xbde72d3b	-0.11287924
170	0xbda3c1fe	-0.079959854
171	0xbe584f26	-0.21123943
172	0xbea69c82	-0.3254128
173	0xbf0aa976	-0.54164827
174	0x3d8fdf66	0.07025032
175	0xbe65632e	-0.22401115
176	0xbde5472b	-0.11195215
177	0x3e033192	0.12811878
178	0x3e93a189	0.2883418
179	0xbd9e1706	-0.07719235
180	0x3cdbcbbf	0.026830552
181	0xbe34d738	-0.17660224
182	0x3ce90541	0.028444888
183	0xbed90e88	-0.423939
184	0xbdfe9bbe	-0.12432049
185	0x3ebaeb0e	0.36507457
186	0xbe3eeed1	-0.18645789
187	0x3abba296	0.0014315422
188	0xbe0dd035	-0.13848956
189	0xbe01746a	-0.12642065
190	0xbe9d2b1d	-0.30696955
191	0xbe89b65e	-0.26896948
192	0xbdaef101	-0.085420616
193	0x3e3a426e	0.18189403
194	0x3dc19c21	0.09453607
195	0xbe8d6db4	-0.2762276
196	0xbe08111c	-0.13287777
197	0xbe4a798f	-0.19772933
198	0xbb7c002f	-0.0038452258
199	0xbf2664e4	-0.64997697
200	0xbeb99035	-0.36242834
201	0xbde85bd3	-0.11345639
202	0x3e62c8ef	0.22146963
203	0x3ea96246	0.3308279
204	0xbe1e51ea	-0.15460935
205	0xbc8a7f8e	-0.016906526
206	0xbc577375	-0.013150086
207	0xbe277ebc	-0.16356939
208	0x3f0c895b	0.5489709
209	0xbe919c9e	-0.28439802
210	0x3db8ffd7	0.090331726
211	0xbcb9ddbd	-0.02268874
212	0xbd2e3a53	-0.04253609
213	0x3e786a41	0.24259283
214	0xbe5c2001	-0.21496584
215	0xbe249b6d	-0.16074915
216	0x3d178bfe	0.03699874
217	0xbcc61f9e	-0.024184998
218	0x3e6204d5	0.22072156
219	0xbdad02da	-0.084478095
220	0x3e7a0de0	0.24419355
221	0xbe2abb0a	-0.16672912
222	0xbe823aa8	-0.25435376
223	0x3f2e0043	0.6796915
224	0xbf05945e	-0.52179515
225	0xbd6cfbbe	-0.057857268
226	0x3da1f92c	0.07908854
227	0xbd966728	-0.07343894
228	0xbd0b7a5d	-0.03405224
229	0x3eccfabc	0.40035045
230	0x3ef046e8	0.46929097
231	0xbf14820b	-0.5801093
232	0x3e451159	0.19244899
233	0xbd0956b7	-0.033529963
234	0x3e174da7	0.14775716
235	0x3d5cba82	0.053888805
236	0xbe7067e1	-0.23477127
237	0x3e3fd062	0.18731835
238	0xbe44897d	-0.19193073
239	0x3eb0dcfe	0.34543604
240	0xbe90d497	-0.28287193
241	0xbe0bf56d	-0.13667841
242	0xbe8122c3	-0.25221834
243	0xbe43340b	-0.19062822
244	0xbe7de550	-0.24794507
245	0xbe21f8b7	-0.15817533
246	0xbd9cb5ad	-0.076518394
247	0x3d8fb5a2	0.070170656
248	0xbe5aa7a7	-0.21353017
249	0xbe7c6732	-0.24648741
250	0x3f215a93	0.6302883
251	0x3ca388c6	0.01996268
252	0xbe4096f5	-0.18807586
253	0xbe609775	-0.21932776
254	0xbe0b75b9	-0.13619126
255	0xbee4ffdb	-0.44726452

weight_hh_l0 f4 [512, 128]
0	0x3ecaccd7	0.39609405
1	0xbc845cf0	-0.016157597
2	0x3e7c96b6	0.24666867
3	0xbdb1dbf2	-0.08684529
4	0xbdae4daf	-0.08510911
5	0x3e5a98f7	0.21347414
6	0x3e26c8c0	0.16287518
7	0x3d8b869c	0.06812784
8	0x3e2e8c3a	0.1704568
9	0x3e81fea7	0.25389597
10	0x3d6a0ff8	0.057144135
11	0xbe68d407	-0.22737132
12	0xbd9f2415	-0.07770554
13	0xbe089d0a	-0.13341156
14	0xbe05272f	-0.13003229
15	0x3eb3356b	0.35001692
16	0x3db3c333	0.08777466
17	0x3eac6dd4	0.33677542
18	0x3ecfcf83	0.40588006
19	0x3e138eb0	0.144099
20	0x3db15463	0.086586736
21	0x3e2bf97e	0.16794392
22	0x3e1c6f03	0.15276723
23	0xbccb67d3	-0.02482978
24	0xbd171fbd	-0.036895502
25	0xbea8e34b	-0.3298591
26	0x3e0becc5	0.13664539
27	0x3e624126	0.22095165
28	0x3db55149	0.088533945
29	0xbd529022	-0.051406987
30	0x3b24febc	0.0025176248
31	0xbe81c564	-0.2534591
32	0x3d23ab7c	0.039958462
33	0x3d7268f0	0.059182107
34	0xbea657cb	-0.32488856
35	0xbe93b340	-0.28847694
36	0x3edd95f6	0.43278474
37	0x3dd0370e	0.10166751
38	0x3e439c25	0.19102533
39	0x3e488c4c	0.19584769
40	0x3ebea1b4	0.37232745
41	0xbe5c93cf	-0.2154076
42	0xbb8082b6	-0.003921832
43	0xbe1d9257	-0.15387855
44	0xbd1425e4	-0.036168948
45	0x3be43cfd	0.006965278
46	0xbe4953ee	-0.19660923
47	0xbceea032	-0.029129121
48	0xbd7c4d9c	-0.06159745
49	0x3e44ca5c	0.19217819
50	0xbdb6acab	-0.089196526
51	0x3dcf8577	0.10132878
52	0xbec39ded	-0.38206425
53	0xbe327ce3	-0.17430453
54	0x3e381839	0.1797799
55	0x3e0982d4	0.13428813
56	0x3e1d1728	0.15340865
57	0xbda3b519	-0.07993526
58	0xbe2e26e5	-0.17007025
59	0xbdac737f	-0.08420467
60	0x3e7a147a	0.24421874
61	0xbdaaa970	-0.08333099
62	0xbda40449	-0.0800863
63	0xbe060928	-0.1308943
64	0x3dba8b02	0.09108545
65	0xbc42c91b	-0.011888768
66	0x3daa648c	0.08319959
67	0xbe22c1a6	-0.15894184
68	0xbcbe658a	-0.023241777
69	0xbdc0b04b	-0.09408625
70	0xbda29a7f	-0.07939624
71	0xbe062644	-0.13100535
72	0xbe93ecc9	-0.2889159
73	0x3df25ec6	0.11834483
74	0x3c559e4a	0.013038227
75	0xbe4b3a24	-0.19846398
76	0x3ec158b2	0.37762982
77	0x3dfbc1bb	0.122928105
78	0x3f0751a6	0.5285896
79	0x3e156b21	0.14591648
80	0xbdadde73	-0.084896944
81	0x3e28c29b	0.16480486
82	0x3c9d147b	0.019174805
83	0x3d776b30	0.060404956
84	0xbd533739	-0.051566336
85	0x3d65f594	0.056142405
86	0x3e0195a1	0.12654735
87	0xbdf77dc7	-0.12084537
88	0xbe84794d	-0.25873795
89	0x3dbeb0de	0.093110785
90	0x3e4546b4	0.19265252
91	0xbdce3110	-0.10067952
92	0xbe146b2b	-0.14494006
93	0xbeafd113	-0.34339198
94	0xbea5712a	-0.323129
95	0x3e34ef31	0.1766937
96	0xbd2ebdf7	-0.042661633
97	0x3eafe9fb	0.343582
98	0x3c917d25	0.017759869
99	0x3ea3c962	0.3198958
100	0x3e55ba14	0.20871764
101	0x3e019946	0.12656125
102	0x3da1c559	0.07898969
103	0x3ee704ac	0.45120752
104	0x3e48efeb	0.19622771
105	0x3c7400f2	0.0148928035
106	0x3cc0da5f	0.023541627
107	0x3ea63d96	0.3246886
108	0xbe981f36	-0.29711312
109	0xbdb98cb7	-0.09060042
110	0xbe7cbe70	-0.24682021
111	0xbd8fa1ee	-0.070133075
112	0x3d8c7843	0.068588756
113	0x3ea44df7	0.32090732
114	0xbd8d5624	-0.06901196
115	0x3d43af11	0.04777438
116	0x3ca9309b	0.02065306
117	0x3b98c1a6	0.0046617566
118	0x3e8fd233	0.28090057
119	0xbe7b7ec3	-0.24560075
120	0x3e8b858d	0.2725033
121	0x3e7a6809	0.24453749
122	0xbe1fe7ca	-0.15615764
123	0x3e7a5932	0.24448088
124	0xbd1c25bb	-0.03812192
125	0x3e6e7aee	0.23289081
126	0xbd7076b9	-0.058706973
127	0xbe8ab2fb	-0.27089676
128	0xbd2ee824	-0.042701855
129	0xbe617c6e	-0.22020122
130	0x3f2cdcc2	0.6752435
131	0x3dc08cea	0.09401877
132	0xbdd96326	-0.10614614
133	0x3e2d035a	0.1689581
134	0x3eaa2e7b	0.33238587
135	0xbe06d03b	-0.13165371
136	0x3ddd60fa	0.108095124
137	0x3e71d1d6	0.23615202
138	0x3ecac7ac	0.39605463
139	0x3ba503eb	0.0050358674
140	0xbe0f9d8f	-0.14024948
141	0x3eac9aef	0.33711955
142	0x3ea27d7e	0.31736368
143	0x3dee65db	0.11640521
144	0xbeac07e0	-0.33599758
145	0x3ddfe62a	0.10932572
146	0x3e45214e	0.19250986
147	0x3e73723c	0.23774046
148	0xbe882fe9	-0.26599053
149	0xbe83ede2	-0.25767428
150	0x3ca052b9	0.019570695
151	0x3e9a6e76	0.301624
152	0xbe718ec7	-0.23589621
153	0x3d7383c8	0.05945185
154	0xbe4c9ccb	-0.19981687
155	0xbd829c9f	-0.06377529
156	0xbdb59e68	-0.08868104
157	0x3da32b01	0.07967187
158	0xbe2facae	-0.17155716
159	0x3e04abb9	0.12956132
160	0xbe2db781	-0.16964532
161	0x3cdc5d20	0.026899874
162	0x3ea6f306	0.32607287
163	0xbe3523ec	-0.17689484
164	0xbe68edfd	-0.22747035
165	0xbecb12bf	-0.3966274
166	0x3e7859ea	0.2425305
167	0x3e9b31ac	0.30311334
168	0x3f67fc31	0.9061919
169	0xbe8b2d68	-0.2718308
170	0x3ea7c1d6	0.32765073
171	0xbc77970a	-0.015111694
172	0x3da0c050	0.07849181
173	0xbe3b4394	-0.18287498
174	0xbdf70e80	-0.120633125
175	0xbeac6f1e	-0.33678526
176	0xbed1db2f	-0.40987536
177	0x3ea9eb02	0.3318711
178	0xbeddb0f6	-0.43299073
179	0x3e2fd859	0.17172374
180	0x3cc55399	0.024087714
181	0x3d45ac82	0.04826022
182	0x3e050879	0.12991513
183	0xbea63968	-0.32465672
184	0xbcdcbb2f	-0.026944725
185	0xbc824d73	-0.015906071
186	0xbe9df680	-0.30852127
187	0xbedee98d	-0.4353756
188	0xbd87e11e	-0.066347346
189	0x3e35065f	0.17678212
190	0xbde51c9f	-0.111871
191	0xbebaf09c	-0.36511695
192	0xbdf38ae2	-0.11891724
193	0xbe5415fd	-0.20711513
194	0x3dd3a47b	0.103341065
195	0xbea52a2b	-0.32258734
196	0x3f248ce5	0.6427749
197	0xbe6031a8	-0.21893942
198	0x3dc7b1bb	0.09750696
199	0xbde27e84	-0.11059287
200	0xbe9c50ba	-0.3053034
201	0x3e3c3735	0.18380435
202	0x3efa6962	0.48908526
203	0xbe4bc63e	-0.19899842
204	0xbda7e2b5	-0.08197538
205	0xbd8410c9	-0.06448514
206	0x3e5c2aab	0.21500652
207	0x3eb869bf	0.36018178
208	0x3ea8171a	0.32830125
209	0x3d271d41	0.040799383
210	0x3d704576	0.058659993
211	0xbe9a50d7	-0.301398
212	0xbe776d2e	-0.24162742
213	0xbdc415cf	-0.09574472
214	0xbdce3cce	-0.10070191
215	0xbedb4209	-0.42823818
216	0xbf0374a0	-0.5134983
217	0xbe8a53b6	-0.2701699
218	0x3ed3c821	0.41363624
219	0xbdc217fe	-0.094772324
220	0xbe18a474	-0.14906484
221	0x3e81f00c	0.25378454
222	0xbe98ebbb	-0.29867348
223	0x3e01ac96	0.12663493
224	0xbe973905	-0.2953569
225	0xbe848799	-0.25884703
226	0xbf51eeaa	-0.820048
227	0x3dd75fe3	0.10516336
228	0xbecdc271	-0.4018741
229	0x3e1baf2c	0.15203542
230	0xbe4a7e72	-0.19774798
231	0xbe38f468	-0.18061984
232	0xbdea8ffa	-0.114532426
233	0x3e1669a5	0.14688738
234	0x3e448c00	0.19194031
235	0x3ed2ee6d	0.4119753
236	0x3d989074	0.07449427
237	0xbe878ac8	-0.2647307
238	0x3ca514eb	0.020151576
239	0xbba7e71a	-0.005123985
240	0x3e7c678d	0.24648876
241	0x3edf9d6a	0.43674785
242	0xbd8b9f73	-0.06817522
243	0x3d64bf89	0.055846725
244	0x3c742910	0.014902368
245	0xbe37dcf4	-0.1795538
246	0x3e2c9b44	0.16856104
247	0xbeda0023	-0.4257823
248	0x3ea3d825	0.32000843
249	0xbe42731b	-0.18989222
250	0xbe4eaa79	-0.20182218
251	0x3d600849	0.0546954
252	0x3e864806	0.26226825
253	0x3e85564b	0.260424
254	0x3e131042	0.1436167
255	0xbee49805	-0.44647232

bias_ih_l0 f4 [512]
0	0xbe45e753	-0.19326524
1	0xbb703368	-0.0036651734
2	0x3e192e1b	0.14958994
3	0xbc014580	-0.007890105
4	0xbe00366a	-0.12520757
5	0x3d72862d	0.05920999
6	0xbd3fabfa	-0.04679487
7	0x3eb9caaf	0.36287448
8	0xbeb449d1	-0.35212567
9	0x3cef1f6e	0.029189792
10	0x3e2256ae	0.15853378
11	0x3ec63aae	0.38716644
12	0xbdba93af	-0.091102
13	0xbda30d1e	-0.07961486
14	0xbeb101c8	-0.3457167
15	0xbe78d4ff	-0.24300002
16	0x3c43242f	0.011910482
17	0xbea2084c	-0.31646955
18	0x3efe0f00	0.4962082
19	0xbe719a58	-0.23594034
20	0xbc2207dd	-0.00988957
21	0x3da10c70	0.078637004
22	0x3d93dd99	0.07220001
23	0xbe5cd843	-0.21566872
24	0xbeb04569	-0.34427956
25	0x3def366e	0.116803035
26	0xbea791d5	-0.3272845
27	0x3dfec35f	0.12439608
28	0xbead09ef	-0.3379664
29	0x3e3dcc5c	0.18534988
30	0x3b48c90c	0.0030637411
31	0xbe28f6ff	-0.16500472
32	0xbeee6a22	-0.46565348
33	0x3e0c63e6	0.13709983
34	0xbe22659d	-0.15859075
35	0xbeb8d509	-0.36100033
36	0x3e09f9e8	0.13474238
37	0x3e0dfc06	0.1386567
38	0x3e2a3c55	0.16624577
39	0xbe2805fe	-0.16408536
40	0xbd0cd7da	-0.03438554
41	0x3c8b2e56	0.016989868
42	0x3ebfd251	0.37465146
43	0xbdba5f36	-0.09100191
44	0xbe859ec0	-0.2609768
45	0x3dac7bd9	0.084220596
46	0xbc036618	-0.0080199465
47	0xbe02fe75	-0.1279238
48	0x3f0cc376	0.5498575
49	0xbe4e2998	-0.20133054
50	0x3d80764e	0.06272565
51	0xbed65adf	-0.41866204
52	0xbf0a6422	-0.5405904
53	0xbf0283d1	-0.50982386
54	0x3ec4eb4d	0.3846077
55	0x3e0acd20	0.13554811
56	0xbbf5f2e2	-0.0075057605
57	0x3d889060	0.06668162
58	0xbedb5d5e	-0.4284467
59	0xbe4153d2	-0.18879631
60	0xbb79334a	-0.0038024955
61	0x3ee0cf20	0.43908024
62	0x3e9a3492	0.30118233
63	0x3d8046fe	0.06263541
64	0xbe33697d	-0.1752071
65	0xbeb29068	-0.34875798
66	0xbe8e2c53	-0.27768192
67	0x3ede1542	0.43375593
68	0xbd303366	-0.043017767
69	0x3d558afb	0.052134495
70	0x3e15f3d8	0.146438
71	0xbea8ecb3	-0.32993087
72	0x3e159869	0.14608921
73	0xbe80d41a	-0.2516182
74	0xbe2f3562	-0.17110208
75	0x3eacb7e4	0.33734047
76	0xbe99346f	-0.29922816
77	0xbe6e80c6	-0.2329131
78	0xbde95431	-0.11393011
79	0xbcb293ec	-0.02179905
80	0xbe1808dc	-0.1484713
81	0x3e723efa	0.23656836
82	0xbd8d86ec	-0.069105
83	0xbe9c9a25	-0.30586353
84	0xbc8fba8c	-0.017545007
85	0xbe2b0795	-0.16702111
86	0xbe6983c5	-0.22804172
87	0xbf23e357	-0.6401877
88	0xbeaa4775	-0.33257642
89	0x3d8af497	0.06784933
90	0xbe9ca9ae	-0.30598205
91	0x3ef5c711	0.48003438
92	0x3e435f4c	0.19079322
93	0xbe8125aa	-0.25224048
94	0x3d1d3bb6	0.038387023
95	0xbeb7ed1c	-0.35923088
96	0xbe072041	-0.13195898
97	0xbe0803c7	-0.13282691
98	0xbd3e4e15	-0.046461184
99	0x3e056e71	0.13030411
100	0xbe98f3a3	-0.2987338
101	0xbeccf05b	-0.40027127
102	0xbe989480	-0.29800797
103	0x3e1c6afd	0.15275188
104	0xbe8775ef	-0.26457164
105	0x3b81774a	0.003950988
106	0xbe66886c	-0.22512978
107	0x3dcc8a35	0.099872984
108	0xbe142bfe	-0.14469907
109	0xbdd2a8c5	-0.102860965
110	0xbd8de42f	-0.06928288
111	0xbeb4a000	-0.3527832
112	0xbb8484a0	-0.0040441304
113	0xbdae42b0	-0.085088134
114	0x3ec8a66d	0.39189473
115	0xbeeb461b	-0.45951924
116	0x3dcf2d50	0.101160645
117	0xbe466805	-0.19375618
118	0x3e4f9c49	0.20274462
119	0x3ea91f7a	0.33031827
120	0x3e25d8de	0.1619601
121	0xbeb57837	-0.3544328
122	0x3ddb96d2	0.10722126
123	0xbd5cbd4b	-0.05389146
124	0x3cfe0af8	0.03101109
125	0xbe471b95	-0.19444115
126	0x3e117336	0.14204106
127	0x3d914fbe	0.07095288
128	0xba4f27b9	-0.00079023425
129	0x3e7f6ea1	0.24944545
130	0x3e527218	0.20551336
131	0xbd0e9795	-0.03481253
132	0xbe7814e5	-0.2422672
133	0x3db42c5d	0.08797524
134	0xbcf2e461	-0.029649915
135	0x3e4e15f5	0.20125563
136	0x3c23cebb	0.009998019
137	0x3eb8d965	0.3610336
138	0x3dff8a98	0.124776065
139	0x3e48b190	0.19598985
140	0x3e281ada	0.16416493
141	0x3e0443c1	0.12916471
142	0x3c100395	0.0087899165
143	0x3e45df4d	0.19323464
144	0x3da7180e	0.08158885
145	0x3e892096	0.26782674
146	0x3e138bbc	0.14408773
147	0xbc1f9ef7	-0.00974249
148	0x3e9aa833	0.3020645
149	0xbe05ce2e	-0.13066933
150	0x3d9ee1cf	0.07757913
151	0x3d8e2c26	0.069420144
152	0xbd2e5665	-0.04256286
153	0x3d063275	0.032762963
154	0xbdfd651f	-0.12372803
155	0x3dddca9b	0.108296596
156	0x3d47853e	0.048711054
157	0x3e3c5eaf	0.18395494
158	0x3e0d0deb	0.1377484
159	0xbccd37a2	-0.025050942
160	0x3e9b271f	0.30303285
161	0xbd397368	-0.045276076
162	0xbcdb175d	-0.026744539
163	0x3e0cb4d0	0.1374085
164	0xbe0b3562	-0.13594583
165	0x3da00842	0.07814075
166	0x3df99f67	0.12188607
167	0x3d96ea8d	0.07368956
168	0x3d9e50a9	0.077302285
169	0xbd8bd625	-0.06827954
170	0x3e0db48e	0.13838407
171	0x3d4b3a33	0.04961605
172	0x3a0b00ac	0.00053025293
173	0x3e5a32d8	0.21308458
174	0xbe08fb4d	-0.13377114
175	0x3e6b7ab2	0.22996023
176	0xbbdfd121	-0.00683035
177	0x3c64db1c	0.013968255
178	0xbdf010f0	-0.117219806
179	0xbd4a84f0	-0.049443185
180	0x3bddb5a7	0.0067660394
181	0xbbd5d930	-0.006526135
182	0xbdc3aadd	-0.09554074
183	0x3dd239ad	0.10264907
184	0x3d842fbf	0.06454419
185	0x3e03a08d	0.12854214
186	0xbcda3fee	-0.026641812
187	0x3cf4ae64	0.029868312
188	0x3d479514	0.048726156
189	0xbd1a38de	-0.03765189
190	0xbd364c30	-0.04450625
191	0xbd226737	-0.039649215
192	0x3e839b17	0.25704262
193	0x3db43986	0.08800034
194	0xbdec1b09	-0.11528594
195	0x3e316961	0.17325355
196	0x3d86c2fa	0.065801576
197	0x3e01abea	0.12663236
198	0x3d9a967d	0.075482346
199	0xbde9108d	-0.1138011
200	0xbcbf8ae2	-0.023381654
201	0xbe5be6c2	-0.21474746
202	0xbd0dafa4	-0.034591332
203	0x3d398970	0.045297086
204	0xbdb6ccf5	-0.08925811
205	0xbbf03533	-0.0073305606
206	0x3d113603	0.0354519
207	0x3ba83eb9	0.0051344302
208	0xbdac4fc2	-0.0841365
209	0xbe389884	-0.1802693
210	0x3d11923b	0.035539847
211	0xbd04250f	-0.032261904
212	0xbe389e40	-0.18029118
213	0xbd124e9c	-0.0357195
214	0x3cac0ca3	0.02100212
215	0x3eae2b90	0.3401761
216	0xbcec766c	-0.028865062
217	0x3e17b3b4	0.14814645
218	0x3d936e0e	0.07198726
219	0x3e342cfb	0.17595284
220	0x3e684e82	0.22686198
221	0x3e0accc3	0.13554673
222	0xbd49e52a	-0.049290814
223	0xbd005cb5	-0.031338412
224	0x3e27f2ae	0.16401169
225	0x3e261ef8	0.16222751
226	0x3e805281	0.25062945
227	0x3ddb1938	0.106981695
228	0x3da19ff6	0.07891838
229	0xbd96b2a5	-0.073582925
230	0x3e1b702d	0.1517951
231	0x3d2fe15a	0.04293952
232	0x3eb56c21	0.35434058
233	0xbe0961c3	-0.134162
234	0x3c114a1d	0.008867768
235	0xbe0db487	-0.13838397
236	0xbd9e3a5e	-0.077259764
237	0x3db2ffe2	0.08740212
238	0x3d3bc6c6	0.045843862
239	0x3eaee075	0.34155622
240	0xbc659eaf	-0.014014884
241	0x3c63678e	0.01387967
242	0x3db78d1a	0.0896246
243	0x3db5d8f9	0.08879275
244	0x3de0cf61	0.109770544
245	0x3e6fad0c	0.23405856
246	0xbcc7bb3c	-0.024381272
247	0xbda45475	-0.080239214
248	0x3d8e72e8	0.069555104
249	0x3dfc5efb	0.123228036
250	0x3dd785da	0.10523577
251	0x3d6b2be1	0.057414893
252	0xbd3a631e	-0.04550468
253	0x3e35eac7	0.17765342
254	0x3d3daf99	0.04631004
255	0x3df1d49c	0.1180813

bias_hh_l0 f4 [512]
0	0xbe3c0d38	-0.18364418
1	0xbd8c76dc	-0.06858608
2	0x3e124657	0.14284645
3	0xbd83dd7b	-0.064387284
4	0xbdace9a0	-0.08442998
5	0x3bddd7c9	0.0067701084
6	0xbd32ebc5	-0.04368188
7	0x3ea736d4	0.32659018
8	0xbe88c8d7	-0.2671573
9	0x3d5f0679	0.054449532
10	0x3d9a5fef	0.07537829
11	0x3ee4f282	0.4471627
12	0xbe18c691	-0.14919497
13	0xbe313e85	-0.17309006
14	0xbe8bd84f	-0.27313468
15	0xbe31b652	-0.17354706
16	0x3d24b192	0.040208407
17	0xbea2b2da	-0.31777078
18	0x3eecc66b	0.4624513
19	0xbe6bf9d7	-0.23044525
20	0xbddfe887	-0.10933023
21	0x3d89b5b7	0.067241125
22	0x3dd24dfc	0.102687806
23	0xbe064e3f	-0.13115786
24	0xbee89ee9	-0.4543374
25	0x3e192ab1	0.14957692
26	0xbecd5d80	-0.40110397
27	0x3dff9969	0.124804325
28	0xbeefc810	-0.46832323
29	0x3e5f8656	0.21828589
30	0xbcf5d737	-0.030009849
31	0xbde8bf09	-0.11364562
32	0xbe9d9b36	-0.3078248
33	0x3e446072	0.19177416
34	0xbd154ab8	-0.03644821
35	0xbeb97063	-0.36218557
36	0x3e5da33a	0.21644297
37	0x3bcbcc51	0.006219425
38	0x3e017945	0.12643917
39	0xbe03c723	-0.12868933
40	0x3dcddf80	0.10052395
41	0xbdde0109	-0.10840041
42	0x3eab2034	0.33423007
43	0xbdb2592e	-0.08708416
44	0xbe94378c	-0.2894863
45	0x3d73991f	0.0594722
46	0x3c7b1f5b	0.0153273
47	0xbd690a8a	-0.056894816
48	0x3f1a66d8	0.6031318
49	0xbe87d2d4	-0.26528037
50	0x3d68dcc7	0.056851175
51	0xbec57197	-0.38563225
52	0xbefe21bb	-0.4963511
53	0xbf110941	-0.56654745
54	0x3ed89746	0.42302912
55	0x3e3a0e7c	0.18169588
56	0x3d6e6128	0.058198124
57	0x3dc94028	0.0982669
58	0xbe90fed2	-0.28319412
59	0xbe034fce	-0.12823412
60	0xbde3edf2	-0.11129369
61	0x3ec9e7cc	0.3943466
62	0x3e77eb45	0.24210842
63	0xbb744c79	-0.0037277027
64	0xbe99787d	-0.29974738
65	0xbeb8be4c	-0.36082685
66	0xbe97d44f	-0.29654166
67	0x3ec06471	0.3757663
68	0x3dd1c44f	0.10242521
69	0x3d1d9b81	0.03847838
70	0x3dae19b7	0.085009985
71	0xbecf8673	-0.40532264
72	0x3d36835d	0.04455887
73	0xbe109c17	-0.14122044
74	0xbe5906cc	-0.21193999
75	0x3ebf540f	0.3736882
76	0xbe4d1ed7	-0.20031296
77	0xbe83da15	-0.2575232
78	0xbd9e86b8	-0.07740539
79	0xbe112f11	-0.1417811
80	0xbe415b3f	-0.18882464
81	0x3e823498	0.2543075
82	0x3bfa8bca	0.0076460587
83	0xbebdf391	-0.3709989
84	0xbbcb9749	-0.006213103
85	0xbe924794	-0.28570235
86	0xbe775fb0	-0.24157596
87	0xbf05f83a	-0.5233189
88	0xbeee5425	-0.46548572
89	0x3e4de88a	0.20108238
90	0xbe202594	-0.15639335
91	0x3f17fc23	0.59369105
92	0x3d425af2	0.047450013
93	0xbebbdb4b	-0.36690745
94	0x3e0516da	0.12996998
95	0xbebb3c57	-0.36569473
96	0xbe28bced	-0.1647832
97	0xbe03a9cd	-0.12857743
98	0xbd9038d0	-0.07042086
99	0x3e261c79	0.16221799
100	0xbe47c6f2	-0.19509485
101	0xbefab5fc	-0.48966968
102	0xbe82e482	-0.25564963
103	0x3dd5a7db	0.104324065
104	0xbe641c0d	-0.22276326
105	0x3e16e7c8	0.14736855
106	0xbe8d9c1f	-0.27658173
107	0x3e1e9911	0.15488078
108	0xbe868b90	-0.26278353
109	0xbced949b	-0.029001525
110	0xbd67b31f	-0.056567308
111	0xbe8708aa	-0.26373798
112	0xbced51b4	-0.028969623
113	0xbdaaa72f	-0.08332669
114	0x3ebf9a3f	0.37422368
115	0xbebf1708	-0.3732226
116	0x3e53e82c	0.20694035
117	0xbe637015	-0.22210725
118	0x3e669e6f	0.22521375
119	0x3ea68b4b	0.32528147
120	0x3d1f9105	0.03895666
121	0xbe99a92d	-0.30011883
122	0x3d567215	0.05235489
123	0xbd2c7cff	-0.042111393
124	0x3dab1dd9	0.08355302
125	0xbe62dd1a	-0.22154656
126	0x3e3ddcca	0.18541256
127	0x3d76566d	0.060141016
128	0xbbefea0d	-0.007321602
129	0x3e5690f4	0.20953733
130	0x3e376f4a	0.17913547
131	0xbd8f6a69	-0.07002718
132	0xbea90024	-0.3300792
133	0x3e0d3f2e	0.13793632
134	0xbd011289	-0.031511817
135	0x3e72e65b	0.23720686
136	0xbe0f8dae	-0.1401889
137	0x3ebf1721	0.37322333
138	0x3dbcf91f	0.092272036
139	0x3e102181	0.1407528
140	0x3d0650f8	0.03279206
141	0x3e2ea35a	0.17054501
142	0x3d4788ed	0.048714567
143	0x3e194a6f	0.149698
144	0x3e1399a6	0.14414081
145	0x3e57708e	0.2103903
146	0x3e19c49d	0.15016408
147	0xbcf0de14	-0.02940277
148	0x3ea7cb65	0.32772365
149	0xbdf24ed7	-0.11831444
150	0x3d44be21	0.048032884
151	0xbd8eee69	-0.06979067
152	0xbc88ec83	-0.01671434
153	0x3db790e8	0.089631855
154	0x3d156aba	0.036478736
155	0x3c6e5112	0.014545696
156	0x3d92098e	0.07130729
157	0x3e4b96a7	0.19881688
158	0x3e5dbcd2	0.2165406
159	0x3d230052	0.039795227
160	0x3e964bc6	0.29354686
161	0xbd65e931	-0.05613059
162	0xbd76fcc6	-0.060299657
163	0x3e258a81	0.16166116
164	0xbdc43ce3	-0.09581926
165	0xbdba23e6	-0.09088878
166	0x3e27c9b2	0.16385534
167	0xbd90db3f	-0.07073068
168	0x3da2adf3	0.079433344
169	0xbe62aaa5	-0.22135408
170	0x3e1312d1	0.14362647
171	0xbdc2bc1a	-0.09508534
172	0xbbfc1775	-0.007693226
173	0x3d8b8303	0.06812098
174	0xbdd726db	-0.10505458
175	0x3e762005	0.24035652
176	0x3d0336f8	0.032034844
177	0x3d53ce52	0.051710434
178	0xbdbc38e9	-0.09190542
179	0xbdeeef9a	-0.11666794
180	0xbca1ea9b	-0.019765189
181	0xbd63f7cf	-0.05565625
182	0xbc7a0c5c	-0.015261736
183	0x3c4d2661	0.012521357
184	0x3d9ca4bd	0.07648609
185	0x3d9fb5bb	0.07798334
186	0x3b43fc8d	0.002990517
187	0xbd991c9c	-0.0747616
188	0xbd857c2f	-0.06517827
189	0x3c9bc858	0.01901643
190	0xbddf9075	-0.10916225
191	0xbbb3f940	-0.0054923594
192	0x3e466490	0.19374299
193	0x3d9d138a	0.076697424
194	0x3c3d1867	0.0115414625
195	0x3e338664	0.17531735
196	0x3da5e305	0.08099941
197	0x3da54f0d	0.08071718
198	0x3e2645a3	0.16237502
199	0x3d2b0390	0.041751444
200	0xbd6673bc	-0.056262717
201	0xbe54e0ec	-0.20788926
202	0x3d620c2c	0.05518739
203	0x3d29cc36	0.041454516
204	0x3b14772b	0.0022654037
205	0x3bca6f53	0.0061778217
206	0x3e051249	0.12995256
207	0x3dc939c4	0.09825471
208	0x3cc8ba35	0.024502853
209	0xbdb3f567	-0.08787041
210	0x3d0bb77f	0.034110542
211	0x3d73a330	0.0594818
212	0xbd89f823	-0.067367814
213	0xbd8ede5c	-0.069760054
214	0x3e08627e	0.13318822
215	0x3e88f43e	0.26748842
216	0xbd29f24e	-0.041490845
217	0x3d5c95a4	0.053853646
218	0x3d87150f	0.065958135
219	0x3e76199a	0.24033204
220	0x3e879323	0.26479444
221	0x3e30280c	0.17202777
222	0xba5a7520	-0.0008333493
223	0xbd4db236	-0.050218783
224	0x3e6156d2	0.22005776
225	0x3db964b9	0.090524144
226	0x3e61d86b	0.22055213
227	0x3e1336d4	0.14376384
228	0x3cdd9c12	0.02705196
229	0xbdecb759	-0.11558408
230	0x3e90ba35	0.28267065
231	0xbd98ed93	-0.07467189
232	0x3e83ecd2	0.25766617
233	0xbdc203ee	-0.09473406
234	0xbd834c31	-0.06411017
235	0xbe54d55a	-0.20784512
236	0xbd05ca6d	-0.03266375
237	0x3d8e2358	0.06940335
238	0x3dc20b0c	0.09474763
239	0x3e9b07de	0.3027944
240	0x3d0a9c9b	0.033840757
241	0x3cd4219e	0.025894936
242	0x3db5b380	0.088721275
243	0x3d96e229	0.073673554
244	0x3da4f8ca	0.08055265
245	0x3e62a0a1	0.22131588
246	0x3d34c2d4	0.044131115
247	0xbd59a71c	-0.053137884
248	0x3e070709	0.13186277
249	0x3da2c917	0.07948511
250	0x3d8d24c6	0.068917796
251	0xbc4a0f27	-0.012332714
252	0xbcbb77ae	-0.022884216
253	0x3e51ff70	0.20507598
254	0x3de61b44	0.11235669
255	0x3cf4712a	0.029839117

weight f4 [128, 128]
0	0xbcb5f251	-0.022210272
1	0xbe9e5810	-0.3092656
2	0x3dddd10f	0.108308904
3	0xbf24d3d3	-0.6438572
4	0x3ea4e099	0.32202604
5	0x3eccdc26	0.4001171
6	0x3e0e383b	0.13888638
7	0xbe97cdfa	-0.29649335
8	0x3e2fb447	0.17158614
9	0xbea2de3d	-0.3181018
10	0xbea5c3e6	-0.3237602
11	0x3e0b4015	0.13598664
12	0xbd7cb642	-0.061697252
13	0x3ea72c32	0.32650906
14	0x3e364ddc	0.17803138
15	0xbe6bda94	-0.230326
16	0x3e3167b0	0.1732471
17	0x3e1a39b0	0.15061069
18	0xbeaf7ddb	-0.34275708
19	0xbe37504b	-0.17901723
20	0xbe2a3220	-0.16620684
21	0x3e659474	0.22419912
22	0x3ed06904	0.4070512
23	0xbc26dee1	-0.010184974
24	0x3ed5483e	0.4165668
25	0xbeaca836	-0.33722085
26	0xbe7fc6d9	-0.24978198
27	0xbe939db9	-0.2883127
28	0xbefacd05	-0.48984542
29	0x3e28fa4b	0.16501729
30	0xbd973e0c	-0.073848814
31	0xbe88dbdd	-0.26730242
32	0xbd61bbf7	-0.055110898
33	0x3f3905ad	0.72274286
34	0xbf0554be	-0.5208243
35	0x3ea3294d	0.31867447
36	0x3ed0f042	0.40808302
37	0x3ed474e1	0.41495422
38	0xbe07d1ca	-0.13263622
39	0xbf02715f	-0.5095424
40	0x3f21607b	0.6303784
41	0xbe21813c	-0.15771955
42	0x3ed02c14	0.4065863
43	0xbd8b75b7	-0.06809562
44	0xbf497a99	-0.78702694
45	0x3e014e6a	0.12627569
46	0x3e5d1805	0.21591194
47	0x3de74acf	0.112935655
48	0xbd8dc45e	-0.0692222
49	0xbe40a1b0	-0.18811679
50	0xbd441194	-0.047868326
51	0x3ede122f	0.43373248
52	0x3e9128a9	0.28351334
53	0x3dad519b	0.08462831
54	0xbf1d7277	-0.61502784
55	0xbdb987f0	-0.09059131
56	0x3efec542	0.4975987
57	0x3e9e6cca	0.30942374
58	0x3e318186	0.17334566
59	0x3ef0f1c1	0.47059444
60	0x3edf2966	0.43586272
61	0x3edeed36	0.43540353
62	0x3ea60c24	0.32431138
63	0xbd4e52f6	-0.050372086
64	0xbe01238d	-0.12611218
65	0x3f1250ca	0.57154524
66	0x3dde24c1	0.10846854
67	0xbe773890	-0.2414267
68	0x3d675f5f	0.056487437
69	0xbdb6073f	-0.08888101
70	0x3e11e3b3	0.14247017
71	0x3e63d085	0.22247513
72	0xbebce3f4	-0.36892664
73	0xbf04a5fd	-0.5181578
74	0xbd1b40ca	-0.037903585
75	0xbe2ee651	-0.17080046
76	0xbf0a3d3d	-0.5399969
77	0x3e91e354	0.2849375
78	0xbad7fcb2	-0.0016478507
79	0x3e8e25ef	0.27763316
80	0xbe3ac08f	-0.18237518
81	0x3e8444a3	0.25833616
82	0xbd92ef65	-0.07174567
83	0xbec7f299	-0.39052275
84	0xbdd7de17	-0.10540407
85	0x3acd3732	0.0015656708
86	0x3e2bc771	0.167753
87	0x3eac9eb6	0.33714837
88	0xbed0cf9e	-0.407834
89	0xbf14ba9d	-0.5809725
90	0x3ef0af0d	0.47008553
91	0x3f039187	0.5139393
92	0xbddf4447	-0.10901695
93	0x3debde88	0.11517054
94	0xbe823ebd	-0.2543849
95	0xbeaaece3	-0.33383855
96	0x3f02ec03	0.51141375
97	0xbebba3f3	-0.3664852
98	0x3d626e53	0.055280995
99	0xbc8fe7b2	-0.017566536
100	0xbe31104f	-0.17291377
101	0xbd5e4974	-0.05426927
102	0xbef014f3	-0.46890983
103	0xbd54f798	-0.051993936
104	0xbf0bfb2f	-0.5468015
105	0x3cf1171e	0.029429968
106	0x3e29d440	0.16584873
107	0x3e9f38db	0.31098065
108	0xbc4b4e69	-0.012408831
109	0x3f45362b	0.7703578
110	0xbe0e649a	-0.13905564
111	0x3e2ac32d	0.16676016
112	0xbe2960fb	-0.16540901
113	0x3e9c0681	0.30473712
114	0xbcaccd58	-0.02109401
115	0x3c1a25a4	0.009408388
116	0xbededa38	-0.43525863
117	0xbddcb4bf	-0.10776662
118	0xbdb547ab	-0.0885156
119	0xbe62c4a1	-0.2214532
120	0x3dd75267	0.10513764
121	0x3e7dd755	0.24789174
122	0xbf4dc778	-0.8038249
123	0xbf2bb01d	-0.670656
124	0xbde9c16a	-0.11413844
125	0xbe8dc57f	-0.2768974
126	0xbed34d18	-0.41269755
127	0xbe92d431	-0.28677514
128	0x3dab072b	0.083509766
129	0xbee3623f	-0.44410893
130	0x3ed90983	0.4239007
131	0x3d64e8dc	0.055886135
132	0x3ed2f4ec	0.41202486
133	0xbe0921b1	-0.13391759
134	0x3ed65c87	0.41867468
135	0x3e76f6ac	0.24117535
136	0x3d557dc1	0.05212188
137	0xbdf522ca	-0.11969526
138	0xbdcc2e72	-0.09969796
139	0xbf17eb2b	-0.5934321
140	0x3ef220fa	0.47290784
141	0x3d70be00	0.058774948
142	0x3f08a573	0.53377455
143	0xbdab4117	-0.08362024
144	0x3ef5266c	0.47880876
145	0x3e0e69a1	0.13907482
146	0xbf1319b4	-0.57461095
147	0xbd8044b6	-0.062631056
148	0xbec8e0f0	-0.39234114
149	0x3e3fae51	0.1871884
150	0x3eb9ebd4	0.36312735
151	0x3e443629	0.19161285
152	0xbf11c867	-0.56946415
153	0xbd175398	-0.036944956
154	0x3d1f85ae	0.038945846
155	0x3e6c74a9	0.23091377
156	0xbebaa4a9	-0.3645375
157	0xbe3f32e7	-0.18671761
158	0x3e800b0c	0.25008428
159	0x3ea3863f	0.3193836
160	0xbe2a66c8	-0.1664077
161	0x3e68085a	0.22659436
162	0x3f008fc9	0.502194
163	0x3db68b34	0.0891327
164	0x3edebc84	0.435032
165	0xbd3d0529	-0.0461475
166	0xbe8d1d12	-0.2756124
167	0xbf5be308	-0.858933
168	0xbe5e0e82	-0.21685222
169	0xbd9a3960	-0.07530475
170	0x3f6cb342	0.92461026
171	0xbeeca847	-0.46222135
172	0xbdc2bf21	-0.09509111
173	0x3e0a3e1a	0.13500252
174	0x3eeca1cf	0.462172
175	0x3cfae847	0.030628337
176	0xbe9fa5d4	-0.31181204
177	0x3e0ebd1e	0.1393933
178	0x3e115151	0.14191176
179	0x3eff1bb2	0.49825817
180	0x3d3e6c7e	0.046490185
181	0xbf091860	-0.5355282
182	0x3dda8d0f	0.10671436
183	0xbed678ea	-0.41889125
184	0xbf5cdb2f	-0.8627195
185	0xbee41746	-0.44549006
186	0xbee8deb5	-0.45482412
187	0x3e13184c	0.14364737
188	0x3eb2a2b1	0.3488975
189	0xbe0f935e	-0.1402106
190	0x3dbf98ea	0.09355338
191	0x3e5ff9e5	0.21872671
192	0xbecbff88	-0.39843392
193	0xbe367c0e	-0.1782076
194	0xbd5b2fb5	-0.053512294
195	0x3e4b5f21	0.19860508
196	0xbea62176	-0.32447404
197	0xbe27b69c	-0.16378254
198	0x3f305efd	0.6889494
199	0x3e885a43	0.26631364
200	0xbdab8f71	-0.08376969
201	0xbf120b77	-0.57048744
202	0xbe773a98	-0.24143445
203	0xbe2d0699	-0.16897048
204	0xbe561a1b	-0.20908396
205	0x3dcbcaff	0.09950828
206	0xbd28a1c9	-0.041169915
207	0xbef5f478	-0.48038077
208	0x3d025187	0.03181603
209	0x3e9a29f4	0.30110133
210	0x3f1c0b06	0.6095432
211	0x3e9c38a4	0.30511963
212	0xbe105bff	-0.14097594
213	0xbec96f27	-0.39342615
214	0xbe82f9bf	-0.25581166
215	0x3efb8f5e	0.49132818
216	0xbf356c9f	-0.7086887
217	0xbf24bc37	-0.64349693
218	0x3e0c584d	0.13705559
219	0xbeb795ef	-0.35856578
220	0xbd424bf5	-0.04743572
221	0x3c71ddd1	0.014762358
222	0x3e0cc4de	0.13746974
223	0xbd8a82b7	-0.06763213
224	0xbe6dd58e	-0.23225996
225	0x3e58f81e	0.21188399
226	0xbd0399d6	-0.03212913
227	0xbea068cc	-0.31329954
228	0x3f38aac3	0.7213556
229	0x3ed7c3b9	0.42141512
230	0x3ed3a7e3	0.41339025
231	0xbee079d4	-0.43842947
232	0xbf05be2b	-0.522433
233	0x3e78006f	0.24218915
234	0x3f26ab16	0.65104806
235	0xbef0486d	-0.46930256
236	0x3e2ce0e3	0.16882662
237	0xbed7bb6b	-0.42135176
238	0xbed72ea7	-0.4202778
239	0xbea58e68	-0.3233521
240	0x3e5980ff	0.21240614
241	0xbe34fdf8	-0.17675006
242	0x3ede2aa1	0.43391898
243	0xbe7bcf6d	-0.24590845
244	0x3ee5bea5	0.44872013
245	0x3e2f2a8b	0.17106073
246	0xbe8405fd	-0.2578582
247	0xbd0acc46	-0.033886217
248	0xbdde0e2c	-0.10842547
249	0x3f3ec85b	0.7452447
250	0xbe88ccc7	-0.26718733
251	0xbe6a16aa	-0.22860208
252	0xbdb2e1c2	-0.08734466
253	0xbe8e270d	-0.27764168
254	0xbd91e9ed	-0.07124696
255	0xbd571a3c	-0.052515253

bias f4 [128]
0	0x3e936f8e	0.28796047
1	0xbd62420a	-0.05523876
2	0x3e5755f0	0.21028876
3	0xbddc427e	-0.1075487
4	0xbcb3305f	-0.021873651
5	0x3e391825	0.18075617
6	0x3c59724c	0.013271879
7	0xbba03cbd	-0.004890053
8	0x3e36a28e	0.17835447
9	0x3e107800	0.14108276
10	0x3e187da7	0.14891683
11	0x3f15ba85	0.5848773
12	0x3edf91d9	0.4366596
13	0x3c2ca01a	0.010536218
14	0x3e972774	0.29522288
15	0x3d8c110b	0.06839188
16	0xbdc42e73	-0.09579172
17	0x3e66db6f	0.22544645
18	0xbe52054a	-0.2050983
19	0x3e2ed407	0.1707307
20	0x3eb24459	0.3481777
21	0xbd1cc01b	-0.038269144
22	0x3ddb5b2e	0.107107505
23	0x3d905ad7	0.07048576
24	0x3d519850	0.051170647
25	0x3e94ef02	0.29088598
26	0xbd79cbf7	-0.06098553
27	0x3e0a5300	0.13508224
28	0x3e4a524f	0.1975796
29	0x3e652cb5	0.22380336
30	0x3ea21ec6	0.31664103
31	0xbe59617a	-0.2122859
32	0x3d9ed38a	0.077551916
33	0x3dbbd9f4	0.09172431
34	0xbdfb4a01	-0.122699745
35	0x3d38686d	0.045021463
36	0x3c7d3ea0	0.0154568255
37	0x3e179874	0.1480425
38	0x3e3733c5	0.17890842
39	0xbd269759	-0.04067168
40	0x3d0bde5e	0.034147613
41	0xbd5af969	-0.053460512
42	0x3e849390	0.2589383
43	0x3ed28749	0.4111884
44	0x3e52aa8d	0.20572872
45	0x3e14dbb9	0.14536943
46	0x3e00a49f	0.12562798
47	0xbdbfc1c3	-0.09363129
48	0xbd116cf1	-0.035504285
49	0xbe8e980f	-0.27850387
50	0x3d9caef4	0.07650557
51	0x3e761158	0.24030054
52	0x3dd193da	0.102332786
53	0x3e481435	0.19538958
54	0x3ead5cc2	0.3385983
55	0x3c2bc168	0.010483123
56	0x3dc4a148	0.096010745
57	0x3e8c3f71	0.27392152
58	0x3ca58099	0.020202922
59	0xbe8ad7c8	-0.27117753
60	0x3df1f408	0.118141234
61	0x3df452b5	0.119298376
62	0x3caa9f59	0.020827936
63	0x3e2b0d4e	0.16704294
64	0xbbb13f03	-0.005409123
65	0x3e717203	0.23578648
66	0xbdcce065	-0.10003737
67	0xbe3b9346	-0.18317899
68	0xbcea6f3e	-0.028617498
69	0x3e377c74	0.17918569
70	0x3d907760	0.07054019
71	0x3e511032	0.20416334
72	0x3e09ef95	0.134703
73	0x3e2f11da	0.17096654
74	0x3daac100	0.08337593
75	0xbdbedc70	-0.09319389
76	0x3dd62364	0.10455969
77	0x3e851c63	0.2599822
78	0x3d109ab7	0.035303798
79	0x3dfd9bc3	0.12383225
80	0x3edc3674	0.43010294
81	0xbe027ca9	-0.12742867
82	0x3ea7ed1a	0.32798082
83	0xbd9f7531	-0.07786024
84	0x3cb27552	0.021784458
85	0x3e879936	0.26484078
86	0xbdeb48bc	-0.11488482
87	0x3ee6f69d	0.45110026
88	0x3e0fc7fd	0.14041133
89	0x3de76c1a	0.112999156
90	0x3d66ac93	0.056316923
91	0x3e825e61	0.2546263
92	0x3d6ca2de	0.05777251
93	0x3dc1013c	0.094240636
94	0x3d8c5a12	0.06853117
95	0x3ea4ca79	0.32185724
96	0xbcdeebef	-0.027212111
97	0x3d27abc0	0.040935278
98	0x3eb63f05	0.35594955
99	0x3ce936fd	0.028468603
100	0xbe62d0bc	-0.22149938
101	0xbd0e08d6	-0.034676395
102	0x3e8f7e98	0.2802627
103	0xbe0aaced	-0.13542528
104	0x3db90b98	0.090354145
105	0x3d59413f	0.05304074
106	0xbd504c34	-0.050853923
107	0x3d3491cc	0.044084355
108	0x3e0b7d70	0.1362207
109	0x3dcdbb43	0.10045483
110	0x3e31d75d	0.17367311
111	0xbe089139	-0.13336648
112	0xbe148f03	-0.1450768
113	0x3d5524d9	0.052037094
114	0xbb5adce2	-0.0033395817
115	0x3dedc7dd	0.116103865
116	0x3eac0c58	0.33603168
117	0xbd56a18c	-0.052400157
118	0x3df635fe	0.12022017
119	0x3c3e87c2	0.011629047
120	0x3e2bca98	0.16776502
121	0x3e32a404	0.1744538
122	0x3ded99dc	0.11601612
123	0x3c8d40ea	0.017242867
124	0x3d30e86d	0.04319041
125	0x3c4a1175	0.012333264
126	0xbdf4eee5	-0.11959628
127	0xbdb52179	-0.08844275

weight f4 [40, 128]
0	0xbf0e7eda	-0.5566231
1	0xbe339e79	-0.17540921
2	0xbd5e27da	-0.054237224
3	0x3ed6e763	0.4197341
4	0xbe88585a	-0.26629907
5	0x3e0044f0	0.12526298
6	0xbf937021	-1.1518594
7	0x3d9670c5	0.07345728
8	0xbf1b3db8	-0.6064105
9	0xbff0038a	-1.875108
10	0xbe2f4aa7	-0.17118321
11	0xbe56a5b1	-0.20961644
12	0x3e8bd785	0.27312866
13	0x3eae77f8	0.34075904
14	0xbdec9853	-0.11552491
15	0xbebc93a0	-0.3683138
16	0x3e664feb	0.22491424
17	0xbeebe367	-0.46071932
18	0x3ecec78f	0.40386626
19	0xbe33d98d	-0.17563458
20	0x3de6ca08	0.11269003
21	0xbfa5ff53	-1.2968544
22	0xbebc7475	-0.368076
23	0x3e2c6e20	0.16838884
24	0x3e8b54a2	0.27213007
25	0xbead3815	-0.3383185
26	0xbf10f062	-0.56616795
27	0xbf073cbc	-0.5282705
28	0x3eb2e92b	0.34943518
29	0xbf76d08d	-0.96411973
30	0x3eff7b2b	0.49898657
31	0xbd92dc1d	-0.071708895
32	0x3de748e5	0.112932004
33	0xbfa8652b	-1.3155874
34	0xbe90b1ac	-0.28260553
35	0xbea32aaf	-0.31868502
36	0xbdddb784	-0.108260185
37	0xbedaeb45	-0.4275762
38	0x3e93b10f	0.28846022
39	0x3f1f4568	0.6221528
40	0xbdae1dd0	-0.0850178
41	0xbf159bab	-0.58440655
42	0xbf5ebba0	-0.87005043
43	0xbc9052be	-0.01761758
44	0x3e28a39e	0.16468665
45	0xbf86ae02	-1.0521853
46	0x3e2aaa20	0.1666646
47	0x3e8f74d9	0.28018835
48	0xbd97bcde	-0.074090704
49	0xbf217b22	-0.6307851
50	0xbf0f5621	-0.559908
51	0x3ebb0b94	0.3653227
52	0xbe7cd0aa	-0.24688974
53	0x3e9024b8	0.28153014
54	0xbf3ac391	-0.7295466
55	0x3dce5831	0.10075415
56	0x3e6d6656	0.2318357
57	0xbeb408c6	-0.35162944
58	0xbe626d4b	-0.22112004
59	0xbf95628e	-1.1670702
60	0xbefc465c	-0.4927243
61	0xbe1ed251	-0.15509917
62	0xbf52d970	-0.82363033
63	0x3eb485e7	0.3525841
64	0xbfa4ca15	-1.287417
65	0x3ebf2740	0.37334633
66	0x3cedb9c6	0.029019248
67	0x3c80c78d	0.015720153
68	0xbf3717ab	-0.7152049
69	0xbf70c97e	-0.9405745
70	0xbf6b8fe5	-0.9201644
71	0xbdfcbcde	-0.12340711
72	0xbe3a9674	-0.18221456
73	0x3dd23626	0.10264234
74	0x3d1c1782	0.038108356
75	0xbe37af82	-0.17938045
76	0xbeaf1625	-0.34196582
77	0xbf454f94	-0.7707455
78	0xbccfacb5	-0.025350908
79	0x3cdff985	0.02734066
80	0xbd8ec3de	-0.069709525
81	0xbe8d5359	-0.27602652
82	0xbf41e09a	-0.7573334
83	0x3e80fc8d	0.2519268
84	0x3a6940f8	0.0008897926
85	0xbee5a28d	-0.4485058
86	0x3eb0d580	0.34537888
87	0xbe385029	-0.17999329
88	0xbd5da596	-0.054112993
89	0x3f081fd4	0.53173566
90	0x3e80cfb6	0.2515847
91	0xbd680030	-0.056640804
92	0xbe29283e	-0.16519257
93	0x3d90292c	0.07039103
94	0xbea3f85c	-0.3202542
95	0xbc1f5b0a	-0.009726295
96	0xbe38371a	-0.1798977
97	0x3d73a45d	0.05948292
98	0xbeee2c99	-0.465184
99	0xbdcfecee	-0.101526126
100	0xbda33e78	-0.07970899
101	0xbcc0a0fd	-0.023514265
102	0x3ea8da30	0.32978964
103	0x3e49b23d	0.19696899
104	0x3e138b8a	0.14408699
105	0xbd97b3b2	-0.07407321
106	0x3c893b13	0.016751802
107	0xbf3ba0a5	-0.73292
108	0xbcb3ad25	-0.021933148
109	0xbe5fef2d	-0.21868582
110	0x3e936291	0.28786138
111	0x3b11c7a3	0.0022244237
112	0x3dcbf8db	0.09959575
113	0xbf3a1af7	-0.72697395
114	0xbfa23aa5	-1.2674147
115	0xbf885f93	-1.0654167
116	0xbe012068	-0.12610018
117	0x3eafaf38	0.3431337
118	0x3e90f949	0.2831519
119	0xbf966389	-1.1749126
120	0xbf09b7ab	-0.5379588
121	0x3e79bbf9	0.24388112
122	0xbefb2fda	-0.49059945
123	0x3e6a17c2	0.22860625
124	0x3e29727e	0.16547582
125	0x3e366eb8	0.17815673
126	0xbf19d945	-0.6009715
127	0xbf6a18a7	-0.91443866
128	0x3e87adf2	0.26499897
129	0x3e7dd6d7	0.24788986
130	0xbee51040	-0.4473896
131	0xbe0c7a8b	-0.13718621
132	0xbef1eb63	-0.47249898
133	0xbe995e81	-0.29954913
134	0x3ef262e5	0.47341076
135	0xbef45b2e	-0.47725815
136	0x3d8011c8	0.062533915
137	0x3e9007d9	0.28130987
138	0x3ddbb895	0.107285656
139	0xbe8395c2	-0.25700194
140	0x3e92eedb	0.28697857
141	0xbf858341	-1.043068
142	0x3ebdaf86	0.37047976
143	0xbc433408	-0.011914261
144	0x3e5e27fe	0.21694943
145	0xbf7640d2	-0.9619266
146	0xbf2bb8c0	-0.6707878
147	0xbe8a6c43	-0.27035722
148	0xbf0047c4	-0.50109506
149	0x3ea7946d	0.32730427
150	0x3e5de755	0.21670277
151	0xbf03f117	-0.5153975
152	0xbfb9380e	-1.4470232
153	0xbd79b1b4	-0.060960487
154	0x3f091d84	0.5356066
155	0xbe9e5d39	-0.30930498
156	0xbf9ba218	-1.2158842
157	0x3db034b6	0.08603804
158	0x3e24ebaf	0.16105531
159	0xbe9e41f1	-0.30909684
160	0xbdcc1e85	-0.09966759
161	0x3f5100d2	0.81641877
162	0xbe9c61c9	-0.30543354
163	0x3e94bbd5	0.29049554
164	0xbe12b56b	-0.14327018
165	0xbdcf022f	-0.10107838
166	0xbccd9f7b	-0.02510046
167	0xbd192973	-0.037393045
168	0xbf85faab	-1.0467123
169	0x3e620e40	0.22075748
170	0xbe32ca78	-0.17460048
171	0xbe4257b1	-0.18978764
172	0xbf7dbcbb	-0.99116105
173	0xbd6181e9	-0.055055533
174	0x3f415804	0.75524926
175	0xbf23a008	-0.63916063
176	0xbe3cb5c1	-0.18428709
177	0xbda063f5	-0.07831565
178	0xbf098f6a	-0.5373446
179	0x3e69c29d	0.22828145
180	0xbe46f270	-0.1942842
181	0x3ec73f38	0.3891542
182	0xbe09916b	-0.13434379
183	0xbdc0e29f	-0.094182245
184	0xbea9e04a	-0.3317893
185	0xbf4ea979	-0.80727345
186	0xbf0dab0a	-0.5533911
187	0xbf30f574	-0.6912453
188	0xbe101aa8	-0.14072669
189	0xbe820143	-0.25391588
190	0xbee82bdd	-0.45345965
191	0xbed7eb1f	-0.4217157
192	0x3e95fac8	0.29292893
193	0xbd6e707d	-0.058212746
194	0xbe7d895d	-0.24759431
195	0xbf11085e	-0.5665339
196	0x3eada208	0.33912683
197	0xbe521853	-0.20517091
198	0x3cb22316	0.021745246
199	0xbeba7c0e	-0.3642277
200	0x3e9c4fe1	0.30529693
201	0xbe8a67a4	-0.27032197
202	0xbf0e2a84	-0.55533624
203	0x3eac4fec	0.33654726
204	0xbf27c6cb	-0.6553771
205	0xbda0d014	-0.07852188
206	0xbead9d79	-0.33909205
207	0xbf01d1fb	-0.5071103
208	0xbf188eae	-0.5959271
209	0x3e5ce8c4	0.21573168
210	0xbf0591de	-0.521757
211	0xbe8d1881	-0.27557757
212	0xbf06b5c5	-0.5262111
213	0x3e2196b3	0.15780143
214	0xbe8b2d4f	-0.27183005
215	0xbea6712d	-0.3250822
216	0xbf22280a	-0.63342345
217	0x3e969b2f	0.2941527
218	0xbf1da8aa	-0.61585486
219	0xbec97f63	-0.39355
220	0x3d0dc25e	0.03460919
221	0xbfafbb8d	-1.3729111
222	0xbe33b8f1	-0.17551018
223	0xbf06dc63	-0.52680033
224	0x3e77baa9	0.24192299
225	0x3ef4a001	0.47778323
226	0x3e190c90	0.14946198
227	0x3df37bb3	0.11888828
228	0xbd562b2b	-0.052287262
229	0x3e620d49	0.2207538
230	0xbd9d0b21	-0.07668138
231	0x3e8d60ed	0.2761301
232	0x3e6158fd	0.22006603
233	0xbddb6cfd	-0.10714147
234	0x3e5ee5fc	0.2176742
235	0x3e571b64	0.21006542
236	0xbf194653	-0.5987293
237	0x3e81b315	0.2533194
238	0xbdf73a35	-0.12071649
239	0xbf25eae8	-0.64811563
240	0xbfa3cefa	-1.2797539
241	0xbe013036	-0.12616047
242	0x3e320424	0.17384392
243	0x3e1bae7a	0.15203276
244	0x3ea961d9	0.33082464
245	0xbd9e9584	-0.077433616
246	0x3d1633ce	0.0366705
247	0x3f24f7f3	0.6444084
248	0xbe1effd5	-0.1552728
249	0xbf2bf730	-0.67174053
250	0xbef09915	-0.46991792
251	0x3db7b5da	0.08970232
252	0x3d8283e9	0.06372816
253	0xbf10da66	-0.5658325
254	0xbef7bd74	-0.4838673
255	0xbe27375a	-0.16329709

bias f4 [40]
0	0x3d8d55a8	0.06901103
1	0xbd182c0e	-0.03715139
2	0x3e83692a	0.2566617
3	0x3d7fcc76	0.06245085
4	0xbc934606	-0.017977726
5	0x3d3ae034	0.045623973
6	0xbdc4f326	-0.096166894
7	0xbd8c083f	-0.0683751
8	0x3d5a3e9e	0.053282373
9	0xbbe9f186	-0.0071393875
10	0x3e4341fe	0.19068143
11	0xbd2baf18	-0.04191503
12	0xbe0333aa	-0.12812677
13	0xbc13ec4d	-0.009028506
14	0x3d809306	0.062780425
15	0xbddb4988	-0.10707384
16	0x3df17668	0.11790162
17	0x3d896d78	0.06710333
18	0xbd9c2327	-0.07623892
19	0xbe2e4ead	-0.170222
20	0xbdfbcc4a	-0.122948244
21	0xbe0e118f	-0.13873886
22	0x3e06e6c0	0.13173962
23	0x3d19f101	0.037583355
24	0xbd3ca292	-0.046053477
25	0xbb7984e8	-0.0038073603
26	0x3dbf9231	0.09354056
27	0xbce62ee8	-0.028098539
28	0x3beae50b	0.0071684173
29	0x3dd00189	0.10156543
30	0x3d9f46fd	0.07777212
31	0xbcb1621e	-0.021653231
32	0x3df8bdd3	0.12145581
33	0xbe570296	-0.2099708
34	0x3d513030	0.051071346
35	0x3df1a314	0.11798683
36	0x3dab2aa1	0.0835774
37	0x3e066b6f	0.1312692
38	0x3def4274	0.11682597
39	0xbe47726e	-0.19477245
