Experiment/EEGNet-440-128.pth (torch, 60503 bytes, 22 tensors)

network.1.weight f4 [8, 1, 1, 220]
000000 78 51 61 3e d6 1e de bc 09 a0 d2 bd 86 d0 20 be
       0.22003734 -0.027114313 -0.102844305 -0.15704545
000010 94 f4 83 3d b6 e2 5c 3e 82 7a 10 3e d3 68 64 3d
       0.06443134 0.21570858 0.14109233 0.05576403
000020 6e 26 19 be aa a1 64 be a4 cc 05 be 33 b4 23 3d
       -0.14956066 -0.22327295 -0.13066345 0.039966773
000030 29 f2 8d 3e 48 6d 6a 3e 96 58 24 bb fd 32 05 be
       0.27723816 0.2289325 -0.0025077215 -0.13007732
000040 f2 11 16 be b9 1e 1d be 24 6f 83 bc f0 bc 1e 3e
       -0.14655283 -0.15343751 -0.016044207 0.15501761
000050 dd 6e b4 3d f6 cd 08 be 8c 93 65 be b0 d1 18 be
       0.08810208 -0.13359818 -0.22419566 -0.1492374
000060 6b 22 c1 3c 90 83 51 3e c4 73 40 3e 7d b2 0a 3e
       0.023575982 0.20460343 0.18794161 0.1354465
000070 c7 9b d8 bd 28 f0 33 be a5 2d 96 bd 85 52 fe 3d
       -0.10576587 -0.17572081 -0.07332925 0.12418083
000080 e0 a9 8d 3e 90 3d 15 3e f6 6b 18 bd 9d db 1c be
       0.27668667 0.14574265 -0.037212335 -0.15318151
000090 85 d1 3d be 9b f5 13 be 13 6e 71 3d 19 11 3f 3e
       -0.18536957 -0.1444916 0.058942866 0.18658866
0000a0 a3 8d 61 3e a6 da cc 3b 1b 12 0d be 54 53 91 be
       0.22026686 0.006251651 -0.13776438 -0.28383887
0000b0 f3 f8 2b be 58 39 c7 3d 3b 68 2e 3e 47 96 da 3d
       -0.16794185 0.09727734 0.17031948 0.106731944
0000c0 c2 2a c8 bd 8d aa 1b be 52 9f ae bd e6 43 12 3c
       -0.097737804 -0.15201779 -0.08526482 0.008927321
0000d0 26 c8 1f 3e f0 76 81 3e ea 23 b7 3d b3 8a 28 be
       0.15603694 0.25286055 0.08942397 -0.1645916
0000e0 c8 64 5a be 49 08 73 be b3 b3 72 3d 66 fe 82 3e
       -0.21327507 -0.2373363 0.059253406 0.25584716
0000f0 5d c6 81 3e 59 16 8a 3d 43 31 13 be 8c b7 28 be
       0.25346652 0.06742544 -0.1437426 -0.16476268
000100 5e 86 f6 bb b6 57 2e 3e 97 79 62 3e 02 90 c2 3d
       -0.007523342 0.17025647 0.22116695 0.095001236
000110 45 d8 07 be 35 9c c6 be 10 3a b2 be 07 81 96 bc
       -0.13266094 -0.38791052 -0.34809923 -0.018372072
000120 e6 7a 37 3e 46 ce c6 3e f0 a3 7c 3e a7 07 c2 3c
       0.17917976 0.3882925 0.24671912 0.02368529
000130 90 72 38 be 15 60 7b be 07 c1 b9 3b fc f0 18 3e
       -0.18012452 -0.24548371 0.0056687626 0.14935678
000140 29 28 5f 3e 2b 8d a6 3d 12 6f 49 be 08 b7 84 be
       0.21792664 0.081323944 -0.19671276 -0.25920892
000150 ef a0 4a be 17 d7 29 3e 38 7e a6 3e 2e 40 9d 3e
       -0.19787954 0.16585957 0.32518172 0.30713028
000160 dc ae ab bc a4 71 ba be d9 98 c8 be e5 96 40 be
       -0.020957403 -0.36414826 -0.39179114 -0.18807562
000170 7b 24 67 3d 1b d3 79 3e 5e bd 84 3e 4f 80 62 3e
       0.056431275 0.24396937 0.25925726 0.22119258
000180 1b b2 69 bb e0 16 bc bc bd 41 ae 3d 9f ee 32 3e
       -0.0035659138 -0.022960126 0.08508632 0.17473839
000190 aa 5a 28 3e 13 7f f7 bd 5f c2 01 bf 1b bc f5 be
       0.16440836 -0.12084784 -0.5068721 -0.47995076
0001a0 d9 f1 22 be 26 9d 8f 3e e8 f6 2a 3f cb e6 31 3f
       -0.1591257 0.28049582 0.66783 0.6949279
0001b0 9f 6c 97 3e 43 12 bd bd b7 3f 6b be b4 e0 ac be
       0.2957506 -0.09231999 -0.22973524 -0.33765185
0001c0 ca 12 6e bd 28 6b 54 bd d6 55 e1 bd fc b7 9e be
       -0.058123387 -0.051860005 -0.110027 -0.30999744
0001d0 db 83 c0 be 28 20 84 be d3 93 18 3e cf 26 fe 3e
       -0.37600598 -0.25805783 0.1490014 0.49638984
0001e0 d2 18 e2 3e 62 c3 35 3e 9e b9 76 be bf e2 13 bf
       0.4415956 0.17750314 -0.24094245 -0.5776786
0001f0 5e 65 16 bf 3c ce f6 bd 29 f7 17 3e 7a 39 b6 3e
       -0.58748424 -0.12051055 0.14840378 0.35590726
000200 0b be 1e 3e 1b e1 02 be 0a c9 b7 be 64 fd 63 be
       0.15502183 -0.12781183 -0.35895568 -0.2226463
000210 6c 38 c6 bb 5b c9 77 3e 39 21 18 3e dd 3a b7 3c
       -0.0060492065 0.24197905 0.14856423 0.022366935
000220 b2 ea dd bd 96 09 91 bd ce d8 9e 3d 12 a6 a4 3e
       -0.1083578 -0.070819065 0.07756196 0.32157952
000230 20 2e b5 3e 66 24 1f 3d d5 9f a2 be dd 93 0c bf
       0.35386753 0.03885307 -0.31762567 -0.5491312
000240 1b c8 c9 be a2 8d 3d bc 66 80 00 3f 40 6f 21 3f
       -0.3941048 -0.011569412 0.5019592 0.6306038
000250 5c 70 b3 3e 03 2f 13 bd 30 c3 a9 be 86 d1 c6 be
       0.3504666 -0.035933506 -0.3315673 -0.3883173
000260 c6 42 75 bd 5b 4d 32 3d 32 66 fb 3d c3 35 03 3d
       -0.059878133 0.043530803 0.122753516 0.032033693
000270 d2 ba a2 bd 3f 73 1d bd 99 ac 91 3d f2 e5 23 3e
       -0.079457894 -0.038439985 0.071129985 0.16005686
000280 7f ce 46 3e 95 a8 96 3d 34 f8 6f be c6 ae 9d be
       0.1941471 0.07356373 -0.23434526 -0.30797404
000290 2b 5c 9d be 21 03 cf bd d4 a9 70 3e ed 3e b8 3e
       -0.3073438 -0.10108019 0.23502284 0.3598551
0002a0 d1 be 1d 3e 9d d9 3e be aa d6 97 be fe f9 b6 be
       0.15404822 -0.186377 -0.29655963 -0.35737604
0002b0 e5 21 8f bd d2 cf 62 3d 7d d7 2a 3e a1 c5 05 3e
       -0.06988887 0.055373974 0.16683765 0.1306367
0002c0 5a c9 10 bd bd a2 25 bd a4 a1 cd bc b7 2c bd ba
       -0.035348274 -0.040438402 -0.02510149 -0.0014432882
0002d0 c0 28 35 3c ff 1c ee bd c0 09 50 be 00 d9 66 be
       0.011057079 -0.11626624 -0.2031622 -0.22543716
0002e0 ee ae 4e be 10 f8 35 3d c3 10 b0 3e a4 a3 a9 3e
       -0.20183918 0.044426024 0.34387788 0.3313266
0002f0 f4 34 54 3e 01 ae da bd 4f ef 9b be 21 de d1 be
       0.20723325 -0.1067772 -0.30456015 -0.40989783
000300 b1 53 3e be 24 a5 32 3d 96 75 69 3e 08 fd 49 3e
       -0.18586613 0.04361452 0.22798762 0.1972543
000310 df 03 11 3e ba 16 bd bc 8a 41 fc bb 47 5b a8 3d
       0.14161633 -0.023082126 -0.0076982426 0.08220535
000320 85 5f 0e 3e b5 9e c6 3d 46 98 60 bc 47 c8 f2 bd
       0.13903625 0.0969824 -0.01370818 -0.11854606
000330 70 0a ba bd a5 d8 82 bd 9a 67 75 3e 7c 94 8d 3e
       -0.09084022 -0.06388978 0.23965302 0.27652347
000340 e9 34 3c 3e 4b f2 19 bd 05 9f 77 be 3e 35 65 be
       0.18379559 -0.037584584 -0.24181755 -0.22383592
000350 d4 7c df 3c c1 0b 30 3e 92 58 89 3e 07 5c e1 3d
       0.027281202 0.17191984 0.26825386 0.11003881
000360 6a f1 40 bd a9 23 56 be de 68 69 be 43 10 c5 3d
       -0.04710523 -0.20912041 -0.2279391 0.09622242
000370 77 c1 37 be 40 fb 90 bd d2 31 b0 bc 09 de 0f bd
       -0.17944895 -0.07079172 -0.021508131 -0.03512386
000380 64 97 6d 3d 85 ab 30 3e 03 a5 61 3e 04 8c ad 3d
       0.058005705 0.1725293 0.22035603 0.084739715
000390 eb be 08 3e b8 c8 60 3c 3d 20 0a be a8 2f 87 be
       0.1335408 0.01371973 -0.1348886 -0.26403546
0003a0 17 96 76 be dd 73 fa bd 85 6b 73 bd 4b d6 35 3d
       -0.24080692 -0.122291304 -0.05942871 0.04439382
0003b0 a4 29 8d 3d c1 ab f7 3d d4 b1 1b 3e 8b 01 35 3e
       0.06892708 0.12093306 0.15204555 0.1767637
0003c0 e0 2d d4 3d 42 c5 91 39 07 76 21 3d b2 a6 08 be
       0.103603125 0.00027803524 0.0394192 -0.13344839
0003d0 ef 25 0f be 9d 48 ea bd bd ce 68 bd 66 f9 38 3c
       -0.13979314 -0.11439631 -0.056837786 0.01128993
0003e0 60 07 9e bc 36 e1 f8 bc c7 f1 1c bd e0 5e 55 be
       -0.019290626 -0.030380826 -0.038316514 -0.20836973
0003f0 56 a7 67 be 81 39 06 be 8d 34 38 be e1 7b 20 be
       -0.22622427 -0.13107873 -0.17988797 -0.15672256

network.1.bias f4 [8]
000000 fc 9e 93 be 75 fd 0a be 3f 54 ef be b1 dc 8d 3b
       -0.28832233 -0.13573249 -0.46743962 0.004329287
000010 e3 9e 14 3e 97 57 db 3d 35 17 6e 3c 6c 4f ba 3d
       0.14513735 0.10710066 0.0145319 0.0909718

network.2.weight f4 [8]
000000 1d 39 20 40 e4 6b ff 3f 4a a6 88 3f 75 63 37 3f
       2.503486 1.9954801 1.0675747 0.71636134
000010 3e d8 a0 3f 14 93 17 40 e0 18 b6 3d 44 e5 99 3f
       1.2565992 2.368352 0.08891463 1.2023091

network.2.bias f4 [8]
000000 d9 9e 7d 3d 9e 2f da 3d 65 65 cb be 1a 10 ca 3d
       0.061919067 0.106536135 -0.39725795 0.098663524
000010 43 fa 17 3e 36 e8 ba bc b7 fb a3 be b1 6f ae bd
       0.14841561 -0.022815805 -0.3202798 -0.08517397

network.2.running_mean f4 [8]
000000 dd c2 93 be 4a 40 07 be 6d 77 ef be c3 0f 24 bc
       -0.28859606 -0.13208118 -0.46770802 -0.0100135235
000010 6d 57 18 3e 05 5c dc 3d 2a f7 a0 3c 31 ca a2 3d
       0.148771 0.10759739 0.019649107 0.07948721

network.2.running_var f4 [8]
000000 1f 00 de 40 1d 40 ca 40 5d 91 1c 41 71 c2 c0 41
       6.937515 6.3203263 9.785489 24.094942
000010 60 14 11 41 6b e2 15 41 21 f4 0f 41 f6 1e 2d 41
       9.067474 9.367778 8.997102 10.820059

network.3.weight f4 [16, 1, 128, 1]
000000 9e e8 a2 3c 58 81 dd bc 1a a6 32 3c a2 04 19 bd
       0.019886311 -0.027039215 0.0109038595 -0.037357934
000010 ac bf eb 3d 57 27 a4 bd a5 8f c5 3c a3 8e 13 bd
       0.11511168 -0.08015316 0.024116347 -0.0360247
000020 60 88 16 be 4e 97 ce 3d 98 01 35 3e fe ca 88 3d
       -0.1470046 0.10087453 0.17676389 0.06679343
000030 cb f0 9f 3d 2d 09 6a bd 55 41 90 bd a2 13 1f bc
       0.078095995 -0.057137657 -0.07043711 -0.009709271
000040 a6 e8 cc 3d bd a1 71 3d 99 18 b1 3d b0 3b c5 bd
       0.10005312 0.058992136 0.0864727 -0.09630525
000050 21 c4 0b 3e ac 71 f9 bd 4d 64 1c be 18 5d 0d 3e
       0.13649036 -0.12179884 -0.15272637 0.13805044
000060 cd 5d 00 bf a7 b9 93 be da 0a fd 3b 3a 9a 5d bd
       -0.5014313 -0.2885258 0.007722241 -0.05410216
000070 39 47 0c 3e b3 72 03 3e 17 ec 97 3d 40 7c 6b 3c
       0.13699044 0.12836723 0.074180774 0.014372885
000080 c8 7c ca 3d 69 bb fa bd ac a0 01 bd d4 ea 37 bc
       0.098870814 -0.12242777 -0.03164737 -0.011225421
000090 b0 ce ed 3d 50 ed 35 be 5e a8 aa 3e f5 f9 c5 3e
       0.11611688 -0.17766309 0.3333158 0.38667265
0000a0 3a 22 0d 3c 20 32 42 3c 0b f0 92 be cc 57 59 bd
       0.008614117 0.011852771 -0.28698763 -0.053062245
0000b0 57 30 8c be cc 5e 15 3e 5b 5a 8f bd c7 cc d3 bd
       -0.2738063 0.14586943 -0.06999656 -0.103417926
0000c0 98 9e 17 3d 67 74 95 3e 28 39 34 be 40 27 0d be
       0.03701648 0.2919037 -0.17599928 -0.13784504
0000d0 e4 3c 52 be c4 d8 de 3c e6 51 21 3e 43 04 d2 3d
       -0.2053104 0.027202971 0.15753898 0.10254719
0000e0 f5 88 c4 3d 8c 50 19 bf c0 99 bd 3e f5 85 b0 be
       0.09596435 -0.5988853 0.37031364 -0.344772
0000f0 86 80 45 39 50 de 00 3d 3c 76 0a bf 72 6e d0 be
       0.00018835263 0.031462014 -0.5408666 -0.40709263
000100 5c e5 66 3d 94 6b a2 3d 87 cb e0 bd 2f 2b d7 3c
       0.056371078 0.07930675 -0.1097632 0.026265709
000110 92 4b 6f bd 33 ab 53 be 97 31 03 be e0 e3 44 be
       -0.05842168 -0.20670776 -0.12811886 -0.19227552
000120 89 3b a7 3b ac 57 33 be e3 76 9e bc 74 3f 1f 3d
       0.0051035327 -0.17513913 -0.019343799 0.038878873
000130 3c e3 c2 bd 53 38 f1 bd d3 89 af 3e d2 31 dc bd
       -0.09515998 -0.11778321 0.3428484 -0.1075169
000140 54 c0 14 be bc 7c 3c bc 13 6b c8 3d 1c 90 67 3c
       -0.14526492 -0.011504348 0.09786048 0.014133479
000150 ec cd 7d 3c 2e a4 03 3f 84 e8 00 bd f9 f9 14 bd
       0.01549099 0.51422393 -0.031471744 -0.036371205
000160 37 9f 6a bb b6 fb 60 3c 82 2d 6d 3e 50 51 06 bd
       -0.0035800466 0.013731888 0.23161891 -0.03279239
000170 71 de 9c bd 07 81 3c bc 8d 7a 27 3d a2 3d 19 3e
       -0.07659615 -0.011505372 0.040888358 0.14964917
000180 49 5e f9 bd c8 78 53 bd 42 46 6f bd 4e 2a 0a 3d
       -0.121761866 -0.051628858 -0.058416612 0.03373175
000190 46 11 d8 3d ac 2f 29 bd 15 62 87 bc 77 36 fb 3d
       0.1055017 -0.04130523 -0.016526261 0.12266248
0001a0 62 cf 8b 3e f4 5a 1a 3c db d6 5c 3e d3 a3 1e 3d
       0.27306658 0.009421099 0.21566336 0.038730454
0001b0 b3 a9 cf 3d b1 ea 04 3f f4 11 60 be 0e 9b be bb
       0.101397894 0.5192061 -0.21881849 -0.005816824
0001c0 b5 52 8c be 72 d0 bb 3d 63 e7 fc 3c 5f 13 13 be
       -0.2740685 0.09170617 0.030872053 -0.14362858
0001d0 da 8b 0c bd b6 a8 cc 3e 34 86 5f 3e 55 df 53 bf
       -0.03431306 0.39972466 0.21828538 -0.8276265
0001e0 00 91 9f 3e d9 0c 9b 3e 34 79 ad 3f 1d f7 e1 3e
       0.31165314 0.3028324 1.3552613 0.44133845
0001f0 c2 a2 9f be 16 e9 81 bd ad 1d 8c bd 66 18 d5 bd
       -0.31178862 -0.06343286 -0.06841598 -0.10405044
000200 6c 8c d0 3c d1 2d d9 3d 2e 2f 49 be ba bd e7 bd
       0.025457583 0.10604442 -0.19646904 -0.11315484
000210 68 28 00 bd 0a 39 ab be 23 e0 a0 3b 02 08 9a 3d
       -0.031288534 -0.33441955 0.0049095317 0.075210586
000220 c7 84 89 be 8e 7a b0 3f 9b 87 dd bd 60 18 ba bd
       -0.26859114 1.3787401 -0.1081688 -0.090866804
000230 04 6e 17 3e 5e 1c 53 3e 2d b0 d2 bd 01 f1 14 bc
       0.14788061 0.2061629 -0.10287509 -0.009090663
000240 56 91 fb 3d ba 48 08 3e 50 1f ee bd 84 15 65 bf
       0.1228358 0.13308993 -0.11627066 -0.89485955
000250 c4 53 b9 3c cd 61 8a 3d 49 c9 22 3e 50 4d e7 bc
       0.02262295 0.06756935 0.15897097 -0.028235108
000260 9e 65 26 be af b2 93 bc 07 7c 29 3e 9f 8b 70 3e
       -0.16249701 -0.018029539 0.16551219 0.23490761
000270 b3 01 89 be a3 ba 14 3e 4b bf 43 3e a4 ad 6e 3d
       -0.2675911 0.14524321 0.19115941 0.058271065
000280 c2 f2 7c bd aa c1 22 3d e4 26 3c 3d f0 ab c8 bc
       -0.06175495 0.039735474 0.045935526 -0.024496049
000290 c5 31 9c 3c c8 aa 3c be 13 20 03 be a1 ca ff 3c
       0.0190667 -0.18424523 -0.12805204 0.03122455
0002a0 83 cc ad bd 59 69 84 bd 29 42 5a 3e 59 79 1f 3e
       -0.08486273 -0.06465406 0.213143 0.15573634
0002b0 35 18 b0 be 85 cf 33 3f d8 bc 18 3d 51 d7 88 3e
       -0.34393468 0.70238525 0.03728947 0.26726773
0002c0 52 81 9b bd 15 3a 8c be 0e 30 14 3d 54 9c e9 bd
       -0.07593025 -0.27388063 0.03617864 -0.1140677
0002d0 38 96 8b 3d 61 90 c5 3d e8 0a fe be a4 fa 78 3e
       0.06815761 0.09646679 -0.49617696 0.24314362
0002e0 08 52 28 3c 8b a4 f8 3e 30 e7 06 3e 6a 02 60 bd
       0.010273464 0.48563036 0.13174129 -0.054689802
0002f0 f3 d1 84 bc e3 97 bd bd 55 50 15 3f c2 c0 49 bf
       -0.016213393 -0.09257486 0.583257 -0.7880975
000300 e7 21 ed 3e 66 e3 93 be 67 51 a9 3b 76 b0 51 bc
       0.46314928 -0.2888443 0.0051671746 -0.012798419
000310 e9 8d 92 bd 17 da 26 be 45 2c a4 3e ad 02 83 3d
       -0.071559735 -0.16294132 0.32065025 0.06396995
000320 a5 21 7b be f1 7d 0d 3e b4 34 25 3c d7 9d 9a be
       -0.24524553 0.13817574 0.010083366 -0.30198547
000330 86 de dd be e6 27 cc bd 3f 34 a3 be b2 1b df 3e
       -0.43333834 -0.099685475 -0.31875798 0.43575817
000340 7d cd 78 be 0d ba 5d 3d 93 4f 82 3e 1a 6d 0a bf
       -0.24297138 0.05413251 0.25451335 -0.54072726
000350 45 a6 38 bd 15 5a 2e 3e 7e 1c 0a 3e 13 f5 c6 bd
       -0.045080442 0.17026551 0.13487431 -0.09714713
000360 24 a4 a7 3c e7 44 97 3d 73 ae f9 3c 3a a5 41 be
       0.02046401 0.07386189 0.030478692 -0.18910685
000370 5f 56 75 3c 93 ae 94 3d 17 19 43 bc a2 72 fb bd
       0.014974206 0.0725986 -0.011907837 -0.12277724
000380 bb f8 6b bf 91 4b 27 3d 93 d2 8a 3d 95 f3 46 3e
       -0.9217641 0.04084355 0.06778445 0.19428857
000390 e1 53 fd bd d0 50 48 3b 2e 96 d5 3c 48 cb 1a bd
       -0.12369514 0.0030565746 0.026072588 -0.03779152
0003a0 32 b5 49 be b2 10 4f be a5 a1 6d bd d7 53 8a bc
       -0.19698027 -0.20221213 -0.058015484 -0.016885681
0003b0 40 8d 8a bc 28 b2 22 be a0 f7 20 3e cc ed 3e bd
       -0.016913056 -0.15888274 0.15719461 -0.0466135
0003c0 50 e6 01 3f 0a da 37 bd fb e9 ea bd f5 25 66 bc
       0.50742054 -0.044885673 -0.114704095 -0.014047136
0003d0 66 04 53 bd 10 fd 04 3e fe d9 24 3e bc ad e2 3c
       -0.051517867 0.1298716 0.16098782 0.027670734
0003e0 cc c3 82 3d bb e7 83 bd 5b 00 0a 3e 73 61 e8 bd
       0.063850015 -0.064406835 0.13476698 -0.11346712
0003f0 4a 62 17 be d9 77 be bd e8 bb ce bd a2 37 be 38
       -0.14783588 -0.09300203 -0.10094434 9.0702684e-05

network.3.bias f4 [16]
000000 f3 ee 14 3e f7 a4 f8 bd f5 0b 16 39 d7 b1 6e be
       0.14544277 -0.121408395 0.00014309569 -0.23310028
000010 ed 11 08 bf a7 ec 8a bd a0 e7 88 3d 66 85 42 3e
       -0.5315235 -0.06783419 0.06684804 0.189962
000020 f3 52 7d bb ee 8a 09 be dd 61 fb bd 9e cc 58 be
       -0.0038654178 -0.13431904 -0.12274525 -0.21171805
000030 18 50 d7 be 07 76 3f 3c 59 9e 27 3c 3f c2 23 be
       -0.42053294 0.011685855 0.010230624 -0.15992068

network.4.weight f4 [16]
000000 aa 61 49 40 d1 c6 67 40 65 9e db 3f 6d ef 53 40
       3.146586 3.6215098 1.7157713 3.3114884
000010 c3 6e 34 40 c0 54 00 40 47 c5 b7 3f bf ef df 3f
       2.8192604 2.0051727 1.4357079 1.749504
000020 44 af 12 40 8a cb 30 40 85 8c 69 40 ff a5 7a 40
       2.2919474 2.762423 3.6492016 3.9163816
000030 95 30 15 40 73 e2 37 40 dd 20 ab 3f f7 a5 35 40
       2.3310902 2.8731964 1.3369404 2.8382547

network.4.bias f4 [16]
000000 a2 e7 00 c0 36 a5 f0 bf 85 eb 2a bf 97 bf b5 bf
       -2.0141377 -1.8800418 -0.66765624 -1.4199094
000010 96 d2 bc bf 97 72 80 bf 64 17 63 be b8 0e 6a bf
       -1.4751766 -1.003497 -0.22176892 -0.9142871
000020 7f 0c a4 bf 69 2d d8 bf 8f f0 ab bf e5 74 ee bf
       -1.2816314 -1.6888858 -1.3432788 -1.8629423
000030 15 92 70 bf 45 38 bc bf cf 4c 90 be ae 15 ae bf
       -0.93972903 -1.4704672 -0.281836 -1.3600366

network.4.running_mean f4 [16]
000000 3e d1 44 3e 90 f8 3d be 55 b7 10 be 4a 7e 82 be
       0.19220445 -0.1855185 -0.14132436 -0.25486976
000010 25 ae ce bf b5 0b ab bf 57 6a 8c be a0 d2 99 3e
       -1.6146895 -1.3362948 -0.2742488 0.30043507
000020 5f 03 8d bf 88 cb 03 bf a2 99 d2 bd 56 03 3e be
       -1.1016654 -0.5148244 -0.102832094 -0.1855596
000030 ad 9f ae bf b1 36 c3 bf d5 54 78 bd 78 24 e7 bd
       -1.3642479 -1.5251065 -0.060627777 -0.11286253

network.4.running_var f4 [16]
000000 18 6b c3 40 9b 52 b5 40 ac ab a4 41 bb 08 84 41
       6.106823 5.6663337 20.583824 16.504263
000010 17 98 7a 3f 29 12 d9 3e 32 16 ea 3f 4e 9e b6 3f
       0.9788832 0.42396668 1.8288023 1.4267061
000020 4f d2 d0 3f 6b 9b 87 3f de dd eb 3f b5 b8 b2 3f
       1.6314181 1.0594305 1.8427083 1.3962618
000030 ed f0 23 3c a4 7c 56 3c c8 30 77 40 38 73 1a 40
       0.010006172 0.01309124 3.8623524 2.4132824

network.9.weight f4 [16, 2, 1, 16]
000000 41 5c 07 bf 84 d0 d1 be 23 16 0c be 5f 24 96 3d
       -0.52875143 -0.40979397 -0.1368032 0.07331156
000010 cb dd 97 be 7d c6 00 be a5 13 89 be 6e e4 25 be
       -0.29661402 -0.12575717 -0.267728 -0.1620042
000020 ff 4a 81 3d a3 39 44 be 32 16 da bd c9 f5 a3 be
       0.063131325 -0.19162612 -0.10648765 -0.32023457
000030 9a ac 06 be ef ce 95 bc 34 58 a5 be 76 9d ed be
       -0.1315178 -0.01828715 -0.32293856 -0.46409196
000040 3d d9 6b 3c a7 88 5f 3e c4 1e 7f 3d 09 35 df bd
       0.014395055 0.21829472 0.0622852 -0.108987875
000050 48 04 35 3e 6f 8d 46 3d 15 6d ce 3d c6 52 88 3d
       0.17677414 0.048474725 0.100793995 0.06656413
000060 af 76 0a 3e ef 55 ff 3d 2b 93 02 be 40 65 d0 3d
       0.13521837 0.124675624 -0.12751453 0.10175562
000070 0b 51 ba bb 70 a1 9b bd 9c 3a 9a 3e e5 18 23 3e
       -0.0056859306 -0.07599151 0.3012284 0.15927465
000080 45 c3 e1 3d f1 3a 13 3e 13 c9 e8 3c 4a 00 ef bb
       0.11023573 0.14377953 0.028416192 -0.0072937356
000090 c0 01 99 bb 9f 76 ef 3d d9 fd 14 bd 0d 33 ae 3d
       -0.004669398 0.11692547 -0.0363749 0.08505831
0000a0 71 5e e1 3c eb c8 19 3c 08 0f 4f 3d 48 74 88 bb
       0.027510853 0.0093862815 0.050551444 -0.0041642524
0000b0 e9 e3 c9 3d e3 5d 4c 3d 8a d4 c8 3d 1b a3 3a 3e
       0.098579235 0.049894225 0.098061636 0.18226282
0000c0 bb d5 45 3f 64 80 81 3e bf db 77 3e 88 2c c1 3d
       0.7727925 0.25293267 0.2420492 0.09432322
0000d0 3f c6 d1 3d 0f 43 29 3e 12 73 cb 3d b4 87 89 3e
       0.102428906 0.16529487 0.09934057 0.26861346
0000e0 42 06 75 3e 8c f9 8d 3d 70 f6 e1 3e 5b 3a 25 3e
       0.23928168 0.06932363 0.4413333 0.16135542
0000f0 ac 09 7f 3e af be 7f 3e d2 c8 83 3e 26 e4 43 3f
       0.24906033 0.24975084 0.2573915 0.7652
000100 ec cb c9 3e 5a 44 c0 be ec 96 19 bf 04 8f 15 bd
       0.39413393 -0.37552148 -0.59995914 -0.036513343
000110 03 bb 1d 3f 23 1a aa 3e 20 75 3f be 72 55 34 bf
       0.6161348 0.33223066 -0.18697023 -0.7044288
000120 01 12 e5 be c0 ab 10 3e 92 ff 10 3f 0e cb f0 bb
       -0.44740298 0.14128017 0.5663997 -0.0073484248
000130 a1 e4 c6 be d0 d8 01 bf 85 b9 d4 3c 74 28 25 3e
       -0.38846305 -0.50721455 0.025967369 0.16128713
000140 a8 4a 9c 3e b7 af 09 be f1 24 e6 bd 1d f9 cf 3d
       0.30525708 -0.13445936 -0.11237515 0.101549365
000150 29 02 1c 3e bf 74 2d 3e 37 a4 13 be 42 62 8e bd
       0.15235199 0.16939066 -0.14418112 -0.06952335
000160 11 be 0b 3e af 4e 0b 3a 2e 87 59 3b 6e 30 5e 3d
       0.13646723 0.0005314154 0.0033192146 0.054245405
000170 2a 3f 1d 3c 7a 4d a5 3a 11 f8 75 bd 1b d3 8c 3e
       0.009597579 0.0012611591 -0.060051028 0.2750481
000180 02 85 cf bd 05 54 90 be d1 bf 15 be 7c 88 67 3e
       -0.10132791 -0.28189102 -0.14623953 0.22610658
000190 4a 80 67 3e 7f ca cc be 48 73 dc 3c 3a f8 d0 bb
       0.22607532 -0.39998242 0.02691044 -0.006377247
0001a0 43 a0 37 be f9 cc d1 bd 9e 5a db bd 36 ab 62 3e
       -0.17932229 -0.102441736 -0.10710643 0.22135624
0001b0 23 b3 aa 3c 13 9b 46 be 63 ae 93 bd 05 49 35 be
       0.020837372 -0.19395094 -0.07210996 -0.17703636
0001c0 75 85 ea 3e e2 9c 03 3e c5 4c 20 be 35 30 dd 3d
       0.45804945 0.12852815 -0.15654285 0.108002104
0001d0 f7 8c 64 3e 49 e0 fc 3b a9 e3 10 3e fd 1a 94 3d
       0.22319399 0.0077171666 0.14149345 0.0723171
0001e0 85 42 8e 3e ab 3c 0b be 2c df f4 bd 82 4a ae 3e
       0.27785125 -0.13597362 -0.11956629 0.3404122
0001f0 7d 25 70 3e bd fe ec 3c 07 6a a2 3d ff 36 c3 3e
       0.234518 0.028930062 0.07930379 0.38127896
000200 f5 df 00 3f 6b 45 6a 3e d6 c3 c6 3e 2b 0b 60 3e
       0.5034173 0.22878043 0.38821286 0.2187926
000210 5f 77 9f 3e 1f 62 04 3e b1 3f 46 bd 3d bf 8c 3e
       0.3114576 0.12928055 -0.048400585 0.27489653
000220 3c af e7 3d 49 10 97 3e dd 35 03 3d fb d8 ba bc
       0.1131272 0.29504612 0.03203379 -0.022808542
000230 15 e7 99 3e 9e 35 6d 3e a2 29 f8 3e 8c e2 b1 3e
       0.30059114 0.23164985 0.48469263 0.34743154
000240 a5 e0 0f 3c bc c2 6f 3b e6 7e 85 3d c2 bb 21 3e
       0.008781587 0.0036584577 0.065183446 0.1579428
000250 bd 58 3e 3c f1 fc 86 bd 48 4a e2 bd 5f 27 f2 3c
       0.011617837 -0.065912135 -0.11049324 0.02955979
000260 8b 22 1b 3e 62 8a 7b 3c 83 64 98 be 7a cb e6 bc
       0.15149896 0.015352817 -0.29764184 -0.028173197
000270 74 9a 42 3e 7e 96 5b 3e 18 ea 53 3e 54 c5 6f be
       0.19004232 0.21444127 0.20694768 -0.23415118
000280 a9 55 0d 3e 40 76 4d be df 5e 2f be ce d9 27 3e
       0.13802208 -0.2006464 -0.17126034 0.1639168
000290 a5 e0 3c bc 68 05 82 3d 3a 54 49 be 1a 08 d5 bd
       -0.011528169 0.063486874 -0.19661036 -0.10401936
0002a0 3c 48 43 3e 1d 74 78 3d b3 84 d2 3c 8b c6 d6 bd
       0.19070524 0.06065761 0.025698042 -0.10487088
0002b0 8e 6d 40 be 91 e7 3d 3e 8b 5a e1 bc 16 6d d2 bb
       -0.18791792 0.18545367 -0.027508995 -0.0064216955
0002c0 eb 41 11 3f 74 a3 48 3d 3d 2c e4 be 7a 04 5d 3f
       0.5674121 0.048984006 -0.44565 0.86334956
0002d0 4b 48 03 3f ef f7 10 3d e3 0d 19 be 58 d1 1f bf
       0.51282185 0.035392698 -0.14946704 -0.6242881
0002e0 4f 51 52 3f ed f0 d6 3e b5 44 55 3e ce 3f 16 be
       0.8215532 0.41980687 0.20826991 -0.14672777
0002f0 ee fd 3d bf 11 7e 44 3f 3a 76 f7 3e 5c 0e c7 3e
       -0.7421559 0.7675486 0.48332387 0.38878143
000300 d9 77 b0 be 92 99 1f be 41 39 3d 3e 09 d8 3d 3e
       -0.34466437 -0.15585926 0.18478872 0.18539442
000310 74 fa 91 39 93 57 8d be b6 94 ed 3c ae ec 83 3e
       0.00027843157 -0.27605876 0.029001575 0.2576651
000320 40 bd a7 3d 6e 3e 1e bd 5f a0 4f be 8f 73 26 3c
       0.081903934 -0.038633756 -0.2027602 0.010159387
000330 80 fe 4e 3e e9 b8 c7 3d 73 07 6b be 2a 4c 10 bf
       0.20214272 0.09752066 -0.2295206 -0.5636622
000340 58 0c e2 bd c2 2c 42 3d 1f 24 f1 3e 58 65 b7 3e
       -0.11037511 0.047405966 0.4709787 0.35819507
000350 08 5e 6e 3e 40 ed 18 be 07 b9 2c be 4c 88 96 3e
       0.23278058 -0.14934254 -0.16867457 0.2940086
000360 9a 9c 37 3e fe 94 99 3e 8a c5 51 be ff b0 8f be
       0.17930833 0.29996485 -0.20485511 -0.28064725
000370 75 0b 2f 3e e8 59 6b 3e 23 24 92 3d 9e e2 be be
       0.17094214 0.22983515 0.07135799 -0.3728227
000380 bb 09 49 be 73 de 64 3d 8e 91 df 3e ca 57 d3 3e
       -0.19632618 0.055876207 0.43665737 0.41277915
000390 18 ea c1 bd 0f 53 81 be f3 3f cc bd a8 1a ae 3e
       -0.09468478 -0.2525868 -0.09973135 0.34004712
0003a0 b9 d8 1b 3e b3 8f 7b be f8 29 8e be f1 e3 b0 be
       0.15219392 -0.24566536 -0.27766395 -0.34548905
0003b0 2c 12 02 3e 8a 8b 87 3e 2b 21 89 be 61 34 0a bf
       0.12702245 0.26473647 -0.26783118 -0.53986174
0003c0 53 e5 48 be b4 6d fd bd 2d 5d 4a bd 4b 00 c6 bc
       -0.1961873 -0.1237444 -0.049405266 -0.024170062
0003d0 29 18 0f be 3f 5f 5d be 25 6c 9e be a5 58 05 bd
       -0.1397406 -0.21618365 -0.30941883 -0.03255524
0003e0 7d 3b 6a ba d7 2a c5 bd fd 19 e3 bd 93 c9 65 be
       -0.0008935256 -0.09627312 -0.11088941 -0.22440176
0003f0 b5 63 01 3e 60 2e 4b 3d e2 24 17 be 7a 32 80 be
       0.12635691 0.049604774 -0.14760163 -0.2503851

network.9.bias f4 [16]
000000 42 17 fe bd ac ae cd 3d c0 37 89 3d 5a 00 73 bd
       -0.1240678 0.10043082 0.067000866 -0.059326507
000010 c4 48 29 be dc ef 9a be 95 e5 b6 3d 89 bc 4b be
       -0.16531664 -0.30261123 0.08930508 -0.19896139
000020 3d 85 40 be 5c 8a 01 be eb 43 db 3d 05 53 83 3e
       -0.18800826 -0.12650436 0.10706314 0.25649276
000030 b5 db 19 3e 8f 25 b3 be 86 44 8c 3c 3a 97 de 3c
       0.15025218 -0.34989592 0.017122518 0.02717172

network.10.weight f4 [16, 16, 1, 1]
000000 25 2d 3d 3f a0 31 ce be 8a 23 ef 3e 52 19 c6 3d
       0.7389701 -0.40272236 0.46706802 0.09672798
000010 4b 74 19 3e 18 4b 99 3e 74 1e 3e 3d 8c 55 75 3d
       0.14985768 0.29940104 0.04641576 0.059896037
000020 55 75 16 3e 08 e3 ab bd 01 ce a5 bc 60 e7 64 3e
       0.14693196 -0.08392912 -0.020239832 0.22353888
000030 de d4 00 3d 13 4b e8 3e f7 9a 09 3f 37 6f 2b 3e
       0.031453006 0.45369777 0.5375208 0.16741644
000040 93 af 94 3e 8c 6e d3 bc 9d d3 02 3e eb b0 dc be
       0.29040202 -0.025809549 0.12776037 -0.43103728
000050 b9 29 87 3d 96 27 7b 3d eb 67 9f 3d 3b 6d 45 be
       0.06599755 0.06131705 0.07783493 -0.1927995
000060 22 1a 56 3e 35 6e af be e6 64 2c 3c dd ff 89 3d
       0.20908406 -0.3426377 0.010522103 0.06738255
000070 ab 7b 21 bf 80 e4 eb 3e e4 ac 11 bf e9 d3 9f 3d
       -0.6307933 0.4607277 -0.56904435 0.078040905
000080 b2 3e 99 be cc 36 d6 3d 05 c8 bb 3e 2d ec c9 be
       -0.29930645 0.104596704 0.3667604 -0.39438
000090 df 1f 5a be 75 f3 e8 3e b5 cd 02 3f 95 31 ac 3e
       -0.2130122 0.45498243 0.51095134 0.33631578
0000a0 92 35 9a 3e 9a 5b 6a 3d 8c 7d b1 3e 61 92 5d bd
       0.30118996 0.057216264 0.34666097 -0.054094676
0000b0 56 65 fb 3d 6a 31 de bc cb 11 23 3d 3a 00 3d 3e
       0.12275188 -0.027123172 0.03981189 0.18457118
0000c0 04 04 0e 3e 6b 75 6b 3e d4 98 d2 3c 7f 9d 5e 3d
       0.1386872 0.2299401 0.02570764 0.05434942
0000d0 7a ca 6d 3e 0e d1 20 3f 49 8a 85 3e e3 8d 98 3e
       0.2322177 0.6281899 0.26082066 0.2979575
0000e0 c9 bc 80 3c 35 f1 8c 3d a0 45 33 3e aa a5 ca be
       0.01571502 0.06881944 0.17507029 -0.39579517
0000f0 76 d8 88 3d d6 db 86 3d 13 ad 1d bf 78 be 15 bd
       0.06681912 0.06584899 -0.61592215 -0.0365586
000100 a3 dd fc 3d 58 e1 f0 3d de 5d 48 bd b3 d4 4d 3c
       0.12346961 0.11761731 -0.048917644 0.0125629185
000110 69 83 41 3e 97 d6 1a be 3c 50 8a 3c 55 a4 6d 3e
       0.18897785 -0.15120922 0.016883962 0.23207219
000120 56 aa 86 3e f6 ad 19 3f 18 8f cb be 46 b3 10 bf
       0.2630183 0.6003107 -0.3975761 -0.5652355
000130 0e 85 15 be 00 54 2a 3e d0 96 92 3e 85 fa d0 3e
       -0.14601538 0.16633606 0.28630686 0.4081613
000140 a4 95 86 be d1 73 be bd 6b e4 18 be bb e0 6b 3e
       -0.26286042 -0.09299434 -0.14930885 0.23034947
000150 53 80 fb 3e 16 4c 08 be aa ee 64 3e 0f a0 10 be
       0.4912134 -0.13310274 0.22356668 -0.14123558
000160 ff 0b 94 3e 4a 60 59 3e 24 80 87 be 3a bc ed 3e
       0.28915402 0.21228138 -0.2646495 0.46432668
000170 70 b5 e7 bd 70 96 d7 3d d3 11 12 3e 8f 32 16 be
       -0.11313903 0.105267406 0.14264612 -0.14667724
000180 ee b8 6f 3d 00 8c 0b 3d 74 fd 46 bd 8d e6 53 be
       0.058525972 0.03406906 -0.048581555 -0.20693417
000190 e9 7b ed 3d 16 bd 8e 3e bf 09 71 bd 3b 10 29 3f
       0.115958996 0.27878636 -0.058847185 0.6604039
0001a0 72 00 85 3e 00 06 38 bf d8 f5 bd be 8b 8d 34 be
       0.25976902 -0.71884155 -0.37101626 -0.1763212
0001b0 ff e4 18 3e 54 f0 4e be 94 48 61 3e 4f 1b be bd
       0.14931105 -0.20208865 0.22000343 -0.092825525
0001c0 4f 5d 77 be 25 79 dc bc ac 28 a1 3c 5b 73 84 bd
       -0.24156688 -0.026913235 0.019672714 -0.06467315
0001d0 0b 12 53 3e 44 e1 e7 bd 3e d5 0f be 8c 03 ca 3d
       0.20612352 -0.11322263 -0.14046189 0.09863958
0001e0 1f 44 41 3f 00 8a 05 bf 09 e1 9d be f8 41 91 3e
       0.7549457 -0.52163696 -0.3083575 0.28370643
0001f0 d6 c0 69 3c fe 06 3f bd 8e 9e a4 bd ad 03 2c 3e
       0.014267167 -0.046637528 -0.080380544 0.16798277
000200 d4 5f 2f be d7 6c 12 3e 83 75 4d bf f2 bf 29 bf
       -0.171264 0.14299332 -0.80257434 -0.6630851
000210 84 c0 35 be 9e 9c be 3d 2e 01 8a be 53 95 18 3e
       -0.1774922 0.09307216 -0.26954025 0.14900713
000220 98 ec 7c be 1d c6 f7 bd b9 e6 10 bd a1 29 74 3d
       -0.24699628 -0.12098334 -0.035376284 0.059610013
000230 0c 05 c5 bd 8a 29 7b 3e d0 8c 91 be 52 da 14 bf
       -0.09620103 0.24527565 -0.28427744 -0.5814563
000240 b2 26 a6 be c6 a6 ad bd af 0a 83 bd 26 01 73 3d
       -0.32451397 -0.08479075 -0.06398522 0.059327267
000250 80 43 26 3e b1 c7 1b bf ba d3 29 3f 8b e8 84 3e
       0.16236687 -0.6085158 0.66338694 0.25958666
000260 74 07 c7 3d a5 93 30 3f d2 d1 0d 3e 9f 66 18 be
       0.097182184 0.6897529 0.13849571 -0.14882897
000270 0a 6e b3 3e d9 3f 76 3e 68 f3 4c 3e 20 c0 eb 3d
       0.3504489 0.24047793 0.20014727 0.11511254
000280 aa ec 13 be 96 de 85 bd e0 1c 09 3f a5 d1 86 3d
       -0.14445749 -0.065365955 0.53559685 0.06582955
000290 8d b1 79 3e 92 6d da 3e 3f f3 76 be d8 91 0c 3e
       0.24384136 0.4266172 -0.24116229 0.1372751
0002a0 d6 fb b5 be a1 8b 2c be b9 9a a5 bd a6 58 40 3e
       -0.35543698 -0.16850139 -0.08086152 0.18783817
0002b0 2b fd b2 3e 8a e6 25 3f 35 ea bd 3e db 59 47 be
       0.34958777 0.648049 0.37092748 -0.19467871
0002c0 b9 09 ba bd 3d be 74 be 1b f7 b2 3d 5c b6 05 3d
       -0.09083886 -0.23900695 0.08738538 0.032644615
0002d0 25 b6 79 3e 78 57 1c 3f 74 0c 57 3e f7 96 f9 3b
       0.24385889 0.61070967 0.21000844 0.0076168734
0002e0 af 93 f6 3d da 91 3a bd 76 00 bd bc 73 43 35 bf
       0.12039887 -0.04554925 -0.023071509 -0.70806044
0002f0 f4 a1 6d bc ae 4d 3e 3b e7 46 09 be 16 17 80 3e
       -0.014503945 0.0029038 -0.13405953 0.25017613
000300 a8 db db 3d de 29 1c bf a0 95 ba 3e 71 0c 29 3e
       0.107352555 -0.61001384 0.3644228 0.16508652
000310 29 a7 9d 3e 34 39 24 be 28 1d f5 bd 61 44 43 be
       0.30791596 -0.16037446 -0.11968452 -0.19069053
000320 b6 08 e5 3d 3b ed 5a 3d ee bc 8a 3d af 07 98 3d
       0.11183302 0.053448897 0.06774317 0.074233405
000330 a8 02 cb be c5 92 8b be e1 0e 94 bd e7 86 87 3e
       -0.39650464 -0.27260414 -0.072294004 0.2647011
000340 1b eb 91 be 36 f2 67 3e 80 bf 41 be 8e 70 8c 3d
       -0.28499684 0.2265099 -0.18920708 0.068574056
000350 4b 46 d2 3e b3 6b 8b 3e 54 cb bb bb ee bd a2 3d
       0.41069254 0.27230605 -0.0057310257 0.079463825
000360 66 9a ca 3d b9 c1 47 be 30 00 01 bf a0 9c 4d be
       0.098927304 -0.19507493 -0.5039091 -0.20079279
000370 f2 56 af bd 38 96 f2 bd ce 2d 1b 3d aa 46 1f be
       -0.085615054 -0.11845058 0.03788548 -0.155543
000380 34 85 d0 be 8f 9a f6 be 01 58 a1 be e5 c9 06 be
       -0.40726626 -0.48164794 -0.31512454 -0.13162954
000390 eb bc f9 bd fd 4e 04 3f 7d 0f 82 3c a1 ec 95 bb
       -0.12194236 0.51683027 0.015876526 -0.0045753275
0003a0 50 5e 3a 3e b6 af 30 3e ff d4 df 3e 6f 5a 1b 3d
       0.1820004 0.17254528 0.4371719 0.03792804
0003b0 2f 5b 7d bd 2d 75 23 3c f6 0a 87 3d 52 cc 86 bd
       -0.061854538 0.009976667 0.065938875 -0.0658194
0003c0 fd 7d 0c 3d 0a 18 1f be 4b 6b 83 bc 85 a4 1b 3e
       0.03429984 -0.15536514 -0.016042372 0.15199478
0003d0 ef c8 df be db 17 30 3e fe c0 01 3e 93 44 1e 3e
       -0.43707988 0.171966 0.12671277 0.15455846
0003e0 ab 5e b0 be 45 65 c4 3b 01 3b 13 bf 03 ca cf 3d
       -0.34447226 0.0059935176 -0.5751191 0.101459526
0003f0 f1 41 9b bd 7f 47 2d 3e 01 88 18 3e 2e 5d 50 3d
       -0.07580937 0.16921805 0.14895631 0.050870113

network.10.bias f4 [16]
000000 b7 83 ef 3c 15 b6 c7 bd 7c 72 dd bb 40 56 c4 3c
       0.029237611 -0.09751526 -0.0067580324 0.023966908
000010 7e 1a 08 bf 4a 7b db be 90 8a 37 be dd 07 0f be
       -0.53165424 -0.428675 -0.17923951 -0.13967843
000020 b2 8f b7 bc 8e d7 44 be 58 2c 37 be ad 5e da be
       -0.022407386 -0.19222853 -0.1788801 -0.42650357
000030 1d 70 6a bd 75 a2 92 3d d9 25 f8 be 96 d6 a7 be
       -0.057235826 0.071598925 -0.48466375 -0.32780904

network.11.weight f4 [16]
000000 48 57 6f 3f 2f 1b 2f 3f d7 d9 a2 3f dc c9 c6 3f
       0.93492556 0.68400854 1.272273 1.5530353
000010 37 cc 82 3f 1c 11 95 3f 03 85 a6 3f 47 b9 e2 3f
       1.0218571 1.1645846 1.3009342 1.7712792
000020 c8 e7 7a 3f 90 17 48 3f dd 4c 33 3f 06 b4 ab 3f
       0.9800992 0.78160954 0.7003916 1.3414314
000030 b2 22 54 3f eb 37 b3 3f 4e bf 84 3f 02 4f eb 3f
       0.8286544 1.400144 1.0370882 1.8383486

network.11.bias f4 [16]
000000 2c dd 6b be 73 e0 cb bd c8 09 93 be fb ee 28 be
       -0.23033589 -0.0995492 -0.287184 -0.16497414
000010 72 32 3b bd ff 8e 40 be 07 29 fd be 18 65 af be
       -0.045702405 -0.18804549 -0.49445364 -0.34256816
000020 55 e5 37 be c2 da f8 bd d7 fe 04 be c2 e8 92 bd
       -0.17958577 -0.121511 -0.12987839 -0.07173301
000030 98 54 3f be 5e 33 bc be 0f 6f 12 bf de 3c 1d bf
       -0.18684614 -0.3675794 -0.5720071 -0.61421

network.11.running_mean f4 [16]
000000 cd b2 4a be 00 d8 ab be 07 63 9d 3d c2 b7 94 bd
       -0.1979477 -0.33563232 0.076849036 -0.072616115
000010 b6 9f d0 bf 2d ee 9f bf fd a1 7a bf b9 9a 86 bf
       -1.629874 -1.249456 -0.97903425 -1.0515968
000020 06 9e 80 bd 4a f1 3f be 0c 44 9e be 88 50 b3 bf
       -0.062801406 -0.18744388 -0.3091129 -1.4008951
000030 c7 83 61 be 79 48 91 bf 0e ad 23 bf d3 98 8e bf
       -0.22022925 -1.1350242 -0.63935935 -1.1140388

network.11.running_var f4 [16]
000000 cb 6d 36 41 cc 3f 0d 41 86 a4 1a 41 a6 4a 47 41
       11.401805 8.828075 9.665167 12.455725
000010 03 10 1b 41 20 16 f9 40 5c 4b 2a 41 1b 20 35 41
       9.691409 7.783951 10.643398 11.320338
000020 76 a5 6e 41 dd bf 3a 41 11 a1 31 41 3f 0d 2f 41
       14.915396 11.671842 11.101823 10.940734
000030 e1 af f5 40 58 22 dd 40 f5 f3 13 41 00 82 31 41
       7.6777196 6.9104424 9.24706 11.094238

fc.weight f4 [40, 208]
000000 b1 d3 2b be 98 36 89 be db 72 99 be e1 8f 57 be
       -0.16779973 -0.26799464 -0.2997044 -0.21050979
000010 b6 61 8a be 81 ba 9e be 73 e5 6e be e8 96 73 be
       -0.27027673 -0.31001666 -0.23329715 -0.23788035
000020 6a 82 8d be a2 74 a7 be b2 bd 9b be 58 16 61 be
       -0.2763856 -0.3270617 -0.30418164 -0.2198118
000030 2b b4 98 be 13 a2 aa bd 95 cc 40 bd af 6a a1 bd
       -0.29824957 -0.083316945 -0.047070105 -0.078816764
000040 75 7b f5 bc 92 30 0e 3c af 4f fb 3c 06 cd ee 3c
       -0.029966095 0.008678572 0.030677645 0.029150497
000050 04 f6 54 3d 5e 4c 01 3e 92 b1 80 3e 9b c7 da 3d
       0.05199243 0.12626788 0.25135475 0.10682603
000060 4e 8a 9f bc 89 ac 1a be cd c5 62 3e cb cb 51 3e
       -0.019475129 -0.1510488 0.22145768 0.20487897
000070 cb 36 39 3e 16 eb 84 3e 26 55 87 3e ab 2e 93 3e
       0.18087308 0.25960606 0.2643215 0.28746542
000080 99 16 8e 3e 12 ba ae 3e b0 d1 80 3e d1 1c 75 3e
       0.27751616 0.34126335 0.2515998 0.23936774
000090 fd a7 94 3e f5 55 66 3e 74 3a 37 3e c0 7e 16 3e
       0.29034415 0.22493728 0.17893392 0.14696789
0000a0 1a d9 88 3d 8c 35 15 3e bd 5e 3e 3e 22 00 2b 3e
       0.06682034 0.14571208 0.18590827 0.1669927
0000b0 a0 47 2f 3e 78 ec 75 3e 2b 9b 19 3e 62 64 3c 3e
       0.17117167 0.24015987 0.15000598 0.18397668
0000c0 67 7c 37 3e 55 8b 17 3e 36 ab a0 3d 01 85 36 3e
       0.1791855 0.14799245 0.07845156 0.17824174
0000d0 36 47 2e be b3 1a 20 be 37 fd 19 be 3a 7a 3b be
       -0.17019352 -0.15635185 -0.15038 -0.18308344
0000e0 6d 95 16 be a0 c2 9c be e2 a0 e6 bd 90 21 19 be
       -0.14705439 -0.30617237 -0.11261155 -0.1495421
0000f0 62 6c 11 be d7 1e 17 be 62 eb 2d be f4 54 2b be
       -0.14201501 -0.14757858 -0.16984323 -0.16731626
000100 1e 41 3e be a6 3b 8e 3d d6 01 84 3d 75 67 b7 3d
       -0.18579528 0.06944971 0.06445663 0.0895528
000110 d5 ae ea 3d ed 1c 1a 3e ce ae 37 3e 10 7a 12 3e
       0.11459128 0.15050097 0.17937776 0.14304376
000120 56 bf 47 3e 0d b9 1f 3e 28 ef 14 3e b4 0a 04 3e
       0.19506583 0.15597935 0.14544356 0.12894708
000130 2f d4 3f 3e 3d 1c 1e 3e 87 42 16 3e 79 e2 85 3d
       0.18733285 0.1544046 0.14673816 0.06537337
000140 df 9b b7 3d ca 63 ca 3d a2 75 89 3b f1 73 38 3e
       0.08965277 0.098823145 0.004194931 0.18012978
000150 2b fa df 3d 33 2e cc 3d 6f cb 23 3e 81 1d b0 3c
       0.10936388 0.09969749 0.15995573 0.021498444
000160 96 58 d6 3d d7 7b 9c 3d 76 2d a8 3e 4f 4c 34 3e
       0.10466115 0.07640808 0.32847184 0.17607234
000170 57 37 55 3e 3c bd 2a 3e 73 05 1d 3e 23 02 42 3e
       0.20821892 0.1667375 0.1533411 0.18946128
000180 05 2a 53 3e 68 a1 24 3e 05 2e 3f 3e f4 99 34 3e
       0.20621498 0.16077197 0.18669899 0.17636853
000190 8a 5e 5d 3e 1d 4e 3b 3e ad bc 8c 3e 6b 92 a9 3e
       0.21618095 0.18291517 0.27487698 0.3311952
0001a0 32 27 40 bd 02 8c b7 be a2 90 35 be 97 27 af be
       -0.04691238 -0.35849005 -0.17730954 -0.34209892
0001b0 34 f0 ff bc 2c 28 b9 be 6a 81 38 bd 67 d2 a1 be
       -0.031242467 -0.3616346 -0.045045294 -0.31605837
0001c0 b3 5a 47 be 5a 8e c1 bd d4 0c 72 be a8 fe b8 be
       -0.19468193 -0.094509795 -0.23637706 -0.36131787
0001d0 fb 64 21 be c4 9d 23 3e 2d 35 52 3d 60 57 02 3e
       -0.15761177 0.15978152 0.051320244 0.12728643
0001e0 17 40 51 3d 65 2a db 3d e0 95 ba 3d b1 a3 d4 3d
       0.05108651 0.107014455 0.09110618 0.10382784
0001f0 40 c4 29 3e 9a b1 4b 3e 7d 16 e1 3d 77 96 eb 3d
       0.1657877 0.19891968 0.109906174 0.11503308
000200 99 fc de 3d fc dd 3e 3e b0 44 9a 3d d2 ed 8f bd
       0.10888023 0.18639368 0.07532632 -0.070277825
000210 34 39 4c be f2 ab 1d be f1 9a a0 be 22 bd d3 bd
       -0.19943696 -0.15397623 -0.3136821 -0.103388086
000220 ba ab f2 bd 89 93 5a bd 50 69 1e be 5f d4 74 be
       -0.118491605 -0.053363357 -0.15469861 -0.23909138
000230 44 9a 8e be 0b 7e e3 bd 91 90 1d be db df 85 bc
       -0.2785207 -0.11108025 -0.15387179 -0.016342094
000240 0e 2e a5 bd ab ce b3 bd 6e 9c 02 be ea 48 08 be
       -0.08065425 -0.08779653 -0.12754986 -0.13309065
000250 9f 81 90 bd b3 7d 0f be 56 8d 07 bd 98 c1 55 bd
       -0.07055973 -0.14012794 -0.033093773 -0.05218658
000260 12 9f ba bd 16 36 a7 bd 5e 3b 81 bd 42 91 14 be
       -0.091123715 -0.08164613 -0.063101515 -0.14508536
000270 9c 8e 64 be 37 0c 70 bd 2f 96 89 be cb 3a 16 bc
       -0.22320026 -0.0586054 -0.26872393 -0.009169291
000280 8e be 73 bd 6d 68 8c bd 5c 38 ba bd 01 e2 15 be
       -0.0595079 -0.06855855 -0.09092781 -0.14636995
000290 db 9f 37 be 4d bd b6 3c ba 9c 40 bd a9 52 15 3d
       -0.17932074 0.022307063 -0.047024466 0.036455784
0002a0 9e 28 61 bd 8e aa 14 3e 48 44 29 3d 1e 5e b0 3d
       -0.054970376 0.14518186 0.041324884 0.086117014
0002b0 53 6a 39 3d a0 56 2f 3e 74 ca d6 3d a4 da fa 3d
       0.045267414 0.17122889 0.104878336 0.12248734
0002c0 26 d9 0a 3e 19 f9 01 3e 35 ea b8 3d 5e 74 09 3e
       0.13559398 0.1269268 0.090290464 0.13423297
0002d0 6a cd f5 3d 48 60 0e 3e ed 1a 72 bd 8f 5d d9 bd
       0.1200207 0.13903916 -0.05910771 -0.10613548
0002e0 1f 34 e5 3c 34 dc 41 3c cf 41 e6 3d ba ca 9a ba
       0.027978955 0.011832286 0.11243021 -0.0011809685
0002f0 ff 96 1d 3e b6 1e a3 3d ca 5d f5 3d df ef b0 3d
       0.15389632 0.07964842 0.119807795 0.08639502
000300 da 9e 20 3e a8 5b a9 3a e2 5a 3c bc 4a 33 bf be
       0.15685597 0.0012920992 -0.0114962775 -0.37343818
000310 b7 f9 9b be b9 5f a6 be 68 54 9d be f1 6b 98 be
       -0.30463955 -0.32494906 -0.3072846 -0.29769853
000320 bc f3 ae be 4c 43 96 be 93 ac 99 be dd b4 97 be
       -0.3417033 -0.29348218 -0.30014476 -0.29630175
000330 42 47 8f be 35 25 8a be 57 a5 af be 56 3a bc be
       -0.27984053 -0.26981512 -0.34305832 -0.36763257
000340 9e c8 02 be 3b f4 a3 bd 71 6d 28 bd c5 3f f3 bd
       -0.12771842 -0.08005568 -0.041119996 -0.118773974
000350 a6 5c 66 be 20 32 08 be 05 8a 98 bd 0a 67 66 be
       -0.2249628 -0.13300371 -0.074482 -0.22500244
000360 f4 e6 9a be 56 75 89 be f6 1c 96 be 45 4c 58 be
       -0.30254328 -0.26847333 -0.2931897 -0.21122845
000370 47 fc 66 be b3 36 bf bc c8 45 21 3d a2 65 24 3c
       -0.22557174 -0.023341512 0.03937319 0.010033997
000380 f5 ec ef bd 81 de a4 3c b6 e4 57 3d c7 22 0d be
       -0.11715118 0.02012563 0.05270835 -0.13782798
000390 50 dc 9c bd 15 4f 9c bd ce 75 56 bc c9 bf 6e 3d
       -0.07659209 -0.07632271 -0.01308961 0.05828837
0003a0 0f fb 9b 3d 0b 3a bb 3c cd 10 44 be 47 50 b4 bd
       0.07616245 0.022854825 -0.19147034 -0.08804374
0003b0 6f 1b 18 bd f3 0f be 3d 1f 71 54 3d 41 7e 29 3e
       -0.037135538 0.09280386 0.051865693 0.16552068
0003c0 14 d4 99 3d 1d 05 17 3e e8 2a 02 3c 62 73 d8 3d
       0.07511154 0.14748044 0.0079448 0.105688825
0003d0 a6 27 62 3c 27 47 f2 3d 42 8f a8 bc cc 08 bb bd
       0.013803398 0.118299775 -0.020576123 -0.09132537
0003e0 f7 18 7b b8 5d 3a b1 3b 91 ee 07 3e b0 a9 3f 3d
       -5.9866314e-05 0.005408569 0.132746 0.046792686
0003f0 b3 95 98 3d 01 a5 8b bb c4 a7 06 3d f3 58 af bb
       0.07450428 -0.0042616134 0.032874838 -0.0053511797

fc.bias f4 [40]
000000 a0 e2 9a 3b 4f c4 88 3d 25 e6 10 3f ba e9 26 bd
       0.004726723 0.06678068 0.5660117 -0.040750243
000010 db ab 29 3f 8f a1 18 bf bd 08 38 3f 55 1b c9 3d
       0.66277856 -0.5962152 0.71888334 0.09819666
000020 05 5c 1e 3f 59 55 0e bf ce 49 e9 3e 46 92 a7 3d
       0.6185916 -0.5559898 0.4556412 0.08182196
000030 b0 bc 80 bf fa 86 bd 3d 10 7a e4 bd a1 ca 51 be
       -1.0057583 0.0925426 -0.11156094 -0.20487453
000040 e7 5b 4a bf b5 dc 38 bf 09 83 ca bd d3 b2 02 bf
       -0.7904648 -0.7221177 -0.09888274 -0.51054114
000050 06 5c 94 3e e4 f8 5d 3f 7c f9 80 be 43 05 a0 3d
       0.28976458 0.867079 -0.2519034 0.078135036
000060 3e 32 c7 be f3 08 07 3f 2d 08 11 3f f3 fe aa 3e
       -0.3890552 0.5274803 0.566531 0.33397636
000070 83 da 4b be 27 5f 7d 3e 67 84 ad be 28 d6 c1 3e
       -0.19907574 0.24743329 -0.33890077 0.378587
000080 37 f9 d0 be d8 12 8f bf 9b 0b a4 be 60 f3 3e 3f
       -0.40815136 -1.1177626 -0.32040104 0.7459011
000090 10 67 aa bd b1 b2 5d 3e 21 9a b0 bd 20 4b a8 be
       -0.08320439 0.21650197 -0.08623148 -0.32869816
