Experiment/EEGNet-440-128.pth (torch, 64471 bytes, 22 tensors)

weight f4 [8, 1, 1, 220]
000000 5c 28 d1 bc cb d1 8b bd 21 44 56 bd bd da 12 3e
       -0.02553194 -0.06827124 -0.052311067 0.14341255
000010 d4 23 0b 3e 13 1e e9 3c 65 a5 e9 bd 2b aa 5d be
       0.13587886 0.028456723 -0.114085 -0.21646945
000020 d4 c5 8d bb 5f e2 02 3e de e2 01 3e e0 1d de 3d
       -0.0043265615 0.12781666 0.12684199 0.10845542
000030 8b 05 5c bc 93 8a 68 be a2 ff 4b be 07 67 2e 3d
       -0.013429056 -0.22709112 -0.19921735 0.042578723
000040 1f f2 3a 3e 48 16 23 3e f0 2a 66 3d 83 1f c0 bd
       0.18256424 0.15926468 0.056193292 -0.093810104
000050 84 65 53 be 2a 91 00 be 1b 96 bd 3c e5 2f 7a 3e
       -0.20644194 -0.12555376 0.023142865 0.24432333
000060 24 0b 28 3e 21 77 91 3b b4 14 27 be 41 01 5e be
       0.164105 0.00443925 -0.16316491 -0.21680166
000070 e9 a9 e3 bc 01 d7 c5 3d 4f 4c 4b 3e 31 8d 3f 3e
       -0.02779098 0.09660149 0.19853328 0.18706204
000080 52 bf 7a bc 1c 4b 82 be 18 7a 56 be e5 2f 52 bd
       -0.015304403 -0.2544793 -0.20945013 -0.051315207
000090 6f 2d 50 3e 54 7b 68 3e a5 55 fd 3d 1c ae 3e be
       0.20329832 0.22703296 0.12369851 -0.18621105
0000a0 b0 69 93 be 3e 35 03 be db 9b 34 3d 4e ba 5a 3e
       -0.2879157 -0.12813279 0.044093948 0.21360132
0000b0 ae 91 13 3e 99 29 28 3c 38 21 0e be fa 3d 8b be
       0.14411041 0.010263824 -0.1387986 -0.27195722
0000c0 d4 51 d2 bd 82 0b 67 3e 47 52 93 3e 69 14 0e 3e
       -0.10269514 0.22562984 0.2877371 0.13874973
0000d0 4a 7b 75 bd 98 22 ad be dd 9b 3b be db f2 31 3d
       -0.05993203 -0.33815455 -0.18321176 0.043444496
0000e0 d7 53 85 3e f7 80 8b 3e 79 b8 3a 3d 59 d8 40 be
       0.26040527 0.2724683 0.045586083 -0.1883253
0000f0 64 0c 8b be 49 51 28 be 35 f4 99 3d 5a 55 90 3e
       -0.2715789 -0.16437258 0.07517282 0.28190118
000100 48 54 86 3e 9d 00 16 bd a6 ac 8a be cb 40 77 be
       0.26236176 -0.03662168 -0.27084845 -0.2414581
000110 54 e2 df bd 0b 94 8f 3e 4e 8c a8 3e 3a b6 43 3e
       -0.109318405 0.28042635 0.32919544 0.19112483
000120 7b e3 f5 bd 12 cf b9 be c9 28 3e be 11 99 05 3d
       -0.12006279 -0.36290795 -0.18570246 0.03261668
000130 02 85 a2 3e 40 9f bb 3e 7b 73 97 3d e5 34 4c be
       0.31742102 0.36644936 0.07395073 -0.19942053
000140 93 2c cd be 12 8a 24 be 5e 0d f3 3d c5 9b ba 3e
       -0.4007307 -0.16068295 0.11867784 0.36446968
000150 b6 76 87 3e a9 cf 78 bd 25 36 83 be 2a 17 89 be
       0.26457757 -0.060744915 -0.25627246 -0.26775485
000160 98 a0 9f bd f1 36 6a 3e 69 ac a3 3e d9 f5 80 3e
       -0.07794303 0.22872521 0.31967476 0.25187567
000170 15 0d 25 be bf 9b be be 18 67 8d be 21 0e 08 3d
       -0.16118272 -0.372282 -0.27617717 0.0332166
000180 67 f3 d1 3e fb 29 d3 3e 9e 31 f1 3c 10 79 86 be
       0.41006014 0.41242966 0.029442605 -0.26264238
000190 01 5d c1 be c9 d1 68 be 48 14 22 3e 51 fb d4 3e
       -0.3776627 -0.22736277 0.15828049 0.4159799
0001a0 e6 fa 86 3e 35 ed 7e bd ef 67 85 be 6f 49 ce be
       0.26363295 -0.062237937 -0.26055858 -0.402904
0001b0 9c d3 12 bd 76 79 7c 3e 0e b6 d4 3e 98 e9 55 3e
       -0.035846338 0.24655709 0.41545147 0.2088989
0001c0 12 4d 2e be c6 99 e2 be 1e e1 89 be 9d 3c 8e 3d
       -0.17021587 -0.44257945 -0.26929563 0.06945155
0001d0 59 7a 9a 3e c3 cf ba 3e b2 26 e3 3d 83 fe 86 be
       0.3017147 0.36486635 0.11091365 -0.26366052
0001e0 64 59 f5 be 50 2e 37 be e0 c1 04 3e fd ba f8 3e
       -0.47919762 -0.1788876 0.12964582 0.4858016
0001f0 c4 23 af 3e 8e c9 0a bd a1 d3 dc be 7e 94 cb be
       0.34206975 -0.033883624 -0.4313021 -0.39761728
000200 3c e2 cf bd ac f8 c0 3e b9 29 d4 3e ff c1 4c 3e
       -0.10150573 0.37689722 0.41438082 0.19995879
000210 19 c2 50 be 06 53 d8 be b3 ed a1 be d9 78 37 3d
       -0.20386542 -0.42250842 -0.31626663 0.044792984
000220 00 10 cc 3e e8 96 c0 3e 3b 2a a8 3d 4b bb 8d be
       0.39855957 0.37615132 0.0821118 -0.27681956
000230 68 84 c6 be 0d a0 6b be d8 bc 50 3e 11 49 d9 3e
       -0.38772893 -0.23010273 0.20384538 0.42438558
000240 91 d9 93 3e 82 2f 82 bd 35 1d ca be 03 fc d3 be
       0.28876927 -0.06356718 -0.39475408 -0.41403207
000250 da 43 09 3c 2f ee 83 3e 9f 70 b4 3e 21 c2 00 3e
       0.0083779935 0.25767657 0.35242173 0.12574054
000260 d2 a6 4f be 04 61 ab be 65 8d 35 be 66 2a 42 3d
       -0.2027848 -0.33472455 -0.17729719 0.047403716
000270 b6 3b a0 3e a7 13 b7 3e 77 e5 1d 3d 62 e9 20 be
       0.31295556 0.3575718 0.038548913 -0.15714028
000280 5a 94 a6 be eb 3b 56 be ba 46 0f 3e 54 c3 b2 3e
       -0.32535058 -0.20921294 0.13991824 0.3491465
000290 5c 79 6a 3e 83 7d b3 bd 8f b1 6f be 2f 31 94 be
       0.22897857 -0.08764174 -0.23407577 -0.28943774
0002a0 fe 7e 15 3b 6b 52 36 3e fd ce 85 3e f8 1d b8 3d
       0.002281129 0.17804877 0.26134482 0.08990091
0002b0 d0 55 45 be c2 85 80 be e5 b7 c7 bd 3a 5e 63 3d
       -0.19271016 -0.2510205 -0.09751872 0.055509783
0002c0 8c 65 59 3e 77 eb 22 3e 99 02 e5 bb ec ca 0e be
       0.21230143 0.15910135 -0.006988835 -0.13944596
0002d0 0d c8 8f be 72 b9 fe bd a3 6a 2a 3e 01 92 4c 3e
       -0.28082314 -0.12437715 0.16642241 0.19977571
0002e0 e5 80 25 3e ce 39 90 bd f8 97 57 be f8 db 73 be
       0.1616245 -0.07042275 -0.21054065 -0.2381438
0002f0 1b 62 f5 bb 9f 97 3c 3e 18 3f 6e 3e a2 b8 2d 3d
       -0.0074885017 0.18417214 0.23266256 0.042412408
000300 dd 36 d5 bd 2e dd 95 be 31 7a 02 be b3 0a 98 3d
       -0.10410855 -0.2927031 -0.12741925 0.07423916
000310 f7 82 42 3e a6 b7 30 3e 61 81 8a ba 12 dc 09 be
       0.18995272 0.17257556 -0.0010567122 -0.13462856
000320 21 2b 2a be 82 41 23 be 88 5f 04 3e f0 3d 4a 3e
       -0.16618015 -0.15942958 0.12927067 0.1975019
000330 0a b5 25 3e e0 e7 b2 bc f1 37 6d be 30 b7 5d be
       0.16182342 -0.021839082 -0.23165871 -0.21651912
000340 8a 02 c5 3c 4d f1 30 3e 0d 17 72 3e 46 6d 27 3d
       0.024049062 0.17279549 0.23641606 0.040875696
000350 2f 1b 98 bd 6b d2 57 be 81 26 1e be 2b 7c 9f 3d
       -0.0742706 -0.21076362 -0.15444376 0.07787355
000360 39 2f 09 3e 1e e0 02 3e 77 73 c2 bc 7d f4 2d be
       0.1339692 0.12780806 -0.023736699 -0.16987796
000370 53 b1 2d 3e 46 f1 56 3e d2 9a 59 3e 55 1b 5a 3d
       0.16962175 0.20990476 0.21250466 0.053248722
000380 80 8a 64 3d 4d e8 17 be 36 d2 c9 be af 58 0c bf
       0.055796146 -0.1483471 -0.3941819 -0.5482282
000390 0a 56 02 bf af 78 b6 be cc 15 83 be 4f 7c e2 bd
       -0.50912535 -0.3563895 -0.25602567 -0.11058866
0003a0 cc a6 69 bd a8 0e b3 3c 2a 7f ab 3d 5d 0c fe 3d
       -0.057043836 0.021857575 0.08373864 0.12404702
0003b0 1f 43 8f 3d 23 a5 df bc 95 0e e7 3b 05 53 2a be
       0.06995224 -0.027300423 0.007051299 -0.16633232
0003c0 bf ca 06 be 4f f6 ad bc fc ab 12 3e 7a 69 8c 3e
       -0.13163279 -0.021235613 0.1432342 0.27424222
0003d0 30 d8 8c 3e f1 75 81 3e bd 75 49 3e 35 d8 df 3c
       0.27508688 0.25285295 0.1967382 0.027324775
0003e0 8b 01 88 3c b2 32 0d 3e 4e 06 e2 3d 15 51 30 3e
       0.016602298 0.1378887 0.11036359 0.1721843
0003f0 bb a3 81 3e a9 f5 60 3e f5 24 2e 3d 41 45 da bd
       0.2532023 0.21968712 0.042515714 -0.106577404

bias f4 [8]
000000 6e 79 9c 3d 96 46 5c bc a5 f0 c0 3d 15 8c 05 be
       0.076403484 -0.013444563 0.09420899 -0.13041718
000010 5c 35 7b 3d 3d 24 58 3d 41 9a 3b 3c 2d 24 df 3d
       0.061330184 0.052768935 0.011450351 0.10895572

weight f4 [8]
000000 2a 40 fc 3f c2 4c 87 3e 36 d6 2d 3f 00 25 dc 3f
       1.9707081 0.2642575 0.67904985 1.7198792
000010 aa d9 03 3d c3 4f 31 40 cc b1 50 3f e9 66 d3 3f
       0.032190003 2.7704933 0.81521297 1.6515781

bias f4 [8]
000000 90 42 11 be 40 8b fa 3d 22 de 9a be c0 f5 20 3e
       -0.14185548 0.12233591 -0.302476 0.15718746
000010 69 5a bc 3d 45 93 f3 bc f5 bf 9d 3e 9d a7 9e bd
       0.09196932 -0.02973331 0.30810514 -0.077468134

running_mean f4 [8]
000000 e9 64 95 3d 61 c8 fe bb e8 1c c9 3d 12 e7 04 be
       0.07294638 -0.007775352 0.098199666 -0.12978771
000010 10 26 9b 3d d9 f6 50 3d 5b b8 4c 3c 02 2d de 3d
       0.07575619 0.051016662 0.012495126 0.10848428

running_var f4 [8]
000000 64 17 0d 41 1e af 89 41 48 ca a7 41 17 12 06 41
       8.818211 17.210506 20.97377 8.379416
000010 03 0a ef 41 cf 97 98 40 3a e3 ff 41 60 b4 e3 40
       29.879889 4.7685313 31.98595 7.1157684

weight f4 [16, 1, 128, 1]
000000 e7 41 83 3d 8c 1f 5f be e9 bd 2a bf d3 63 0c be
       0.06409054 -0.21789378 -0.6669603 -0.13709955
000010 89 b4 92 be 3d 2a 9e 3c bd b8 a8 3b eb 08 74 3e
       -0.28653362 0.01930725 0.0051489756 0.23831527
000020 5d a7 13 3e a5 fc be be 64 2d b7 3d d2 fa 31 3e
       0.14419313 -0.37302127 0.089442044 0.17380837
000030 06 9b e4 bd f7 45 89 3e 9c 20 98 be d6 87 09 3c
       -0.11162381 0.2681119 -0.2971238 0.008394202
000040 dc 4e f8 bc 15 36 02 3e 0f 62 02 bf bf ee c7 3e
       -0.03031104 0.12715943 -0.50930876 0.39049336
000050 6b f3 c4 bd 7f f0 8c bd 28 20 81 3d e8 58 99 be
       -0.09616741 -0.068818085 0.063049614 -0.29950643
000060 60 a4 87 bd c3 75 18 3e a9 23 6c bd 62 42 ba bd
       -0.06623149 0.14888673 -0.057651196 -0.09094693
000070 75 8c 24 3c 61 a8 1e be 64 12 60 bd e7 cf 3f 3d
       0.010043253 -0.15493919 -0.05470504 0.04682913
000080 02 6b cb 3b bf 2f fe bd 22 c0 4a 3d 0f 78 f7 3c
       0.0062078247 -0.124114506 0.04949964 0.030208616
000090 92 7e da bd 27 f2 e7 bd 76 f6 93 3d 66 5a 77 bc
       -0.106686726 -0.11325484 0.07224743 -0.015097236
0000a0 78 d2 ec bd 8d 83 b8 bc ff b4 ea 3c f6 8a 0d 3e
       -0.11563581 -0.022523666 0.028650759 0.1382254
0000b0 f6 a8 dc be 60 b4 9c 3d ad 0d ee bd ba d7 bf 3b
       -0.43097657 0.07651591 -0.11623702 0.005854574
0000c0 4d 4a c8 bc 9a 56 1f bd 2d c9 be bc 74 78 18 3d
       -0.024449492 -0.03890095 -0.023289287 0.037224248
0000d0 41 2d a3 bc 5c d7 6e be c0 4b 4f bc 89 00 9f 3c
       -0.01991904 -0.2332434 -0.012652338 0.019409435
0000e0 96 4d d6 be 6a 55 53 be 4b 60 a1 3e 29 89 99 3f
       -0.41856068 -0.20638052 0.31518778 1.1994983
0000f0 a5 d6 dd be c7 f8 c1 be 8a 80 0f 3e e0 0b 92 bd
       -0.43327823 -0.37885115 0.14013878 -0.07131171
000100 48 8e 94 3e b3 78 d4 3e a6 d0 01 3d 8a f8 4d 3d
       0.29014802 0.41498336 0.031693123 0.050285853
000110 92 11 cf 3d 00 4e fa bd e6 90 67 3e fb e0 87 3c
       0.10110773 -0.122219086 0.22613868 0.016586771
000120 74 f3 85 3e 63 7f 95 bd 9c 84 69 3d 92 78 9d 3d
       0.26162302 -0.07299688 0.05701123 0.076890126
000130 66 4f 34 3e 47 b6 df 3d 58 49 5b 3d 64 48 a1 3e
       0.17608413 0.109234385 0.053536743 0.31500542
000140 70 62 a0 3e ff 9c b2 3c 7d 88 2d 3d 50 96 e4 3d
       0.31325102 0.021803377 0.042366493 0.11161482
000150 32 8a af bd ac 09 80 3b 5d cd 98 3d 10 18 a0 3e
       -0.085712805 0.003907403 0.07461045 0.31268358
000160 f8 7c 6d b8 22 54 2c 3b 26 2b 9f 3e 9b 51 b1 3d
       -5.662159e-05 0.0026295264 0.31087607 0.08658143
000170 44 ff 91 3d 26 4d 8b bd 7d e7 99 bb c4 eb 15 3e
       0.07128766 -0.06801824 -0.004696785 0.14640719
000180 89 4f 17 3e de d1 03 3e 19 f9 37 3e 8d 8f 6b be
       0.14776434 0.12873027 0.17966117 -0.23003979
000190 ca bd 21 3e 0e 3d f0 bc 39 cb 87 bd ae c9 12 3e
       0.15795055 -0.029325988 -0.066305585 0.14334747
0001a0 43 94 8b bb 40 e3 dd 3d 4a 5d 30 ba ed fe a9 bb
       -0.0042596175 0.1083436 -0.00067277683 -0.00518786
0001b0 18 60 ac 3c db 8b 9f 3e 42 07 94 be 9a 9e 91 3e
       0.021041915 0.3116139 -0.28911787 0.28441316
0001c0 40 81 03 bd e7 d7 3b 3c 9e c8 70 3c 48 d3 17 3f
       -0.032105684 0.011465049 0.014696268 0.59306765
0001d0 59 2c 1e be 6e 0d f0 3e 23 83 98 be cb a6 20 bd
       -0.15446605 0.46885246 -0.2978755 -0.039221566
0001e0 08 5d 18 be 24 9a 3a be b5 fe bb be 8a 38 81 be
       -0.14879239 -0.18222862 -0.36717764 -0.25238448
0001f0 3c 0d f8 3e aa e6 46 3e 3b 70 8f bc 8c 90 b8 3c
       0.48447597 0.19423929 -0.01750957 0.022529863
000200 fb 22 48 3e b3 e3 70 3e 87 fe be be 5f c4 77 be
       0.19544594 0.2352436 -0.37303564 -0.24196003
000210 c1 f3 67 3d 12 e2 11 3f 4c 8b a1 3d 9d e1 66 3e
       0.056628946 0.5698558 0.07887897 0.22547002
000220 9a 30 60 3e 4e 08 2b bf 21 18 28 3e 80 30 c2 3c
       0.2189354 -0.66809547 0.16415454 0.023704767
000230 ba 6c 20 3e 16 1a ec 3d ef 12 5b bc 0a af fa bd
       0.15666476 0.11528413 -0.013371213 -0.12240417
000240 91 b3 59 bc 9d 5a 42 3d 9e 13 1a 3e bb b5 b0 be
       -0.013287441 0.047449697 0.15046546 -0.3451365
000250 e5 e0 1b bd 57 13 1b 3d c8 19 65 3d ce f2 43 3e
       -0.038056273 0.03786024 0.05593279 0.19135591
000260 fb 8c a5 bd 9d a5 97 be 5d bb 0e 3e 9f 76 df 3c
       -0.080835305 -0.2961854 0.13938661 0.027278243
000270 9b 6f 2e bd fe 37 2d 3d b9 99 62 3c 5c a9 ad bc
       -0.042586904 0.042289726 0.013830596 -0.02119892
000280 d9 2a cd 3d 02 97 0b 3e 4f 4f d9 bd 93 ba ac bc
       0.10017938 0.13631824 -0.1061083 -0.02108506
000290 73 75 61 be d5 e7 62 3e 70 b4 16 be eb 61 bc bd
       -0.2201746 0.2215875 -0.14717269 -0.09198364
0002a0 b3 ff 04 3b 9a 55 84 3c 5d 88 d8 be e4 6d 24 3e
       0.002029401 0.0161541 -0.42291537 0.16057545
0002b0 96 5d 54 be 75 4f fa bc f1 51 7b 3e b4 17 08 be
       -0.20738825 -0.030555466 0.24542977 -0.13290292
0002c0 28 c6 33 bd 0d 11 c7 3e 4d e5 5b be 8f 23 51 bd
       -0.04389015 0.38880196 -0.2147419 -0.051059302
0002d0 8e e7 64 3e 26 26 00 3e 2c d6 02 3d db 33 c7 3c
       0.22353956 0.12514552 0.03194253 0.024316719
0002e0 31 9b 3f 3e f4 ec 89 bc 82 5a cd 3d 56 83 18 bf
       0.18711545 -0.01683662 0.100270286 -0.595754
0002f0 67 66 21 3e e9 4b e3 3d 6b 1b 01 bf 1a 9d 06 3e
       0.1576172 0.11098463 -0.5043246 0.13145867
000300 c0 94 38 bd 88 66 e4 3d b8 e3 5f 3d 91 8a 32 3e
       -0.045063734 0.11152369 0.05466053 0.17435671
000310 ab 91 52 be 09 0e d3 be d2 fa a4 be 9d c6 99 bc
       -0.2056338 -0.41221645 -0.3222261 -0.018771464
000320 0f 19 9e 3e 16 37 ee bd c3 f3 e7 3b 79 c5 c9 bb
       0.30878493 -0.116316006 0.007078619 -0.006157574
000330 9b 7d 38 be c4 06 63 be c0 df 0b 3e fd 26 3a bf
       -0.18016665 -0.2217055 0.13659573 -0.7271574
000340 04 45 02 bf d1 79 c0 bb 81 de df bd 4e 6d e3 bd
       -0.5088656 -0.0058738966 -0.10931111 -0.111048326
000350 95 b7 ea 3d b4 ae 58 3e 5f 5f a6 3a 6d 38 8d 3b
       0.11460797 0.21160394 0.0012693218 0.004309705
000360 fc c9 89 3b 25 33 9b bd a4 42 51 3c 4d 07 06 3d
       0.0042049866 -0.075781144 0.012772236 0.032721806
000370 6e ec 70 3d e2 19 a0 bc ee 72 0b 3e a9 2a 01 be
       0.058819227 -0.019543592 0.13618061 -0.1261393
000380 23 92 35 3f 8c 9d 10 3d 57 ac 67 be b3 8e 22 3f
       0.7092611 0.0353065 -0.22624336 0.6349899
000390 98 3e a5 3e b4 b3 24 bd 17 70 21 bd e8 be 57 bd
       0.32274318 -0.04021044 -0.039413538 -0.052672297
0003a0 65 d1 b0 3c c5 ce 88 bd ce 8e ae 3b fb 03 c9 3c
       0.021584222 -0.06680063 0.0053270822 0.02453803
0003b0 c6 f6 65 bd aa 61 f1 3b 71 e7 68 be 7c 27 aa bd
       -0.056143545 0.007366379 -0.22744538 -0.08308312
0003c0 1e 31 4e 3d 07 02 0d 3e c4 63 51 bd 57 dd 40 be
       0.05033981 0.13770305 -0.051120535 -0.18834434
0003d0 5b 0e f9 3d b4 2e 0a 3f d9 55 28 3c be cc e1 3e
       0.12160941 0.53977513 0.010274374 0.44101518
0003e0 f4 22 a9 bc 2e cb 20 bd dc 4f df 3e fe fc fb bc
       -0.02064655 -0.039256267 0.43615615 -0.030760285
0003f0 1e b5 c9 be 59 36 5d 3d 28 e5 d0 be 31 39 21 be
       -0.39395994 0.054006908 -0.40799832 -0.15744473

bias f4 [16]
000000 ef 63 3c be 65 44 82 be 46 eb 7b bd 82 f5 89 3e
       -0.18397497 -0.25442806 -0.06150367 0.2694512
000010 9a 00 80 3d 71 49 50 be 63 f9 71 be c5 72 5c be
       0.06250115 -0.20340516 -0.2363029 -0.21528156
000020 d3 e0 6e be 95 22 83 3e b6 fa 9e bd a6 24 85 be
       -0.23327951 0.25612321 -0.07762663 -0.26004523
000030 ce da d7 bd 85 a9 b6 bb e0 25 e3 3d 17 12 5c 3c
       -0.105397806 -0.0055744075 0.110912085 0.013432047

weight f4 [16]
000000 b1 19 84 40 7d 6d 60 40 f9 6b 1b 40 c6 41 e7 3f
       4.128136 3.5066826 2.4284651 1.8066947
000010 98 53 9a 3f 69 28 c2 3f e9 b7 47 40 f7 c3 6d 40
       1.2056761 1.5168582 3.1206 3.7150857
000020 50 8f c2 3f 07 c2 cb 3f 68 02 40 40 87 52 7c 40
       1.5199986 1.5918587 3.0001469 3.942537
000030 24 75 91 3f 8a cb c1 3f c2 b9 4d 40 55 32 31 40
       1.1363873 1.514024 3.2144628 2.768697

bias f4 [16]
000000 91 44 eb bf 94 53 fa bf 7b c4 87 bf 24 99 4e bf
       -1.83803 -1.9556756 -1.0606836 -0.80702424
000010 eb cc a4 be f9 1a ea be fb 82 09 c0 1a a9 ca bf
       -0.3218759 -0.45723704 -2.1486194 -1.5832856
000020 64 e1 ea be 4c d6 3d bf 28 0a c2 bf c2 77 06 c0
       -0.45875084 -0.74155116 -1.515935 -2.1010594
000030 8a e5 fd bd 6e 00 e6 be dc c2 e5 bf a0 bd c9 bf
       -0.12397297 -0.44922203 -1.7950091 -1.5760994

running_mean f4 [16]
000000 58 c8 e7 be 90 03 58 be 19 48 b5 3e bf f0 5e 3e
       -0.45270038 -0.21095109 0.3540657 0.21771525
000010 31 67 0e 3f fa d7 52 bf f7 1e 11 be 96 6a 88 be
       0.5562621 -0.82360804 -0.14171968 -0.2664382
000020 72 cf f3 be ea b5 61 3e 1c b1 d7 bd 6f 53 78 be
       -0.47619206 0.22042051 -0.10531828 -0.24250577
000030 c2 e7 41 bd 2a cf c8 bf 00 b3 35 3e 0d 17 33 3e
       -0.047340162 -1.5688221 0.17744064 0.17489262

running_var f4 [16]
000000 53 b7 75 3f 8c b0 1e 40 3c 67 52 3e 29 fa e8 3e
       0.95982856 2.4795256 0.20547193 0.45503357
000010 8d ab 98 3f 39 ea 6c 3f 8c d8 2b 40 f3 69 5c 3f
       1.1927353 0.92544895 2.685092 0.86099166
000020 47 2f 67 3b 15 78 91 3b a2 69 0e 41 45 34 d3 40
       0.0035275982 0.0044393637 8.900789 6.6001306
000030 14 29 84 40 8a 21 a2 3f 65 17 33 40 b1 ac a7 40
       4.1300144 1.2666485 2.798303 5.2398305

weight f4 [16, 2, 1, 16]
000000 d9 8c f3 be 85 ed d0 bd 35 7c 53 be 31 e4 b6 bd
       -0.47568396 -0.10201553 -0.2065285 -0.08930243
000010 32 f1 33 bc 99 ac 52 be ae 5b 30 3e bf 9f cb be
       -0.010982798 -0.20573653 0.17222473 -0.39770314
000020 ef 9f cd 3b 46 2d 84 bd 77 f3 39 be 97 50 52 3e
       0.006275169 -0.06453948 -0.1815928 0.20538555
000030 40 0c e0 be 34 f8 3b 3d df 4c ec bd 62 5e 00 bf
       -0.43759346 0.045891 -0.115380995 -0.50144017
000040 3e 38 14 3f 35 90 c3 3e f6 a8 6e 3e be 5d 44 3e
       0.5789832 0.3819596 0.23306641 0.19176385
000050 1d d3 3c 3e 57 7d 37 3e df b2 bd 3c 02 70 2f 3e
       0.18439908 0.17918907 0.023156581 0.17132571
000060 53 bf 0f 3e bc ef 6a 3e 31 75 83 3e bb 83 9b 3c
       0.14037828 0.22943014 0.25675347 0.018983712
000070 44 7d 89 3e 1d 70 81 3e 83 b3 86 3e 6c 01 19 3f
       0.26853383 0.25280848 0.26308832 0.59767795
000080 c9 f1 f6 be 96 9c 5e be c9 22 7b be ba e6 6d be
       -0.48231342 -0.2173942 -0.24524988 -0.23232546
000090 c0 a5 b1 bb b0 05 47 be 5e dc 3f be d2 bf 4c bd
       -0.0054213703 -0.19435763 -0.18736407 -0.04998762
0000a0 81 3a 87 be c2 b7 ad bc ba 66 21 be c0 86 10 be
       -0.26411822 -0.021205787 -0.15761843 -0.14113903
0000b0 7a ce 30 3d dc 35 93 be 85 fd 49 be b2 52 c8 be
       0.04316566 -0.2875203 -0.19725616 -0.39125592
0000c0 34 d4 c6 be 54 ae a9 be be a2 98 bc 13 dc c5 be
       -0.38833773 -0.33140814 -0.018632289 -0.38644466
0000d0 c4 c0 50 3c 2e d7 44 be 11 24 e4 bd 27 f4 dd 3c
       0.012741271 -0.1922271 -0.111396916 0.02709396
0000e0 52 c2 84 be 5d 61 c9 3d 5a 29 53 be 60 cd 42 be
       -0.25929505 0.09833024 -0.20621243 -0.19023657
0000f0 b1 f2 6d 3d 3f 2c bc be a8 58 d6 bc 50 55 eb be
       0.058092777 -0.36752507 -0.026165321 -0.45963526
000100 f4 23 62 bd 05 be 9d 3e 6f ec 43 3e f4 0f 32 3e
       -0.05521007 0.30809036 0.19133161 0.17388898
000110 eb 50 f7 bc 5d 90 ab be 22 43 9d 3e 19 8c 8c bb
       -0.030189952 -0.33508578 0.3071528 -0.004289162
000120 09 3a 0e 3e 9f a1 0e be 72 f9 0f be cd 9d ff 3d
       0.13889326 -0.13928841 -0.1406 0.1248127
000130 7b 3e 4d 3e 2f 63 76 3d d2 57 9c 3e bf 04 47 3e
       0.20043366 0.060153183 0.30535752 0.19435404
000140 06 7f 14 3f e2 d2 b5 bd e0 3f 7f be ea b0 05 3e
       0.5800632 -0.08878113 -0.2492671 0.13055769
000150 43 f8 a6 3e 44 68 aa 3e 56 35 88 bd ef 44 98 be
       0.32611284 0.33282673 -0.06650798 -0.29740092
000160 02 d5 1a 3e 19 98 a2 3e 93 88 bc 3e 96 1f a0 3d
       0.15120319 0.31756666 0.36822948 0.078185245
000170 88 79 6e be a4 d5 24 3e 5f 25 81 3e f0 ca a4 3e
       -0.23288548 0.16097122 0.25223824 0.3218608
000180 e4 b5 93 be 48 f9 05 be ad 22 9e 3d 20 16 cc bd
       -0.2884971 -0.13083375 0.07721458 -0.099651575
000190 65 2a c8 be 58 e5 19 be 99 55 46 bc 4a 3f 50 3e
       -0.39094844 -0.15028894 -0.012105369 0.20336643
0001a0 cc ba 73 bd 3e ab fa be f3 f1 7f be 43 96 80 bd
       -0.059504315 -0.48958772 -0.2499464 -0.0627866
0001b0 53 17 9c 3e 79 bd 81 3e 50 dc f1 be be 3c f4 be
       0.30486545 0.2533987 -0.47238398 -0.47702593
0001c0 2d 5a d8 3e 7b 06 e9 be dc c0 00 bd 68 e5 4a be
       0.422563 -0.45512757 -0.031433925 -0.19814074
0001d0 c0 69 fe 3e 3b 35 bc 3e 29 fa 97 be d4 6c d9 bd
       0.49690056 0.36759362 -0.29683045 -0.106164604
0001e0 a6 01 3e be 5c f7 5a 3e 24 e6 1f 3f 4f 80 be bd
       -0.18555316 0.21383423 0.6246054 -0.09301817
0001f0 84 cf a5 be 80 eb a8 be bf 5f 84 3e 81 af 11 3f
       -0.32384884 -0.32992172 0.25854298 0.5690842
000200 e5 85 a5 3e 1f 6d 88 3e 39 0c 18 3e 29 45 be bd
       0.32328716 0.26645753 0.14848413 -0.09290535
000210 dd a4 d9 bd 25 73 82 3e 54 09 ba 3d 1d 36 8d bd
       -0.10627148 0.25478473 0.090838104 -0.06895087
000220 57 9f a4 be e9 67 02 3e d1 94 12 3f 8b 63 19 3e
       -0.32152817 0.12734951 0.57258326 0.14979379
000230 ee 49 50 be ec 6a aa be ae a5 58 3d 60 f2 31 3f
       -0.20340702 -0.332847 0.05289238 0.6951046
000240 fd 12 83 3d 98 f7 8b 3e 62 c1 06 3e 83 91 1f be
       0.06400106 0.27337337 0.13159707 -0.15582852
000250 cd ab 05 be 7b 09 af 3d 0a 9d 6e 3d cf ce 0f 3e
       -0.13053818 0.0854673 0.058255233 0.14043735
000260 61 bb 8e be 5f f9 e5 be 35 f6 a4 3e 38 da ab 3e
       -0.27877334 -0.44916818 0.3221909 0.33564925
000270 83 f9 1f 3e 22 87 8d be 11 77 c2 be 60 b7 84 3e
       0.15622525 -0.2764216 -0.37981465 0.25921154
000280 72 c2 d1 3e e8 65 95 3d 2c 76 e0 3c 05 9a 9b be
       0.40968663 0.07294828 0.027400099 -0.30390945
000290 f0 64 56 3c a0 8a 0e 3f 78 e7 8d 3b 55 8e 96 bd
       0.013085589 0.55680275 0.0043305717 -0.073513664
0002a0 02 6e 02 bf e4 3c d6 be 8e 68 92 3e 90 7f f2 bd
       -0.5094911 -0.4184333 0.28595394 -0.11840737
0002b0 86 3a 59 3e e4 41 8a bd 4a e4 c8 bc 3f 33 e4 3e
       0.21213731 -0.06750849 -0.02452292 0.44570348
0002c0 20 8b ac 3e 67 04 f6 be cc 5a 70 be 87 e2 79 3d
       0.33699894 -0.48050234 -0.23472136 0.06100705
0002d0 cc 29 cf 3e ed e9 26 3e 31 95 02 bf 29 bc 1e bf
       0.40461576 0.16300173 -0.510089 -0.6200586
0002e0 e6 59 81 be 89 d1 a8 3d ac 40 17 3e 33 50 b1 be
       -0.252639 0.08243091 0.14770764 -0.346315
0002f0 98 c8 f7 be 11 15 27 3d 4c cc a4 3e 56 27 a7 3e
       -0.48395228 0.040791575 0.32187116 0.32647198
000300 79 fd 1f 3f d6 5b c9 3e 6e 52 b4 3e 4f 91 89 3e
       0.62496144 0.39327878 0.3521914 0.26868674
000310 6a f7 aa 3e ff d5 c9 3d b5 f4 71 3e e1 86 3a 3e
       0.33391887 0.0985527 0.23628505 0.18215515
000320 26 b1 8e 3e 46 87 91 3e 71 f2 9f 3d 15 ad 95 3e
       0.2786953 0.28423518 0.07809914 0.29233614
000330 55 f9 8c 3e c6 4c 68 3e 5b 6a ff 3e 77 11 ef 3e
       0.27533975 0.22685537 0.4988583 0.46693012
000340 de e1 3e 3e 2b da 34 3e cc c7 ad 3d 21 aa c9 3d
       0.18640849 0.1766135 0.08485374 0.09846903
000350 e2 57 a5 3d 96 83 a8 3d 71 33 b3 3d a6 2f a4 3d
       0.08073403 0.08228223 0.08750046 0.08016901
000360 ad 65 0c 3e cc af f0 3d 67 49 92 3d 87 70 24 3e
       0.13710661 0.117522806 0.07142907 0.16058551
000370 31 70 79 3d b6 4a b7 3d 1c 10 07 3e ee 3a 7b 3e
       0.06089801 0.08949797 0.13189739 0.24534199
000380 38 89 38 3e c6 18 cc 3d 1d b1 64 bc 1c 6f 88 3e
       0.18021095 0.09965663 -0.013958243 0.2664727
000390 84 16 cd 3c b1 3c 37 bd 74 02 29 3e 63 ff e0 bd
       0.02503515 -0.044735614 0.16504842 -0.10986211
0003a0 c7 c0 56 3e 26 f4 82 3d 98 14 9f 3d e6 dd 3c 3e
       0.20971976 0.06394224 0.077676 0.18444023
0003b0 d6 5a 80 bd 9e ef 93 3e 00 31 a5 3d 72 7f 7c 3e
       -0.062673256 0.2889375 0.08065987 0.24657992
0003c0 a3 bc 10 bf fe b3 8b bd 7b 80 85 be 81 e6 57 be
       -0.56537837 -0.0682144 -0.26074585 -0.21084024
0003d0 bd 48 52 3b a9 a3 b0 be 2d b9 42 3d 91 6a 72 be
       0.0032086812 -0.34499863 0.04753988 -0.23673464
0003e0 42 f0 4e be 5a c9 81 3d 21 ad b4 be 10 f1 8f 3c
       -0.20208839 0.06337233 -0.35288337 0.017571002
0003f0 aa f0 20 be 27 ec 76 be 69 8d 7f bd 6e 59 0f bf
       -0.15716806 -0.24113522 -0.06239072 -0.55995834

bias f4 [16]
000000 c7 32 be be e7 26 00 bf ea 34 1a 3e c7 df 8d 3d
       -0.37148115 -0.5005936 0.15059248 0.06927448
000010 a9 ab 18 be 73 fc 78 be 40 5d a5 3e c9 83 18 3d
       -0.14909233 -0.24315052 0.32297707 0.037235055
000020 c5 7b 5c 3e fc 19 71 be e0 2b 45 3e 97 df 2b 3e
       0.2153159 -0.23545069 0.19255018 0.16784512
000030 8d 2a 9c 3d c9 5e ee 3d cf 15 62 3e bb ce 94 3d
       0.076253034 0.116391726 0.22078632 0.07265993

weight f4 [16, 16, 1, 1]
000000 21 5a dd 3d b4 0e 51 be 56 00 20 3f 8d 93 00 3f
       0.10808206 -0.20415765 0.6250051 0.50225145
000010 b2 b4 b7 be 6b d2 58 bd 77 dd f2 bc 1a 70 11 be
       -0.35880047 -0.052935045 -0.029646618 -0.1420292
000020 90 04 0f 3d 48 7a 85 3e f3 8e 04 bf d7 0a 03 3e
       0.03491646 0.26069856 -0.51780623 0.12797104
000030 63 91 b2 be f4 ed 94 3e 86 50 c3 bd 1f 11 93 be
       -0.34876546 0.29087794 -0.09536843 -0.28724
000040 c2 94 e1 3e bd 32 d4 be 18 ed 49 be 4e 6e 0e be
       0.44058806 -0.4144496 -0.1971935 -0.13909265
000050 34 ce 18 3f cb b7 05 3e 7d 16 62 3e b2 12 ef bd
       0.5968964 0.13058393 0.22078891 -0.11673488
000060 47 f9 21 be f7 1d c8 bd 10 b1 74 be df 65 2e be
       -0.15817748 -0.0977134 -0.23895669 -0.17031048
000070 94 3c 43 3e 94 9f e3 bd 0e dc d4 3d a6 1d 43 be
       0.19066077 -0.111144215 0.103935346 -0.19054279
000080 8d cf e0 3c c9 80 90 3e 6c 3c 0a 3d b1 68 70 3f
       0.027442718 0.28223255 0.03374903 0.93909746
000090 23 cc 6f bd d7 64 ad 3e 20 34 08 be 11 14 8c be
       -0.05854429 0.33865997 -0.13301134 -0.2735906
0000a0 33 16 36 bd 9d 29 11 be dc 08 b5 bd ed 28 74 3d
       -0.044454765 -0.1417603 -0.088395804 0.059609342
0000b0 50 ba 80 3e df 40 d8 be 11 c7 07 3e f6 33 e3 3e
       0.25142145 -0.42236993 0.13259532 0.4437558
0000c0 ac 67 dc 3e 71 d6 20 3f bb 2d 21 3e 60 d4 0f be
       0.43047845 0.6282721 0.15740101 -0.14045858
0000d0 d8 ca d4 bd 86 32 ae bc 35 37 99 3d 12 84 90 be
       -0.10390252 -0.021264326 0.07481233 -0.28225762
0000e0 74 aa c9 bd da e9 33 be 46 08 f3 bd 71 93 16 3c
       -0.098469645 -0.17569676 -0.118668124 0.009190426
0000f0 01 34 d3 3e 2d 78 d8 bd 6b 64 9f bd 9b 8e 5e bd
       0.41250613 -0.10569797 -0.07782825 -0.054335218
000100 ff ca 32 be 2a c8 00 be 18 eb d3 3d a0 f5 8c 3d
       -0.1746025 -0.12576357 0.10347575 0.06882787
000110 ca 57 6a 3e ed a1 1a 3e 6e 6f 1e bf 8f 0a 50 3f
       0.22885051 0.15100832 -0.6188878 0.8126611
000120 b2 a9 89 bc c4 a1 44 bd cc b6 ff 3d 4a d5 48 3d
       -0.01680455 -0.048005834 0.124860376 0.049031533
000130 0d ae 98 3e 17 35 27 3d 09 34 10 bd a0 5f 43 3e
       0.2982029 0.040822115 -0.035205875 0.19079447
000140 5a 8b f3 3d 21 e7 a4 bc 11 ac 56 3d 59 ae a7 3e
       0.118918136 -0.020129742 0.05241019 0.32750204
000150 7e aa 0f 3f 26 d4 20 3f bf 62 e2 bb 27 07 ee bd
       0.56119525 0.6282371 -0.006908744 -0.11622458
000160 95 84 23 be 0e 01 c3 3e c0 a6 08 3e f7 3c dd bd
       -0.15968545 0.38086742 0.1334486 -0.10802644
000170 27 b3 3f 3f e8 d8 9b be c9 fe 2c be 56 b5 a8 be
       0.7488274 -0.30438924 -0.16894068 -0.32950848
000180 d0 4b c9 bd e5 b3 31 3f d7 8f 27 be 21 58 a1 bd
       -0.09828913 0.6941512 -0.16363464 -0.078781374
000190 58 b3 ad bd 4f c0 c0 bd 7a 1d e2 be 57 50 73 be
       -0.08481473 -0.0941168 -0.44163114 -0.23761116
0001a0 cd 82 80 bc 9e 62 9f bb 2d e4 6a 3e 2f 15 26 bd
       -0.01568737 -0.004864051 0.22938605 -0.040547546
0001b0 0f b7 59 bd 75 cc 2a 3d 0b 30 ee bd 06 b3 91 bd
       -0.053153094 0.04169889 -0.11630257 -0.07114224
0001c0 5c 6f 19 be 9f f1 86 bb 67 ca 19 3e cb 46 ab 3e
       -0.14983886 -0.004118159 0.15018617 0.33452448
0001d0 be 63 1b 3e 87 1c 26 bf fa f3 ad bd 09 75 c7 3c
       0.15174767 -0.6488728 -0.084938005 0.024347799
0001e0 e4 57 03 3f 9d 89 3a bf b3 41 13 3e eb a5 dd bd
       0.51305985 -0.7286623 0.14380531 -0.10822662
0001f0 ba 7c e1 3e 71 a2 a3 be fb b3 88 be 5b 93 4a 3d
       0.4404047 -0.3195987 -0.26699814 0.049456935
000200 85 e5 9b bd 63 b4 4b bc 30 f0 1b bf d2 41 5a 3e
       -0.07612137 -0.012433144 -0.6091337 0.21314171
000210 69 32 00 be 3b d0 b1 be ca 05 01 be ff fe 27 3e
       -0.1251923 -0.3472918 -0.12599865 0.16405867
000220 4a 76 dc bd f8 17 19 be d6 71 a7 3e 4d 2a db be
       -0.10764749 -0.1495055 0.32704037 -0.4280571
000230 59 7b ba be 4e 5f 0a 3e d0 b2 fe 3e f5 cf f4 be
       -0.36422232 0.13512918 0.49745798 -0.4781491
000240 e3 4d ef be ab 97 9b 3d c6 6d b8 be 71 ba 14 3e
       -0.4673911 0.07597288 -0.3602125 0.14524247
000250 b1 ee ae 3c f9 c9 02 3f 3f bb 3d bd 36 f1 9e be
       0.021354051 0.51089436 -0.04632115 -0.31043404
000260 8b d2 3f 3f 06 8c 13 3e 69 18 ea bd f1 3c 66 be
       0.7493064 0.14408883 -0.11430437 -0.22484185
000270 e7 e7 3e 3e 7a e9 3b 3e 96 00 64 3e 2b c5 fa bd
       0.18643151 0.18350783 0.22265849 -0.12244638
000280 2b 91 1b 3f 69 d1 03 3e d0 7e 56 be d6 46 dc bc
       0.60768384 0.12872852 -0.20946813 -0.026889246
000290 9c 9b a9 be da 82 e4 3e 13 39 48 be 20 0f 4b be
       -0.33126533 0.44631082 -0.19553022 -0.19829988
0002a0 d0 41 29 3e 3e d1 87 3e 9e e8 14 3e 26 c7 06 be
       0.16529012 0.26526827 0.14541861 -0.13161907
0002b0 58 cd 74 be 23 3a d4 be 5f 5c 76 3e 72 2c aa 3e
       -0.23906457 -0.41450605 0.24058674 0.33237034
0002c0 58 97 c9 3d da ec e4 3e 84 67 22 3b 7d de bc 3c
       0.0984332 0.44711953 0.0024780938 0.02305531
0002d0 8f 15 3f be c3 95 71 3d 80 62 01 3f 87 aa 03 3e
       -0.18660568 0.058980715 0.50540924 0.1285802
0002e0 4b ae 35 be 38 dd 3e bd 77 6d 15 be 33 a0 ef 3c
       -0.17742269 -0.04659769 -0.14592539 0.029251194
0002f0 4a ff f4 3e d4 5e 2c 3e 4f db 50 3e 80 59 c4 bd
       0.4785102 0.16833049 0.2039616 -0.09587383
000300 10 8e 37 3d 30 f0 54 bd f0 1e 98 3d 74 f4 85 3d
       0.044813216 -0.051986873 0.07427776 0.06540766
000310 c8 d6 2d 3e a1 67 ff be b9 85 93 3e 3d 28 9d be
       0.16976464 -0.4988375 0.2881296 -0.30694762
000320 d1 d4 33 bd 50 1a 4b bd cc 34 2b 3d 92 0b 34 3e
       -0.04390413 -0.04958564 0.041798398 0.17582539
000330 29 5d 43 3d ac ae e8 be ae 32 33 bf 04 1c 86 3e
       0.047696266 -0.45445764 -0.69999206 0.2619325
000340 f2 2d ab 3e 5b 8c b1 3e 17 53 74 bc 2e 2d 10 3d
       0.3343349 0.34677395 -0.014912388 0.035199337
000350 1d 13 10 3e a8 4d 4d 3e 6b 04 9c be a0 32 f8 3e
       0.14069791 0.20049155 -0.3047212 0.48476124
000360 be 19 d1 bc 2f 67 6a 3d f0 93 90 bc 87 f4 a4 3e
       -0.02552497 0.05722731 -0.017648667 0.3221781
000370 33 70 15 3d b6 5d 78 bd cc 34 fa bd 75 26 82 bd
       0.036483955 -0.060636245 -0.122171015 -0.06354991
000380 fd 0c d9 be 5c 9a 11 3e 64 8b 2c bd d8 e6 06 bf
       -0.42392722 0.1421904 -0.04212512 -0.5269599
000390 86 33 f7 bc d3 29 be 3d 17 2d 01 bc cd 59 5c 3a
       -0.030175935 0.09285321 -0.007884285 0.00084057153
0003a0 13 89 d9 be 38 e7 96 3d 4f 4d 45 be a8 87 d5 be
       -0.42487392 0.0736832 -0.19267772 -0.4170506
0003b0 8e 94 52 3e af 81 fc 3e ff af 8d 3e 2c 48 1d 3f
       0.20564482 0.4931769 0.27673337 0.6143825
0003c0 c6 68 34 3e 25 f2 8e 3d 62 07 d0 bd 7b c5 db 3d
       0.17618093 0.06979779 -0.10157658 0.10731026
0003d0 8c a4 3e 3e 4c d8 ec 3e c4 d1 35 be ec 91 a3 bd
       0.18617457 0.4625877 -0.177558 -0.07986817
0003e0 62 2d 7e 3c b6 0e d3 bd d5 2b 93 be 72 07 34 bf
       0.01551375 -0.1030554 -0.2874438 -0.7032386
0003f0 9c 5c ab be 1d 45 b0 be bd 63 03 be d2 ff 10 3e
       -0.33469093 -0.3442773 -0.12831016 0.14160088

bias f4 [16]
000000 f9 41 4e be a8 97 9c be 19 33 3d bd 2a 90 d3 be
       -0.20142354 -0.30584455 -0.04619131 -0.41320926
000010 99 21 49 bd ea 7f 88 be 13 09 e0 be a4 8a 99 bd
       -0.049104307 -0.2666009 -0.43756923 -0.07497147
000020 5c 2f 20 bd ad 36 46 3c f7 ef ea be bd 5d 18 be
       -0.039107665 0.012097997 -0.45886204 -0.14879508
000030 e9 f9 54 be d7 19 11 be f8 d6 3b be 6b a2 05 bf
       -0.20798458 -0.14170013 -0.18343723 -0.52200955

weight f4 [16]
000000 77 6d 6b 3f fc 0c 8e 3f 0b e6 73 3f 94 ec ad 3f
       0.91963905 1.1097713 0.9527289 1.3587823
000010 22 b0 ab 3f 17 00 28 3f 13 df a9 3f 75 ac 22 3f
       1.3413126 0.6562514 1.3271202 0.635444
000020 8f c0 53 3f cd b3 4f 3f 62 96 65 3f 17 db a0 3f
       0.82715696 0.8113373 0.8968259 1.2566861
000030 e0 0c 80 3f 1e 46 b9 3f b4 5a 65 3f ff 3e ab 3f
       1.0003929 1.4474523 0.89591527 1.33786

bias f4 [16]
000000 66 d0 04 be b8 05 8b be 79 a2 fb bd 85 0f 8a be
       -0.12970123 -0.271528 -0.122868486 -0.26964965
000010 6b 34 00 be 04 9f 8d bd 27 ac b7 be 53 2d 39 bd
       -0.12519996 -0.069150954 -0.3587353 -0.04520924
000020 32 90 b3 bd f1 40 af bc f3 72 d7 bd cc 37 5f be
       -0.087677374 -0.021393271 -0.10519972 -0.21798629
000030 e6 9e 83 be 46 81 8a be 4b 94 20 be 31 3d b2 be
       -0.25707167 -0.27051753 -0.1568157 -0.3481231

running_mean f4 [16]
000000 dd 99 b2 3d e6 3a df 3d 0f 1c 7f be 5a 76 a9 bf
       0.08720753 0.10899906 -0.24913047 -1.3239243
000010 17 00 2e bf 53 c9 18 bf ff 7f a7 bf 90 fb f6 3e
       -0.6796889 -0.59682196 -1.3085936 0.48238802
000020 fc fc 1f 3d 38 13 9a 3e de a8 ad bf 25 be 45 bf
       0.039059624 0.30092788 -1.3567159 -0.7724326
000030 c2 fa ab 3e e6 fa b7 bf 97 37 c6 be b5 e7 a1 bf
       0.3358975 -1.4373443 -0.38714287 -1.2648836

running_var f4 [16]
000000 5b c9 84 41 2c 5a 25 41 0a 5d 9a 41 5a ca 34 41
       16.598318 10.334515 19.29543 11.299402
000010 66 60 68 41 e8 1b 89 41 f6 94 2d 41 27 f6 7d 41
       14.523535 17.138626 10.848867 15.872596
000020 b6 61 4f 41 36 0f 42 41 88 2e 2a 41 5d a7 07 41
       12.961355 12.128714 10.63636 8.47836
000030 91 c8 29 41 8f 8f 20 41 4c 4c 83 41 96 d6 30 41
       10.611466 10.0350485 16.412254 11.052389

weight f4 [40, 208]
000000 0b a1 c2 bd 61 d7 3b bd c6 61 ba be de cd d5 bb
       -0.09503373 -0.0458597 -0.3640272 -0.0065247854
000010 91 8e 85 be 2f 62 80 be 03 5c 69 be dc 39 0b be
       -0.26085332 -0.25074908 -0.22789006 -0.1359629
000020 48 b5 2e be 41 0d 9f be d9 cd a6 be ba 5c c1 ba
       -0.17061341 -0.310648 -0.32578924 -0.0014752366
000030 ea 6a 4e be 6e f6 cc 3c 28 52 4c bb ba 4c eb 3d
       -0.20157972 0.02501985 -0.0031176899 0.11489244
000040 79 3c 78 3c c4 84 ab 3d 69 0b ed 3d df 28 82 3d
       0.015151137 0.083749324 0.11574442 0.06355452
000050 13 a5 19 3e 2e 89 a7 3d 60 52 ad 3d e4 b7 23 3e
       0.15004377 0.08180462 0.084629774 0.15988117
000060 e4 69 8e 3c 7e f4 7c bc b3 81 cd 3d 00 52 ed 3d
       0.017384477 -0.015439151 0.10034504 0.11587906
000070 19 7c 6e 3d 6d 81 16 3e 40 0b 49 3e e1 95 f7 3d
       0.058223817 0.1469781 0.19633198 0.12089134
000080 ea c3 c4 3d da 36 5f 3e 97 e3 2b 3d 17 fd 65 3d
       0.0960768 0.21798268 0.041965093 0.05614957
000090 0e d5 fa 3d 14 3d cc bc d3 fb 7f 3d a3 89 ae 3d
       0.12247668 -0.024931468 0.062496018 0.08522346
0000a0 bd 8a 56 3d c0 98 c9 3d 56 11 31 bd 03 31 67 bc
       0.052378405 0.09843588 -0.043229423 -0.014110806
0000b0 ee cd b0 bc b3 c7 a0 3c 68 84 84 bc 14 d0 bc bc
       -0.02158257 0.019626474 -0.016176417 -0.023048438
0000c0 ef 00 6b bd ed 54 26 3d 66 c1 c0 bc 4e ea b4 3c
       -0.057373937 0.040608335 -0.02352972 0.022084381
0000d0 76 be 3d be b9 37 68 be 84 df 73 be 33 c4 87 be
       -0.18529686 -0.22677507 -0.23815733 -0.26516876
0000e0 97 f7 95 be 0d 04 81 be 1f 86 9e be c6 41 94 be
       -0.2929046 -0.25198403 -0.309617 -0.2895643
0000f0 2f b0 98 be 0a 35 b2 be dd 92 87 be f0 a3 90 be
       -0.29821917 -0.3480609 -0.26479235 -0.28250074
000100 03 66 5c be bb 44 5a be 16 3a 8c be 56 78 f0 3b
       -0.2152329 -0.21315281 -0.27388066 0.007338564
000110 08 ce 6e 3d 34 65 f7 ba 80 c4 39 3d 04 17 bf bc
       0.058301955 -0.0018874765 0.045353413 -0.023326404
000120 f4 43 2d 3e a2 19 47 be c6 6f 26 3d 7c 44 72 3e
       0.16920453 -0.19443372 0.04063394 0.23658937
000130 8f 67 d1 bd f4 23 67 3e 51 fa 5a bd 8c c9 01 be
       -0.1022483 0.22572309 -0.053461377 -0.1267454
000140 e8 5a 86 be 95 64 9e be e5 28 59 be 85 76 a5 be
       -0.2624123 -0.30936113 -0.21207006 -0.32316986
000150 f2 6b 54 be d1 af 92 be 9c b3 69 be 8d 89 73 be
       -0.20744303 -0.28649762 -0.22822422 -0.2378294
000160 37 4e 86 be 5f 6b 58 be 3e 60 9f 3c 19 52 9a ba
       -0.26231548 -0.21134709 0.019455072 -0.0011773735
000170 52 b3 a6 bd dd 2b 55 be 27 0e 88 be c7 11 18 be
       -0.081396714 -0.20817514 -0.26573297 -0.14850532
000180 39 6f 54 be 7b 14 8e bd bc a5 1b be 1a e2 8c 3d
       -0.20745553 -0.069375 -0.15199941 0.06879063
000190 31 46 74 be 9b 95 0d bf be ec c3 be 10 ef a5 be
       -0.23854901 -0.55306405 -0.38266557 -0.32408953
0001a0 8a 2a 24 3e b3 e0 43 3e da e5 32 3e b1 6e 0c 3e
       0.16031852 0.19128685 0.17470494 0.137141
0001b0 a8 70 1f 3e a3 67 21 3e 77 83 3c 3e 67 81 9b 3d
       0.15570319 0.1576219 0.18409525 0.07593041
0001c0 02 12 10 3e 7b 2e 1f 3e 58 3c 26 3e 51 56 5f 3e
       0.1406937 0.15545075 0.16233957 0.21810271
0001d0 64 fe d4 3d 06 9a a1 3c 86 ed 77 3d 71 b2 0c 3e
       0.10400084 0.019726764 0.060529254 0.13739945
0001e0 b6 fa 47 3e d4 78 3f 3e b0 31 32 3e 1e 3d 52 3e
       0.19529232 0.18698436 0.17401767 0.20531127
0001f0 72 0d 5e 3e 58 7c 61 3e ae 1a 7a 3e c2 05 86 3e
       0.21684816 0.2202009 0.2442424 0.26176268
000200 26 d5 f3 3d c9 bb 3b 3e d6 a3 2b bd 74 3a 15 3c
       0.11905889 0.18333353 -0.041904293 0.009108175
000210 50 2c 28 be 11 b7 58 be 8c d9 a0 bd 67 d4 ee bd
       -0.16423154 -0.21163584 -0.07853994 -0.11661606
000220 23 19 50 be c1 f9 8f bd d6 68 78 be 57 89 87 be
       -0.20322089 -0.07030059 -0.24258742 -0.2647197
000230 69 b8 5c be 63 1d 89 be be 74 8b be ee 40 53 3e
       -0.21554722 -0.26780233 -0.27237505 0.20630237
000240 e4 d1 5a 3e d5 91 37 3e 1b 3d 22 3e 13 07 50 3e
       0.2136913 0.17926724 0.15843622 0.20315199
000250 23 ee 24 3e e2 14 3c 3e fb 77 25 3e e2 5a 35 3e
       0.16106467 0.18367341 0.1615905 0.1771045
000260 41 27 39 3e 18 74 52 3e 73 92 38 3e ad 22 7d 3e
       0.1808138 0.20552099 0.18024616 0.24720259
000270 42 4a 13 bd 01 7e 43 be 33 3a 98 bd 98 d9 23 bd
       -0.03595949 -0.19091035 -0.074329756 -0.040002435
000280 20 99 fb bc 8b d2 00 bc b3 b4 0a 3c 04 e7 34 bd
       -0.030712664 -0.007862697 0.008465934 -0.044165626
000290 0c 15 8b bc 53 eb 14 bd 85 54 9f bd 44 5e dd 3d
       -0.01697781 -0.036357235 -0.07779793 0.10808995
0002a0 c5 1c ba bd 7c cb 4e be 79 54 93 be 6e c7 8f be
       -0.090875186 -0.2019481 -0.28775385 -0.2808184
0002b0 2b 7c 90 be dc b2 88 be 57 7f 9b be c7 a1 80 be
       -0.28219733 -0.2669896 -0.3037059 -0.25123426
0002c0 60 e8 8d be f0 87 a6 be e7 c8 a9 be 79 92 89 be
       -0.2771635 -0.32525587 -0.3316109 -0.26869562
0002d0 5e 33 9f be 01 68 8a be f6 b2 72 3d 28 ee fa 3d
       -0.31093878 -0.27032474 0.0592527 0.12252456
0002e0 54 8a 92 3e 2d f2 90 3e 1f b8 9c 3e cc c0 8f 3e
       0.2862116 0.28309765 0.30609223 0.2807678
0002f0 91 93 83 3e 75 7c 9d 3e d0 5a 1c 3e 62 4c 50 3e
       0.25698522 0.30759016 0.15269017 0.20341638
000300 bd 4b a1 3e cd 1b 4f 3e cd 28 7d 3e c5 6f e8 be
       0.31503096 0.20225449 0.24722596 -0.45397773
000310 e0 44 bb be 77 7e f5 be 8f 6f ab be a3 cd 6a be
       -0.36575985 -0.47948048 -0.3348355 -0.22930007
000320 0a ae 40 be 06 22 cc be 7d 06 66 be 73 1f ab be
       -0.1881639 -0.39869708 -0.22463413 -0.3342243
000330 f1 45 af be 56 c6 8f be af 18 9f be ed 05 83 be
       -0.3423305 -0.28081006 -0.3107352 -0.2559046
000340 9a a4 28 be a7 71 5d be 2a 64 33 be 60 96 0e be
       -0.1646904 -0.21625386 -0.17518678 -0.13924551
000350 2c 14 4e be 19 ae 4f be 1d bf cc bd 1a ef 10 be
       -0.20124882 -0.20281257 -0.099973895 -0.1415371
000360 ca 3f a3 bd 84 d1 2f be e6 01 90 be 52 84 76 bd
       -0.07971151 -0.17169768 -0.28126448 -0.060184784
000370 76 fe 2a be 73 7c 98 3d 5c 8d a5 bc 88 a7 c9 3d
       -0.16698632 0.07445612 -0.020209007 0.09846407
000380 1b 50 51 3e 73 c5 16 3e f3 3f 32 3e 3b ac 07 3e
       0.20440714 0.14723758 0.17407207 0.13249294
000390 30 26 23 3e 9e 00 ed 3d 9d a8 16 3e fd 84 01 3e
       0.15932536 0.11572383 0.14712758 0.12648387
0003a0 e1 91 1b 3e cc c2 b1 3d f5 e3 a4 bd 34 1b ef bb
       0.15192367 0.08679733 -0.08051292 -0.007296944
0003b0 da d5 f9 bd 61 39 92 bd 1b 66 b3 be 12 2c 17 be
       -0.12198992 -0.071398504 -0.35038838 -0.14762905
0003c0 1c d9 16 be e0 90 e8 bd 22 9c 5e be 72 a8 86 be
       -0.14731258 -0.11355758 -0.21739247 -0.2630039
0003d0 e3 20 e7 bd b1 67 34 be 32 39 1f 3c 55 b2 01 be
       -0.112855695 -0.1761768 0.009718226 -0.12665685
0003e0 be a2 9e be 9b b1 a0 be 10 3c 93 be e1 65 89 be
       -0.30983537 -0.31385502 -0.28756762 -0.2683554
0003f0 f5 9a 9d be d5 0c 9f be 87 4f 89 be c5 9a 8d be
       -0.30782285 -0.31064478 -0.26818487 -0.27657142

bias f4 [40]
000000 33 b0 f4 bd b8 8c f8 bd 02 5d 15 3f 82 f1 78 be
       -0.1194767 -0.12136215 0.58345044 -0.24310878
000010 33 54 25 3f 00 2f 90 be ed 0e 13 3d 1e a2 f5 3e
       0.645816 -0.28160858 0.035902906 0.47975248
000020 b2 68 6c 3e f5 16 10 bf ae 96 5c be be 1d bb 3d
       0.23086813 -0.5628503 -0.21541855 0.09136532
000030 4a 72 6b bf a8 93 9c 3e cd f0 20 be e6 58 8d be
       -0.91971266 0.30581403 -0.15716858 -0.27606887
000040 81 ee 08 bf 91 01 55 be a9 e5 92 3d 25 3a f7 be
       -0.5348893 -0.20801379 0.071727104 -0.48286548
000050 7b f5 ff 3d 54 79 58 3f 51 64 c7 bc ca a8 47 bc
       0.124979936 0.8456013 -0.024339827 -0.012186239
000060 8c b7 c4 3c 4d 84 21 3e ef 96 85 3e 67 fb b6 bd
       0.024013303 0.15773125 0.26091716 -0.0893467
000070 fd b9 fb bd e6 be 04 3f 29 8a 27 3e 4f cc a6 bc
       -0.12291334 0.5185379 0.16361298 -0.020361094
000080 25 5a 4a be 4b ef 89 bf 27 86 6d 3d 28 39 f2 3e
       -0.1976095 -1.0776151 0.057989266 0.47309232
000090 48 32 8b be d5 4e 06 3f b6 5b 64 3e f3 b1 bb be
       -0.271868 0.5246404 0.2230061 -0.36659202
