Experiment/EEGNet-440-128_55_95.pth (torch, 64633 bytes, 22 tensors)

weight f4 [8, 1, 1, 220]
0.32445925 0.42641184 0.3161825 0.25518516 0.1418703 0.08041853 -0.013738983 -0.13830628
0.06395156 0.09725536 -0.027025344 -0.096944116 -0.19380392 -0.33063194 -0.26056474 -0.06953283
0.106311284 0.22173564 0.28293127 0.3651693 0.22380158 -0.048617452 -0.38071686 -0.4128499
-0.45171657 -0.33472028 -0.11596217 0.03831847 0.26839963 0.2623341 0.24148154 0.17927775
0.010790667 -0.15891735 -0.10083649 -0.110090874 0.08927332 0.2325201 0.2959309 0.3486791
0.28424522 0.012096689 -0.43884724 -0.47836918 -0.431114 -0.20381837 0.08841379 0.08839933
0.14447163 0.2547631 0.19356304 0.049313694 0.045964386 -0.0042855297 0.23800197 0.23606987
0.27694777 0.26316318 0.08377411 0.25281554 0.28260303 -0.07753485 -0.600337 -0.60856056
-0.45411032 -0.28844595 -0.0020390009 0.2074394 0.1971401 0.32658616 0.28119528 0.17115603
0.15542394 0.20401084 0.46686697 0.3488894 0.30539048 0.15185133 -0.21304037 -0.13421555
-0.22406267 -0.2711277 -0.6064863 -0.531066 -0.43108663 -0.25436586 0.07304807 0.22742793
0.23070605 0.2753808 0.32436958 0.40913874 0.27459684 0.28149754 0.33509985 0.25171065
0.2783555 0.18918018 -0.09340441 -0.07520031 -0.096741475 -0.19082275 -0.26916385 -0.3040098
-0.42985424 -0.49759492 -0.38311136 -0.36299312 -0.18479314 -0.16642857 0.033560712 0.3235054
0.4827357 0.44675416 0.48697287 0.46527663 0.40017328 0.44662175 0.33623552 0.095865
-0.1626936 -0.23240939 -0.3766903 -0.30809397 -0.41810635 -0.5676763 -0.71093917 -0.56770855
-0.511751 -0.355339 -0.36346748 -0.13127397 0.107497305 0.2357367 0.24881819 0.2622876
0.31818023 0.3428502 0.35124478 0.18618654 0.115694046 0.038340077 0.10032873 0.020181226
-0.12554029 -0.35649568 -0.6306633 -0.7095665 -0.5893473 -0.68553966 -0.7066294 -0.57412285
-0.26346317 0.04067903 0.17282069 0.16622195 0.25173885 0.40654323 0.4027028 0.39696974
0.21844889 0.0209039 -0.03740149 -0.21074496 -0.436396 -0.663824 -0.6258157 -0.56405157
-0.36871648 -0.34334856 -0.27413273 -0.096510954 -0.031918786 0.04125358 0.025189292 -0.08384223
-0.12586117 -0.08977204 0.12368968 0.26595667 0.20822152 0.16647515 0.108413376 -0.22139674
-0.3486749 -0.49490362 -0.5011889 -0.45361722 -0.31076697 -0.24615897 -0.21494603 -0.18119237
-0.11859956 -0.21829553 -0.17169665 -0.13722813 -0.10657434 0.025753189 0.16246559 0.25173742
0.2263045 -0.067506626 -0.16666429 -0.41526362 -0.46058455 -0.45505795 -0.3647883 -0.12887634
0.0853275 0.08869462 0.03269605 -0.14713556 -0.24197683 -0.3705312 -0.38102263 -0.16615218
0.04653037 0.34653962 0.42986965 0.3824214 0.16216956 0.18917476 0.14893655 -0.03123677
0.041807048 0.00030806114 -0.029245673 -0.07946825 -0.025454702 0.05240071 0.036340307 0.07966892
0.069849096 0.1018795 0.13674985 0.14470637 0.08083746 0.018679699 0.10458682 0.03005382
0.052433357 -0.028601805 -0.14375094 -0.19452147 -0.24012317 -0.17989044 -0.049517673 -0.1051844
-0.051332727 0.055843495 -0.0013720924 0.06736664 0.25363556 0.3884696 0.4134607 0.34640327
00000000: 861f a63e a752 da3e ace2 a13e a1a7 823e
00000010: 7346 113e 78b2 a43d 7919 61bc 29a0 0dbe
00000020: 09f9 823d d12d c73d 4164 ddbc a38a c6bd
00000030: 8974 46be 9748 a9be be68 85be 3a67 8ebd
00000040: bbb9 d93d ab0e 633e 5edc 903e 78f7 ba3e
00000050: 3e2c 653e 1823 47bd 52ed c2be 1061 d3be
00000060: 6547 e7be 7560 abbe 937d edbd d4f3 1c3d
00000070: ad6b 893e a850 863e f046 773e 9694 373e
00000080: 56cb 303c 3bbb 22be 5d83 cebd 5377 e1bd
00000090: eed4 b63d c019 6e3e 4184 973e 1186 b23e
000000a0: 9788 913e 3131 463c 96b0 e0be ceec f4be
000000b0: f9ba dcbe c3b5 50be 4a12 b53d b50a b53d
000000c0: 5ff0 133e 4f70 823e 6435 463e 28fd 493d
000000d0: 2745 3c3d a16d 8cbb cab6 733e 4dbc 713e
000000e0: 19cc 8d3e 53bd 863e c391 ab3d 0a71 813e
000000f0: 58b1 903e 97ca 9ebd b0af 19bf a0ca 1bbf
00000100: 2681 e8be 30af 93be c2a0 05bb fe6a 543e
00000110: 18df 493e 4d36 a73e d4f8 8f3e 8743 2f3e
00000120: 7427 1f3e 38e8 503e 3009 ef3e a2a1 b23e
00000130: 245c 9c3e ea7e 1b3e 4127 5abe cd6f 09be
00000140: af70 65be 40d1 8abe b042 1bbf f1f3 07bf
00000150: 63b7 dcbe 3e3c 82be 3a9a 953d dee2 683e
00000160: 353e 6c3e b6fe 8c3e c513 a63e a27a d13e
00000170: f597 8c3e 7220 903e 3592 ab3e 38e0 803e
00000180: 9d84 8e3e 73b8 413e d04a bfbd 9f02 9abd
00000190: 6520 c6bd 0a67 43be d8cf 89be 2ca7 9bbe
000001a0: db15 dcbe c3c4 febe 2c27 c4be 3cda b9be
000001b0: 6a3a 3dbe 406c 2abe f576 093d 80a2 a53e
000001c0: 2229 f73e f6bc e43e 8254 f93e bd38 ee3e
000001d0: 83e3 cc3e 9bab e43e 1027 ac3e de54 c43d
000001e0: 2799 26be bafc 6dbe 8ddd c0be 7ebe 9dbe
000001f0: 0912 d6be 3c53 11bf 1c00 36bf 5955 11bf
00000200: 1d02 03bf feee b5be 6918 babe af6c 06be
00000210: 8c27 dc3d f664 713e 32ca 7e3e 8f4a 863e
00000220: 85e8 a23e 108a af3e 5bd6 b33e afa7 3e3e
00000230: 00f1 ec3d 7c0a 1d3d 2679 cd3d 1953 a53c
00000240: a28d 00be 9a86 b6be 2673 21bf 26a6 35bf
00000250: 77df 16bf 877f 2fbf aae5 34bf b7f9 12bf
00000260: a5e4 86be 0e9f 263d e8f7 303e 1636 2a3e
00000270: eae3 803e 6f26 d03e 102f ce3e 9e3f cb3e
00000280: 11b1 5f3e a83e ab3c 4e32 19bd 87cd 57be
00000290: 4c6f dfbe 5ff0 29bf 7535 20bf af65 10bf
000002a0: 68c8 bcbe 62cb afbe 205b 8cbe 89a7 c5bd
000002b0: 46bd 02bd 84f9 283d c659 ce3c 7ab5 abbd
000002c0: c0e1 00be 67da b7bd 0451 fd3d 792b 883e
000002d0: 0638 553e 7678 2a3e d507 de3d d4b5 62be
000002e0: 8485 b2be 0264 fdbe ea4d 00bf 8440 e8be
000002f0: d91c 9fbe 1911 7cbe d01a 5cbe 7e8a 39be
00000300: 53e4 f2bd dd88 5fbe 3fd1 2fbe 8885 0cbe
00000310: a643 dabd 5af8 d23c 615d 263e bae3 803e
00000320: 5ebc 673e ea40 8abd 0baa 2abe 6f9d d4be
00000330: bdd1 ebbe 5bfd e8be 88c5 babe 29f8 03be
00000340: 2fc0 ae3d 86a5 b53d 4bec 053d b4aa 16be
00000350: c6c8 77be 44b6 bdbe 6615 c3be cc23 2abe
00000360: a196 3e3d a46d b13e e017 dc3e bdcc c33e
00000370: c70f 263e 07b7 413e d382 183e 41e4 ffbc
00000380: de3d 2b3d 4483 a139 9f94 efbc 40c0 a2bd
00000390: 6186 d0bc 20a2 563d 93d9 143d 7529 a33d
000003a0: 0b0d 8f3d 33a6 d03d 2708 0c3e e82d 143e
000003b0: 1c8e a53d 2b06 993c 9d31 d63d 6e33 f63c
000003c0: 5cc4 563d 554e eabc 7233 13be a330 47be
000003d0: d9e2 75be 3335 38be 0bd3 4abd eb6a d7bd
000003e0: 4442 52bd 26bc 643d c8d7 b3ba 85f7 893d
000003f0: 85dc 813e 7de5 c63e 1fb1 d33e c55b b13e

bias f4 [8]
-0.17160465 -0.030140802 0.0096845245 0.025072789 0.24687968 0.15748231 -0.07221837 -0.0558896
00000000: 21b9 2fbe d8e9 f6bc d7ab 1e3c 7365 cd3c
00000010: 07ce 7c3e 0b43 213e 3ae7 93bd 7eec 64bd

weight f4 [8]
3.302383 4.195185 0.045039818 0.77758926 2.5609686 3.3851724 3.0674407 4.1940036
00000000: 3e5a 5340 f53e 8640 ac7b 383d 1710 473f
00000010: e9e6 2340 aaa6 5840 f350 4440 4735 8640

bias f4 [8]
0.16769476 0.048516557 -0.5243686 0.83405286 1.1548351 0.17873186 -0.08854164 0.19762559
00000000: 2db8 2b3e 4cb9 463d 053d 06bf 7d84 553f
00000010: a3d1 933f 7c05 373e 5255 b5bd 5d5e 4a3e

running_mean f4 [8]
-0.17212467 -0.029179184 0.013252638 0.025823513 0.2443077 0.1555704 -0.0740875 -0.056351077
00000000: 7341 30be 2f09 efbc 9821 593c d58b d33c
00000010: cc2b 7a3e d94d 1f3e 30bb 97bd 63d0 66bd

running_var f4 [8]
133.83669 209.40186 100.12237 158.18736 131.7374 20.479757 119.27973 44.277546
00000000: 31d6 0543 e066 5143 a73e c842 f72f 1e43
00000010: c6bc 0343 8bd6 a341 398f ee42 351c 3142

weight f4 [16, 1, 128, 1]
-0.5070944 0.061178356 0.22209635 0.67843014 -0.13762586 -0.011517754 0.060253263 -0.45907924
-0.49077454 0.81033933 -0.6073842 -0.08243841 -0.17307445 0.021094559 -0.07432777 -0.048752233
0.010995684 -0.015572063 -0.16127017 0.1655043 -0.07761764 -0.18571031 -0.00013559064 0.21657197
0.23608193 -0.069253705 -0.08270534 0.009627884 0.17425919 0.11700022 0.024635142 -0.130849
0.2235565 0.18318765 0.21691716 -0.24098985 0.0057414775 -0.043796442 0.5946476 0.37414566
-0.566525 0.07664503 0.10019389 -0.09993222 -0.45178977 0.34447673 -0.35191795 -0.58266354
-0.066726625 -0.90426135 -0.007314272 0.18395166 -0.26673764 -0.059566647 -0.07918704 -0.0034111517
-0.20641115 0.08881539 -0.1684905 0.35101265 -0.19829693 -0.07972108 0.69014287 -0.24454793
0.16394717 0.053229243 -0.76211405 0.42325228 -0.11532447 -0.29505938 0.9471999 0.066385075
0.6934284 -0.34839642 0.044780426 -0.055994246 -0.18292435 -0.019830562 0.44037008 -0.22724862
0.23474404 0.09744228 0.48321316 -0.07134235 -0.23841928 -0.501921 0.08092689 -0.073811844
-0.09871123 -0.05632593 -0.18894874 -0.1360416 -0.0023135813 0.40132487 -0.109661676 -0.029779904
0.4063582 0.15757814 0.14608042 -0.11097236 -0.0067897798 -0.68394196 0.123007864 0.31481668
-0.22598383 0.100124605 -0.094972216 -0.026561614 -0.013191196 0.59810853 -1.0990945 0.01595716
-0.5408809 0.04604765 -0.00022298346 0.08707062 0.23333672 -0.23120548 -0.13926516 0.16730565
-0.0708998 -0.05364009 -0.80940247 0.4721141 -0.6038457 0.20653483 -0.10913924 0.10216547
0.0947222 -0.05441249 -0.8294048 0.4606783 -0.2997711 0.06579721 0.025666852 0.23676644
0.42272785 0.53320354 0.09095544 0.009808962 0.01191635 -0.07475782 0.20820303 -0.118198596
-0.031836223 -0.13336775 0.16774188 0.4145489 -0.17964838 0.0015727838 0.07436942 -0.17626607
0.06061516 -0.19190414 0.054897197 0.09848812 -0.2608075 -0.027953798 -0.037761517 0.054657456
0.02780161 -0.3697022 -0.3083287 0.020132743 0.15285127 -0.17145655 -0.31012067 -0.06946039
0.11555015 0.023490353 -0.40676376 0.1234953 0.052488532 0.12546192 0.92765224 -0.69888455
0.09231156 0.63073844 0.12139731 -0.33998278 0.61302084 0.015995255 -0.03278443 0.29965872
0.122380786 -0.62576497 0.10888214 -0.510195 0.10615063 0.0774362 -0.45907706 -0.012098067
0.08481448 0.17692965 0.10399878 0.049540695 -0.28599697 -0.043556195 -0.8439112 -0.2694875
-0.005241185 0.024680965 0.05465862 0.03014785 -0.13440171 -0.7208934 0.72677165 -0.7490869
-0.38612205 0.18144093 -0.51970834 0.10608192 0.21212241 0.088607445 -0.06659886 -0.044904936
0.054378062 -0.037637163 0.37115702 0.01674359 0.5943694 -0.010402993 0.25773796 -0.056490187
0.13377167 -0.04367661 -0.00071402825 0.6086379 -0.2283024 0.018533727 0.010606508 -0.03774207
0.058925815 0.07692823 -0.027942698 0.012882514 -0.24866118 -0.16482615 -0.5857061 0.5633612
-0.24433315 0.050959874 -0.15168715 -0.36930683 0.08628015 0.48639497 -0.056610394 -0.37023517
-0.019575223 0.03838488 0.0061658067 0.42743266 0.20275913 -0.051662523 -0.2088125 -0.49395278
00000000: f0d0 01bf 2896 7a3d 3a6d 633e 99ad 2d3f
00000010: cbed 0cbe f6b4 3cbc 20cc 763d 6f0c ebbe
00000020: cd46 fbbe 6672 4f3f 887d 1bbf 78d5 a8bd
00000030: 6e3a 31be 7fce ac3c 2839 98bd 6cb0 47bd
00000040: 3e27 343c f721 7fbc 0224 25be f679 293e
00000050: fff5 9ebd d82a 3ebe 562d 0eb9 0bc5 5d3e
00000060: 76bf 713e e3d4 8dbd 6b61 a9bd 46be 1d3c
00000070: 0071 323e d09d ef3d a3cf c93c 48fd 05be
00000080: ffeb 643e 8b95 3b3e 881f 5e3e 0bc6 76be
00000090: 0123 bc3b e663 33bd d33a 183f 0590 bf3e
000000a0: c807 11bf 12f8 9c3d 7432 cd3d 44a9 ccbd
000000b0: fd50 e7be 415f b03e 972e b4be 7029 15bf
000000c0: f8a7 88bd ac7d 67bf 90ac efbb d35d 3c3e
000000d0: d691 88be 28fc 73bd d12c a2bd a18d 5fbb
000000e0: 725d 53be d8e4 b53d c688 2cbe eeb7 b33e
000000f0: 5a0e 4bbe ce44 a3bd 34ad 303f c66a 7abe
00000100: c4e1 273e e806 5a3d e819 43bf 86b4 d83e
00000110: 3c2f ecbd 0612 97be b17b 723f e6f4 873d
00000120: 8684 313f 0461 b2be ae6b 373d 395a 65bd
00000130: 8550 3bbe b473 a2bc 3078 e13e ddb3 68be
00000140: be60 703e d18f c73d b767 f73e f01b 92bd
00000150: 2f24 74be e57d 00bf ffbc a53d aa2a 97bd
00000160: 1d29 cabd 05b6 66bd c77b 41be 7d4e 0bbe
00000170: 749f 17bb 747a cd3e 4d96 e0bd fcf4 f3bc
00000180: 2f0e d03e 2a5c 213e 1b96 153e 7a45 e3bd
00000190: cd7c debb d216 2fbf 8ceb fb3d a72f a13e
000001a0: 4e68 67be 210e cd3d cb80 c2bd be97 d9bc
000001b0: e31f 58bc a41d 193f 21af 8cbf 97b8 823c
000001c0: 2c77 0abf 769c 3c3d abd0 69b9 1552 b23d
000001d0: d2ef 6e3e 21c1 6cbe 879b 0ebe 2c52 2b3e
000001e0: ea33 91bd b6b5 5bbd 0035 4fbf f0b8 f13e
000001f0: a295 1abf de7d 533e 6584 dfbd 213c d13d
00000200: b6fd c13d a2df 5ebd df53 54bf 07de eb3e
00000210: 997b 99be b0c0 863d 4a43 d23c e772 723e
00000220: c96f d83e 0780 083f d946 ba3d c5b5 203c
00000230: cb3c 433c a11a 99bd 2d33 553e 1b12 f2bd
00000240: b366 02bd 8e91 08be 87c4 2b3e c13f d43e
00000250: bff5 37be de25 ce3a ff4e 983d 187f 34be
00000260: 9a47 783d 8582 44be e2db 603d 24b4 c93d
00000270: 9088 85be 5dff e4bc d2ab 1abd 7fe0 5f3d
00000280: 34c0 e33c 9b49 bdbe 42dd 9dbe 6ced a43c
00000290: 0b85 1c3e 4e92 2fbe 23c8 9ebe 4041 8ebd
000002a0: 8fa5 ec3d d76e c03c 5743 d0be 1beb fc3d
000002b0: 37fe 563d 1779 003e 9e7a 6d3f 19ea 32bf
000002c0: d80d bd3d 1378 213f 279f f83d 3912 aebe
000002d0: efee 1c3f 7b08 833c f748 06bd de6c 993e
000002e0: c7a2 fa3d 2232 20bf 99fd de3d 249c 02bf
000002f0: 8065 d93d df96 9e3d 260c ebbe f936 46bc
00000300: 37b3 ad3d 0c2d 353e 50fd d43d 2feb 4a3d
00000310: 326e 92be fb67 32bd 900a 58bf 44fa 89be
00000320: 3fbe abbb bc2f ca3c b8e1 5f3d a0f8 f63c
00000330: 9aa0 09be 788c 38bf b50d 3a3f 29c4 3fbf
00000340: cab1 c5be a7cb 393e 9b0b 05bf 7a41 d93d
00000350: 9e36 593e d277 b53d fc64 88bd 3dee 37bd
00000360: 88bb 5e3d 6d29 1abd 4b08 be3e da29 893c
00000370: 9828 183f 5171 2abc 3bf6 833e 4162 67bd
00000380: 71fb 083e 3fe6 32bd a02d 3bba b2cf 1b3f
00000390: 1bc8 69be 0bd4 973c ebc6 2d3c 6e97 1abd
000003a0: 325c 713d 8c8c 9d3d 16e8 e4bc 2e11 533c
000003b0: 09a1 7ebe 30c8 28be d6f0 15bf 7138 103f
000003c0: 7832 7abe 4dbb 503d e053 1bbe c915 bdbe
000003d0: a6b3 b03d c308 f93e 4de0 67bd 778f bdbe
000003e0: 385c a0bc 7739 1d3d 890a ca3b 74d8 da3e
000003f0: 17a0 4f3e 159c 53bd f2d2 55be 61e7 fcbe

bias f4 [16]
0.22037917 -0.36556864 -0.2783621 -0.0034916128 0.64828855 0.13451983 -0.7217904 -0.4773005
-0.07823424 -0.7530711 -0.30254102 -0.22396225 -0.12692606 -0.2345384 0.08345695 -0.023074206
00000000: 14ab 613e d02b bbbe 7a85 8ebe 8bd3 64bb
00000010: 3df6 253f 91bf 093e 41c7 38bf bb60 f4be
00000020: 4639 a0bd 45c9 40bf a8e6 9abe 5c56 65be
00000030: e8f8 01be d62a 70be 7aeb aa3d 1e06 bdbc

weight f4 [16]
3.9425447 3.8908005 2.819606 3.7453198 3.0089548 3.7563977 3.3271596 3.5433466
1.2174329 4.319251 5.4177074 4.4012275 2.9402878 3.841297 4.3398952 4.5296235
00000000: a752 7c40 e002 7940 6d74 3440 52b3 6f40
00000010: b792 4040 d268 7040 2ff0 5440 31c6 6240
00000020: d7d4 9b3f 4e37 8a40 dc5d ad40 dbd6 8c40
00000030: ad2d 3c40 cfd7 7540 6ce0 8a40 adf2 9040

bias f4 [16]
-2.355594 -2.1122208 -0.1365071 -0.59344214 -1.435683 -1.891692 -1.7998737 -1.5214491
-0.17249253 -2.0249467 -2.7020793 -2.7432227 -1.0492918 -1.3441137 -2.1628258 -2.5216105
00000000: 0dc2 16c0 a02e 07c0 84c8 0bbe d3eb 17bf
00000010: 76c4 b7bf f722 f2bf 4362 e6bf d8be c2bf
00000020: e2a1 30be ba98 01c0 deee 2cc0 f690 2fc0
00000030: 324f 86bf eb0b acbf bd6b 0ac0 1162 21c0

running_mean f4 [16]
-0.24068396 -0.5985625 -0.28472412 0.08453443 1.7218761 3.935427 -5.7135544 1.1721357
-4.6886897 -7.7051563 -0.17574345 -0.6088277 -0.52840877 0.04964073 -0.31720683 0.9065191
00000000: db75 76be 643b 19bf 5cc7 91be 6320 ad3d
00000010: 7066 dc3f 09de 7b40 70d5 b6c0 8b08 963f
00000020: bf09 96c0 a490 f6c0 17f6 33be 22dc 1bbf
00000030: cc45 07bf 1454 4b3d ef68 a2be a311 683f

running_var f4 [16]
13.724036 9.197492 31.655853 18.322485 0.006364453 0.007601663 0.65364623 0.48897606
11.231636 3.6390648 33.687206 19.290049 11.549305 14.115516 32.10017 24.467138
00000000: a795 5b41 ed28 1341 303f fd41 7394 9241
00000010: e78c d03b 5f17 f93b 5c55 273f 125b fa3e
00000020: c8b4 3341 70e6 6840 b3bf 0642 0552 9a41
00000030: f4c9 3841 27d9 6141 9366 0042 b3bc c341

weight f4 [16, 2, 1, 16]
-0.32772118 0.08667867 -0.046331886 -0.33412084 -0.17411534 0.0011061353 0.14515537 0.018086592
-0.23242734 -0.14609064 -0.1863082 0.053011294 0.031178964 -0.20267901 -0.08324801 -0.4838593
0.5815396 -0.48076424 -0.037256796 0.32732207 0.58302957 -0.11162924 -0.15583964 -0.14209099
0.5808636 0.6871598 0.011869344 -0.35592887 -0.4384817 0.32618842 0.77336687 0.37524602
-0.25552243 -0.1862311 0.22623158 0.04514376 -0.725841 -0.006673264 -0.029527543 0.19075999
-0.0564817 -0.7887347 -0.15291612 0.14354636 0.38530868 0.029107476 -0.96611947 -0.3973301
-0.34673345 0.07238187 0.06904586 0.063742585 -0.27089328 -0.22996606 -0.038965546 -0.03933287
0.06340839 -0.115689315 -0.14344029 -0.04516177 -0.047075856 0.04765728 -0.19003421 -0.3243413
0.13977407 0.18058349 -0.2207012 -0.8769416 -0.09199607 0.10840716 0.32879448 -0.16150457
-0.38329753 -0.35864803 0.23732476 0.09156607 0.1850696 -1.1386989 -0.18982902 0.36915496
0.14593834 0.16264792 -0.22430283 -0.724615 -0.17164546 0.264159 0.28407875 -0.18727715
-0.6288435 -0.12387744 0.29600745 0.28273743 -0.22538342 -0.82764864 -0.3685304 0.45855406
-0.6576214 -0.21762176 0.42720988 0.7278642 -0.34673095 -0.30175436 -0.44786385 0.25159708
-0.16316718 0.1460124 -0.5802963 0.103624985 -0.10953516 1.1990044 -0.44716024 -0.8451453
0.29393223 0.099186614 -0.029589498 -0.20697202 0.042979006 0.28167912 0.20921874 -0.022608407
-0.17777851 -0.010086943 0.30770835 0.30049545 0.019669604 -0.24105872 -0.090105444 0.5105383
0.20853083 -0.86773074 0.01651723 -0.052109282 -0.27881736 0.43613112 -0.61955285 0.038065117
-0.09827148 -0.1746256 0.52432257 -0.6955204 -0.0753914 -0.10034639 -0.66569847 0.29240024
0.1896282 -0.39227825 -0.46952367 0.15422781 -0.57231957 0.5854116 -0.25810876 -0.3254294
0.08580202 -0.32086155 0.6362102 -0.3555784 -0.60251474 0.064236365 -0.5179036 0.42876878
0.6021595 0.16013052 -0.028546562 -0.12571377 0.17083484 0.39111018 0.07362207 0.05968182
-0.12103358 0.25271302 0.44094527 0.047799867 -0.116080984 -0.20652583 0.36990657 0.47351977
-0.091604136 -0.06554539 -0.33786726 -0.68324393 0.16532874 0.25419295 0.031333137 -0.43293786
-0.7201856 0.28977147 0.36216033 -0.0077247457 -0.5920778 -0.78560853 0.16713324 -0.040616356
-0.2039194 0.006445036 0.4899878 0.47364405 0.17264298 -0.19365896 -0.42951 0.28913793
0.6750442 0.25497103 -0.2764689 -0.37334865 0.26912093 0.73824334 0.51879233 -0.16375318
0.39966735 -0.052077323 -0.15522496 -0.32560498 0.14807837 0.3055211 -0.01972921 -0.04340997
-0.3382397 0.22495554 0.2925637 0.071839556 -0.038403276 -0.25857532 0.035105787 0.4781141
0.27851632 -0.07852811 -0.26510125 -0.52931315 0.3836863 0.025766911 -0.08353621 -0.26285434
-0.34822124 0.39238885 0.21434435 -0.22520903 -0.29527965 -0.30417275 0.42842054 -0.04102664
-0.07764596 -0.19484115 -0.39963362 -0.44200978 0.119826846 0.08823068 -0.014285349 -0.35219017
-0.43065006 0.06906895 0.06975057 0.03400682 -0.2989316 -0.550883 0.010956974 -0.16082527
00000000: 12cb a7be 9684 b13d 81c6 3dbd e311 abbe
00000010: 4b4b 32be befb 903a 9ca3 143e 552a 943c
00000020: 6f01 6ebe c998 15be 94c7 3ebe 5f22 593d
00000030: 076b ff3c 168b 4fbe ef7d aabd 68bc f7be
00000040: c7df 143f bb26 f6be 959a 18bd c296 a73e
00000050: 6d41 153f df9d e4bd 6d94 1fbe 4d80 11be
00000060: 7ab3 143f b4e9 2f3f a377 423c 4f3c b6be
00000070: ac80 e0be 2b02 a73e 5ffb 453f 3f20 c03e
00000080: d6d3 82be 5eb3 3ebe 40a9 673e aae8 383d
00000090: b7d0 39bf 65ab dabb bfe3 f1bc 9656 433e
000000a0: 5b59 67bd 84ea 49bf 0b96 1cbe d1fd 123e
000000b0: 2e47 c53e cd72 ee3c 9b53 77bf da6e cbbe
000000c0: 0c87 b1be f23c 943d ea67 8d3d 798b 823d
000000d0: 86b2 8abe 397c 6bbe 569a 1fbd 811b 21bd
000000e0: 42dc 813d 85ee ecbd 03e2 12be 8cfb 38bd
000000f0: 9dd2 40bd 4834 433d 5498 42be 1010 a6be
00000100: ef20 0f3e e1ea 383e 7fff 61be 3f7f 60bf
00000110: 7068 bcbd 9304 de3d c057 a83e 7461 25be
00000120: 933f c4be b7a0 b7be 4305 733e fe86 bb3d
00000130: e382 3d3e e3c0 91bf 8a62 42be e101 bd3e
00000140: dc70 153e 2d8d 263e a4af 65be 5e80 39bf
00000150: d4c3 2fbe d93f 873e c572 913e 95c5 3fbe
00000160: e3fb 20bf 75b3 fdbd 4a8e 973e f6c2 903e
00000170: e9ca 66be c8e0 53bf 04b0 bcbe 99c7 ea3e
00000180: e059 28bf 3dd8 5ebe 41bb da3e 4f55 3a3f
00000190: b886 b1be 8c7f 9abe 694e e5be 55d1 803e
000001a0: 4c15 27be 4684 153e 4c8e 14bf 5639 d43d
000001b0: f853 e0bd fa78 993f 30f2 e4be 715b 58bf
000001c0: 497e 963e 5a22 cb3d ad65 f2bc 79f0 53be
000001d0: c10a 303d 3f38 903e 703d 563e 4435 b9bc
000001e0: 920b 36be b543 25bc f38b 9d3e 8ada 993e
000001f0: 2622 a13c 19d8 76be 3489 b8bd a3b2 023f
00000200: 1b89 553e 9a23 5ebf 244f 873c 8b70 55bd
00000210: 26c1 8ebe 944c df3e 049b 1ebf 2bea 1b3d
00000220: 8f42 c9bd 0ed1 32be 013a 063f a00d 32bf
00000230: ce66 9abd 6882 cdbd 376b 2abf 7cb5 953e
00000240: e52d 423e b2d8 c8be 6865 f0be e5ed 1d3e
00000250: 8983 12bf 89dd 153f d526 84be af9e a6be
00000260: f8b8 af3d f747 a4be acde 223f 5f0e b6be
00000270: 683e 1abf 5b8e 833d 5595 04bf 9587 db3e
00000280: 2027 1a3f 41f9 233e 7bda e9bc 1cbb 00be
00000290: 54ef 2e3e 983f c83e 2bc7 963d ed74 743d
000002a0: 74e0 f7bd 9a63 813e 94c3 e13e cbc9 433d
000002b0: debb edbd 827b 53be 6564 bd3e 2f71 f23e
000002c0: f39a bbbd a93c 86bd f0fc acbe 13e9 2ebf
000002d0: f04b 293e 9425 823e 2d57 003d 08aa ddbe
000002e0: 155e 38bf ed5c 943e 146d b93e dd1f fdbb
000002f0: 6992 17bf a41d 49bf fa24 2b3e 565d 26bd
00000300: 3fd0 50be e130 d33b aedf fa3e 7981 f23e
00000310: 52c9 303e 894e 46be bce8 dbbe e309 943e
00000320: b2cf 2c3f 908b 823e 558d 8dbe 8e27 bfbe
00000330: 38ca 893e 84fd 3c3f 93cf 043f eaae 27be
00000340: 33a1 cc3e 084f 55bd 4bf3 1ebe b2b5 a6be
00000350: dba1 173e 436d 9c3e 279f a1bc a7ce 31bd
00000360: c12d adbe bf5a 663e e9ca 953e 9e20 933d
00000370: c14c 1dbd fc63 84be 16cb 0f3d 5fcb f43e
00000380: b199 8e3e 59d3 a0bd 5abb 87be 1181 07bf
00000390: 8872 c43e 2115 d33c 0815 abbd d894 86be
000003a0: 0e4a b2be 31e7 c83e 167d 5b3e 329d 66be
000003b0: e52e 97be 88bc 9bbe f059 db3e 8d0b 28bd
000003c0: d804 9fbd 7084 47be c79c ccbe 1b4f e2be
000003d0: c767 f53d 49b2 b43d 190d 6abc 4552 b4be
000003e0: 2a7e dcbe 0674 8d3d 63d9 8e3d bc4a 0b3d
000003f0: 900d 99be ab06 0dbf e184 333c 61af 24be

bias f4 [16]
-0.19232923 -0.33552873 -0.35208264 0.19803752 -0.023975609 -0.16808441 0.25703943 0.3374586
0.22937815 0.17333388 0.34040055 0.032527234 0.17650838 0.015792552 -0.07364326 0.12174274
00000000: f4f1 44be 6cca abbe 2d44 b4be 59ca 4a3e
00000010: 7f68 c4bc 521e 2cbe ac9a 833e 60c7 ac3e
00000020: 1be2 6a3e 707e 313e fb48 ae3e 473b 053d
00000030: 9dbe 343e 625f 813c 47d2 96bd 4254 f93d

weight f4 [16, 16, 1, 1]
0.10152396 -0.4034173 0.09874123 0.09064136 -0.44497523 0.6113467 0.20126797 -0.15797202
-0.49095142 0.36953208 0.04102237 -0.04195494 -0.26039433 0.01544691 -0.8478516 -0.27981764
0.35751876 -0.062189877 0.05976936 -0.21601966 -0.13746385 -0.7642693 0.4752296 -0.18816657
-0.7932574 0.46711102 -0.08642223 0.19615906 -0.024659552 -0.46789694 -0.05571869 0.3156099
0.38189524 0.5175743 0.2292504 0.015944988 -0.6055632 0.08638085 -0.15005617 -0.4267055
-0.064535946 -0.076378174 -0.6174198 -0.47415972 -0.006940409 0.081500575 0.5008954 -0.08207145
-0.09622599 0.08612733 -0.032736767 -0.13241513 -0.6724806 0.19922268 -0.11917455 0.0051321588
0.014125839 -0.060873292 -0.38099626 -0.64480996 0.02225036 0.11416608 0.004900083 1.0143003
-0.37663838 -0.6190124 0.0942815 -0.02142727 0.4938731 0.4023589 -0.11078789 0.3032561
0.111848265 -0.44593197 0.043986384 1.0565228 -0.1388257 -0.012176162 0.13033605 -0.37459663
0.0025018735 -0.17054708 0.09861144 0.009526344 0.43189007 0.5314558 -0.17746775 -0.27337262
-0.09003051 0.068533786 -1.1503408 -0.21671844 -0.16335857 0.053856697 0.3261842 0.118003905
0.025883315 0.2981761 0.22664692 -1.4738612 -0.13539816 0.14415273 -0.51682556 -0.13455842
-0.09749854 -0.09572999 0.16867946 -0.04157166 -0.115445316 -0.07670098 0.104488626 0.0037337628
0.34091496 -0.036935527 0.099771194 0.3370395 0.8406668 0.24329352 0.2180803 0.13011682
0.9260189 -0.23516771 0.07764195 -0.0042072516 0.007856912 -0.102471106 -0.33739856 -0.550605
0.2570461 -0.195095 0.01684793 0.19557805 0.016520254 -0.27365035 -0.056316976 -0.22996797
-0.1837298 -0.7180766 0.26856798 -0.8998521 -0.643931 0.17876385 0.34676164 -0.27110407
-0.17038769 -0.24076708 -0.083595924 -0.053688675 0.572155 -0.34601414 0.72439325 0.07349329
0.50933677 -0.35936904 -0.1901178 0.06870359 0.45288652 -0.30397165 -0.56145173 -0.04313009
0.36069316 0.31719312 -0.24285516 0.050870027 -0.17062503 0.19593015 -0.3856928 0.85658824
0.29183722 0.18036133 0.068603 -0.08072583 0.576809 0.641509 0.048177145 0.08013055
-0.060680166 0.16190311 0.99042356 -0.7096121 0.032917496 0.13558452 0.13304378 -0.24347483
0.09197451 0.005268243 -0.06922958 -0.00079648325 -0.13563256 0.18885544 0.19110075 -0.3325054
-0.10904092 -0.16926533 1.1835154 0.3751743 -0.27495643 0.25897843 -0.016912539 -0.20978545
0.1900111 -0.19025066 -0.37673795 0.04893926 0.37084267 -0.27406776 -0.11868744 -0.103973925
0.1489264 0.007257564 0.08069018 0.010559375 0.050404936 -0.054534838 -0.50234175 -0.037968062
-0.74418867 -0.8133684 0.07986887 0.19840208 -0.54491836 0.21918237 -0.41325134 0.42282423
-0.28398088 0.7867738 0.29606763 -0.13630696 0.7449554 0.464791 0.6148596 -0.14148301
-0.26914877 -0.32172883 0.0519732 0.019567518 0.38891834 0.24627778 0.23882727 -0.10448287
1.1239125 -0.3108864 0.112484455 0.33636853 0.23928246 0.30007 0.018489223 0.19149844
-0.10684347 0.5749105 0.035924897 -0.27854174 -0.006619487 0.03354597 0.0055186297 0.06605237
00000000: cbeb cf3d b68c cebe d838 ca3d 2da2 b93d
00000010: cbd3 e3be 3881 1c3f 3119 4e3e 6bc3 21be
00000020: fc5d fbbe 4f33 bd3e 1307 283d f1d8 2bbd
00000030: 6852 85be 0915 7d3c cd0c 59bf 4244 8fbe
00000040: b30c b73e d0ba 7ebd b7d0 743d 4234 5dbe
00000050: 53c3 0cbe 27a7 43bf 4b51 f33e bdae 40be
00000060: eb12 4bbf 2d29 ef3e 23fe b0bd ecdd 483e
00000070: d402 cabc 3090 efbe 4839 64bd 9f97 a13e
00000080: c687 c33e c07f 043f 9ec0 6a3e 109f 823c
00000090: 3106 1bbf 71e8 b03d 53a8 19be 2579 dabe
000000a0: 6c2b 84bd 296c 9cbd 390f 1ebf 10c5 f2be
000000b0: 5f6c e3bb c6e9 a63d ae3a 003f 1415 a8bd
000000c0: 2212 c5bd 8763 b03d fd16 06bd d597 07be
000000d0: b027 2cbf 0801 4c3e c911 f4bd ab2b a83b
000000e0: 1070 673c 4656 79bd f111 c3be 4412 25bf
000000f0: 6346 b63c e8cf e93d e090 a03b 98d4 813f
00000100: bfd6 c0be 9977 1ebf a916 c13d 3e88 afbc
00000110: efdc fc3e fc01 ce3e c3e4 e2bd 6244 9b3e
00000120: b410 e53d 3251 e4be 112b 343d 243c 873f
00000130: 5328 0ebe 867e 47bc d076 053e 21cb bfbe
00000140: 79f6 233b e5a3 2ebe cbf4 c93d 6214 1c3c
00000150: b220 dd3e 7d0d 083f 1bba 35be 7ff7 8bbe
00000160: eb61 b8bd 715b 8c3d 5e3e 93bf 70eb 5dbe
00000170: 7847 27be d798 5c3d 9e01 a73e 08ac f13d
00000180: 3f09 d43c 8aaa 983e 2116 683e 7ca7 bcbf
00000190: d1a5 0abe c69c 133e ae4e 04bf afc9 09be
000001a0: 51ad c7bd 160e c4bd 4fba 2c3e 0c47 2abd
000001b0: 986e ecbd 6715 9dbd 22fe d53d 25b2 743b
000001c0: 688c ae3e b549 17bd d754 cc3d 7190 ac3e
000001d0: f035 573f f021 793e 7150 5f3e 583d 053e
000001e0: 930f 6d3f cecf 70be be02 9f3d fcdc 89bb
000001f0: 47ba 003c 5fdc d1bd 81bf acbe 73f4 0cbf
00000200: 8c9b 833e fcc6 47be ac04 8a3c 9d45 483e
00000210: 7c55 873c e61b 8cbe a1ac 66bd b97c 6bbe
00000220: aa23 3cbe ded3 37bf be81 893e b55c 66bf
00000230: a9d8 24bf df0d 373e be8a b13e 27ce 8abe
00000240: 1c7a 2ebe a58b 76be 5734 abbd a8e8 5bbd
00000250: c078 123f c428 b1be d671 393f a683 963d
00000260: e563 023f 38ff b7be 3eae 42be 78b4 8c3d
00000270: bee0 e73e 2ca2 9bbe 4dbb 0fbf 2da9 30bd
00000280: c6ac b83e 2367 a23e 06af 78be 175d 503d
00000290: 54b8 2ebe eaa1 483e 8779 c5be 5e49 5b3f
000002a0: b06b 953e a4b0 383e bb7f 8c3d 9553 a5bd
000002b0: c1a9 133f ef39 243f 6655 453d 7c1b a43d
000002c0: c48b 78bd eec9 253e 668c 7d3f 23a9 35bf
000002d0: 7fd4 063d abd6 0a3e a13c 083e 7751 79be
000002e0: 225d bc3d 3aa1 ac3b 3dc8 8dbd 16cb 50ba
000002f0: 43e3 0abe 5263 413e eaaf 433e 263e aabe
00000300: d950 dfbd e453 2dbe 6f7d 973f d916 c03e
00000310: 17c7 8cbe d298 843e 2a8c 8abc ffd1 56be
00000320: 4592 423e 12d1 42be cce3 c0be 8974 483d
00000330: 17df bd3e 9c52 8cbe 6712 f3bd 48f0 d4bd
00000340: 2a80 183e dcd0 ed3b e540 a53d 3b01 2d3c
00000350: 6875 4e3d ec5f 5fbd 7899 00bf 6684 1bbd
00000360: 2683 3ebf e938 50bf 4a92 a33d ea29 4b3e
00000370: c57f 0bbf 5871 603e ae95 d3be 6b7c d83e
00000380: f165 91be 026a 493f 2d96 973e 0d94 0bbe
00000390: 66b5 3e3f 16f9 ed3e 7067 1d3f ece0 10be
000003a0: decd 89be a4b9 a4be dae1 543d 0f4c a03c
000003b0: 4e20 c73e 3e30 7c3e 238f 743e 1dfb d5bd
000003c0: 5ddc 8f3f 812c 9fbe 405e e63d 7f38 ac3e
000003d0: 7606 753e c6a2 993e b676 973c 2b18 443e
000003e0: c0d0 dabd 562d 133f fc25 133d 069d 8ebe
000003f0: 48e8 d8bb 8067 093d 9fd5 b43b 7746 873d

bias f4 [16]
-0.23336099 -0.34861115 -0.19075881 -0.265699 0.049395535 -0.3622509 -0.46977723 -0.30819973
-0.078221835 0.07235672 -0.39212307 -0.41492808 -0.46865448 -0.23026477 -0.12816069 -0.15283369
00000000: 2ff6 6ebe 297d b2be 4756 43be b309 88be
00000010: f952 4a3d f378 b9be a486 f0be 5bcc 9dbe
00000020: c532 a0bd c32f 943d 5bc4 c8be 7471 d4be
00000030: 7bf3 efbe 87ca 6bbe 8e3c 03be 6f80 1cbe

weight f4 [16]
0.8296757 0.8205744 1.249534 1.1179992 0.75674117 1.4818897 2.543962 1.4061518
1.0138103 1.0909014 1.4344935 2.2814648 2.0962262 1.7144266 1.5272394 1.5122186
00000000: a065 543f 2a11 523f bbf0 9f3f 991a 8f3f
00000010: cab9 413f 90ae bd3f 46d0 2240 c8fc b33f
00000020: 89c4 813f a8a2 8b3f 7c9d b73f 8503 1240
00000030: 9228 0640 5572 db3f 957c c33f 6190 c13f

bias f4 [16]
-0.14338258 -0.15007512 -0.3254939 -0.14692447 0.0011777774 -0.4579913 -0.41004622 -0.40249473
-0.20540632 -0.259412 -0.19998766 -0.37943462 -0.5040212 -0.54438025 -0.42002717 -0.015513025
00000000: e2d2 12be 4bad 19be 23a7 a6be 5e73 16be
00000010: a75f 9a3a d67d eabe 94f1 d1be ca13 cebe
00000020: 0956 52be a6d1 84be 91c9 4cbe 4145 c2be
00000030: 8907 01bf 815c 0bbf cd0d d7be 582a 7ebc

running_mean f4 [16]
-1.1242617 -0.07023506 -1.6675586 -1.270614 0.4069178 -2.457611 -1.7523602 -0.50914663
-1.4551831 0.45007196 0.76165915 -2.7994726 -2.9412296 -2.0043826 -0.9725888 -0.3820509
00000000: cfe7 8fbf 66d7 8fbd 8f72 d5bf 7ba3 a2bf
00000010: 8857 d03e 8049 1dc0 574d e0bf 6f57 02bf
00000020: 7143 babf d56f e63e 18fc 423f 8f2a 33c0
00000030: 1b3d 3cc0 ce47 00c0 94fb 78bf 2d9c c3be

running_var f4 [16]
67.87045 65.87946 102.74942 87.80498 102.89481 70.00538 156.1787 107.26071
71.67784 97.040535 75.57637 199.16826 224.03055 84.74732 108.577965 96.8061
00000000: acbd 8742 49c2 8342 b47f cd42 269c af42
00000010: 25ca cd42 c102 8c42 bf2d 1c43 7c85 d642
00000020: 0e5b 8f42 c114 c242 1a27 9742 132b 4743
00000030: d207 6043 a17e a942 eb27 d942 b99c c142

weight f4 [40, 208]
-0.37055862 -0.0993509 -0.23714116 -0.08153486 -0.03408499 -0.03880643 -0.14028811 0.019000284
-0.08319119 -0.018094147 -0.23631029 -0.23004529 -0.3834467 0.0019183178 0.06099313 0.111306004
0.15601045 0.0005680839 -0.05021323 0.053917527 0.04004535 0.10513756 -0.0053810035 -0.09128954
-0.15807754 -0.07499238 0.46213904 0.16936658 0.4823083 0.35952985 0.24817441 0.20655608
0.30134296 0.25947136 0.32318434 0.19053309 0.35387906 0.30557796 0.33027428 -0.34890255
-0.2406002 0.06624795 0.10806829 0.017639501 -0.10052503 -0.09429764 -0.0072030546 0.061723392
-0.0013253043 -0.052720066 -0.14187622 0.07795871 -0.9406349 -0.89976454 -0.6077366 -0.3757217
-0.45241615 -0.63885474 -0.6614886 -0.7796402 -0.74677616 -0.42416334 -0.6518453 -0.9448404
-1.0250229 -0.11936504 -0.07891246 -0.1614441 -0.16052653 -0.065512106 -0.16181675 0.008485423
0.04648601 0.02255985 -0.054709688 -0.12973918 -0.10273346 -0.15625477 0.17296603 0.053317763
0.061745394 -0.009549475 0.033801977 0.026709475 0.08427526 0.06466689 -0.017136866 0.003642296
-0.026382381 0.12802626 0.12675107 -0.06766875 0.07349688 -0.0508491 0.20150308 0.08463135
0.22712235 0.044622287 0.0969244 0.06692506 0.23097013 0.028772699 0.079602204 -0.20149441
-0.07159143 -0.16333635 0.014264313 0.16887859 0.12364148 0.0899439 0.02288167 0.076556295
0.06931883 0.107198805 0.06121792 -0.010934423 -0.09621706 0.1901274 0.11052029 0.10220623
0.08042377 0.20208602 0.18984897 0.22427718 0.23596062 0.2373108 0.027552124 0.15203601
-0.039363775 0.21591423 -0.092893146 -0.040883377 0.08327598 0.05529495 0.003228218 -0.034114093
0.051694684 0.103432156 0.10053335 0.011677813 -0.04057155 0.009914451 -0.013075668 0.16424227
0.15109843 0.14436047 0.080464184 0.053800788 0.11898123 0.13741708 0.17021185 0.11958445
-0.021285316 0.10619393 0.107758485 0.12996669 0.16367368 0.16159053 0.18776748 0.09240357
0.14303291 0.17486323 0.17793944 0.18621007 0.18649286 0.062580645 0.09006746 0.14965314
0.19845036 -0.34888113 -0.5981733 -0.42102957 -0.60335827 -0.626061 -0.5756563 -0.5707179
-0.58759475 -0.6104293 -0.7161231 -0.52948433 -0.61001366 -0.5994933 0.36865437 0.3370213
0.26911488 0.057629116 0.2692565 0.25126418 0.26918843 0.27100527 0.21170633 0.06224961
0.16445799 0.22272842 0.23397677 -0.047299773 -0.0032021354 -0.06276961 -0.07643407 -0.08067532
-0.036984053 -0.0055084634 -0.023401558 0.0053286008 0.11501031 -0.10449857 -0.07269911 -0.062808685
-0.13378422 -0.17019552 0.0033509415 -0.158325 -0.030945389 -0.1465847 -0.15409562 -0.22522919
0.030850193 0.09937381 -0.16851535 0.026874399 -0.00725376 0.02367989 -0.07758693 -0.06735924
-0.13362159 -0.19286007 -0.22630283 -0.32895967 -0.24916403 -0.11816173 -0.16175047 -0.19480316
-0.11949062 -0.17068073 0.12807085 0.43729526 0.35459182 0.42885292 0.20624188 0.24773651
0.28712994 0.3860205 0.35439765 0.24130148 0.43608505 0.29016316 0.4829141 0.2784202
0.21406157 0.3061819 0.20532936 0.14476606 0.16531539 0.19284481 0.14236191 0.08252574
00000000: dcb9 bdbe 7c78 cbbd 22d5 72be c0fb a6bd
00000010: b49c 0bbd 7ef3 1ebd b0a7 0fbe 7ca6 9b3c
00000020: 2560 aabd 2d3a 94bc 53fb 71be fe90 6bbe
00000030: 2053 c4be 1070 fb3a efd3 793d 67f4 e33d
00000040: 34c1 1f3e 77eb 143a 63ac 4dbd a0d8 5c3d
00000050: 9806 243d 5c52 d73d 2153 b0bb 03f6 babd
00000060: 14df 21be 9b95 99bd 7d9d ec3e 6f6e 2d3e
00000070: 1df1 f63e 4c14 b83e 6f21 7e3e 7083 533e
00000080: a049 9a3e 6ed9 843e 6b78 a53e 1b1b 433e
00000090: a32f b53e b774 9c3e b619 a93e 5ba3 b2be
000000a0: e65f 76be 01ad 873d e852 dd3d b780 903c
000000b0: 11e0 cdbd 1f1f c1bd 9a07 ecbb abd1 7c3d
000000c0: d5b5 adba fff0 57bd 0048 11be d1a8 9f3d
000000d0: 73cd 70bf f856 66bf a094 1bbf 985e c0be
000000e0: 17a3 e7be fc8b 23bf 5157 29bf 8096 47bf
000000f0: b92c 3fbf f02b d9be 55df 26bf 0fe1 71bf
00000100: f333 83bf a875 f4bd db9c a1bd 9a51 25be
00000110: 1161 24be 362b 86bd 4ab3 25be 7206 0b3c
00000120: 1d68 3e3d 6fcf b83c 4417 60bd 59da 04be
00000130: ec65 d2bd 4001 20be 021e 313e ba63 5a3d
00000140: bde8 7c3d 6775 1cbc f173 0a3d d4cd da3c
00000150: 8298 ac3d 1370 843d 9d62 8cbc 96b3 6e3b
00000160: dd1f d8bc 5119 033e 08cb 013e ea95 8abd
00000170: 8885 963d 2547 50bd d356 4e3e 3453 ad3d
00000180: c392 683e dcc5 363d 4d80 c63d 0110 893d
00000190: 6f83 6c3e b9b4 eb3c 7b06 a33d 8d54 4ebe
000001a0: 879e 92bd a541 27be ddb4 693c 82ee 2c3e
000001b0: bf37 fd3d 8234 b83d 5772 bb3c 8cc9 9c3d
000001c0: 08f7 8d3d 0c8b db3d a4bf 7a3d 4b26 33bc
000001d0: 730d c5bd c2b0 423e 7658 e23d 8051 d13d
000001e0: 38b5 a43d a3ef 4e3e c567 423e eba8 653e
000001f0: a99f 713e 9a01 733e feb4 e13c 54af 1b3e
00000200: e93b 21bd 9f18 5d3e c33e bebd 5475 27bd
00000210: 998c aa3d f57c 623d 8390 533b 38bb 0bbd
00000220: cebd 533d 3dd4 d33d 6ee4 cd3d 4c54 3f3c
00000230: 5b2e 26bd 3970 223c 543b 56bc 202f 283e
00000240: 8cb9 1a3e 3bd3 133e 68ca a43d 375e 5c3d
00000250: 6eac f33d 10b7 0c3e 044c 2e3e b1e8 f43d
00000260: 8b5e aebc 347c d93d 7bb0 dc3d fd15 053e
00000270: 139a 273e fd77 253e 1e46 403e 153e bd3d
00000280: 3877 123e 590f 333e c235 363e daad 3e3e
00000290: fcf7 3e3e 482a 803d 4a75 b83d ac3e 193e
000002a0: 9236 4b3e 8ca0 b2be e321 19bf 3091 d7be
000002b0: b075 1abf 8945 20bf 365e 13bf 911a 12bf
000002c0: 9c6c 16bf 1845 1cbf d853 37bf 498c 07bf
000002d0: db29 1cbf 6578 19bf 44c0 bc3e 0e8e ac3e
000002e0: 6dc9 893e 820c 6c3d fddb 893e b3a5 803e
000002f0: 11d3 893e 34c1 8a3e 8bc9 583e 72f9 7e3d
00000300: ad67 283e eb12 643e 9b97 6f3e 68bd 41bd
00000310: ebda 51bb 5a8d 80bd 7789 9cbd 1a39 a5bd
00000320: 977c 17bd 5780 b4bb a0b4 bfbc 8b9b ae3b
00000330: 878a eb3d 5903 d6bd 45e3 94bd d7a1 80bd
00000340: bbfe 08be bc47 2ebe 789b 5b3b f31f 22be
00000350: 2f81 fdbc 4d1a 16be 3ecb 1dbe 7ba2 66be
00000360: 8bb9 fc3c 7f84 cb3d 4a8f 2cbe b327 dc3c
00000370: f3b0 edbb 54fc c13c e5e5 9ebd a4f3 89bd
00000380: 19d4 08be 1c7d 45be eebb 67be 676d a8be
00000390: db24 7fbe c7fe f1bd eaa1 25be 7b7a 47be
000003a0: 80b7 f4bd eec6 2ebe 0125 033e 2ae5 df3e
000003b0: 0f8d b53e 9c92 db3e 1231 533e a4ae 7d3e
000003c0: b202 933e 7ba4 c53e 9c73 b53e bc17 773e
000003d0: 8a46 df3e 4490 943e 8440 f73e 188d 8e3e
000003e0: f532 5b3e e0c3 9c3e dc41 523e 8e3d 143e
000003f0: 7048 293e 1c79 453e 52c7 113e 4103 a93d

bias f4 [40]
-0.43559724 0.23480111 -0.016186759 -0.1424906 0.6317099 -0.7823094 0.7002425 0.24682945
1.0233387 -0.80601025 -0.18486185 -0.62454516 -1.5912001 0.01641285 -0.38399082 -0.10750216
-0.29628477 -0.15760255 0.69848436 -0.34413967 0.009428937 0.861899 -0.118889526 0.04735901
-0.20462601 0.96291745 0.42267424 0.143039 -0.090664364 0.31141296 -0.07448208 0.39351124
-0.4064499 -1.0876871 0.52905875 1.0962839 -0.38239312 0.6966928 -0.14801897 -1.5009838
00000000: 9a06 dfbe b46f 703e 189a 84bc 0ee9 11be
00000010: bdb7 213f 6e45 48bf 1843 333f dcc0 7c3e
00000020: c3fc 823f b056 4ebf 6d4c 3dbe 31e2 1fbf
00000030: 72ac cbbf 3e74 863c 729a c4be 182a dcbd
00000040: a3b2 97be 9062 21be dfcf 323f 1333 b0be
00000050: d47b 1a3c 6aa5 5c3f 5a7c f3bd 85fb 413d
00000060: 7b89 51be c281 763f c268 d83e d178 123e
00000070: 3dae b9bd 8571 9f3e 108a 98bd 4e7a c93e
00000080: 341a d0be 5539 8bbf 6570 073f 0853 8c3f
00000090: 08c9 c3be 765a 323f 4992 17be 3d20 c0bf
