Experiment/image-LSTM4-512-96-0.pth (torch, 551862 bytes, 8 tensors)

lstm.weight_ih_l0 f4 [512, 96]
000000 81 77 9d bc 52 b8 80 bd 69 f7 da bc ed 2c 2d bb
       -0.019222023 -0.06285156 -0.026729302 -0.0026424483
000010 6c 8a 06 bd 3d f5 ad bd e2 29 d1 3b 68 c1 06 bd
       -0.032846853 -0.08494041 0.0063831666 -0.03289929
000020 7c e4 a0 3c a4 1c 9c 3c c2 72 93 bd 04 65 87 3c
       0.0196402 0.019056626 -0.07199623 0.01652766
000030 87 b0 06 3c 84 80 b5 3b 2c 73 1a bc b2 59 b0 bd
       0.008220798 0.005539002 -0.009426873 -0.08610858
000040 9a c1 82 3d 2e e3 1f 3d 98 8c a1 bd 2f 33 00 bd
       0.06384583 0.039035015 -0.07888144 -0.031298812
000050 22 be f0 3b af 1f cc bd 50 67 a5 bd 5c 8d 13 3d
       0.0073468843 -0.09966981 -0.08076346 0.036023483
000060 d5 ef 9e 3c 3c cd 3b bd 52 0f 69 bd 7e 58 1c bb
       0.01940147 -0.045850024 -0.056899376 -0.0023856456
000070 1b b8 f2 bb 09 be 2d bb 0c 83 0d bd 66 a0 3b 3d
       -0.007407201 -0.0026510975 -0.034548804 0.045807265
000080 e6 7d 47 bd 90 89 79 bd d2 33 7a bd fd 44 92 bd
       -0.04870405 -0.060922205 -0.061084576 -0.07142065
000090 f8 be 08 3d 93 b7 9b bd 65 9d a0 bd 11 07 82 3d
       0.033385247 -0.076033734 -0.078425206 0.06349004
0000a0 c4 e2 70 3d 7d 41 9b bd 0f 0b 51 bd 6f 7d b0 bd
       0.05881001 -0.0758085 -0.051035937 -0.086176746
0000b0 d8 84 fe 3a 6c 18 e9 bc 1c b0 da 3c 90 3a 14 bd
       0.0019418253 -0.028454028 0.026695304 -0.036188662
0000c0 b2 25 16 bc 80 26 cb 3d 38 c7 42 3d 0c a5 c1 3d
       -0.009164261 0.09919453 0.04755327 0.09455308
0000d0 a5 f3 29 3d 51 82 33 3d 50 69 64 3d 5e 8b b5 bd
       0.041492123 0.04382545 0.055764496 -0.08864473
0000e0 1e 52 a7 bd d6 91 75 3d ec 82 03 3c 1a 6b b9 3c
       -0.081699595 0.059953533 0.00802682 0.022634078
0000f0 d4 66 28 3d e7 0e c6 bd 71 89 66 3d 84 71 a6 3c
       0.04111369 -0.09670811 0.056283418 0.0203178
000100 94 98 17 3c 74 6b 8e 3c 32 d5 2f bd a8 b4 85 3c
       0.009252686 0.017385222 -0.04292793 0.016321495
000110 91 34 3d 3d d7 82 3b bc 8a e4 48 bd e2 a7 da bc
       0.04619271 -0.011444769 -0.049046077 -0.02669138
000120 40 24 d8 bc 6d 28 b4 bd d2 a6 9d bd a4 c4 2f 3d
       -0.026384473 -0.08796773 -0.07697834 0.04291214
000130 46 1d 58 bd 19 55 cd 3d b4 41 8b bc cf eb 27 3d
       -0.052762292 0.10025997 -0.016999103 0.04099637
000140 59 fe 4f bc 7c 6c a2 bd 95 96 bd 3c 7e 48 4a bd
       -0.012694919 -0.07930848 0.023143092 -0.04938554
000150 f2 c7 7e bc 9c 61 bb 3c 64 b4 15 bd e5 0f 5b 3d
       -0.0155506 0.022873692 -0.036548987 0.053481955
000160 49 dc 6b bc 7f c2 99 3d 8e 45 f7 3c d4 f1 8a 3d
       -0.014395782 0.075078 0.030184533 0.06784406
000170 c5 51 c5 3c 13 fb 4a bd 90 d3 cf 3b 48 8e 30 3d
       0.024086842 -0.04955585 0.006342359 0.04310444
000180 84 c5 a4 bd f8 a3 bd bd 31 e3 e8 bd 65 dd 80 3d
       -0.080454856 -0.0925979 -0.11371458 0.06292228
000190 bd 67 20 bc a0 3b 7f bc 06 1e b0 bc 06 73 65 bd
       -0.009790358 -0.015578181 -0.021498691 -0.056017898
0001a0 db 2f 42 3d 9d 51 16 3d b6 b4 b5 bd ae be 5f 3c
       0.04740892 0.036698926 -0.088723585 0.013656301
0001b0 9d f4 45 3d ec ff fb bc 88 b4 8b bc fb f8 83 bb
       0.048328985 -0.030761681 -0.017053857 -0.0040274835
0001c0 ff c9 ba bd 70 b1 95 bd 7e ca 98 3d 09 ab cd bd
       -0.09120559 -0.07309234 0.07460497 -0.10042388
0001d0 60 26 01 bb 98 36 d3 bd 3b 34 40 bd bd ba 09 bd
       -0.0019706711 -0.10313147 -0.04692481 -0.033625353
0001e0 d9 e4 89 bc c8 4a 57 bd ce 59 98 3c 8b 41 22 3b
       -0.016832756 -0.05256155 0.01859751 0.0024758305
0001f0 0e e0 ba bd b6 9f 0e bc f6 f3 83 3d 3a dd 6a 3d
       -0.09124766 -0.00870507 0.06443016 0.057339884
000200 c3 00 84 bd 5f 98 e1 3c ba b4 b2 bd ce 56 66 3d
       -0.06445458 0.027538477 -0.08725877 0.056235127
000210 77 ed 48 3c 0e 80 0c 3c 21 b1 b4 bd 46 bb 79 bc
       0.012263647 0.0085754525 -0.08822847 -0.015242403
000220 b5 a0 88 bd ab 83 dc 3c 17 ae be bd fa 1e 61 bd
       -0.066712774 0.026918253 -0.09310549 -0.054961182
000230 3a 96 08 bd 8c 6f 85 3c ae de 97 3b 8c 83 be 3c
       -0.033346392 0.016288541 0.0046347 0.023256086
000240 8b 57 c2 3d 00 0a ad 3c 0b 6f da bc 67 bb 05 bd
       0.09489354 0.021122932 -0.026664278 -0.032649424
000250 1e 53 07 bc 6a a5 ae bd f1 67 20 3d a5 eb 80 3d
       -0.008259563 -0.08527644 0.039161626 0.062949456
000260 b4 09 07 3d 74 22 b2 3c 4b 2c 14 bd 6c 9c 87 bd
       0.032968238 0.021744944 -0.036175054 -0.06621632
000270 1c 94 9c 3d cb a6 2c bd 43 53 24 bd ee b9 95 bd
       0.07645437 -0.042151254 -0.040118467 -0.07310854
000280 d8 65 9d bd 1c a9 c3 3c 66 da 13 3d 47 12 c0 bd
       -0.07685441 0.023884349 0.036096953 -0.09378486
000290 d1 68 b8 bd bc e3 e3 bc c3 e9 a1 bd 32 82 af 3d
       -0.09004367 -0.027818553 -0.07905915 0.08569755
0002a0 3d 62 73 bc 1b f4 a0 bd 71 22 5e 3c 1c da a8 3d
       -0.014854965 -0.078590594 0.013558016 0.08244726
0002b0 12 34 ed 3c 6a c0 46 bd 72 34 b6 3a ee 8b 8e bd
       0.028955493 -0.048523344 0.0013901128 -0.06960283
0002c0 c1 7c 1e 3d 0c 20 da bb d3 b7 86 3b 99 49 61 bc
       0.038693193 -0.0066566523 0.004111269 -0.013750457
0002d0 79 6c 92 bd 12 e1 18 3c be 3d 80 3d e0 d9 b6 bc
       -0.07149596 0.009331005 0.062617764 -0.022320688
0002e0 15 20 a9 bc d7 3e 52 bd f1 26 50 3c e0 aa c6 3d
       -0.02064518 -0.05132946 0.012704597 0.097005606
0002f0 47 2b 6c bc ef 20 d4 bc 54 2f 4f 3d b9 5e 74 bd
       -0.014414615 -0.02589461 0.050582245 -0.059660647
000300 d4 25 10 bd d9 d0 53 bd 39 a7 d3 bc 94 e4 a3 bd
       -0.035192326 -0.051712845 -0.025836574 -0.08002582
000310 fe 30 aa bc df 85 46 bc 17 f5 e7 bb 13 ed 8d bd
       -0.020775314 -0.012116878 -0.0070787775 -0.06929984
000320 7f 7f 75 bb e8 87 cf bd e9 30 b2 bc f9 24 60 bc
       -0.0037460027 -0.10133344 -0.021751838 -0.01368069
000330 51 6a 3b bd 86 17 f9 bc a5 1c be bc 5a ee bb 3c
       -0.045755688 -0.030406725 -0.023207018 0.022940803
000340 2b 3c 61 3d a0 be d5 bd f1 c2 a6 3d 4f 0c b0 3b
       0.05498902 -0.104367495 0.08142651 0.005372561
000350 16 38 7e 3d 40 ec 5f 3d 99 84 5e bd 98 78 84 bd
       0.062065206 0.054668665 -0.054325674 -0.06468314
000360 c0 b3 11 3d c5 52 ec 3c 01 94 45 3d ad d0 7f bd
       0.035571814 0.028848061 0.04823685 -0.062454868
000370 3b 43 10 bb 47 41 64 bd 84 ff b8 bd bd 5f fb 3c
       -0.0022012729 -0.055726316 -0.09033111 0.0306853
000380 d8 f3 91 bb fc 60 43 3d f2 29 b1 3c 0f af ab bd
       -0.0044541173 0.047699913 0.021626446 -0.08382999
000390 b6 1d 78 bd da 4a 80 3b 74 36 39 3d bb 29 4a bd
       -0.06057521 0.003915173 0.045217946 -0.049356204
0003a0 de 72 df 3d a6 40 18 3d 79 d4 fb bc 73 d0 dd bd
       0.10910581 0.03717103 -0.030740963 -0.10830774
0003b0 98 2e 77 bd a7 89 18 3d 11 38 e8 3b 0f c3 d1 3c
       -0.06034717 0.03724065 0.0070867618 0.025605706
0003c0 1d 15 4d bd 87 4b 72 bd f1 80 d0 bd 0d 1e a6 3c
       -0.050068963 -0.05915406 -0.101808436 0.020278001
0003d0 e6 7d 43 3c 38 a2 8e bd bf 54 73 3d c1 0d e1 bd
       0.011931872 -0.069645345 0.059406992 -0.109889515
0003e0 0a 97 d7 bd c3 4f cc bd af 59 86 bd 75 4e f0 3c
       -0.10526855 -0.09976151 -0.065600745 0.029334286
0003f0 9c 11 9e bc 6e ec 8b bc f1 16 a1 3d f7 1f 75 bd
       -0.019295506 -0.017080512 0.07865704 -0.059844937

lstm.weight_hh_l0 f4 [512, 128]
000000 6b ce 1f bd cd 01 15 bc e6 c0 a7 bd fd a8 cf bd
       -0.039015215 -0.009094668 -0.08191089 -0.10139654
000010 ec c8 3c bc fc 14 d2 bd 39 8b 4c 3d 29 6b 7a bd
       -0.011522513 -0.10257909 0.04993746 -0.061137352
000020 e4 f6 dc 3c 21 61 74 3c fc 12 b1 3d d4 83 ba bc
       0.026973195 0.014915735 0.08646199 -0.022767939
000030 90 25 87 3d 94 0a a9 3d 10 57 97 bd 94 a1 85 bc
       0.06598961 0.08253971 -0.07389653 -0.016312398
000040 f1 95 15 3d df 20 53 3d 39 fc a2 bd ea f1 aa bd
       0.03651995 0.05154502 -0.07958264 -0.08346923
000050 be 39 b2 bc fd 8f 70 3d 29 1a b4 bd b9 07 63 3d
       -0.02175605 0.058731068 -0.08794052 0.055427287
000060 ca 94 64 bc 13 36 66 bd 2e 96 2b 3d f6 18 60 bd
       -0.01395149 -0.056203913 0.04189127 -0.054711305
000070 ba 31 d0 3d 64 ff 80 3d 69 b4 a3 3d 06 14 8a 3c
       0.101657346 0.06298712 0.07993395 0.016855251
000080 c5 ab c0 3d 22 8f 51 3d 4f 46 8d 3d 0c 17 a6 bd
       0.094077624 0.051161893 0.06898176 -0.081098646
000090 55 d2 a7 3d 9d 4c 8c bc 7d b8 62 bd b4 8a 4c 3c
       0.081944145 -0.017126376 -0.055351723 0.012484241
0000a0 8c f9 ac bc af ce 6c bd 45 a9 c9 3d 6f e2 77 3c
       -0.021115087 -0.057814296 0.09846739 0.01512967
0000b0 d5 60 62 3d d8 a3 91 bd cb 87 52 3d 5a 51 c1 3c
       0.055268127 -0.07111329 0.051399034 0.023598362
0000c0 af f1 70 3d 43 bc 89 bd 67 63 a6 3c 1b 07 75 bd
       0.058824237 -0.06725361 0.02031107 -0.05982123
0000d0 b5 aa 99 bb c5 75 5e bd 0a 83 42 3c de db ca bd
       -0.0046895393 -0.054311533 0.011872062 -0.099052176
0000e0 87 c2 87 bd 09 e3 36 bd 13 00 cf 3d d4 2b c3 bd
       -0.066289 -0.04465011 0.10107436 -0.09529844
0000f0 11 e1 00 3d 54 d7 4b 3c 8f d1 75 3d f4 ef 56 3d
       0.03146464 0.012441475 0.060014304 0.05247493
000100 a8 ab ee 3b 87 3a 26 3c 5e 1c 79 3d cd 8b b3 3c
       0.0072836466 0.01014579 0.06081807 0.021917248
000110 28 66 88 bd a2 26 a5 bd 21 07 cb 3d 38 52 16 3c
       -0.0666011 -0.08064009 0.09913469 0.009174876
000120 a4 7e 6d bd 7d 30 c6 3d 28 37 89 3d 65 6a df 3c
       -0.057982102 0.09677217 0.06699973 0.027272413
000130 40 6f bd 3c a5 e3 86 3c dc f7 05 bb 25 fa 4d 3d
       0.023124337 0.016465971 -0.0020441925 0.050287385
000140 fa fb c1 bd b5 d8 c5 bd c2 21 72 bd 2d fa 32 3d
       -0.09471889 -0.09660474 -0.059114225 0.043695617
000150 fc 02 81 3c fa 52 d7 bd 62 01 1d bd 7a 3c cb bd
       0.015748493 -0.105138734 -0.038331397 -0.09923644
000160 e1 33 7a bd 40 08 31 bd c2 c9 a8 bd 43 ae 19 bd
       -0.06108463 -0.04322076 -0.08241607 -0.037519705
000170 15 d5 9b 3c 52 28 f0 3c ae a9 35 bd 78 ff 3b 3d
       0.019022504 0.029316101 -0.044351272 0.04589793
000180 13 07 68 3d d7 fc 1e 3d 84 23 b8 3c 2e c0 5f 3d
       0.05664737 0.038815346 0.022477873 0.054626636
000190 c7 05 64 bd fa 71 a0 bd 14 4a 81 bc ae 36 f3 bc
       -0.055669572 -0.07834239 -0.015782394 -0.02968916
0001a0 5d 1e d7 3d 88 93 13 bd 93 02 86 bd 82 f4 42 3d
       0.10503838 -0.03602937 -0.0654346 0.047596462
0001b0 d9 20 99 3b df 60 65 3c 34 61 dc 3d 89 38 12 3d
       0.004673105 0.014000147 0.107607275 0.035698447
0001c0 c7 96 8d 3d f8 92 c3 bc 67 be 79 3c 2b d0 d0 bc
       0.06913524 -0.023873791 0.015243149 -0.025489887
0001d0 f6 00 97 bc 2f de 61 bc 86 c1 98 bc ef 66 56 3d
       -0.018433075 -0.013785883 -0.018646967 0.05234426
0001e0 81 f7 b4 3c 85 f1 86 3c 37 6f 32 3d a1 e8 3f bc
       0.022090675 0.016472587 0.043563094 -0.011713178
0001f0 8c f3 5c bd 68 c1 73 bd ca 9d 97 bd 9f 3d 60 3d
       -0.053943202 -0.05951062 -0.07403143 0.054746266
000200 55 f3 fe 3c 58 e6 3b bc ef 79 a2 bb ac b6 5a 3c
       0.03112189 -0.011468492 -0.0049583833 0.013349216
000210 42 fb 0c 3c 8f e2 3d 3d 01 f8 80 3d cb 46 56 bb
       0.008604826 0.04635864 0.06297303 -0.0032696004
000220 a3 02 c2 3d e3 bf 91 bd 2f 54 3f 3d 48 db 86 3d
       0.09473159 -0.071166776 0.046711143 0.06584793
000230 58 68 86 bd 31 52 36 bd f5 95 83 bd fe bf 0d bb
       -0.06562871 -0.044511978 -0.064250864 -0.002162933
000240 da af d7 3d 7b 15 6e bd 84 ca 80 bd 40 c1 b1 3c
       0.10531588 -0.058125954 -0.06288627 0.021698594
000250 01 fb bb 3d ed cb 00 3d 72 72 34 3d 4c 8f 92 bd
       0.091787346 0.03144448 0.044054456 -0.07156238
000260 81 4a cb 3d 3f 90 d6 3c e3 80 05 3c bd c6 d0 3d
       0.0992632 0.026191829 0.008148405 0.10194156
000270 6f 9e 73 bd 17 d7 9b 3c e1 f7 df bb d8 75 e1 3c
       -0.059477266 0.019023461 -0.0068349694 0.027522013
000280 f2 27 15 3d 08 75 02 3c 0a be 7a 3d 79 8f 08 3d
       0.036415048 0.007962473 0.06121639 0.03333995
000290 27 75 5e 3d 14 7e b8 bc 12 3b 3e 3d b4 6b be bd
       0.054310944 -0.022521056 0.046443053 -0.092978865
0002a0 cf f5 6a bc d3 77 11 3a 0e fe 48 bd 67 9e 6e 3d
       -0.014340832 0.0005549166 -0.04907041 0.058256533
0002b0 cd c7 a9 3d 04 c5 3c 3d ff cd 47 3d d8 10 1f bb
       0.08290062 0.046086326 0.048780438 -0.0024271514
0002c0 3d e3 6d bd b4 51 39 bc 62 89 e1 bb 97 96 b8 bc
       -0.05807804 -0.011310983 -0.0068828324 -0.022532744
0002d0 f0 d5 80 3c 0a 91 e3 bc 60 68 56 3d 89 00 9c bd
       0.015727013 -0.027779121 0.052345634 -0.076172896
0002e0 2d 45 b1 bd b0 e3 25 3d d6 9d 37 3d 47 7c 07 bd
       -0.08655772 0.040500343 0.04482826 -0.033077504
0002f0 fc d4 90 3d 70 6a 99 3d 2f 4e a8 3d a6 6e b9 3c
       0.070718735 0.074910045 0.08218037 0.02263577
000300 04 fc 0a bd 1e 5b ec bb 5e 9a 33 bd e1 64 dc 3c
       -0.033931747 -0.0072130105 -0.043848388 0.026903572
000310 17 5a c1 bc 55 4e 84 bd ed be b1 bc 20 53 3d bd
       -0.023602528 -0.06460253 -0.021697486 -0.046221852
000320 00 e4 1a b9 d2 c3 32 3c b6 04 49 bd 0e 6a 94 3d
       -0.00014771521 0.010910945 -0.04907676 0.07246791
000330 b9 38 d4 bd 6d a7 34 3d c7 58 34 3d 98 aa 45 3d
       -0.103623815 0.044104982 0.044029977 0.048258394
000340 57 75 dc 3c db aa 8a bd 35 f6 7c 3d a1 84 39 3d
       0.02691142 -0.06770869 0.06175824 0.0452925
000350 df 0d 1d bd c2 07 67 3d af 31 fa bc 57 92 9e bc
       -0.038343307 0.056403883 -0.03054127 -0.01935689
000360 98 cc b7 3d 6a c4 39 bd 2f b5 49 bd 73 a8 db 3c
       0.0897457 -0.04535333 -0.049245056 0.026813721
000370 3b 58 58 bc 37 79 24 bd 06 8a 2b 3d fa b3 db bd
       -0.0132046295 -0.040154662 0.041879676 -0.10727687
000380 f1 8a 39 3d 44 c2 0a 3d b8 0c 69 bd c5 00 b7 3b
       0.04529852 0.033876672 -0.056896895 0.0055848085
000390 d4 f1 c4 bd aa 33 02 3c 06 a4 01 bd a8 7a e2 3c
       -0.096164376 0.007946888 -0.031650566 0.027646378
0003a0 bf 93 86 3d fe 24 62 bd ce 3d 33 bd 9f 1f d6 3a
       0.06571149 -0.05521106 -0.043760113 0.0016336328
0003b0 86 c7 73 3d 0e 5e 4a 3d 5d db 66 bd 2a d2 43 3d
       0.059516452 0.049406104 -0.056361545 0.04780785
0003c0 1b a5 7a bd 1f 45 b8 3b 06 b5 f4 3c b4 8f 96 bd
       -0.061192613 0.0056234743 0.029871475 -0.07351628
0003d0 aa 31 54 3d 04 71 9d bd 93 aa ab bd 61 16 a9 3d
       0.051805176 -0.07687572 -0.08382144 0.082562216
0003e0 de 31 4c bd e6 ab e6 bc 6b 49 f5 3c 42 4c 0e 39
       -0.049852245 -0.02815814 0.029942235 0.00013570584
0003f0 c7 3c 5d 3d 6a d8 c0 3b 31 db 80 bd 57 d1 83 bd
       0.05401304 0.0058851736 -0.062918074 -0.06436413

lstm.bias_ih_l0 f4 [512]
000000 4b f1 09 bd 68 65 62 bd 0d ef da 3d 72 9a a7 3c
       -0.03367738 -0.05527249 0.106901266 0.020459387
000010 a5 c1 86 3c ba a8 b3 3d 13 dd 2d 3d 8d ac f3 3c
       0.016449759 0.087724164 0.04244716 0.029745365
000020 5d be 90 3b 0c 20 db 3d c8 7d 38 bc 55 33 32 bd
       0.0044172243 0.10699472 -0.011260457 -0.043505985
000030 25 cd 1d bd 79 d1 ac 3c 1d 0b 2e bd be 38 4e bc
       -0.03852572 0.021095978 -0.042491067 -0.012586771
000040 27 36 03 bd 49 83 5d bc 03 65 c7 bc 98 89 84 3d
       -0.032034066 -0.01352007 -0.024340158 0.064715564
000050 6a 9d a1 3d 1f 33 09 3c 11 7b 91 3d 63 57 75 bd
       0.078913525 0.008374005 0.07103551 -0.05989779
000060 4d a1 28 bd 08 14 8d 3d 33 3b 1b 3b 1c 57 11 bc
       -0.041169453 0.06888586 0.0023686409 -0.008870866
000070 63 a6 d7 3d a1 8d 40 bd 42 f1 38 3d f9 ea b9 3d
       0.105297826 -0.047010068 0.045151956 0.090780206
000080 61 b9 94 bd 87 67 91 bd 51 e2 16 3d 6c 53 8d bc
       -0.07261921 -0.070998244 0.036836926 -0.017251693
000090 f6 5a 35 bd 09 4d 41 bd 8a d8 14 bc fa c8 2f bd
       -0.0442762 -0.047192607 -0.00908483 -0.042916276
0000a0 bc d6 1d 3d b7 a9 b8 ba 66 88 89 3d b2 ba df 3b
       0.038534865 -0.0014088665 0.06715469 0.0068276757
0000b0 8e 5f 7a bd 2e 9a 42 bd 07 e8 93 bc 70 89 bf 3b
       -0.061126284 -0.04751032 -0.018054975 0.0058452412
0000c0 bc 04 8d 3d b8 56 ad 3c a8 0e 28 3d 39 f3 c8 3a
       0.06885669 0.021159515 0.041029602 0.0015331275
0000d0 4c 4e a0 3d 8a cd 2d bd f8 33 4e bc cd 18 bf bc
       0.07827434 -0.042432345 -0.0125856325 -0.023327256
0000e0 01 72 ba 3c 2f 06 f2 3c ce 30 30 3d 48 6d 2d bd
       0.02275944 0.029543964 0.043015294 -0.042340547
0000f0 cd 7b fb bc 68 11 c9 3b 1d 6c cb 3c 3d 22 82 bd
       -0.030698681 0.006136108 0.024831826 -0.06354187
000100 80 6a 93 3d 8b 2d 75 bd 0f 1e 93 bb 1e 61 00 bd
       0.07198048 -0.059857886 -0.0044896672 -0.03134262
000110 3b 2f 12 bd 83 0b 56 bd 12 d9 7b 3d df 0b 0c 3d
       -0.035689574 -0.052257072 0.06148631 0.03419101
000120 28 e7 b9 bc ff 5b 91 3c 7c 0b 8c 3c 48 39 ac 3d
       -0.022693232 0.017744062 0.01709532 0.08409363
000130 0f 7b 81 bd ca 7e 7a 3c 33 9b 20 bd 85 5c 63 bb
       -0.063223 0.015289018 -0.03921051 -0.0034692597
000140 29 2d 27 bd 8a d9 40 3d ea a0 62 bd d9 24 9b 3b
       -0.040814552 0.04708246 -0.05532924 0.004734617
000150 24 de 18 bd 16 d6 46 3d 96 65 0e bd 4f 16 9d 3a
       -0.037321225 0.048544012 -0.03476485 0.0011984798
000160 cb 72 73 3c 1a f0 cd 3d 2f 7b e3 3c 62 28 a8 3d
       0.014858912 0.10055561 0.0277687 0.082108274
000170 a7 04 42 bc ac 8f 98 bd c2 11 62 bd 96 83 ce 3d
       -0.0118419295 -0.07449278 -0.055192716 0.10083692
000180 eb f4 5e bc 5b f6 e1 3c 79 ea f1 3c 81 ca 33 bd
       -0.013608198 0.027583292 0.02953075 -0.043894295
000190 be 91 e5 3c ea 25 05 bc dc 03 a9 3d 62 83 d5 3d
       0.028023597 -0.008126715 0.08252689 0.1042545
0001a0 0c 21 99 bc a4 02 88 3d 36 1d 31 bc 95 92 7d bd
       -0.018692516 0.06641129 -0.010810187 -0.06190737
0001b0 8f 36 90 bd a7 59 c1 3d c2 ef 2d 3d 93 60 d8 3c
       -0.07041656 0.09440928 0.04246498 0.026413238
0001c0 af 28 29 bd a5 7b 5c bd 4c ea cc bc 07 40 2f bd
       -0.041298565 -0.053828854 -0.025014065 -0.04278567
0001d0 e8 af c2 3d 95 58 c8 3d 6c 9f e8 3c 16 94 09 bd
       0.09506208 0.09782521 0.02839633 -0.03358849
0001e0 3c f5 75 bd 59 4b ad 3c 04 d8 04 3d e5 82 d8 bc
       -0.060048327 0.021154093 0.03243257 -0.026429603
0001f0 b4 1c 1e 3c 30 c8 83 3d b7 04 01 3d a7 6d 61 3d
       0.009650398 0.06434667 0.031498637 0.055036213
000200 8b 75 98 3d 35 92 a2 bd ee 34 0b bd dc a9 ca 3d
       0.074442945 -0.07938043 -0.033986025 0.09895679
000210 f6 b1 40 3d dc a6 f8 3c c6 d3 a1 3b 2b c8 41 bd
       0.047044717 0.030353002 0.0049385754 -0.047310036
000220 c3 d4 98 3d 34 1e 99 bd dc bc 02 3c db 0b 8e bc
       0.07462456 -0.07476464 0.007979598 -0.017339638
000230 32 62 47 3d b1 12 46 3d 90 6d 86 bd da ca 90 bc
       0.04867763 0.04835767 -0.06563866 -0.017674852
000240 5d dd b3 3c 73 92 d7 3c 33 56 a9 bd de 54 5f 3d
       0.02195614 0.02631495 -0.08268394 0.054524295
000250 9d 22 ee bc cd e1 8b bd 80 84 e8 bc 23 ad 87 bd
       -0.02906924 -0.068301775 -0.028383493 -0.0662482
000260 a0 91 e2 3d 3f b6 4e 3c c5 d7 a3 3d 96 94 24 bd
       0.11062932 0.012616693 0.08000139 -0.040180765
000270 b3 cf 35 bd 06 38 86 3c cd 57 15 bc 48 d2 d4 3c
       -0.04438753 0.016384136 -0.009115172 0.025979176
000280 a9 9e 4e 39 4f 63 bc 3d f4 4d 83 bc a3 48 19 bd
       0.00019704796 0.09198629 -0.016028382 -0.037422787
000290 67 10 5a 3d 5d 8c 6f bd 7e 95 88 3d 03 de 9c 3d
       0.0532383 -0.05848347 0.06669138 0.07659533
0002a0 a7 96 9d 3d 72 8f ab 3d 92 15 84 3d 28 bc cf 3d
       0.0769475 0.083769694 0.06449427 0.1014331
0002b0 d5 14 ae bd 2e 5c 28 bd a4 fd bf 3d aa c9 c2 3d
       -0.08500067 -0.041103534 0.0937455 0.095111206
0002c0 93 0a de 3d 7e d5 32 3d c7 bf 0d bc 48 1b cf 3d
       0.108418606 0.043660633 -0.00865168 0.10112625
0002d0 a8 7e c9 3c 33 41 b2 3d 6a 80 ad bd 1e 3c 7b bd
       0.024596527 0.08703842 -0.08471759 -0.06133663
0002e0 a1 5a 96 3c b1 fd dd 3c f7 69 84 3b 6c 3d 94 3d
       0.018353762 0.027098509 0.0040409523 0.07238278
0002f0 76 67 c1 bc 1d 3e 82 bd ae 8e b3 3d 10 a6 c6 3b
       -0.023608904 -0.063595034 0.08767448 0.0060622767
000300 7b f8 48 3d 67 8a 1b bd 54 21 7c bd 43 05 55 3d
       0.049065094 -0.037973788 -0.06155522 0.05200697
000310 29 ad 93 ba ff ae 1f bd 33 13 a3 3d dd 31 a1 3d
       -0.0011266816 -0.03898525 0.07962646 0.07870839
000320 f8 22 b7 3d ca 3a d3 ba cf 5b 53 3d 0d d1 f3 bb
       0.08942217 -0.0016115543 0.051601227 -0.0074406923
000330 22 c1 b3 3a d1 02 c0 3c 3d df 4a 3c c9 a3 82 bb
       0.0013714174 0.023438843 0.012382326 -0.00398681
000340 b7 1e 79 bd a7 04 20 bd ca 3f 60 3d 27 f3 a4 bb
       -0.060820308 -0.039066937 0.054748334 -0.005033869
000350 40 ca 82 bd 21 51 00 3d c7 e0 05 3d 48 90 74 3d
       -0.063862324 0.03132737 0.032685068 0.05970791
000360 59 8c bf 3d 37 bc 41 bb ae e3 80 bd 8e c8 0e 3b
       0.09352941 -0.0029561648 -0.062934265 0.002178702
000370 59 c0 13 3d 62 0a 5a 3c b9 44 4c 3d 6e e8 4c 3d
       0.03607211 0.0133081395 0.049870227 0.05002635
000380 4f 6b 34 3a cc 33 78 3d c0 b7 5d 3d bb ca 80 3d
       0.00068824453 0.060596272 0.054130316 0.06288668
000390 53 48 1e bd 6e 5f 0f 3c 34 97 af 3d 6b b9 7f 3d
       -0.038643192 0.00875078 0.085737616 0.062432688
0003a0 08 3f 09 3d b1 1b 71 bc 8f b0 ab bd 5d 37 f2 bc
       0.033507377 -0.014716075 -0.08383285 -0.029567415
0003b0 3f 05 65 3d d5 db 9b 3d 16 10 53 3d df fd 79 3d
       0.055913206 0.07610289 0.051529013 0.061033126
0003c0 db 2b 22 3d 01 51 66 bd 32 95 04 3d 4d 91 26 3d
       0.039592605 -0.056229595 0.032368846 0.040665913
0003d0 39 ba 79 3d b0 e6 34 3d 21 e3 71 3d d5 bf 27 3b
       0.06096861 0.044165313 0.059054498 0.0025596519
0003e0 3d 26 ce 3d 1c a7 37 bd 1e 2f 17 bd 6c 69 b8 3d
       0.10065887 -0.044837102 -0.03691017 0.090044826
0003f0 f7 35 3d 3d a6 b3 87 3c de 88 d7 3a 55 e6 4e 3d
       0.046194043 0.016565155 0.0016443988 0.05051263

lstm.bias_hh_l0 f4 [512]
000000 dc 00 91 3d 1e 25 8e 3c 3f 36 fc 3c 05 83 48 bd
       0.07080242 0.017351683 0.030787585 -0.048953075
000010 37 8d 4f 3d 72 a5 96 bd 19 9a fd b7 f2 92 d9 bc
       0.050671782 -0.07355775 -3.0231708e-05 -0.026559327
000020 f4 a7 a4 3d 01 8e 78 3d e7 50 b0 3d b9 ea ed 39
       0.08039847 0.0606823 0.08609181 0.00045379045
000030 90 c7 9e bc e4 10 31 3c 82 44 3c 3b e3 4a 51 bb
       -0.019382268 0.01080725 0.0028727357 -0.0031935505
000040 b4 93 9f bd b7 db 24 3d 3d 98 5f 3d 6f b4 15 3d
       -0.07791844 0.0402486 0.054588545 0.036549028
000050 b5 17 44 3d b7 97 3a 3d 85 bc ee 3c 7f 35 a7 3d
       0.04787417 0.045554843 0.029142627 0.081645004
000060 e7 ee 5a 3d 01 7a 07 3d 39 24 2f bd 18 07 0d bd
       0.05345049 0.033075336 -0.042759154 -0.034430593
000070 fd e4 83 b9 ca 2b 89 bd d8 d7 82 bc 33 e9 cc 3d
       -0.00025156877 -0.06697805 -0.015972063 0.10005417
000080 fd 86 91 3d 6c 3a 17 bb 1b 64 83 3b ee 81 87 3d
       0.07105825 -0.0023075594 0.0040097362 0.06616579
000090 f7 c1 1a 3d 52 6c 6c 38 34 52 03 bd f0 da 98 bc
       0.037782636 5.6367666e-05 -0.032060817 -0.018659085
0000a0 59 db 21 3d 72 8a b3 3d 82 33 d9 3d 30 c3 cb 3d
       0.039515827 0.08766641 0.106055275 0.099493384
0000b0 a2 2b 68 bd 82 de a8 bc e4 fa 6c bc 5a 84 d6 3d
       -0.056682236 -0.020613912 -0.014464114 0.10474463
0000c0 4a 08 0a 3c 46 19 1b bb a9 81 96 3d 41 7d c8 3d
       0.008424828 -0.0023666187 0.073489495 0.09789515
0000d0 12 34 c4 3d 76 a2 14 bd d2 70 49 3d 0d 4e ab 3c
       0.09580244 -0.036287747 0.04917986 0.020911241
0000e0 0a 46 7e 3d 6d 19 e1 bc 2b d9 4e 3c 3a 57 b3 3c
       0.062078513 -0.027477944 0.012625019 0.021892179
0000f0 ca 8e d5 3c 6d 84 9c 3c 0c 4b 88 bd fd f1 0f 37
       0.026069064 0.019106114 -0.06654939 8.5798065e-06
000100 1f 54 80 3d 62 2d d4 3d 8f ba a7 3d 4e eb 24 3c
       0.06266045 0.103602186 0.0818988 0.010065867
000110 6b 14 f0 3c 8c f1 40 3d 7c a7 bd 3d 81 bf 6a bd
       0.029306611 0.047105357 0.09260461 -0.05731154
000120 56 52 36 bc 3b a1 f2 bc 8f 02 a3 3d 70 6a 96 bb
       -0.011128029 -0.029617896 0.079594724 -0.004590325
000130 73 37 0c 3d 8b b1 a5 3d 65 06 ae bc 4f 40 71 3d
       0.034232568 0.08090504 -0.021243284 0.05889922
000140 95 36 80 3d f5 14 a4 bb 08 6a bf bd eb 43 57 3c
       0.06260411 -0.005007381 -0.09346396 0.0131387515
000150 16 ac 88 3d f8 f3 1e 3d 0d ac 02 3c ca db 84 3c
       0.06673448 0.038806885 0.00797559 0.016218085
000160 b3 93 bd 3d 34 a5 e4 3c cf 65 88 bd b6 ea 27 bd
       0.09256687 0.027910806 -0.066600434 -0.040995322
000170 43 bd 1d 3d 91 c3 6c 3c 0b 04 4f bd 4f 35 ae 3d
       0.038510572 0.014450924 -0.050540965 0.085062616
000180 e2 23 a0 39 7f 66 a4 3c de 2c 28 bd 0f 6d 3f 3d
       0.00030544313 0.020068405 -0.041058414 0.046734866
000190 a4 13 3d 3d b2 65 01 3c 69 90 66 3b de a3 72 bd
       0.04616131 0.007897781 0.003518129 -0.059238307
0001a0 b0 86 81 bd 5d 1b a7 bc bf 46 80 bd c6 a5 8e 3d
       -0.06324518 -0.02039879 -0.06263494 0.069652125
0001b0 7d 36 d1 3d d1 46 26 bd 4a 72 75 bd 22 aa 8f bd
       0.10215471 -0.04059488 -0.059923448 -0.07014872
0001c0 e1 ed 84 3c d3 84 bb 3d e8 06 83 3d cb 67 4c bd
       0.01622671 0.091561936 0.06397802 -0.049903672
0001d0 31 fc 39 39 b1 11 1e 3d 80 b9 62 3d 83 9a 9b bc
       0.00017736923 0.03859109 0.055352688 -0.018994575
0001e0 9f 3d 47 bd 56 d5 37 bd ea d5 de 3c f0 f4 12 bd
       -0.04864275 -0.044881187 0.027201612 -0.03587812
0001f0 1c e2 69 3b c3 77 32 ba d3 76 a9 3d dc f2 82 bd
       0.003568775 -0.0006808007 0.08274617 -0.06393978
000200 94 c0 30 3d e8 2c 02 bd 9d f0 93 3d 52 9b 6a bd
       0.043152407 -0.031781107 0.07223628 -0.05727703
000210 7f 47 96 3d 24 4a 40 3d d8 58 12 bd 94 b5 2a bd
       0.073378555 0.046945706 -0.03572926 -0.041677073
000220 61 57 83 3d 93 c2 d0 bc 24 06 aa 3d ed cd fc 3b
       0.064131506 -0.025483405 0.083019525 0.007714978
000230 d2 63 45 3d bd 51 59 3c ec 76 cd 3d f7 f8 c4 3d
       0.0481909 0.013264117 0.10032448 0.09617799
000240 bd c8 1c bd 53 da 30 3d d0 df 93 bd 29 27 14 3d
       -0.038277376 0.04317696 -0.07220423 0.03617016
000250 d7 89 75 bd 37 52 d6 3d 9d 1e 19 3d 60 3a 49 bd
       -0.059945907 0.104649 0.03738271 -0.049127936
000260 33 55 35 bd 99 48 70 3d 6c 41 c7 3d 50 67 30 bd
       -0.044270705 0.058662985 0.09729275 -0.043067276
000270 e1 1b 8a 3d 65 07 47 3c 95 ee 5e 3d 73 3c d2 3d
       0.06743599 0.012147759 0.05442675 0.10265436
000280 c3 53 65 bd 76 74 70 bc ba 58 3c bd 6e 27 38 3c
       -0.055988085 -0.014676204 -0.045983054 0.0112398695
000290 e7 c9 5e bc fe 08 9b 3d db ce cd 3d ef 4a 53 3d
       -0.013597942 0.075700745 0.1004922 0.051585134
0002a0 6d f8 a4 3d 75 87 59 bd 67 f9 15 3b f6 f4 a0 3d
       0.08055196 -0.053107698 0.002288425 0.078592226
0002b0 fc e0 8d bd 72 38 13 bd 9c 31 7f bd 56 de 00 bd
       -0.06927678 -0.035942502 -0.06230317 -0.031462036
0002c0 8a ca b2 3c 88 41 99 3c f7 c7 13 bc 73 0a 2c 3d
       0.021825094 0.018708006 -0.009019843 0.042002153
0002d0 77 79 80 bc ec 53 2e 3d 2b 73 b8 bd 5b f4 c3 3d
       -0.015682919 0.042560503 -0.090063415 0.095680915
0002e0 7a 06 24 bd ee 30 5c bd e0 4c 36 3d 96 41 8c 3d
       -0.04004524 -0.0537576 0.044506907 0.06848447
0002f0 79 0d 33 bd c0 66 25 bd 18 5a 8c 3d e5 bd ff bc
       -0.04371402 -0.040381193 0.068531215 -0.031218478
000300 f3 02 44 3d 0b d1 f6 bc 20 7c 54 bd a5 2a 69 bd
       0.047854375 -0.030128976 -0.051876187 -0.056925435
000310 b8 4a d9 bc a8 34 ad 3d b4 5b 34 3d 41 2c 41 3d
       -0.026524886 0.08457309 0.044032767 0.047161344
000320 8a dc 1a bd 43 b2 10 bd b8 29 a0 3d 8c 3e 62 bd
       -0.03780798 -0.035326254 0.07820457 -0.05523543
000330 63 50 90 bd 52 38 dd 3c b8 e4 aa 3d 27 05 c9 3d
       -0.070465825 0.027004395 0.08344406 0.09815436
000340 2c 52 da 3d 56 bb 52 bd 23 a3 d3 bd 1f ba 7b 3d
       0.10660204 -0.05144819 -0.1033385 0.061456796
000350 17 47 87 bd 5b 61 ba 3c 2c 62 55 3d ef 76 e5 3c
       -0.06605356 0.0227515 0.052095577 0.028010814
000360 f4 80 9c bb e0 8f 3d 3d d7 e1 0e bd 67 8b 0f 3d
       -0.0047761146 0.046279788 -0.034883346 0.035045054
000370 52 24 02 bd 6d 40 ac 3c c5 42 98 bd c1 00 8c 3d
       -0.03177292 0.021026814 -0.0743461 0.06836081
000380 3e 8e e8 3c 43 c8 10 bd 41 c5 9b 3d 42 84 a4 3d
       0.028388139 -0.035347234 0.076059826 0.08033039
000390 63 c8 d7 3d 20 b3 05 bd e3 51 83 3d 3c ab 16 bd
       0.105362676 -0.03264153 0.06412103 -0.036784396
0003a0 fa 09 46 3d 12 f2 2e 3d bd 2f 7d bc 5d b0 03 bd
       0.04834936 0.042711325 -0.015453276 -0.032150615
0003b0 14 e4 44 bd 74 ca 9b 3c 0c 94 11 bd a5 0e 4c bd
       -0.048069075 0.019017436 -0.03554158 -0.049818654
0003c0 bc d2 57 3d 8d dc 1e 3d 8f 46 6b 3c 1c 2d 5a 3d
       0.052691206 0.038784552 0.014360084 0.053265676
0003d0 5f 38 18 bd a9 7e 43 bd 77 70 64 bd b7 74 a3 3d
       -0.037163135 -0.047728214 -0.055771317 0.07981246
0003e0 04 67 a1 3c 57 f8 09 bc 10 8e c8 bc 1b af 65 3c
       0.019702442 -0.008421025 -0.024481803 0.014018799
0003f0 cb 61 15 bd 5d db a4 3d 6c a1 bc 3d 4a 59 84 3d
       -0.036470216 0.08049653 0.09210476 0.06462343

output1.weight f4 [128, 128]
000000 4c 0f 91 3d 04 5b 78 bb 25 6c 43 bd 84 a1 85 bd
       0.07082996 -0.0037896046 -0.047710557 -0.06524947
000010 ed 52 61 bd 8e ae ce bd 79 d2 bb ba d9 c2 29 bd
       -0.055010725 -0.100918874 -0.0014329694 -0.041445587
000020 a0 76 f4 3c 72 db 5c 3c 2a 6d 88 3d df ec b7 bd
       0.029841721 0.013480054 0.066614464 -0.089807265
000030 81 46 db 3d c2 02 83 bb bd 39 82 3d e3 96 ce 3d
       0.10706807 -0.0039981315 0.06358669 0.10087373
000040 2e 2f 0f bd 3e b1 d8 bc 3b 57 d1 bc 8a a1 fe 3c
       -0.034957103 -0.026451703 -0.02555429 0.031082887
000050 90 5f 70 bd 26 d6 ed 3c c7 3d 9c 3d fb 73 5c bd
       -0.058684886 0.029032778 0.076289706 -0.053821545
000060 57 a1 ce 3c 9a 58 3d bd ba b4 5c bd 0d 79 92 bc
       0.025223417 -0.046227075 -0.05388329 -0.017879987
000070 fa e3 1d bd ac 00 4d 3c 4d 01 33 3d 76 4a 9a bd
       -0.038547494 0.012512367 0.043702412 -0.075337335
000080 93 a6 8c 3d 43 e6 bd 3d 7c 0d b4 bd 9a 8f 82 b9
       0.06867709 0.092724346 -0.087916344 -0.00024902524
000090 92 d7 c4 3c e7 d5 dc 3d e5 d1 af 3d 61 3a 73 bd
       0.024028573 0.10782986 0.08584956 -0.059381846
0000a0 b9 9a 78 bd 07 39 8f bd 53 f5 78 3d 1b 7d 97 bd
       -0.06069443 -0.06993299 0.060780834 -0.07396909
0000b0 b4 53 2a bd 39 4a 53 bb 70 a1 a4 3c db 15 e8 bc
       -0.04158373 -0.0032240285 0.02009651 -0.028330734
0000c0 84 8a b4 bd c4 18 7e 3c c1 75 68 bd 06 97 8d bc
       -0.08815482 0.015508834 -0.056752924 -0.017283928
0000d0 9c 95 d0 bb 2a 31 32 bd f4 21 b4 bc a6 4d 0d bd
       -0.006365491 -0.043503918 -0.021988846 -0.03449788
0000e0 d2 73 44 3d 2d 1a cf bd ea 72 55 3d 8d 73 b7 bc
       0.047962017 -0.101124145 0.052111544 -0.022393966
0000f0 8d 15 8a 3d cf 54 9b bc b1 5d 1c bd 5b 04 99 bc
       0.06742392 -0.018961338 -0.03817529 -0.018678835
000100 16 56 c7 3d 4e 75 d5 3c 9b 08 5b 3c 78 db 0f b9
       0.097332165 0.026056912 0.013368751 -0.00013719301
000110 1d b1 f3 3c 8a ca 32 3d 4c ad 0d bd 27 ab 52 3d
       0.02974754 0.043650188 -0.034589097 0.051432755
000120 89 bf 6c bc d4 e1 0f bd a5 c3 a4 3d 73 0d 01 bd
       -0.014449962 -0.035127476 0.08045129 -0.031506967
000130 7b 4f 35 3d ed 3d c9 bc 58 f7 eb bc d4 91 22 bd
       0.04426525 -0.024565661 -0.028804466 -0.039689854
000140 c2 90 1d bd 94 16 f5 bc 78 af 9b bd 35 60 c0 3d
       -0.03846813 -0.029917993 -0.076018274 0.0939335
000150 98 1e 3b bd 8f 0c 26 3d 1b b6 91 bc ca af cb bd
       -0.045683473 0.04053932 -0.01778703 -0.099456385
000160 06 de e6 3b 12 d1 f8 3c 42 16 22 3a b6 6a 80 bd
       0.00704551 0.03037313 0.0006183126 -0.062703535
000170 ab 82 cd 3d b5 30 d7 bd ef 3e 40 3d 80 fa ba bc
       0.100346886 -0.10507337 0.04693502 -0.022824526
000180 b4 aa ac bb 6e 08 f0 3c fb 0a 70 3d 3e 21 16 3d
       -0.005269373 0.029300895 0.05860422 0.036652796
000190 62 41 72 bd d0 d0 19 3c 04 d8 cb bc 03 65 81 bd
       -0.059144385 0.009388164 -0.024883278 -0.063180946
0001a0 dc 02 86 3d 38 8c 07 bd 48 a3 7e 3c ae 8a 62 3b
       0.06543514 -0.033092707 0.015541859 0.0034567523
0001b0 96 b9 c9 bc d6 4b e9 bc 5a d0 8d bc d7 37 85 3c
       -0.024624627 -0.028478544 -0.017311264 0.016261978
0001c0 86 c9 9c 3d 8f 48 7e bd 22 b4 a4 3d 3b f5 3a 3d
       0.07655625 -0.062080916 0.0804217 0.045644026
0001d0 3b 3b 8e 3d ee 31 c9 bd 71 f3 c4 bd 43 14 1a 3d
       0.06944891 -0.098239765 -0.09616745 0.03761698
0001e0 5e cc 98 bc 49 3e 66 bd c5 cc db bc 9a ca 87 bc
       -0.018652137 -0.056211744 -0.02683104 -0.0165761
0001f0 09 b9 cf bd 57 6f a2 bd d2 ed 82 bd ab 1b c6 3d
       -0.101427145 -0.07931393 -0.06393017 0.09673246
000200 cf b8 89 3c 86 59 f6 3c 99 cd fa 3c 71 53 ab 3d
       0.016811756 0.030071985 0.030615615 0.083655246
000210 53 54 96 bd 72 fd 66 bd b5 35 22 3d 4e 3a d1 3c
       -0.07340302 -0.056394048 0.039602 0.025540497
000220 5f 37 7f 3d 1b b8 40 3d 96 2f 81 bd ec 9a 8e 3c
       0.062308665 0.047050577 -0.063079044 0.017407857
000230 5e 24 11 3c db 42 a1 3d 29 37 bb 3d 2f 78 ac bd
       0.008858768 0.0787408 0.0914138 -0.08421361
000240 3a 28 8b 3a 59 a3 7d bc 0f f1 80 bd 38 87 82 3d
       0.0010616847 -0.01548084 -0.06295978 0.06373447
000250 35 4b ef bb 18 79 23 3d fc ad 0b bc 06 27 7f bd
       -0.0073026665 0.039910406 -0.008525368 -0.062293075
000260 e3 e9 c3 3c 84 dd 96 bd 4d 5e 5d bd 11 1f 8f 3d
       0.023915237 -0.073664695 -0.05404501 0.06988347
000270 73 a5 a9 bd de db a7 3d 91 62 43 bd c5 a5 e1 bc
       -0.0828351 0.08196233 -0.047701422 -0.027544865
000280 07 de 85 bd 4e 35 4e 3c 33 45 bf 3d b8 56 97 3d
       -0.06536489 0.012585951 0.093393706 0.07389587
000290 23 3f 81 bd 5a 9a 48 3d 1e 97 35 3b 99 59 be 3d
       -0.063108705 0.048975326 0.002770848 0.09294433
0002a0 1b 03 0d 3d 71 80 90 3d f2 6a a3 3d 5b 99 90 bd
       0.03442679 0.07055748 0.079793826 -0.070605
0002b0 83 fc 14 3d fd c0 5b 3d b4 8e 48 bd 7a 42 8a 3d
       0.036373626 0.053650845 -0.048964217 0.06750961
0002c0 7a 04 80 3d fa 5e b4 bc bf 61 98 bd 09 0c 5e bd
       0.06250854 -0.022017945 -0.074405186 -0.054210696
0002d0 31 44 a5 3d 8b b6 af 3d 20 6d 87 3d d6 04 9c bd
       0.08069647 0.08579739 0.06612611 -0.0761811
0002e0 6a 10 86 b8 0c ab 74 3c ae 52 7d bc 5f 32 50 3b
       -6.392675e-05 0.014933359 -0.015461607 0.0031768305
0002f0 b3 04 55 3d e1 f9 87 3c 33 72 de 3c c3 17 bd bd
       0.052006435 0.016598644 0.027154064 -0.09233048
000300 f9 bd 4a 3d f9 c2 9a 3d f3 31 b7 3d d8 03 fb bc
       0.04949758 0.07556719 0.08945074 -0.030641481
000310 ee 1f 34 3c ef 5d 87 3d 37 5a a5 3d 80 b3 e9 3c
       0.010993941 0.06609713 0.08073848 0.028527975
000320 b3 56 36 bb 57 53 72 3d e4 39 f0 3c 98 5e 2f 3d
       -0.0027822673 0.05916151 0.02932448 0.04281482
000330 bc ae 7c 3d 17 ec 90 bd 86 7e 74 bd 21 fb 97 3c
       0.061690077 -0.070762806 -0.059690975 0.018552365
000340 37 88 ab 3d af d9 9b bc e1 10 8f bd 36 5a ac bb
       0.0837559 -0.019024698 -0.06985641 -0.0052597774
000350 19 78 7d 3c c0 ff 8f bd 67 9c 55 3d db 1c 55 bd
       0.015470528 -0.07031202 0.05215111 -0.05202947
000360 e1 28 aa 3d 45 f3 cd bb 65 8a 19 3d cc 4f b2 3b
       0.08308578 -0.0062851035 0.0374855 0.0054416414
000370 34 71 68 3c 7b 44 8a bd 8b fa ea 3c 91 5f 22 bd
       0.014187146 -0.06751343 0.028683921 -0.03964192
000380 cf 18 3a 3d 1d ef 2f 3d e2 2c 95 3d 57 fc b3 bd
       0.045433816 0.042952646 0.07283951 -0.087883644
000390 3d e9 68 bd 92 83 48 bd aa eb 87 bd fa 59 3d 3c
       -0.05686306 -0.0489536 -0.06636746 0.011557097
0003a0 37 e3 a9 3c 4d 9d 93 3c 8e 7a 9b bd 0a eb 57 bd
       0.020738227 0.018019343 -0.07591735 -0.052714385
0003b0 e8 71 64 3d bd dd 53 bd a2 2d 2e 3d ab de 24 3d
       0.055772692 -0.051725138 0.042523988 0.040251415
0003c0 18 f7 2d 3c da d2 93 3d df fe 50 bd 83 5f 8b 3d
       0.010617994 0.07217951 -0.051024314 0.06805327
0003d0 70 be c5 b8 7f 3f 29 3c a4 53 6f 3c 93 11 7c bc
       -9.429164e-05 0.01033008 0.014607344 -0.015385049
0003e0 6d b6 52 bd bf 32 45 3c 44 b5 31 3d ad 0a 80 3d
       -0.051443506 0.012036025 0.04338576 0.06252036
0003f0 7c dc 79 3c 70 53 99 3d d1 bc 35 3d c9 22 9d 3d
       0.0152503215 0.074866176 0.044369522 0.0767265

output1.bias f4 [128]
000000 0a eb aa bc fa 90 a8 bd 1d bd cb 3d 1b 65 94 bd
       -0.020864028 -0.08230777 0.0994818 -0.07245847
000010 6a 0f 55 3d 22 ae c4 bc 71 96 c6 3d e6 3f af 3c
       0.052016653 -0.024008814 0.09696663 0.021392774
000020 42 c6 f8 bc 40 58 cd bb 39 bb 8b bd ff d7 74 3d
       -0.030367974 -0.0062666237 -0.06822819 0.059776302
000030 45 36 43 3d bc 03 d7 3d eb e5 9b 3d 20 5b c3 3c
       0.047659177 0.10498759 0.07612213 0.023847163
000040 5a 1b a3 3d 4b 64 86 3d 24 61 ad bc 73 55 83 3d
       0.07964201 0.06562098 -0.021164484 0.064127825
000050 b6 46 72 bd d5 92 27 3c 34 52 3f 3e c6 e5 b5 3d
       -0.059149466 0.010227879 0.18683702 0.088817164
000060 80 f5 77 bc 80 b4 5a ba 28 cf bb bc fe 47 0b bd
       -0.015134215 -0.00083429366 -0.022925928 -0.034004204
000070 72 0d 4e bd 83 61 40 bb c8 6e 64 bd 00 97 3a ba
       -0.05030579 -0.0029354997 -0.05576971 -0.00071178377
000080 1d f9 a5 bd e3 82 86 3d c6 6d d2 bc 0c e7 dd 3d
       -0.08104155 0.065679334 -0.02568711 0.10835084
000090 68 10 ab bc e0 9f 80 3d e1 b8 91 bd 3c 4f 83 3c
       -0.020881847 0.06280494 -0.07115341 0.016028993
0000a0 37 2a 01 3d eb 0a 80 bd 9e 21 5e 3c ba 75 be 3d
       0.0315344 -0.062520824 0.01355782 0.09299798
0000b0 85 bd 38 bd 21 14 04 bd 85 cb d0 3d 2a e1 a1 bd
       -0.045102615 -0.03224576 0.10195068 -0.07904275
0000c0 76 c8 b4 bd ef bd ac bd f4 0f a6 bd ba dd 89 bd
       -0.088272974 -0.084346645 -0.081085116 -0.06731744
0000d0 46 34 84 3c 65 b2 7f 3d d6 f7 03 bd 00 00 80 3d
       0.016138207 0.06242599 -0.032218777 0.0625
0000e0 d7 23 4b 3d f9 0a 2c bd ef 84 0a 3d 42 e9 a9 3d
       0.049594726 -0.04200265 0.03381818 0.082964435
0000f0 64 cf 6b 3c ed ed 1a 3d 82 0c 6d 3d 88 79 87 3d
       0.0143927075 0.03782456 0.057873257 0.06614977
000100 40 f2 5b bd e9 d7 c2 3d 3d 60 35 bc e6 e0 f5 3b
       -0.053697824 0.09513838 -0.011070308 0.0075036166
000110 c4 b7 62 bc 6c cf 2b 3c be cb fb 3c 14 13 03 3d
       -0.013837758 0.010486465 0.0307368 0.032000616
000120 a1 0d 3c bd d9 ea 5e 3b 82 62 92 3d aa e8 03 bd
       -0.045911435 0.0034014492 0.07147695 -0.032204308
000130 28 78 7b bd 61 88 6a bd 70 61 52 ba 4f f4 6b bd
       -0.061393887 -0.057258967 -0.00080253836 -0.057606038
000140 1d e9 39 bd 3b 33 a9 3d 09 55 bf bb 0b 9d 4e bd
       -0.04538833 0.082617246 -0.0058389944 -0.050442737
000150 b8 5f ee 3b 73 38 a5 bd a0 5b 0e bc cc e7 e3 3d
       0.007274594 -0.080674075 -0.008688837 0.11128196
000160 e2 97 df bc 96 d1 85 bd 39 d9 16 3c b5 02 8f 3d
       -0.027294103 -0.06534116 0.009207063 0.06982938
000170 93 61 68 bd 90 9e d4 3c a8 50 91 bd d7 29 45 bd
       -0.05673368 0.025954515 -0.07095462 -0.048135605
000180 41 dc 82 3d 80 6d d4 3c 15 59 75 3d 90 d9 86 3d
       0.06389666 0.02593112 0.05989941 0.065844655
000190 d9 fc 59 bd 2b 81 b3 3c 85 a8 bb 3d 6f 96 86 bd
       -0.05321965 0.021912178 0.09163002 -0.06571662
0001a0 80 c0 47 3c 0c 5f a4 bc 34 2d c4 3c 88 cf f8 3c
       0.012191892 -0.020064853 0.023947336 0.030372396
0001b0 dd 8b b2 3d 4f 85 18 bd 0d ed 50 bd 4d 7b 6a bc
       0.08718083 -0.037236508 -0.05100732 -0.014311624
0001c0 e7 1f d1 3c 36 40 79 bd eb d7 e7 3d b4 96 84 3d
       0.025527908 -0.060852252 0.1132048 0.06474057
0001d0 8b a8 80 3a b0 d5 d8 bc 39 c2 d6 3d 73 90 5e 3c
       0.0009815855 -0.026469082 0.10486264 0.013584244
0001e0 b2 04 4e bc 6c 29 ff 3c 64 1d c1 bd 82 23 aa bc
       -0.012574362 0.031147681 -0.09429434 -0.020768885
0001f0 90 58 90 3d 68 2c 3e 3c f2 58 7c bd 99 58 1a bd
       0.07048142 0.011607267 -0.061608262 -0.03768215

output2.weight f4 [40, 128]
000000 84 52 c8 3d e6 be be bc 64 d7 b5 3d aa cc 67 bd
       0.097813636 -0.023284387 0.08878973 -0.056591667
000010 ce c0 51 3d b4 44 48 bc bb 63 48 3d 1d a6 92 bd
       0.051209264 -0.012223411 0.048923235 -0.0716059
000020 61 af 0a bd 07 fe a8 3d 2c cf c0 bc 61 62 3a bd
       -0.03385866 0.08251577 -0.023536287 -0.045503978
000030 fd 01 c0 3d 10 88 82 3d ae 3d c0 3d a8 a0 67 bc
       0.09375379 0.06373608 0.093867645 -0.0141374245
000040 9f bb 5b bd 41 76 92 bd 28 87 46 bd 75 fc c6 3d
       -0.053645726 -0.071514614 -0.04846874 0.09716121
000050 9c f6 76 bd 01 05 e5 bc 35 a2 9b 3e 54 3a c2 3d
       -0.06029378 -0.027956488 0.30397192 0.094837815
000060 a8 63 1e bc 6d 18 1c bd 26 5d 07 3d 82 fc 7f 3d
       -0.009667315 -0.03810923 0.033047818 0.06249667
000070 b7 71 ad bd 02 a1 40 3d 41 0e 90 3d 46 3c 21 3d
       -0.08468955 0.04702855 0.07033969 0.03936412
000080 a4 ce ff bc 58 9f bc bc 91 38 a6 3d d6 f6 38 3d
       -0.031226464 -0.0230252 0.08116258 0.045157276
000090 20 cf 6b bb 72 0b 9a bd b1 8f a3 3d 33 c8 5b bd
       -0.003598161 -0.07521714 0.07986391 -0.05365772
0000a0 81 4a 82 bd e7 a4 74 3d 7c be 06 bd 11 a9 1f 3d
       -0.06361867 0.059727576 -0.032896504 0.038979594
0000b0 bd e3 89 3d 8e 57 e6 3c 5b 38 ee 3d de 6f 49 3d
       0.06732891 0.028117921 0.11631843 0.04917895
0000c0 83 52 88 bd f0 6f 96 3b ea d2 2d bd b6 2d 29 3d
       -0.06656363 0.0045909807 -0.04243747 0.04130336
0000d0 07 a2 9d 3c 42 45 4a 3d ba a2 94 3d 4d 51 08 3d
       0.0192423 0.049382456 0.072576 0.03328066
0000e0 11 9b 40 bd 81 4a 69 bd 2d 57 0f bd e8 cb 61 3d
       -0.047022883 -0.056955818 -0.034995247 0.0551261
0000f0 44 bd eb 3d 0e fa 93 3d 00 b3 82 ba 7b fe 95 3d
       0.11510709 0.072254285 -0.0009971559 0.07323929
000100 a0 ee bd 3c a5 66 09 3d 48 f7 c7 3d d9 41 73 3d
       0.023185074 0.033545155 0.09763962 0.05938897
000110 f4 d4 76 bd 63 d5 c5 bc d3 d1 d3 3d a0 78 40 3c
       -0.06026168 -0.024149602 0.10342755 0.011747509
000120 10 98 04 3d 48 20 81 bc de 9a 94 bd 8e 39 01 bd
       0.03237158 -0.015762463 -0.07256101 -0.03154903
000130 4f 9b 1d bc 15 d7 16 bd e4 5d 13 bd 05 05 ae bd
       -0.009619548 -0.036826212 -0.035978213 -0.08497051
000140 32 c7 c4 3d fe 7c a1 bd c0 3a 81 3d 9f 68 1b 3e
       0.09608306 -0.078851685 0.06310034 0.15176629
000150 fd 7f de 3d 54 1a c5 bc ed 33 9b 3d 7d 7c cd 3d
       0.108642556 -0.024060406 0.075782634 0.1003351
000160 f8 31 86 bd 4a 9e 26 3d e0 6c e4 3d df b8 26 bd
       -0.065524995 0.0406783 0.11153579 -0.04070365
000170 68 ee 74 3d 5f 6f a2 bd 80 90 89 bc 23 f3 a1 3d
       0.059797674 -0.079313986 -0.016792536 0.07907703
000180 7f 58 61 bd 17 d9 d6 3d 51 a6 1b 3d 01 27 87 bc
       -0.055016037 0.10490625 0.03800041 -0.01649809
000190 b0 8d c6 3d fa 8f 82 3d a2 b8 90 3d cc 1b 07 bd
       0.096949935 0.063751176 0.07066466 -0.032985494
0001a0 39 fa 4b bd 02 39 26 3d aa 62 82 bd 1f 27 ab bd
       -0.049799178 0.04058171 -0.06366475 -0.08357071
0001b0 18 16 9b 3d a6 62 73 bd 2d a8 1c 3d 5f 25 f7 3c
       0.075725734 -0.05942025 0.038246322 0.030169187
0001c0 bb 81 11 3d a8 4e 70 bd 06 1d d7 3d e8 0f 97 3d
       0.03552411 -0.058668762 0.10503583 0.07376081
0001d0 51 fa 5f 3d 44 80 9c bd e7 30 d4 3d 27 e2 8e 3d
       0.05468208 -0.07641652 0.1036089 0.06976729
0001e0 39 28 f6 3c e7 0e 9a 3d 09 be 51 bd a2 6f 4e bd
       0.030048477 0.07522374 -0.051206622 -0.05039943
0001f0 80 fa 8c bd f0 55 32 3d c4 81 a5 3d 5c 8d e2 bc
       -0.068837166 0.043538988 0.080813915 -0.027655296
000200 c2 a4 19 3d c3 54 8b bc 0a 24 96 bd e9 37 4d bd
       0.03751064 -0.017008191 -0.07331093 -0.05010215
000210 20 bd d3 3b db 38 36 3b a9 a8 b4 3c 04 c2 25 3d
       0.0064617544 0.0027804885 0.02205308 0.04046823
000220 9e 33 7f 3d 16 13 3c bd 85 5b 9d bc 5f 9a c7 bb
       0.062305085 -0.04591664 -0.019208679 -0.0060914005
000230 3b 2e b7 bd a2 af 5e 3c da 27 1d bd 88 5b 9e bd
       -0.08944365 0.013591679 -0.038368084 -0.07732302
000240 ac 5f b2 bc d5 e3 92 bd e0 d2 3f bc 65 52 3f bd
       -0.021774136 -0.07172362 -0.011707991 -0.046709437
000250 50 30 b0 bd 7d 91 8d 3c 83 4c 00 bf ab fc de bd
       -0.08602965 0.017281288 -0.5011675 -0.10888036
000260 98 85 13 3c f8 61 4e bc 8f 39 18 bd 75 8d a6 bd
       0.009004019 -0.0125966 -0.037164267 -0.081324495
000270 20 7a 11 bc 37 64 21 bd ea c4 af bd 16 7c 3e 3d
       -0.0088792145 -0.039402213 -0.0858248 0.046505056
000280 1f f7 2f 3d 30 a2 30 bc 05 fd cd 3b 93 58 0b bd
       0.042960282 -0.010780856 0.006286266 -0.034020018
000290 d8 71 91 bd d4 2d 30 3d b9 d4 cc 3c f8 bc a8 3c
       -0.07101792 0.043012455 0.025003778 0.02059792
0002a0 b9 16 fc 3c d0 2e 12 3d 59 4b bf bd 0f 6d 72 bd
       0.030772554 0.035689175 -0.09340543 -0.059186038
0002b0 88 72 67 bd 48 ef b1 bd 55 6d 80 bc 92 f6 88 bd
       -0.05650571 -0.086882174 -0.015677134 -0.066876546
0002c0 7b bf aa bd c2 54 18 3d c3 f8 a9 3d 85 5e 8e 3d
       -0.08337303 0.037190206 0.08299401 0.06951622
0002d0 c8 97 00 bd 47 80 91 bc 9f be 4b 3d c4 94 fa 3c
       -0.03139475 -0.017761363 0.049742337 0.030588515
0002e0 35 d3 49 bd 00 ac 1e bc d2 c1 8d bd f3 fb 85 bd
       -0.04927369 -0.009684563 -0.06921734 -0.06542196
0002f0 b7 3b be bd fd 35 bd 3c 37 23 95 3d 66 ea 64 3d
       -0.092887335 0.023097033 0.07282107 0.055887602
000300 8b 72 ac 3d 70 f7 ac bd 39 13 f5 bc 64 4f c4 bc
       0.08420285 -0.084456325 -0.029916393 -0.023963638
000310 d7 de c3 bb 9e 8a 39 bd c3 05 b0 bd 34 c2 98 bd
       -0.0059774923 -0.04529821 -0.08594849 -0.07458916
000320 ac 92 2a bd c0 12 cf 3b 83 7b 19 bd 5f 13 8e bd
       -0.041643783 0.006319374 -0.037471306 -0.069372885
000330 0f 86 6b 3d c6 7f 47 bc 58 91 ac bd ba e0 eb bc
       0.057500895 -0.01217646 -0.084261596 -0.028793681
000340 44 13 e0 bd e1 bd 94 3d 01 ce 8e 3c c8 36 61 be
       -0.109411746 0.07262779 0.017432215 -0.21993554
000350 77 d9 ed bd c0 d3 11 bb 90 1d 12 bc d8 da 58 bd
       -0.11613744 -0.0022251457 -0.008918181 -0.05294308
000360 df d8 9d bd b7 6e 94 3d 89 4c d1 bc ba d7 93 3d
       -0.077073805 0.0724768 -0.02554919 0.07218881
000370 25 c3 7d bd 40 f1 e2 bc b4 98 af bc 5f d3 d0 bd
       -0.061953682 -0.027702928 -0.02143512 -0.10196566
000380 54 14 93 bd 42 c3 ec 3c 4d c6 31 3d b6 e3 cd bc
       -0.07181612 0.0289017 0.043402005 -0.025132995
000390 2c 90 24 bd 8e bb 17 3d 45 d2 56 bc 6b d5 30 bd
       -0.040176556 0.0370441 -0.013111656 -0.04317228
0003a0 07 02 b3 bd b0 1d c3 bc 99 07 a4 bd 28 13 e4 3c
       -0.08740621 -0.023817867 -0.08009262 0.027841166
0003b0 2e 48 9d bd 10 9c 4e 3c e0 24 e5 bd b1 7d ae bd
       -0.07679783 0.01261045 -0.11188674 -0.085200675
0003c0 02 a4 6f 3c 20 84 2d bd b7 f4 b4 bc b6 0a ae bd
       0.014626505 -0.042362332 -0.022089345 -0.08498137
0003d0 84 93 2b 3d ea b7 10 3d 14 e3 08 bc 31 91 34 3d
       0.04188873 0.035331644 -0.008354921 0.044083778
0003e0 b2 8a 81 bd a6 93 7d bd 7a a9 09 bc 3c b1 13 bd
       -0.06325282 -0.061908387 -0.008402223 -0.036057696
0003f0 af bb 89 3d ba 84 85 bc b1 2d c0 3b 7f 42 23 bd
       0.06725251 -0.01629864 0.005864822 -0.039858337

output2.bias f4 [40]
000000 3e bb 60 bd ef 08 35 3d df 1c 76 3d 40 d6 b8 bd
       -0.054866068 0.044197973 0.060086127 -0.0902524
000010 6a 07 b9 bd 06 8b a6 bd 17 8e 1f bb ac f4 c2 bd
       -0.09034617 -0.08131985 -0.0024346167 -0.09519324
000020 fb 8d 78 bd 51 90 b3 3c 54 3f 7b bc 35 37 eb 3c
       -0.060682278 0.021919401 -0.015334923 0.028712848
000030 b2 76 30 3d 49 e3 e0 bd e9 c8 56 bd 17 ef f2 bc
       0.043081947 -0.10980851 -0.052437697 -0.029655023
000040 70 8d 83 3d 0a 39 d4 bd bc 1a a8 3c 5e 4e 1b bb
       0.064234614 -0.10362442 0.02052056 -0.0023697834
000050 c9 5e 1c 3d 1c 21 81 3d a8 78 45 bc 59 cf bf bd
       0.03817633 0.06305143 -0.0120526925 -0.0936572
000060 d4 48 e9 bc 14 87 a2 bd ea 17 bf bd c5 5b 0c 3d
       -0.02847711 -0.0793592 -0.09330733 0.034267206
000070 71 e6 16 bd ed fd e7 bd cc 83 4e 3d 3e f9 71 3d
       -0.03684086 -0.113277294 0.05041866 0.059075586
000080 74 67 30 3b ea 0a 0a 3d bd 78 c1 bd 86 b9 df b8
       0.0026917132 0.033701815 -0.09446857 -0.00010668025
000090 fb 9e 48 bc 0b 2e 08 bd 61 c1 dd bd 39 41 e0 bd
       -0.012244935 -0.033247035 -0.108279 -0.1094994
