Experiment/image-LSTM_per_channel-512-96-0-noshuffle.pth (torch, 675209 bytes, 14 tensors)

lstm_per_channel.weight_ih_l0 f4 [4, 1]
00000000: d142 12bf 7862 ccbe 252e 45bf 1b45 3fbf
-0.57133204 -0.39918876 -0.77023536 -0.7471482

lstm_per_channel.weight_hh_l0 f4 [4, 1]
00000000: c6a6 09be 83bd c4be bad7 0c3e 11e2 81be
-0.13442525 -0.38425836 0.13754168 -0.25367787

lstm_per_channel.bias_ih_l0 f4 [4]
00000000: 1773 0e3f f784 1e3f 8121 28bf 1352 4c3f
0.55644363 0.6192164 -0.6567612 0.79812735

lstm_per_channel.bias_hh_l0 f4 [4]
00000000: 2129 853e ad42 e03e 2196 673d cf94 adbe
0.2600794 0.4380087 0.05653966 -0.33902594

lstm_full1.weight_ih_l0 f4 [512, 96]
00000000: 6d2c ee3c 81de 19be 7cc1 533f cfab 223e
00000010: db1f 223f f41e 063f 73f9 053f 880f 42be
00000020: a27f 993e aa3c 08be be07 80bc fed1 60bc
00000030: d9fc 713c cf91 d73e e6d8 983e 9bb2 18bf
00000040: 5589 7cbc cbb1 b03c bc6c 103f a041 a3bd
00000050: 6f1e 81be 87ff 70be a6d4 e6be 1416 aabd
00000060: 339f adbd a6d6 383d d5ba e4bd 5ebd b2be
00000070: 5310 853e 9ddf 0bbe cdf9 d43c 4d8f 20be
00000080: 595b 123f f5d5 0d3f 5185 f63d 9109 83bd
00000090: 7ff5 193f 6815 ef3d 8ad3 693e a657 753f
000000a0: efd8 013f 7cbb 233f 948d 593e 6d77 0cbe
000000b0: 7185 e13e e9d3 4a3f 7125 ca3e d512 683f
000000c0: 5886 923f 72fd 0a3f 0ce5 083e 8ac3 8d3c
000000d0: 9ed0 133e 4456 cb3e c740 543e 5868 e23e
000000e0: 5a56 673e a56e aa3d 3f5e 993e 2abb e83e
000000f0: 4967 0f3e 0a86 db3e 8b8b bcbe 37aa 38be
00000100: 0c16 903e b7ff 463d a226 fabd 4381 ce3e
00000110: 8cc2 9fbe 87a2 00bf ffc6 16be 4b72 abbc
00000120: 5663 a1bc 6fe2 f0bd be88 be3d add5 0b3f
00000130: 67c9 063f eb63 933e 5991 9c3e d3d7 cfbd
00000140: d735 16bf eab4 cdbe 5c0b 00bf 186d bc3e
00000150: 205a 50bc 07d7 1ebe 65a5 b7bd 7a87 593d
00000160: ab1f de3e f79e cc3e 969b 953e a352 a73e
00000170: 7707 44bc 3158 b8be 21c5 bfbd 797c 023c
00000180: 15d8 443e cb9b cc3d 8528 d53e 9369 b23d
00000190: d340 0bbf 0082 8f3d fe8d d0bd bdf3 99be
000001a0: db56 55be a9cf 9d3d f9e3 f33e c0c3 b7be
000001b0: d13f dcbe 7ab2 96be be53 2b3f deaa 4e3e
000001c0: 95ec ddbd 23fd 92be 1061 e2be b9e9 28be
000001d0: b5e7 4cbe 25a9 2dbe 5ce0 103c 30d3 3abe
000001e0: 6d07 b0be 7311 efbe 67e5 51be e233 b83d
000001f0: 273b b1be cad5 edbe bd53 2cbf 5903 4bbf
00000200: cb14 943d 53b5 4a3e 09b1 783e 6b50 0c3e
00000210: 7ba3 01bd 9dbe cdbe dda2 dbbd 1f15 dcbe
00000220: 4177 e5be ab9c a3be c706 a9bc 7649 903d
00000230: dd31 76be 5bad 983d b2ac abbe f500 73bf
00000240: f736 6fbf 5f42 2cbf 7785 44be c92f 56be
00000250: d626 02bf a914 91bf b7e0 9cbf e306 80be
00000260: a268 033e 637f 43bc cd1d 8b3e c196 00be
00000270: 4112 08bf c051 19bf 0870 2abe cc8e 1cbf
00000280: a0ed c0be 23f2 95be ddef 55bf 15aa 49bf
00000290: 7eeb 29bf 5ab3 48bf 1b66 a8be 9e32 333c
000002a0: f13b 5bbe 6a05 55bd 07be 1bbe 43eb 2d3e
000002b0: 2bad 4abf d728 f8bd 023a b33e 3f78 203f
000002c0: 08be 7dbc 291c 1bbf 7104 f4be 5ae5 43bf
000002d0: 815a 68bf 4ddd 44bf f619 f4bd 8aca 843e
000002e0: 13a6 c33e d5ca 5c3e 459a 543e 731b 19be
000002f0: 8e73 98be a536 38bf b3ea 08bf 8e9b d8be
00000300: 325a 053f 2ca1 4c3f 41ae 603f 85ac 233f
00000310: aece 413f f910 6c3e 0fd1 92bd cb76 28be
00000320: a334 9fbe 940d 97bd 5d6a 9b3e d2a6 0d3f
00000330: 76f2 7ebd 6769 9cbe 9dd7 1cbf edc2 dcbe
00000340: 5240 f1bd c74d 283d 77e8 803e 2718 2abe
00000350: ed09 d13d 886a 6dbe e7f5 2bbd f4bc e9be
00000360: 258d 6abc f52f 40bf 2261 dabd e4dd 1abd
00000370: 4c53 babc 9e35 253d d180 ff3d 61b6 0c3d
00000380: dc43 aa3e db1c 833e 60c8 673f 1325 ea3e
00000390: 5ba9 363f c201 633e 240a 03be 1033 b53e
000003a0: 948e 613e 768a 28bd de99 18bf 01dd 5b3e
000003b0: 67e0 0e3f 800a f33e 1155 b23e b274 f83e
000003c0: 1a62 f3be 99ae 2b3e e576 7abe f4b7 98be
000003d0: ce1f 9f3d 29fe 523e 5c1e 773e 0460 fa3e
000003e0: c24a 343e 03b4 a7bb 197e 463e 5a9a 3a3e
000003f0: e456 c03e ef44 033e 571d 9f3b 9662 9bbd
0.029073918 -0.15026285 0.8271711 0.15885852 0.6332986 0.5239098 0.52333754 -0.18951237
0.2998019 -0.13304392 -0.015628692 -0.013721941 0.014769756 0.4210343 0.2985298 -0.5964753
-0.015413602 0.021569153 0.56415915 -0.07971501 -0.2521853 -0.23534976 -0.45084113 -0.08304992
-0.084776305 0.04512658 -0.11168448 -0.349101 0.25989017 -0.1365952 0.02599802 -0.15679665
0.57170635 0.554046 0.12037147 -0.06398309 0.6014022 0.11674005 0.22834602 0.95836866
0.5072164 0.63957953 0.21245414 -0.13717432 0.4404712 0.792296 0.3948169 0.90653735
1.1447248 0.54292977 0.13368624 0.017305154 0.1443505 0.39714253 0.20727836 0.44220233
0.22591534 0.08321885 0.29954717 0.45455295 0.14004244 0.428757 -0.36825213 -0.18033682
0.2814182 0.048583712 -0.122144 0.40332994 -0.31203115 -0.50248 -0.14724348 -0.020928523
-0.019700687 -0.11761939 0.09303425 0.5462292 0.52651066 0.2878717 0.3057964 -0.10148587
-0.58675903 -0.4017709 -0.50017333 0.36801982 -0.0127168 -0.15511714 -0.089670934 0.053107716
0.43383536 0.3996503 0.29220265 0.32680234 -0.01196467 -0.36004785 -0.09363771 0.007964247
0.19223054 0.09990653 0.41632476 0.08711543 -0.5439579 0.070072174 -0.10183333 -0.3006877
-0.20833914 0.07705624 0.47634867 -0.35891533 -0.43017438 -0.29433042 0.66924655 0.20182368
-0.1083614 -0.28708753 -0.44214678 -0.16495408 -0.20010264 -0.16959055 0.008842554 -0.18244624
-0.34380665 -0.46693 -0.20497666 0.08994271 -0.34615442 -0.4645217 -0.67315274 -0.79301983
0.072305284 0.19795732 0.24286284 0.13702552 -0.031650048 -0.4018449 -0.10724423 -0.42984864
-0.44817546 -0.31955466 -0.020633115 0.070452616 -0.24042459 0.0745494 -0.33530194 -0.94923335
-0.93443245 -0.67288774 -0.19191538 -0.20916666 -0.5084051 -1.133443 -1.2256078 -0.25005254
0.12832883 -0.011932227 0.27171174 -0.12557508 -0.53152853 -0.59890366 -0.16644299 -0.6115539
-0.37681293 -0.29286298 -0.8356913 -0.7877515 -0.6637496 -0.7839867 -0.328904 0.010937361
-0.21409585 -0.052007116 -0.15209208 0.16984276 -0.79170483 -0.121171646 0.35005194 0.6268348
-0.0154872015 -0.60589844 -0.4765964 -0.7652184 -0.907631 -0.7690018 -0.11919014 0.25935775
0.38212642 0.2156175 0.20761974 -0.14951877 -0.2977566 -0.7195838 -0.5348312 -0.4230618
0.5209075 0.7993343 0.8776589 0.6393512 0.75705993 0.2305335 -0.07168781 -0.16451566
-0.31094846 -0.07375637 0.30354586 0.5533267 -0.062242948 -0.30549166 -0.612665 -0.43117467
-0.11779846 0.0410898 0.25177357 -0.16610776 0.10206971 -0.2318517 -0.041982558 -0.45651972
-0.014315878 -0.75073177 -0.10663058 -0.037809268 -0.022744797 0.040334336 0.12475742 0.034353618
0.33254898 0.25607952 0.90540123 0.4573141 0.71352166 0.2216864 -0.12796837 0.3539052
0.22027045 -0.04114767 -0.5960978 0.21471025 0.5581116 0.47468948 0.34830526 0.4852653
-0.47535783 0.16765822 -0.24459417 -0.29827845 0.07769738 0.20604767 0.24132675 0.4890138
0.17606643 -0.0051178946 0.1938404 0.18222943 0.37566292 0.12819265 0.0048557925 -0.07587163

lstm_full1.weight_hh_l0 f4 [512, 128]
00000000: 0571 bebc ddb2 35bf effb 85be aaa4 213e
00000010: f565 5a3e 857c 4dbf 08cf c63e 2e7a 4abe
00000020: 0ea0 45bf a499 933f 46b3 2f3f de5e 0ebe
00000030: 3157 853f bd53 b13d 0ff0 c93e b52b 5a3c
00000040: 57aa 683f 4804 b33e 5fb9 0a3e 743f 89be
00000050: 6a23 883f 4e13 583e 7f3a b23e 8ab3 06bf
00000060: d79e d8bd 5786 663e c434 c03e 66ec 393f
00000070: 42f0 37bc 17ba 02bf 177b 64bd fde3 26bf
00000080: b67a a83e c541 143f 86b3 82be 9a87 1abe
00000090: 8269 f5bd a1b8 2cbe 7684 2fbf 205b 7e3d
000000a0: 5d5a 953e df81 203e 3031 e63d dc1a 053f
000000b0: fb6f 8b3e c7f2 7bbe 2d4c 51be ed03 d33c
000000c0: 1593 46be bc0d 8f3e c06e 78be 88ec 2c3d
000000d0: 4d24 8cbe 3dc7 cabd 1848 783f 0da0 f3bd
000000e0: 78b9 0ebe 5996 e7be 3cb9 023f dbe3 70be
000000f0: fdbd 7bbf 8b5c 13bf 102b 94be d6a1 25be
00000100: 201b dfbd 808c 56bd eb16 22bf 7e8e da3e
00000110: 73a3 413f cf1e 3c3e a6a5 de3d f405 eebe
00000120: cf98 453e 203c 9b3f 9fe5 5dbe bcfc 5bbe
00000130: 6325 9e3f 51ba 13bf 63a4 58be 3376 0b3f
00000140: 297b 3e3e 5ab2 0fbf bef6 27be bef8 80be
00000150: 50df ce3e 5fa5 c0be 1d8a 2fbd 5f92 2dbf
00000160: 697b 643f a4f4 b9be b11b e7be 3ba4 133f
00000170: 58cc 1abf d3dd 27bf d881 c13e 39d7 1a3e
00000180: 9b5d 7b3e 2566 05bc 0d52 b8be 6e40 1d3f
00000190: f61b 673e e516 aabe cf94 073d f532 95bf
000001a0: b7f4 efbd df35 673f 3ef0 a63e 24d1 28bf
000001b0: b5b4 233d fe74 223f 2ff5 69bf 33ad 303e
000001c0: 94c1 a53d f0fe a6be 164b 893e 150b 8fbe
000001d0: 130e a1be d350 903e 087d 6e3f 271d f2bc
000001e0: ba16 373f b5ad 98be 83a9 d7bd e7eb b9bb
000001f0: bbf5 4dbf 6878 8a3e c568 afbe 77f5 f63e
00000200: f330 213f d8c6 26bb 54c9 38be c2e9 05bf
00000210: 0b33 1a3f b483 313e a0e1 94bf c17f bc3e
00000220: 7725 39be e681 dbbe 6da8 85bf d0ef f83e
00000230: e273 65be 3846 0fbf 3a1b 073d d26a 0dbe
00000240: 383f e4bd 16c6 3d3f 24b6 953e 116d 243e
00000250: c0c4 223d 4823 85be 83df adbe 1372 cdbd
00000260: 9006 923e e4a8 923e 5cfb 61be 2cdd d03e
00000270: 931b 1a3f b232 863e aef4 2bbe 20a1 833d
00000280: c427 293d 500a 923e 1545 c4be 1d2d 283e
00000290: f0da 9ebe 64ef dcbe 8f26 19bf 224c 263f
000002a0: b970 913e cb54 aebe 5ec1 85be 79f8 d83e
000002b0: 39cc f93e b1a7 813e 6d61 053f 2af0 e2bc
000002c0: 1742 903e e801 483f cacc cdbe 91e0 123f
000002d0: 5e44 e03e c7d2 aabe 9347 7a3e 4a7f c5be
000002e0: 7f26 ef3c cd51 f23e 25a5 9dbd cf9a 733e
000002f0: 85f1 02bf e4e9 273e 1c2e 003e f221 35be
00000300: 90a6 013f e73b 553c 3d71 e2bd 0bdc a2be
00000310: e976 cebe ee6b 0c3e c61d e5bd 97ea 893e
00000320: e225 cbbe d6c9 a9be 5f1e efbd f0bc c33e
00000330: 1b8a 82bd 692c 27bd 7c85 7ebe e758 e6be
00000340: d22f 623e 08ce 23bf fc8e d0be 3984 cd3d
00000350: 84b4 a83d 1295 d4bb 3344 6f3e eb07 dd3e
00000360: 92b9 b63e 0262 823e 162f 81be 6ccc 223f
00000370: ef68 bcbe f2fc 063e 3f65 f13e 0419 bcbe
00000380: 2f05 543d af7c b7be e407 893e 6ce4 0e3f
00000390: bb23 01bf 6a11 68be 5458 f53a f95b 9c3e
000003a0: cc97 b23e b134 a93d 6f14 9ebe 198d 783f
000003b0: f0cf 76bd fd82 aabd 47f2 c7be 3cda c0be
000003c0: b3e2 1cbe eace 7c3d 7a5a 20bf b137 a13e
000003d0: 4c80 0b3f c1b3 f3be 9338 59be 278a 62be
000003e0: 74de b6be e77e 733f a869 93be be1f 2f3f
000003f0: 8e25 35be 4aa9 2a3f f6a3 0cbf 0d16 143e
-0.023247251 -0.7097605 -0.26168773 0.1578547 0.21327956 -0.80268127 0.38829827 -0.1977317
-0.7719735 1.1531262 0.68632925 -0.13903376 1.0417234 0.0865855 0.39440963 0.013316085
0.9088492 0.34964204 0.13547276 -0.26806223 1.0635808 0.21101114 0.34810254 -0.52617705
-0.10577171 0.22512184 0.37540257 0.7262634 -0.0112267155 -0.510652 -0.05578145 -0.6519163
0.3290612 0.57912856 -0.2552759 -0.1509079 -0.11983015 -0.16867305 -0.68561494 0.062098622
0.29170504 0.15674542 0.112398505 0.5199411 0.27233872 -0.24604331 -0.20439215 0.025758708
-0.19392045 0.27940166 -0.24260998 0.04221776 -0.27371445 -0.09901283 0.96985006 -0.11895762
-0.13937938 -0.45231894 0.51063895 -0.2352442 -0.98336774 -0.57563084 -0.28939104 -0.16175017
-0.108938456 -0.052380085 -0.6331622 0.42686838 0.7564003 0.18371128 0.10871439 -0.46488917
0.19296573 1.2127724 -0.21669625 -0.2148313 1.235516 -0.5770617 -0.21156459 0.5447723
0.1860167 -0.5613152 -0.16402718 -0.25189775 0.4040475 -0.37626168 -0.042856324 -0.6780147
0.8925081 -0.36319458 -0.45138314 0.5767247 -0.60468054 -0.6557285 0.37794375 0.15121163
0.24547426 -0.008142029 -0.360001 0.61426437 0.2256926 -0.33220592 0.0331009 -1.1656176
-0.117165975 0.90316576 0.32605165 -0.65944123 0.039967258 0.63459766 -0.91389745 0.1725357
0.08093563 -0.32616377 0.268151 -0.27938142 -0.3145605 0.28186664 0.9315953 -0.029554917
0.71519053 -0.29820028 -0.10530379 -0.0056738737 -0.8045308 0.27044988 -0.3425962 0.4823415
0.62965316 -0.002544811 -0.1804555 -0.5230981 0.60234135 0.17335397 -1.1631355 0.36816218
-0.18080698 -0.42872542 -1.0442024 0.48620462 -0.22407487 -0.5596652 0.03298495 -0.1381028
-0.111448705 0.7413038 0.29240525 0.1605723 0.039738417 -0.2600348 -0.33959588 -0.100315236
0.28520632 0.28644478 -0.22068542 0.4079374 0.60198325 0.26210552 -0.16792557 0.064272165
0.04129769 0.28523493 -0.38333955 0.1642346 -0.3102641 -0.4315139 -0.5982446 0.6495992
0.28406313 -0.34049067 -0.2612409 0.4237707 0.48788622 0.2532325 0.52101785 -0.02770241
0.28175423 0.7812791 -0.40195304 0.5737391 0.4380216 -0.33363935 0.24441366 -0.38573676
0.029193161 0.47328034 -0.076975144 0.23789524 -0.5114978 0.16397816 0.1251759 -0.1768873
0.5064478 0.01301477 -0.11056755 -0.31808504 -0.40325096 0.13713047 -0.111873195 0.2693679
-0.3967734 -0.331618 -0.11675715 0.38230085 -0.06373998 -0.040813837 -0.24855608 -0.44989702
0.22088555 -0.63986254 -0.40734088 0.10034985 0.082375556 -0.006487497 0.2336586 0.43170103
0.35688454 0.254654 -0.25231236 0.63593173 -0.36798808 0.13182428 0.47147557 -0.36737835
0.051762756 -0.35837314 0.26763833 0.55817294 -0.50445145 -0.22662893 0.001871834 0.3053892
0.34881437 0.08262003 -0.30874965 0.970903 -0.0602569 -0.08325765 -0.3905203 -0.376665
-0.15320854 0.061720766 -0.62638056 0.31487802 0.5449264 -0.4759808 -0.21212988 -0.22123013
-0.35716593 0.9511551 -0.28791547 0.6840781 -0.17690107 0.66664565 -0.54937685 0.14461537

lstm_full1.bias_ih_l0 f4 [512]
00000000: 5355 10bf 96fa 603d b163 fe3e 7575 83be
00000010: 169d e7be dee1 033e 1c59 cf3d e669 413d
00000020: b339 d0be 8e6c 973d 19d3 f8be 5386 05bd
00000030: 5eea 9e3e b419 82be 58f9 62be 041a e3be
00000040: 474b b6be 4d33 2f3e 325b 08be 77d1 b4be
00000050: 954a e9be 7de7 f83e c2ce 99be 00e6 4ebe
00000060: e2f8 11be 02ca d0be 2948 4fbe c41a 803d
00000070: 6b3e 36bc 4120 0cbf c23c 2dbe b5fe 0abf
00000080: 6ae6 a73e 85ae 12bf e1be 82be cd88 cbbe
00000090: f4ba 3bbd f172 4b3c f9ee fdbe 3faf f3be
000000a0: f3e1 163e 55d1 52be 5a7c b23e 47d8 acbe
000000b0: ad2f 1fbf 4ca5 21bf fff2 953c 7b2e 04be
000000c0: 7a59 babd 2d4a 19be 8f19 a23e 9b62 263e
000000d0: b24d 47bd 713e 6e3c b19b 24be 6412 8bbd
000000e0: ef9a 0cbf b551 e0be 1a63 fdbc 36b5 b1be
000000f0: d5a0 acbe 8ac6 9ebe 6bcf 89be bc01 e1bc
00000100: d354 3dbf c11d 463d af1c afbe af98 c0bd
00000110: 7fbe a53d 2aed 9ebd 2a40 07bf 10bb 1fbf
00000120: 1dcd 80be 541f 153f 0121 d6bd 7faf 1dbf
00000130: e9a2 babe 5756 80be 6901 e7bc d2da fdbe
00000140: 8e4f 3cbe 7a8d 103f 196f 37be b211 08bf
00000150: 29a6 053f aaa1 56b9 7297 6e3d 64c3 4b3f
00000160: f78a 7b3f 767c 9ebe 8ee1 81bd 0c83 e8be
00000170: 902c 723d aea8 4a3f cdf7 00bf 610a d1be
00000180: a22f dbbe 8d2d 923b a0f9 7bbe e718 0cbf
00000190: a9b1 ab3e 0f18 0d3f f733 df3c 1f49 1f3c
000001a0: 86c4 153f 4c74 e73e 69b2 5fbe 1fee afbe
000001b0: cc5f adbe 062e 793f 89b6 aebe d2ef 5b3e
000001c0: 6f90 c4be 03c0 d0be d6bb 92be c310 c8be
000001d0: 91db 0fbe 9ea5 f6bd 5c89 6abe 87f8 98be
000001e0: 8338 18be d74f a4bd 2fdf 533f a3bf 6bbe
000001f0: aaea ee3e 7ae7 f1be 55e3 d93e 6689 37bf
00000200: 5954 77bd 11b3 e93e 1ffb a9be 1dc8 e73e
00000210: 9b37 1abf dbfb 86be 116c 0ebe f737 a7be
00000220: 70c0 73be 8b37 c1be 6906 743d 3189 0a3e
00000230: 413f 1cbe 4e80 b33d 40ee 903e cbc7 033f
00000240: 5f34 033e 827b b73e 602c 29be b080 50be
00000250: 81b5 fb3d 153f 7c3c fea8 7b3d c6c4 9fbe
00000260: e670 75be ce37 01be f976 c33d bef3 1dbf
00000270: 181e 8ebd 054e 2ebf 5ef4 173e e0c6 42be
00000280: 7e60 ae3e 9222 d3be 920b a9bc 52eb 58be
00000290: 5bba 11be 2675 b3bd 7d95 ad3d ea85 c5be
000002a0: b932 93be d62b c7bd 510f 003e d8f1 4fbd
000002b0: b7cc 96bd da15 ecbe 8e60 62be 28c2 583e
000002c0: 98c4 773e f15a 483e 7f70 c6bd 156c 723c
000002d0: eba0 15bf e20c a83e a6dc a7be a22c 7b3c
000002e0: 0746 c0be aec1 8b3e 73dc 513e df3b 09bf
000002f0: 5406 66be e79d 78be 3e7b 48be 82bd 0c3f
00000300: 776b 13bf e1be 5a3e 05d9 793e cb25 e63e
00000310: f520 8d3e 97f9 983e f618 5b3d 1f61 703e
00000320: d7f2 d43e 45cb 503e aac9 4fbe 062a 1e3e
00000330: fac0 77be 9f16 253f a125 08be a532 873c
00000340: 11cf a0be 82fc acbe 4301 8a3e 5655 89be
00000350: ca29 e8be 5809 6a3e f0ee efbc d1fb 5e3d
00000360: 122a c03e 62db 163b 9a70 1cbe 9eb4 ddbe
00000370: c0af a1bd a696 82bd 102c b9be 64e8 a2be
00000380: 85bf cfbd 82a5 19bf ad7c e63e c376 59be
00000390: f307 8f3d ddcd d03e f2c1 05bd c9db 12bf
000003a0: 3d0e d93e 6316 29bf 1f31 a4be 0705 223d
000003b0: ee2d 6cbe 6f3c e03e 42f7 0e3f ea97 883e
000003c0: be33 5e3e 06fb cebe 73db 98be 01d5 9abd
000003d0: def6 11bf d57b cb3d 2661 21be c278 1abf
000003e0: 511f 403e a6ad 5b3e 7740 0b3e b84e 483e
000003f0: 1f12 363f 0905 41bf e290 cf3d 56aa 9b3e
-0.56380194 0.054926477 0.49685434 -0.2567555 -0.45237035 0.1287913 0.10124418 0.047220133
-0.4066902 0.07393752 -0.48598555 -0.032598805 0.31038183 -0.25410235 -0.2216543 -0.44355786
-0.35604307 0.17109413 -0.13316038 -0.3531606 -0.45564714 0.48614112 -0.30040556 -0.20204926
-0.14255098 -0.4077912 -0.2024237 0.06255105 -0.01112328 -0.54736716 -0.16917709 -0.542949
0.3279298 -0.57297546 -0.25536254 -0.39752808 -0.04583259 0.012417541 -0.49596384 -0.4759464
0.1473463 -0.20587666 0.34860498 -0.33758757 -0.6218212 -0.6314285 0.018304346 -0.12908356
-0.090990975 -0.14969702 0.31660125 0.16248553 -0.04865808 0.014541254 -0.16075017 -0.06790617
-0.5492391 -0.43812338 -0.030931044 -0.34708565 -0.33716455 -0.31010848 -0.2691606 -0.027466647
-0.73957556 0.04836822 -0.3420157 -0.09404122 0.08092975 -0.07760079 -0.5283228 -0.6239481
-0.2515649 0.5825093 -0.10455514 -0.6159591 -0.36452416 -0.25065872 -0.028198915 -0.4958101
-0.18389723 0.56465876 -0.17913474 -0.53152 0.52206665 -0.00020468855 0.0582499 0.7959502
0.9825892 -0.3095433 -0.06341849 -0.4541248 0.05912453 0.79163635 -0.50378114 -0.4082823
-0.42809778 0.0044609965 -0.24606943 -0.547255 0.3353398 0.55114836 0.027246458 0.009722023
0.58502996 0.45205915 -0.21845402 -0.3436136 -0.3386215 0.9733585 -0.34123638 0.21478203
-0.38391444 -0.40771493 -0.28658932 -0.39075288 -0.14048602 -0.12043308 -0.22903961 -0.2987711
-0.14865308 -0.08023041 0.82762426 -0.23022322 0.4666341 -0.47246915 0.42556253 -0.7169403
-0.060383175 0.4564443 -0.33199403 0.45269862 -0.602411 -0.26364025 -0.13908412 -0.32659885
-0.23803878 -0.37737688 0.059576426 0.13528897 -0.15258504 0.087647066 0.2830677 0.51476735
0.12812947 0.35836416 -0.16520834 -0.2036159 0.122904785 0.015395899 0.06144046 -0.31204814
-0.23968849 -0.12618944 0.095441766 -0.61700046 -0.06939334 -0.680878 0.14839312 -0.19021177
0.34057993 -0.41237313 -0.0206354 -0.21183518 -0.14231245 -0.08762579 0.08475778 -0.3857873
-0.28749636 -0.09725158 0.12505843 -0.05076775 -0.07363265 -0.4611042 -0.22107145 0.21167815
0.24196088 0.19565941 -0.09689426 0.014796277 -0.58448666 0.3282233 -0.3278553 0.0153304655
-0.37553427 0.27296203 0.20494251 -0.5360698 -0.22463351 -0.24278985 -0.19578263 0.54976666
-0.57585853 0.21361877 0.24399193 0.4495071 0.27564207 0.29877922 0.0534906 0.23474549
0.41591522 0.20390041 -0.20291772 0.15445718 -0.24194708 0.6448764 -0.13295604 0.016503641
-0.3140798 -0.33786398 0.26954088 -0.2682292 -0.45344383 0.22855127 -0.029288739 0.05443937
0.37532097 0.0023018946 -0.15277329 -0.43301862 -0.0789485 -0.0637639 -0.3616643 -0.31817925
-0.10143951 -0.6001817 0.45016995 -0.2123671 0.06983938 0.4078206 -0.032655664 -0.57366616
0.42393675 -0.66049784 -0.32068726 0.039555576 -0.23064396 0.43796107 0.55846035 0.266784
0.21699426 -0.4042589 -0.29854926 -0.075601585 -0.57017314 0.099357285 -0.15759715 -0.6034051
0.18761946 0.2145296 0.1359881 0.19561279 0.711214 -0.7539831 0.10135056 0.30403394

lstm_full1.bias_hh_l0 f4 [512]
00000000: 8e14 1cbf bd9b de3d 8768 133f 4ae1 91be
00000010: 8381 f7be 82f4 293e 1616 733d 784b 413e
00000020: b8c7 9fbe 482d 1c3d 1ef7 07bf 0a34 6ebd
00000030: 54bf 513e ef52 8cbe 62cc 90be 7b5a debe
00000040: b476 59be c989 753e 29f9 29be e71b 8abe
00000050: 6f46 bfbe c38b 083f 6e92 a5be 2c0f 36be
00000060: bdf7 10be 2d2f a3be 5272 27be 93f1 1e3e
00000070: bbe2 dabb 773d 05bf 9b8f 29be 125a e3be
00000080: 7ff5 883e 76b4 18bf 7f31 64be da32 9abe
00000090: 4fe4 e7bc 1510 983c 3647 debe 6409 ddbe
000000a0: b624 3f3e d99a 86be 6ae5 a23e fef4 8bbe
000000b0: c1a6 10bf a653 1ebf 14a9 95bd cc3f 86bd
000000c0: 5970 cdbd 7c79 613c c354 ce3e edc3 503e
000000d0: aad8 853c 8546 e93d 49be 04be cc3b 23be
000000e0: ffa4 09bf d492 f8be 904d 013d 4a23 dfbe
000000f0: 8e75 75be 5d5b 7abe 5b9c 80be 92f3 0e3d
00000100: 4adb 22bf 37f4 73bb ad94 c2be 4f62 afbd
00000110: 606c 3d3e 7cde b2bd 8aa6 f8be eee2 1bbf
00000120: 6107 32be f886 023f 50b4 4bbe e632 3dbf
00000130: 3adb a0be d997 25be 05e7 c0bc 4cf7 02bf
00000140: 2f14 2ebe fda0 0e3f a1b7 7fbe cdbc e1be
00000150: e14a 0a3f c597 813c 5f14 aabc fae8 213f
00000160: 0022 703f caee cabe 5c03 ecbd 4026 a5be
00000170: c141 6d3e bf18 283f b92e 1bbf 4f3d 01bf
00000180: 95bb bdbe 4e72 193e c9d8 20be 53eb 0dbf
00000190: 5b3a 763e 02db fb3e 5403 5e3d 8e31 c73c
000001a0: 00b0 183f 37a5 c53e d50d 65be 6ac4 b4be
000001b0: 057d b0be 5d88 683f 8278 94be e237 c43d
000001c0: d395 d4be 1561 b8be 4bb2 38be 8d07 0cbf
000001d0: bbc7 e9bd fba1 d4bd c016 8abe 3816 96be
000001e0: 59f7 22be 7945 febc 0b17 673f 8513 52be
000001f0: e1aa ee3e 0cf0 01bf 336e 173f 8b64 1abf
00000200: f707 f7bd 6b55 f23e a79d a4be 2762 de3e
00000210: 241e 22bf b0ba b9bd 7c28 96bd 5d74 9ebe
00000220: f12e c9be 70a4 a9be de6c 9d3d 8994 073e
00000230: 0df5 26bd 3fd3 aa3d b382 b13e eb68 173f
00000240: a63b 933d 96de 803e 3ed9 47be 0ead 1ebe
00000250: 6892 653d ff2b 193e ca0d c33d cd92 acbe
00000260: f8bf 71be 97b1 86be 6623 083d bdcc 23bf
00000270: 12d3 5bbd cefb 2cbf c3c2 fabb 2131 a2be
00000280: 6f0a 823e 13e9 dfbe 0510 acbc ceba 8abe
00000290: 0bf9 3abe 0146 07be e9a2 a23d c141 6abe
000002a0: 7d19 b1be 3762 36be e867 293e fbe9 5fbd
000002b0: d3f9 bfbd 592b e0be affa 75be 6f99 323e
000002c0: 1387 763e b462 503e ea9d b2bd fac9 c0bd
000002d0: 9c21 1cbf 3450 e73e 4516 babe e2d8 84bc
000002e0: 26b5 00bf 89fd 743e 241a 6d3e 8c78 15bf
000002f0: 4dc9 97be fdf6 74be b76d ffbd e3e3 263f
00000300: ec1e d1be 4b11 4e3e 2109 b03d 9c18 043f
00000310: b001 8c3e 8495 943e d04c 953d 8dea 4f3e
00000320: dc9c a23e 439b 813e f70f 33be 5dd1 3f3e
00000330: f79c 9ebe 6810 273f 96aa 83be 14b6 0e3d
00000340: 3d9d 92be a11b debe af3b 953e da66 80be
00000350: c86e 9ebe 4bae 3f3e ef81 50bd ef68 37bd
00000360: e6c3 c73e 7ea7 743d 9cd6 acbd fd06 dfbe
00000370: 6052 3bbe 787e f7bd 25c0 e5be 8da9 dbbe
00000380: 37ec b4bd c552 01bf 1b44 dd3e 7f8f 4cbe
00000390: 26c2 e7bc 62c1 a13e 6106 17be 232a febe
000003a0: 5d9a af3e c5c3 1fbf dad6 9dbe ea64 15bd
000003b0: d169 a0be dd7b 003f 1f22 263f 55d1 8f3e
000003c0: 6d50 713e 4f4e d5be 4428 c4be 9549 29be
000003d0: 9cea e3be b00a 083e 56b7 3dbe e54a 2cbf
000003e0: a7da 443e d24d 7b3e d165 2b3d 8415 603e
000003f0: 2daf 333f 5109 51bf 3b49 633d b218 c33e
-0.60968864 0.108695485 0.5758137 -0.28492194 -0.48340997 0.16597179 0.059347235 0.18876445
-0.3120706 0.03812912 -0.53111446 -0.058155097 0.20483142 -0.27407023 -0.28280932 -0.43428406
-0.21236688 0.23978342 -0.16598953 -0.26974413 -0.37358424 0.5333826 -0.3233828 -0.17779225
-0.14157005 -0.3187193 -0.16352203 0.15521841 -0.0066798604 -0.5204691 -0.16558687 -0.44404656
0.267498 -0.5965036 -0.22284506 -0.30116922 -0.028307108 0.018562356 -0.43413705 -0.43171227
0.18666348 -0.26290014 0.31815654 -0.27335352 -0.56504446 -0.6184639 -0.0730764 -0.06555137
-0.10031194 0.013761874 0.40299043 0.2038724 0.016338665 0.11390404 -0.12963213 -0.1594078
-0.5376739 -0.4854952 0.03156811 -0.4358161 -0.23970625 -0.24448915 -0.2511929 0.034900256
-0.6361586 -0.003722442 -0.38004056 -0.08563673 0.18498373 -0.08733842 -0.4856456 -0.6089314
-0.17385627 0.50987196 -0.19893003 -0.7390579 -0.31417257 -0.16171207 -0.023547659 -0.51158595
-0.16999887 0.557144 -0.24972393 -0.44089356 0.54020506 0.01581944 -0.020761667 0.6324612
0.9380188 -0.39635307 -0.11524078 -0.32255745 0.23169614 0.6566276 -0.6061817 -0.50484174
-0.37057176 0.1498501 -0.15707697 -0.554372 0.24045698 0.49190527 0.054202393 0.024315622
0.59643555 0.3860261 -0.22368558 -0.35306102 -0.34470382 0.90833074 -0.2899819 0.09580971
-0.41520557 -0.36011568 -0.18036763 -0.5469902 -0.11415049 -0.10382458 -0.26970482 -0.29313827
-0.15914668 -0.031038987 0.90269536 -0.20515259 0.46614745 -0.5075691 0.59152526 -0.60309666
-0.12062066 0.47330794 -0.3215153 0.4343426 -0.6332724 -0.09068811 -0.073319405 -0.30948153
-0.39293626 -0.33133268 0.076867804 0.13240255 -0.040761042 0.08341073 0.34670028 0.5914447
0.071891114 0.2516982 -0.19516465 -0.15495703 0.056047827 0.1495819 0.095241144 -0.3370575
-0.23608387 -0.26307365 0.033236884 -0.6398428 -0.05366809 -0.67571723 -0.007652612 -0.31678107
0.25398585 -0.4373251 -0.021003732 -0.27095646 -0.18259065 -0.13210298 0.07941229 -0.22876646
-0.3458976 -0.17810903 0.16543543 -0.0546665 -0.09373822 -0.43783072 -0.2402141 0.17441343
0.24074964 0.20350152 -0.08721526 -0.09413524 -0.60988784 0.45178378 -0.36345115 -0.016216699
-0.5027641 0.23924841 0.23154503 -0.58387065 -0.29645768 -0.23922344 -0.12472098 0.6519148
-0.40843904 0.20123784 0.08595491 0.5160005 0.27345037 0.2902032 0.072900414 0.20304318
0.317603 0.25313768 -0.17486559 0.1873221 -0.3097913 0.6525941 -0.25716084 0.034841612
-0.28635588 -0.43380454 0.29147097 -0.2507847 -0.30943894 0.18718831 -0.050905164 -0.044777807
0.39016646 0.059730045 -0.08439371 -0.4356002 -0.18293142 -0.12084669 -0.44873157 -0.42902794
-0.08834117 -0.5051692 0.43216023 -0.19976614 -0.02829082 0.31592852 -0.14748527 -0.49641523
0.34297457 -0.62408096 -0.3082798 -0.036473192 -0.31330732 0.50189 0.64895815 0.28089395
0.23565836 -0.41661307 -0.3831197 -0.16531976 -0.4451493 0.13285327 -0.18526968 -0.6730178
0.19224034 0.24541405 0.041845147 0.21883208 0.7018917 -0.8165484 0.05548976 0.3810478

lstm_full2.weight_ih_l0 f4 [256, 128]
00000000: 0590 6a3e 8e2b a0be 1a85 883f 2e97 ccbe
00000010: e34f 4e3e 4ee0 04be 60b5 183f f3f3 68bd
00000020: 43a9 49bf 64de b83d 43e1 44bd aa0e 813f
00000030: 0106 7fbf f34b 9cbe 0bb4 c93e 5942 c03e
00000040: 7579 22bb 00cb 03be f039 7dbe 8f36 743f
00000050: 833a d8bc 0022 71bf 75e6 23be 3f8e 76be
00000060: c130 5dbe 3c25 4d3f e176 04be 1353 57bf
00000070: 78f7 dbbe c755 6d3e d5ef b03e 4306 ab3e
00000080: 937d 4ebe c431 313f b8ee 003f ab1b c23e
00000090: 53c2 85be a76b f1be 5e4b d3be a672 12bf
000000a0: c66e 07be 2513 463d 15b8 99bc a6a3 fd3d
000000b0: 13c6 0a3e 0697 a83f b541 413e 1fd2 553e
000000c0: 1c2b 173f c10b cdbc 1cff 50be 8c74 e33c
000000d0: 1d83 1e3f c386 33be f082 d23d 2e83 44bf
000000e0: c743 1e3e f6e1 06be 274e 873e 3616 9ebd
000000f0: 18e4 e83e 5b27 4e3f 91ea 44bd 1980 9abe
00000100: 7c2a af3d dc0a b73e dde7 cfbe 6afc 00be
00000110: 678c 1b3d 5629 153f 8ae1 c3bd a474 6b3e
00000120: bf63 adbd 12dc d6bd 6ad4 ea3e 810b 073f
00000130: de40 043f 5247 b8bc 6e0b 3ebe 75a1 cdba
00000140: c71b db3d 74fa a13e d392 1f3f 382b c7be
00000150: 4306 bd3e 0546 e83e 1e36 a3bf c61d 713e
00000160: ec93 373d bd78 b5bd b853 5abe 56e6 493e
00000170: e358 4b3d 5bb7 333d 7ee9 5e3f aeec fa3e
00000180: c96c 24bf b353 50be 7dd6 84be ad75 763e
00000190: d5f6 79be 34f1 143c a5e8 673d 1cc7 aa3c
000001a0: 7bc4 9c3e 5028 a13e fcdd 33bd f183 d3bd
000001b0: 8d99 f4be ef10 55be c135 37be 34cf 1ebf
000001c0: 15b1 10be 156b 623e 84a1 903e 8d16 1a3e
000001d0: 3971 92be 357f e13d ba62 243e becd cc3d
000001e0: ba43 7c3f 8839 403e 0a25 853d 2c00 623e
000001f0: e64c a2be eb71 f2be 55b8 37be 17be 09bf
00000200: 0b10 febe 90f8 053e 29bb 2f3f 97f4 00be
00000210: b2a8 22bf 9772 323f 2ac7 e9bc 52b3 62be
00000220: bd89 90be f23c d3be 671f ecbe a6e3 90be
00000230: 2af5 08bf b28a 69be 6e1e 90bf 4e56 7b3d
00000240: 1967 30bf 2164 663e 0d4d f6bb 892c 903e
00000250: 9a9e 9dbf 8101 ffbe 60a3 603f f30c 18be
00000260: 3679 333f 38a0 21bf e0d9 03bf 517a 3a3f
00000270: de09 5a3e 41e3 f7bd 37c1 be3e 68d5 553e
00000280: 5ee5 dfbd c13d 40bf 5997 94be 0198 a23e
00000290: 3d3b c9bf 326e 383f 12d5 b7be 1596 183f
000002a0: 9804 823f 3a2a febe 2989 d13d 50d6 c8be
000002b0: 2fab 823e 44c8 273f 79af d13e 74c6 e7be
000002c0: ea56 0a3f 927c f43e 1b83 23bf 0bd8 ccbe
000002d0: 1039 503f 4dff c8be 21d1 00bf c0f7 253f
000002e0: 4bab debe 7a17 8dbe 9211 a9be 89fc 023f
000002f0: a153 03bf 8bc4 b93e b9aa b73e 6f6a a43e
00000300: 6fed b7bd 8d0e e9be 4265 603f 28eb 113d
00000310: 24ed 80be 333e 2ebf daa2 df3d 0ac6 9e3d
00000320: a582 783d dc53 e5bd 54bd b83c 18da 1b3f
00000330: 3f68 98be 6787 ad3e 9417 51be acb1 f23e
00000340: b72c 183f 7da6 d03e 8fa5 c43e b5fb c43f
00000350: 9c74 f23e ea4e 73bf 5f4c babe 5da0 3d3e
00000360: a958 18be 16bd 4abf 1521 3dbf 07d1 dc3e
00000370: 69bc c63d ac32 9dbf 8948 34be dcbb 10be
00000380: af43 d5be 7706 2ebf 9686 bf3e 7c79 09bf
00000390: 1296 9fbe 5a2b 86bf 30a4 133e f90d 823f
000003a0: f62b 5a3f 0cc8 793f 8b2b 28bf 1676 eebd
000003b0: 7b04 033f 35cc 5bbf 6bba 7fbf e4d4 b8be
000003c0: b879 413f 57c3 663f c6af f03e c1de fd3e
000003d0: 7189 4c3f 8a80 a5bd 4116 8d3d 8300 97be
000003e0: d32d bc3e 9d8b 9abe 4bab d6be e1ba eabd
000003f0: ecf5 013f 069e 7b3f 0cd6 843e 096d ae3e
0.22906502 -0.3128323 1.0665619 -0.3995909 0.20147662 -0.1297619 0.59651756 -0.056873273
-0.787739 0.09026793 -0.04806639 1.00826 -0.99618536 -0.30526695 0.39395174 0.3755062
-0.0024791632 -0.12870407 -0.24729133 0.9539575 -0.026395088 -0.94192505 -0.16005881 -0.240777
-0.2160063 0.8013494 -0.12935974 -0.84111136 -0.4296224 0.23177253 0.34557977 0.33403215
-0.2016509 0.6921656 0.50364256 0.37911734 -0.2612482 -0.47152445 -0.41268438 -0.5720619
-0.1322585 0.0483581 -0.018764535 0.12384729 0.13552122 1.3171089 0.18872721 0.20880936
0.59050155 -0.025030019 -0.20409817 0.027765535 0.61918813 -0.17531876 0.102788806 -0.76762664
0.15455543 -0.13172135 0.26426813 -0.0771908 0.45486522 0.805288 -0.048075262 -0.30175856
0.08553025 0.35750473 -0.40606585 -0.12596288 0.037975695 0.582662 -0.095645025 0.22993714
-0.08466291 -0.10491194 0.45865184 0.5275193 0.5166148 -0.022494946 -0.18559048 -0.0015688377
0.106986575 0.31636393 0.6233341 -0.3890016 0.3691884 0.4536592 -1.275089 0.23546514
0.044818804 -0.088609196 -0.21320999 0.19716772 0.049645316 0.043876033 0.8707503 0.49008697
-0.6422849 -0.20344429 -0.25944892 0.24068327 -0.24410565 0.00909071 0.05661835 0.020846896
0.30618653 0.31476068 -0.043912873 -0.103279 -0.477734 -0.20807241 -0.17891599 -0.62034917
-0.14130051 0.22111161 0.28248227 0.15047665 -0.28602007 0.11010591 0.16053286 0.1000018
0.9854084 0.18771946 0.06501205 0.22070378 -0.31699294 -0.47352538 -0.17941411 -0.5380568
-0.49621615 0.130831 0.6864496 -0.12593304 -0.6353866 0.697061 -0.028537352 -0.22138718
-0.28230086 -0.41257435 -0.46117708 -0.28298682 -0.5349909 -0.22806814 -1.1259286 0.061361603
-0.68907315 0.22499134 -0.0075165094 0.28158978 -1.2314026 -0.49805835 0.8774929 -0.1484869
0.7010683 -0.631351 -0.51504326 0.7284289 0.21292827 -0.12103892 0.37256786 0.2088219
-0.1093242 -0.7509423 -0.2902172 0.31756595 -1.5721203 0.72043145 -0.35904747 0.59604007
1.0157652 -0.4964159 0.10231239 -0.39226007 0.25521228 0.65539956 0.40954188 -0.45268595
0.5403887 0.4775129 -0.63871926 -0.40008578 0.8133707 -0.3925728 -0.50319105 0.6483116
-0.4349006 -0.27556974 -0.33021218 0.5116659 -0.5129948 0.36282763 0.3587244 0.32112452
-0.08980834 -0.45518914 0.8765451 0.035624653 -0.25180924 -0.6806366 0.10919733 0.07752617
0.060671467 -0.111976355 0.022551216 0.6087966 -0.29767033 0.33892366 -0.2041915 0.47401178
0.5944323 0.4075202 0.3840756 1.5389315 0.4735459 -0.9504229 -0.36386392 0.18518205
-0.14877571 -0.7919477 -0.73878604 0.43128225 0.09703905 -1.2281089 -0.17605795 -0.14134163
-0.416532 -0.67978615 0.37407368 -0.53700995 -0.31169182 -1.048198 0.14418101 1.0160514
0.8522333 0.9757087 -0.6569144 -0.11643617 0.5117871 -0.8585847 -0.99893826 -0.36099923
0.75576353 0.90141815 0.47009104 0.4958401 0.7989722 -0.080811575 0.0688901 -0.29492578
0.3675371 -0.3018464 -0.4192756 -0.114614256 0.5076587 0.98288 0.25944555 0.34067562

lstm_full2.weight_hh_l0 f4 [256, 64]
00000000: 839e f9bd bb24 5d3e 3c04 b93d 3167 01bf
00000010: f856 e43d 1262 9bbe cab8 84be 629b 1d3e
00000020: 8d96 2cbe d77b eebc 0587 d13e 3b2c 13bf
00000030: c224 debe 5275 243d 97f6 5f3e a7cc f03d
00000040: 003d 6dbe ddc9 d73d bbad 7ebe 85f7 b9bd
00000050: 3cc3 cdbe ef09 95be fa67 94be 2bcd 37be
00000060: 32a4 92be dfed 33bf 5c47 293e 9ba5 de3d
00000070: 85ad adbe 8658 33be 4adf 593e c9e0 df3d
00000080: 3096 c0be 3019 1abf e30c 533f f15a 37be
00000090: 9f30 4c3d f2f9 3d3f 8048 7b3e 37a8 043e
000000a0: a39c 41bd f0f0 b1be b794 22be 55d2 87be
000000b0: 7842 273f 149f 39bd 9f30 323d b259 d23d
000000c0: 7677 243e 1c2f 48bd e262 10bc ba57 f13e
000000d0: de8e 063f 654e acbd 53c8 06bf c309 873e
000000e0: 015a 633e 0bda dfbd 62fb 2f3f 43a7 26bc
000000f0: ba4f d2be 1f04 02be 9867 65bd da84 7a3e
00000100: e6fc 03bf b784 8e3c cbc4 1c3e 1cce c0be
00000110: 94b4 debe 27c2 c13e 4c70 c23e ea10 39bf
00000120: 6666 e6be 1463 603e 86a6 d13e 13fd a93e
00000130: e6ec 4ebe f4df 9f3d ec10 743e b94a 9e3e
00000140: 22d7 5ebf a61a d2bd c8f9 cc3e 2b68 f4be
00000150: c658 febd fa20 933c be2a 1bbe cfe3 463d
00000160: 6295 a23e 6f67 063e e7da 99be 56c4 b03e
00000170: 75d9 2d3d 1def a13e 6762 7ebd 1c06 303f
00000180: 660e 3f3e 6b78 063f 54b6 93be ad1f 333e
00000190: 5431 dfbe b27a 97be 64d1 9b3d 0faa c93e
000001a0: a7a2 debe 519f adbd 305a e33e f13c 11be
000001b0: c0c8 b0be 757a ecbe 841a 1ebf 0e3c 31be
000001c0: 4f36 afbe 2011 ebbd 7ca4 313f 01e3 85be
000001d0: 7e66 51be 2143 8ebe 676c 293f b99b bb3e
000001e0: 8c6d 543d af29 853e d584 4cbe 8ec8 2b3f
000001f0: 4fee 123f 86b9 f0bd 8bb0 8f3d 7164 4abe
00000200: 212e 5bbe f4c0 063e df40 373e 2e1f c43e
00000210: de5b 46bf 017b d8be 8801 94bd fdf5 dfbc
00000220: 504f 71bd 7a8c 863d abe9 9a3d e466 843e
00000230: 8543 c23d 077a 7c3e b558 b23e ef40 c53e
00000240: 3f82 dcbe 4cae b53d cbe9 8a3e 325b 03bf
00000250: f054 363f 80c4 123e 9edf f4bd fa0e cabd
00000260: 2d39 94bc fba4 91be 79f7 cf3e d710 01be
00000270: 31e7 f73e 9587 40be 3bba acbe 2063 6bbe
00000280: 1580 e83e 47e1 63be e8a5 64bf 9532 c13e
00000290: df72 40be f2d3 ea3d 0e8e 0c3e c7bc 793e
000002a0: 526f cd3d cb52 0c3f 1085 273f 99ea 8e3e
000002b0: 2535 54be aaf8 cabe e1f5 c4be 11d5 583f
000002c0: 863e 71be edcf c63e 3f25 923e a66b 52be
000002d0: c759 87bd 1687 2abf 5538 b23e bfd4 d7bd
000002e0: e3ee 1dbf 8380 333f 1339 c2be e9f9 a33e
000002f0: 184f 55ba bed1 babe 4edd aa3e 1bb4 90be
00000300: d01c 7ebe 3405 1c3e cb58 a93e 6d30 8cbe
00000310: 2201 0b3f 5733 a93e fb38 833e 2fa3 6dbf
00000320: 9a04 bc3e 5e00 183f 1f10 44be 05ca 02be
00000330: af63 bebe 372c 03bf e601 6a3e 0496 8ebe
00000340: 6d8d 1ebf bcf1 48bd 722f 18bf 1585 183d
00000350: c5c1 49be 31bd 7b3f 8570 dabe 8195 27bf
00000360: 1cc0 6d3e c6d8 83bc 0d10 f13e d601 393d
00000370: 6fd6 27bf 086e cdbc f69a f33e 59e8 0f3e
00000380: dce7 5f3c 4bc3 423f 2e8c 63bf 9e80 123f
00000390: 9bf1 cabc bbc3 1a3e c58e 0c3e a7b3 9dbe
000003a0: 470e 3a3e f5fd 923e e7c5 d43e 1e52 38bd
000003b0: ff28 ba3e aeba 803e d5b0 c73b 5c91 81be
000003c0: 7352 243e 5290 5bbd ad40 c7be c899 7c3e
000003d0: 29f2 eabe 2b51 a3bc 7f05 253e 92fe 143f
000003e0: 5eaa 8b3d 5ba2 023f 0bf8 8f3e d1cd a03e
000003f0: e6d3 9fbe 1a32 5a3e 52e5 243e e6f8 dcbe
-0.12188437 0.21596043 0.09034011 -0.5054808 0.111494005 -0.3034826 -0.25922233 0.15391305
-0.16854306 -0.029111786 0.40923324 -0.57489365 -0.4338742 0.040150948 0.2187141 0.11757784
-0.23167801 0.10536549 -0.2487096 -0.09080414 -0.40188015 -0.2910914 -0.28985578 -0.17949359
-0.28640896 -0.7028484 0.16531128 0.108714305 -0.33921447 -0.17514238 0.21276584 0.10931546
-0.37614584 -0.60194683 0.8244154 -0.17905785 0.049851056 0.7420951 0.24539375 0.12954794
-0.04726852 -0.34754133 -0.15877043 -0.26527658 0.653358 -0.045317724 0.0435034 0.10271014
0.16061196 -0.048873052 -0.008812638 0.47137243 0.5256175 -0.0841339 -0.5264942 0.26374635
0.22202303 -0.1093026 0.68742955 -0.010171714 -0.41076452 -0.12696885 -0.056006998 0.24464741
-0.5155777 0.017397268 0.15309446 -0.3765725 -0.43497145 0.3784344 0.379763 -0.72291434
-0.45 0.21912795 0.4094736 0.33200893 -0.20207557 0.078063875 0.2383458 0.30916384
-0.87047017 -0.10258989 0.40034318 -0.47735724 -0.12419276 0.01796006 -0.15153024 0.0485571
0.31754595 0.13125394 -0.30049822 0.34524792 0.04244371 0.3162774 -0.062105563 0.6875932
0.18657836 0.52527493 -0.28850043 0.17492552 -0.43592322 -0.29585797 0.076082975 0.39387557
-0.4348347 -0.08477653 0.44404745 -0.14183404 -0.3452816 -0.46187177 -0.6175921 -0.17308065
-0.34221122 -0.11477876 0.6939161 -0.26149753 -0.20449254 -0.2778559 0.66181034 0.36642244
0.051862285 0.26008365 -0.19972546 0.671029 0.5739488 -0.11754136 0.07016095 -0.19764878
-0.21404316 0.13159543 0.1789584 0.38305038 -0.7748393 -0.42281345 -0.072268546 -0.027338976
-0.05891353 0.065697625 0.075641 0.2585975 0.094855346 0.24655925 0.34833303 0.38526103
-0.4306812 0.08871135 0.27131495 -0.5131103 0.71223354 0.14332771 -0.11956714 -0.09866138
-0.01809367 -0.28446183 0.40618494 -0.1260408 0.48418573 -0.1880172 -0.33735833 -0.22987032
0.4541022 -0.22253905 -0.8931565 0.37733904 -0.1879382 0.114662066 0.13726065 0.24388419
0.10030998 0.5481383 0.6543741 0.2791336 -0.20723398 -0.3964284 -0.3846884 0.84700114
-0.23559007 0.3883051 0.28544042 -0.20548877 -0.066089205 -0.66612375 0.34808603 -0.10538625
-0.6169264 0.7011797 -0.3793417 0.32026604 -0.0008137091 -0.36488146 0.33371967 -0.2826241
-0.24815679 0.1523636 0.33075556 -0.27380696 0.54298604 0.33046982 0.2562941 -0.92827123
0.3672226 0.5937556 -0.19146775 -0.12772377 -0.37185428 -0.5123934 0.22852287 -0.27848828
-0.6193455 -0.04905866 -0.59447396 0.037236292 -0.19702823 0.9833556 -0.4266397 -0.654625
0.23217815 -0.016094577 0.47082558 0.045167767 -0.65561575 -0.025076881 0.47579163 0.14053477
0.013666119 0.76079243 -0.8888577 0.57227504 -0.02477341 0.15113728 0.13726337 -0.30801126
0.18169509 0.2870938 0.41557238 -0.045000188 0.36359403 0.25142425 0.006094078 -0.25306213
0.16047077 -0.05360443 -0.3891653 0.24668038 -0.4588788 -0.019936165 0.16115378 0.58200943
0.06819604 0.51028985 0.2811893 0.31407025 -0.31216353 0.21308175 0.16103104 -0.43158644

lstm_full2.bias_ih_l0 f4 [256]
00000000: 2207 e2bd 30db 4a3e 85ee 46be 6347 2bbd
00000010: ad48 5e3e 8939 acbe ca06 fd3d b887 8dbe
00000020: 0a8e 013e 2442 e23d 3b02 023e bbde adbe
00000030: 3979 523e 8b03 c33e e457 3fbe dbbb 803e
00000040: 730d 3abd 498e 8cbe e5be 14be 33d5 343d
00000050: ed58 f83d 3e5c 02bd 3d3c 9abe 81a3 c3bd
00000060: 23dc efbe bcd1 8a3e 868b 0fbe 1442 b63d
00000070: bdbf e6bd 92ea 39be 9d75 59be 15f5 55bc
00000080: 3ada 22be 6089 08bf 7d35 07be b3d3 723e
00000090: 3d21 8cbe 61ab 40be 2833 583e a3af 51bd
000000a0: 284a babe 5ccb 5abe 6aca a23d c08f 023e
000000b0: 41bc 9c3a 81c6 96be 1b13 273f 2f91 423d
000000c0: dd6d 6a3e 0168 9ebd 7e70 043d 075a 023d
000000d0: aff9 163e 4d8a d1bd ee56 9f3e 0f1a 9bbe
000000e0: 0e4c 743e 7b48 efbd 6a80 313e 50fd fabc
000000f0: c16b 73be 07d6 50be 78a1 453e bd34 0c3d
00000100: 58ce ba3e 371d 9abe 78cb 58be a36b e7bd
00000110: 378c 24bf 3078 be3d 63f2 b83d 19b0 013e
00000120: ff3e b43e 8605 173e 46a7 12bd f175 4cbc
00000130: 3be9 acbd e9d3 423e c521 b2bd 117d fc3d
00000140: d397 07be 7c8b 633e c4fd 0f3c da57 4cbc
00000150: 65ba ad3d 0207 b13e 3ee6 f03e c67f 29bd
00000160: cb84 233e 7454 9e3d 61cd 76bd 8bab 26bd
00000170: 8764 80bc e196 753e 4c80 3f3e 5e62 1bbe
00000180: f83d 14be fb38 2d3e 64b6 ecbe 65c5 8dbc
00000190: bfe2 ac3e 32bc 5abe 5584 fd3d 4414 08be
000001a0: 8e8d 3d3e 0a73 46bd 89c8 75be 8976 f93d
000001b0: fac5 103e ff0e 303e af26 643d f4ad a4bd
000001c0: 4930 c63e 4d1b e43d 4883 f5bd 8294 493e
000001d0: bcff 1b3d 0e8f 3ebd 45af e5be 8fa8 b33e
000001e0: 941a a53d 9ba3 ebbd d5e6 843e fb83 4b3e
000001f0: c172 173f ff64 583e 28ce a53d ee61 84bd
00000200: 6c81 a63d a87f 42be 24d6 8e3e d267 0bbd
00000210: cd2d c1be c1b5 20bf 2ca1 983e d2d7 98bd
00000220: 3729 85be 150a c8be 7981 0c3c 0a6b 933e
00000230: 283e 013e 8a9d 33be 9625 fbbd 4152 be3e
00000240: aead 77be b868 01bf 3608 6b3e 0f9a 63be
00000250: 445b f1bd 0e3b 89be 196c 07bf 55f6 ae3e
00000260: 73ef 9f3c 40d9 e43e 82a6 193e fd54 5c3e
00000270: ca1e bc3e 58ff 93be e072 efbe 5769 2ebd
00000280: 02b8 eabd 8083 c4be 9948 43bc 0c0b c83e
00000290: 8859 25bd d2d4 033f 8a3a 133e d7a6 b3bd
000002a0: 15d2 5f3e d8cd 323e b20d 053f 2e8a 193d
000002b0: 601b a1bd 7d56 77be dc13 8cbd 64e1 bb3e
000002c0: 6e03 1bbf 2610 d1bd 9ff8 d93d cf2b e6be
000002d0: e76a 8c3e 5fdd 2f3f 313b bc3e 293e a13d
000002e0: 345d d03c 9697 69be 892d ae3d ff17 a0bd
000002f0: 765f 13bc f864 d83d 942d f53e 7ed4 053d
00000300: 6f71 bc3e 213c 2d3e b6e7 07be 2759 9abc
00000310: 5276 3e3e e98c 2c3e a86f af3e 15a9 a3be
00000320: 5ae2 253c fb8f 403e a509 953d 44b3 18be
00000330: 86d9 a33e 0612 033e 774a 85bc 6d50 083f
00000340: 3fc7 0bbe a7a0 743e 918d 913e bef6 ad3d
00000350: 785e ad3e dc14 b23e 24af cb3d 636f adbd
00000360: 5f79 5b3e ce0d e4be 5059 cc3e 9f05 0e3f
00000370: 5dfd d4bd dc17 813d 9c1d 643e 294c 9f3e
00000380: 0b2e 9abc 8646 bb3d 6266 e83d a5de f13d
00000390: a80c 2d3e ad20 8fbd 8ce9 533d 0881 9dbe
000003a0: 9546 c53d 4631 ab3e 3bbb 45bd a386 003e
000003b0: c887 a03c ec73 ae3e 2964 103f 39f7 5e3d
000003c0: 9263 d63c 5db9 1d3e a600 a13e dbc1 a13e
000003d0: 9902 39be 9623 a13e fede 073e d1d7 babd
000003e0: 27f4 85be c65d 993e 4944 333d f8eb c73e
000003f0: 9b55 c8bd 4481 4ebd 44ed 2b3e 45f6 143d
-0.11036517 0.19810176 -0.19426925 -0.041816127 0.21707411 -0.33637646 0.123548105 -0.27642608
0.1265184 0.110477716 0.12696163 -0.33958992 0.20554055 0.3808864 -0.18685871 0.25143322
-0.045422982 -0.27452305 -0.14525945 0.044148635 0.12126336 -0.03182625 -0.30124083 -0.0955267
-0.46847638 0.2711314 -0.14018068 0.08899322 -0.1126704 -0.18155888 -0.21236272 -0.01305892
-0.1590356 -0.5333462 -0.13203998 0.2371357 -0.2736911 -0.18815376 0.21113265 -0.05119289
-0.36384702 -0.21366638 0.07948764 0.12750149 0.001195796 -0.2944832 0.6526353 0.04750174
0.22893472 -0.07734681 0.032333843 0.031824138 0.14743684 -0.10231457 0.3112101 -0.3029332
0.23857138 -0.116837464 0.17334142 -0.030638367 -0.23771574 -0.20394145 0.19299877 0.034229983
0.36485553 -0.30100414 -0.21171367 -0.11299827 -0.6427645 0.09300268 0.090306066 0.12664832
0.35204312 0.14748201 -0.035804056 -0.012479291 -0.08442923 0.1902615 -0.08697847 0.12328542
-0.1324151 0.22221178 0.00878853 -0.012472117 0.084828176 0.3457566 0.4705066 -0.04138162
0.15968625 0.07730952 -0.06025446 -0.04069094 -0.015672935 0.23983337 0.18701285 -0.15174243
-0.14476764 0.16916268 -0.46232903 -0.01730604 0.33766744 -0.21360853 0.12378756 -0.1328898
0.1851103 -0.048449554 -0.2400228 0.12180812 0.14138022 0.1719322 0.055700954 -0.080409914
0.38708714 0.1113802 -0.119879305 0.19685557 0.038085684 -0.046523146 -0.44860283 0.35089538
0.0806171 -0.11505815 0.2595736 0.19874565 0.59159476 0.21132277 0.08095962 -0.06463991
0.08130154 -0.1899401 0.2789775 -0.034034558 -0.37730256 -0.62777334 0.29810464 -0.074630395
-0.26008007 -0.39070192 0.008575791 0.28792602 0.12621367 -0.17540565 -0.12263028 0.3717213
-0.24187347 -0.50550413 0.22952351 -0.22226737 -0.11784986 -0.26802868 -0.5289932 0.3417231
0.019523358 0.44697 0.15004924 0.21516795 0.3674224 -0.2890575 -0.4676733 -0.04258093
-0.11460878 -0.38381577 -0.011919164 0.39070928 -0.040368587 0.51496613 0.143778 -0.087720565
0.21857484 0.17461336 0.5197402 0.037485294 -0.078665495 -0.24154086 -0.068397254 0.36695397
-0.6055211 -0.10208158 0.10643124 -0.44955298 0.2742531 0.6869716 0.3676391 0.07873184
0.025435068 -0.22811732 0.08504779 -0.07817077 -0.008994928 0.10566133 0.47886336 0.03267335
0.36805293 0.16917469 -0.13271984 -0.01884134 0.18599823 0.16850628 0.34264874 -0.31964937
0.010124767 0.18804924 0.0727723 -0.14912134 0.32001895 0.12799844 -0.01627086 0.5324772
-0.13650225 0.23889409 0.2842832 0.08494328 0.33861136 0.3478154 0.09945515 -0.08468511
0.21433018 -0.44541782 0.3991189 0.5547733 -0.10399888 0.06303379 0.2227692 0.31112793
-0.018820783 0.09144311 0.11347653 0.11810044 0.16899359 -0.06988654 0.0517364 -0.30762506
0.09632603 0.3343603 -0.04827426 0.1255136 0.019595996 0.34072816 0.5640283 0.05443499
0.026170526 0.15402742 0.31445807 0.31593212 -0.18067397 0.31472462 0.13268659 -0.09123195
-0.26162836 0.29954356 0.043766294 0.39047217 -0.09781953 -0.050416246 0.16789728 0.036367673

lstm_full2.bias_hh_l0 f4 [256]
00000000: dda4 04be 3955 0a3e 8402 c4bd ade3 4f3e
00000010: 18db 7c3d 401e bbbe 9d7c 0d3e d232 7cbe
00000020: d343 903d 003a d03c 3a72 39bd 8766 c7be
00000030: 1439 d03e 5853 ca3e a282 15be 5118 d53e
00000040: 67c8 1abe 332e 89be d840 06be 9372 0abd
00000050: 9235 023e a78a 8d3d 4d3c b5be 31c9 fabc
00000060: f0a7 9fbe 3cdb da3d f3c0 51be b372 3a3e
00000070: 3ae3 66be fd56 a8bb d105 83be 2ff5 1c3d
00000080: 69ae acbe fd0d d8be b9d5 c2bd 08f3 863e
00000090: 9d0b 62be 0583 8cbe 38b4 b23d c0cc 27be
000000a0: 8ae5 75be 2346 abbe 1be7 553e 4df4 783d
000000b0: 7906 0abe affe 8ebe 38de 183f b6d9 813d
000000c0: a68b 933e ee49 b1bc fcd4 e5bc 1218 28be
000000d0: b1e9 263e 3a81 c8bc 2c5a a73e 945a 1dbe
000000e0: 9d16 f83d 2c24 8abb adf0 563e 606f 51bc
000000f0: 134e c7be c0fc 84bd 2b46 3a39 9239 093e
00000100: f0a4 ce3e 65e9 c8be f851 3ebb c95e 99bd
00000110: 963a 03bf 437e 85bd 3be3 9d3d 6b78 123e
00000120: 784d 3b3e c62c 823d 8096 66be 5e45 2e3d
00000130: da2c 99be 6242 023e ffcd 11bd 24c7 1a3d
00000140: 08e5 a4bd e9aa ee3d 5235 8abd 5e6d 1d3e
00000150: 0476 f53c 83ab af3e b8bd 073f b597 e83d
00000160: 022a 443d 4c04 183e 4a3d a63d a32a d8bc
00000170: 074b 23bd 629c a93d 3991 7c3e 2d55 9dbd
00000180: 5541 80be 51ad be3d eb5f e9be cd02 49be
00000190: a5a9 843e 2ece 72be ca12 b03d 436e 5bbd
000001a0: 6fbc 5d3e 3b07 b6bd 09a0 65be 78b4 873e
000001b0: 5c1b 5b3e 3647 a43c b39e 7c3e 5c24 11be
000001c0: dec6 e13e 51d1 193e e3ff 9fbd c153 433e
000001d0: 538c 18be 2c78 afbd 436d bebe edcf 613e
000001e0: 57f9 793e 53a3 98bd 5030 923e 0ac8 e13d
000001f0: 069b 203f 5651 aa3e 90e4 c93c 058b 39bd
00000200: 31f3 8dbc 8ba5 61be ef77 873e 79ce fdbc
00000210: 6076 e1be 6213 11bf a2dc ac3e 6303 d43c
00000220: f01b 2fbe 7688 01bf a190 af3d 76fb 833e
00000230: e34e babb ea7d 853c 4f85 afbe 2d25 8a3e
00000240: f5c4 81be d332 0abf 1bf6 c03e 6242 6cbe
00000250: 81f7 993d 7fc0 a1be 206d cabe c3c0 8d3e
00000260: 4426 c73c 39b7 033f 58b3 9c3e 7ea5 023e
00000270: 6320 b63e f247 72be 1e21 f8be afc2 883c
00000280: 104f 0abd 82fd 5abe f3f0 753c f01f c53e
00000290: 1b66 97bd 661b 223f 9e21 013e 29b6 87be
000002a0: ea52 e33c e6dd f23c c546 093f a631 083e
000002b0: feac d13d 0404 7bbe 88b7 95bd 8c29 ea3e
000002c0: 238f 18bf 8f58 f23b f830 bbbc 68b1 febe
000002d0: 4e3b 763e 782f 093f d95b 073f 32f5 9a3d
000002e0: f696 91bd 769d a6be 9397 413e 225f dabd
000002f0: 586a d4bd a872 c8bd a74c f23e dee8 b73d
00000300: 5b7e 6b3e ac03 6eba 86f1 ddbd 4401 0cbd
00000310: 6ba9 bd3d c84c 0a3e 23f1 873e 6af1 82be
00000320: 561d 04be 95d6 273e 2882 343d aea9 aabd
00000330: d6d3 6f3e 95c9 463e 0162 bd3d e630 d33e
00000340: 8000 873c 7407 e03e 7ab1 993e 267c 093e
00000350: 5412 a73e 927f 443e 642e 7c3e c104 a6bd
00000360: 5beb 163e fe9e a7be d0e7 c93e af79 0a3f
00000370: aa01 32be 23f1 c33d 6ff1 863e 4eb0 bc3e
00000380: c412 063d c083 223e a23d 3c3e 9ad1 9f3e
00000390: 77ec 8f3d 7a2d 66bd e166 603e 3ed8 92be
000003a0: 7dbc 003e ca21 b43e 0e61 bb3d 69cb 2c3e
000003b0: 64f2 a93d a1cc dd3e b78f 0f3f ac8b b33d
000003c0: c3c9 f33d b1ca a63e 8388 cd3e 2898 5c3e
000003d0: be51 96bd cba7 983e bd3a 5c3e 8ac4 b93d
000003e0: 0058 bdbe 27ef 893e c0c9 bb3d 2cc9 253e
000003f0: 6d47 5cbe 1916 28be 06a1 8a3e 9fcf 833d
-0.12953515 0.13509072 -0.09570792 0.20301695 0.06173238 -0.36546516 0.13817067 -0.24628761
0.070441864 0.025418282 -0.04527495 -0.3894541 0.40668547 0.3951671 -0.14600614 0.41620114
-0.1511551 -0.2679306 -0.13110673 -0.033800673 0.12715748 0.069112115 -0.35397568 -0.030613514
-0.31182814 0.10686347 -0.2048376 0.18207817 -0.22547618 -0.005137323 -0.25590375 0.038319763
-0.33726814 -0.42198172 -0.095134206 0.26357293 -0.22074743 -0.2744371 0.0872578 -0.163867
-0.24013343 -0.33451948 0.20888941 0.06077986 -0.13479032 -0.27928683 0.5971408 0.06340353
0.2881748 -0.021641698 -0.02805566 -0.16415432 0.16300084 -0.024475683 0.32685983 -0.15366584
0.12113688 -0.004215738 0.20990248 -0.0127829015 -0.38926753 -0.06493521 0.00017764482 0.13400868
0.40360212 -0.39240566 -0.0029040556 -0.07488782 -0.5126127 -0.06518223 0.077093564 0.14303748
0.1829127 0.06356196 -0.22518349 0.042546622 -0.29917032 0.12720636 -0.035596844 0.03778757
-0.08051497 0.11653692 -0.06748451 0.15373752 0.0299635 0.3431054 0.5302386 0.11357061
0.047891624 0.14845389 0.08117159 -0.026387518 -0.039866474 0.08281781 0.24664773 -0.076822616
-0.25049844 0.09310401 -0.45580992 -0.19629975 0.25910679 -0.23711464 0.08597334 -0.05357195
0.21653913 -0.08888098 -0.2242433 0.26504874 0.21397156 0.020053487 0.24669914 -0.14174026
0.44097036 0.15021254 -0.078124784 0.19074918 -0.1489728 -0.08567843 -0.37192735 0.22051974
0.24411522 -0.074530266 0.28552485 0.110244825 0.62736547 0.3326518 0.02464512 -0.045298595
-0.017327877 -0.22035806 0.2645869 -0.030982243 -0.44035625 -0.566702 0.3376208 0.025880521
-0.17100501 -0.5059885 0.08572508 0.25777787 -0.0056856736 0.016295392 -0.34281394 0.26981488
-0.2534558 -0.539838 0.37687764 -0.23072198 0.07517911 -0.31592175 -0.3953638 0.27686128
0.024310239 0.5145145 0.30605578 0.12758443 0.35571584 -0.23660257 -0.48462766 0.016694395
-0.033766806 -0.21385768 0.01501106 0.3850093 -0.07392522 0.63323057 0.1261048 -0.26506165
0.027749497 0.029646825 0.5362361 0.1330019 0.10238074 -0.2451325 -0.073103964 0.45734823
-0.5959341 0.007395811 -0.022850499 -0.49744725 0.2404606 0.53588057 0.52874523 0.075662985
-0.07108872 -0.32542008 0.18905477 -0.106626764 -0.10371846 -0.09787494 0.47324106 0.08979963
0.2299742 -0.00090795266 -0.108370826 -0.034180894 0.092608295 0.13505852 0.2655116 -0.2557481
-0.12901816 0.1639045 0.04406944 -0.08333145 0.23420653 0.19412835 0.092472084 0.41248244
0.01647973 0.43755686 0.30018216 0.13426265 0.3263117 0.19189289 0.24627072 -0.081063755
0.14738218 -0.3273849 0.3943467 0.54091924 -0.17383447 0.095674776 0.26356074 0.3685326
0.03273274 0.15870571 0.18382886 0.312146 0.07027524 -0.056195714 0.21914245 -0.28680605
0.12571903 0.3518203 0.09149371 0.1687447 0.082981855 0.43320182 0.56078666 0.08766875
0.11903717 0.32576516 0.40143213 0.21542418 -0.0733981 0.29815516 0.21506782 0.0907069
-0.369812 0.2694027 0.0916934 0.16190022 -0.21511622 -0.1641468 0.27075976 0.06436085
