Experiment/image-EEGNet-512-96-0-noshuffle.pth (torch, 67874 bytes, 22 tensors)

network.1.weight f4 [8, 1, 1, 256]
0	0xbe6b1a1c	-0.22959179
1	0xbe02a214	-0.1275714
2	0xbcbe621d	-0.023240143
3	0x3cea453b	0.028597465
4	0x3c75ad6c	0.01499496
5	0xbca23e97	-0.019805236
6	0x3d46b231	0.04850978
7	0xba6f2264	-0.0009122251
8	0x3d492887	0.049110916
9	0x3cd2b36a	0.025720317
10	0xbd8c5878	-0.068528116
11	0xbd2c8a03	-0.042123806
12	0xbdb6e0fc	-0.08929631
13	0xbdfb811e	-0.122804865
14	0xbe1cefee	-0.15325901
15	0xbe5a2726	-0.21303996
16	0xbdcc5eb4	-0.09979001
17	0xbdbfc1e3	-0.09363153
18	0xbe1f9559	-0.15584315
19	0xbdc1dc0f	-0.09465801
20	0xbd5cac64	-0.053875342
21	0xbe1ff50f	-0.15620826
22	0xbe30ca1c	-0.17264599
23	0xbdf5a755	-0.11994807
24	0xbe24a626	-0.16079006
25	0xbe745ed4	-0.23864299
26	0xbe84e47d	-0.25955573
27	0xbe650267	-0.22364198
28	0xbe543ae6	-0.20725593
29	0xbe4952c0	-0.19660473
30	0xbe53a795	-0.20669396
31	0xbe0530ee	-0.13006946
32	0xbe2dfea6	-0.16991672
33	0xbe09f98a	-0.13474098
34	0xbdb77a47	-0.089588694
35	0xbd72065b	-0.059088092
36	0x3cf9fb82	0.030515436
37	0xbd28df14	-0.04122837
38	0xbd93df42	-0.072203174
39	0xbd08d0c7	-0.03340223
40	0xbd87fb87	-0.06639772
41	0xbe242cbc	-0.1603269
42	0xbe14c1ad	-0.14527006
43	0xbe2ab52a	-0.16670671
44	0xbddebf53	-0.10876336
45	0xbdf870d9	-0.12130899
46	0xbdaccd77	-0.08437627
47	0xbe2bdf69	-0.16784443
48	0xbe2d84c2	-0.16945174
49	0xbdd20a6e	-0.102558956
50	0xbdef6b55	-0.11690394
51	0xbde06ea1	-0.10958601
52	0xbe1f8c84	-0.15580946
53	0xbde3881a	-0.11109944
54	0xbdae3d47	-0.085077815
55	0xbe270208	-0.16309369
56	0xbe09c4e4	-0.13454014
57	0x3a159f33	0.00057076215
58	0xbba507f4	-0.0050363485
59	0xbc2abd5f	-0.010421126
60	0x3c86ce9c	0.01645594
61	0xbdc9306e	-0.0982369
62	0xbcdc0404	-0.026857384
63	0xbd938e98	-0.07204932
64	0xbddff41d	-0.10935233
65	0xbe06cd29	-0.131642
66	0xbe1ae0c6	-0.15124807
67	0xbdb63af7	-0.088979654
68	0xbd02c8cb	-0.031929772
69	0xbc55912e	-0.013035102
70	0x3cd79c3a	0.026319612
71	0x3dc2518b	0.09488209
72	0x3e3841d3	0.1799386
73	0x3e47b662	0.19503167
74	0x3e6b37f0	0.22970557
75	0x3e903a96	0.28169698
76	0x3e466e92	0.19378117
77	0x3e853321	0.2601557
78	0x3e29fbe4	0.16599995
79	0x3e20b2b8	0.15693176
80	0x3df5d7af	0.12004029
81	0x3d68c4f8	0.05682847
82	0x3e170066	0.14746246
83	0x3dd449dd	0.10365651
84	0x3e23275b	0.15932982
85	0x3e6291da	0.2212595
86	0x3e4fe75c	0.203031
87	0x3e8d4000	0.2758789
88	0x3e5bb859	0.21457042
89	0x3e8ab3e2	0.27090365
90	0x3e74803e	0.23877046
91	0x3e8f75dc	0.28019607
92	0x3e8abd80	0.27097702
93	0x3e833bb3	0.25631484
94	0x3eaa62d4	0.33278525
95	0x3eb1ed3f	0.34751317
96	0x3e985993	0.2975584
97	0x3e9cb20b	0.30604586
98	0x3e9b809d	0.30371562
99	0x3edd15a4	0.43180573
100	0x3ebd5119	0.36975935
101	0x3eb5f007	0.3553469
102	0x3eac3d57	0.3364055
103	0x3e95aff9	0.2923582
104	0x3eb31b8e	0.3498196
105	0x3eaea65b	0.34111294
106	0x3e8277cb	0.2548202
107	0x3ea49717	0.32146522
108	0x3ea721a3	0.3264285
109	0x3e8e928d	0.27846184
110	0x3e8ed0b6	0.2789361
111	0x3e88b206	0.2669832
112	0x3e33d34f	0.17561077
113	0x3e103f69	0.14086689
114	0x3e42a452	0.19007996
115	0x3d03c2a7	0.032168057
116	0x3d9165ef	0.070995204
117	0xbaf609dd	-0.001877125
118	0x3d48f6d0	0.049063504
119	0x3d989054	0.074494034
120	0x3dbd5df7	0.09246438
121	0x3d0368e2	0.032082446
122	0x3d25235b	0.04031692
123	0xbd271816	-0.040794455
124	0xbe455210	-0.19269586
125	0xbe66999f	-0.2251954
126	0xbe859e83	-0.26097497
127	0xbeab1e5d	-0.33421603
128	0xbeec7bf4	-0.4618832
129	0xbed25395	-0.41079393
130	0xbefd9ad0	-0.49532175
131	0xbec740be	-0.38916582
132	0xbed56673	-0.41679725
133	0xbed62312	-0.41823632
134	0xbefc19c3	-0.49238405
135	0xbef69882	-0.4816323
136	0xbf0ab3bb	-0.54180497
137	0xbef51fd0	-0.47875834
138	0xbf190a57	-0.597814
139	0xbf1d13d4	-0.6135838
140	0xbf244322	-0.64164937
141	0xbf277ea4	-0.65427613
142	0xbf314ba4	-0.69256043
143	0xbf34520a	-0.7043768
144	0xbf2c91a9	-0.6740976
145	0xbf33c873	-0.70227736
146	0xbf2ffebe	-0.6874808
147	0xbf2f2f95	-0.6843198
148	0xbf2a491b	-0.665178
149	0xbf35eb18	-0.7106185
150	0xbf2331e1	-0.63747984
151	0xbf23abd4	-0.63934064
152	0xbf2c20c6	-0.6723751
153	0xbf303acd	-0.6883972
154	0xbf3a1d89	-0.7270132
155	0xbf3c93cd	-0.73663026
156	0xbf1657d4	-0.58727765
157	0xbf1e51e3	-0.618437
158	0xbf143247	-0.5788922
159	0xbf1167ee	-0.5679921
160	0xbf0c175d	-0.5472315
161	0xbf0260f0	-0.50929165
162	0xbf061ebe	-0.5239066
163	0xbf2b1ad2	-0.668378
164	0xbf395efb	-0.72410554
165	0xbf3b6516	-0.7320112
166	0xbf502804	-0.8131106
167	0xbf39c0a1	-0.72559553
168	0xbf43b6c5	-0.7645076
169	0xbf4b5bb5	-0.7943681
170	0xbf3316f2	-0.69956887
171	0xbf20bf25	-0.62791663
172	0xbf1ed041	-0.6203652
173	0xbf21bca9	-0.631785
174	0xbf09a2f5	-0.5376428
175	0xbf0f9ac0	-0.56095505
176	0xbee5d760	-0.4489088
177	0xbeeb376d	-0.45940724
178	0xbecdcce2	-0.40195376
179	0xbec15ba7	-0.37765238
180	0xbebab6da	-0.3646763
181	0xbe6e867a	-0.23293486
182	0xbe0377f6	-0.1283873
183	0xbe02f8a5	-0.12790163
184	0xbda34b57	-0.07973354
185	0xbd73cc79	-0.059521172
186	0x3cc1dbf3	0.02366445
187	0x3e013830	0.1261909
188	0x3dac8fd5	0.08425871
189	0x3e015f72	0.12634066
190	0x3e80eaa3	0.25179014
191	0x3e7de8d8	0.24795854
192	0x3ecfc4d5	0.40579858
193	0x3f061540	0.52376175
194	0x3f2d19fe	0.67617786
195	0x3f42956d	0.76009256
196	0x3f66ff9b	0.90233773
197	0x3f7a075a	0.9766747
198	0x3f821ac5	1.016442
199	0x3f797399	0.97442013
200	0x3f8115af	1.0084742
201	0x3f6718b9	0.902721
202	0x3f6b1665	0.91831046
203	0x3f6436dd	0.89146215
204	0x3f5ab44a	0.8543135
205	0x3f5b5599	0.85677487
206	0x3f609777	0.87731117
207	0x3f7244a9	0.9463602
208	0x3f822570	1.0167675
209	0x3f6f184b	0.93396443
210	0x3f86af72	1.0522292
211	0x3f81c400	1.013794
212	0x3f82382b	1.0173391
213	0x3f74eb66	0.9567169
214	0x3f4faf8a	0.81127226
215	0x3f3d4795	0.7393735
216	0x3f4330d0	0.76246357
217	0x3f3b7bf5	0.7323602
218	0x3f3faaf3	0.7487022
219	0x3f308a81	0.6896134
220	0x3f42496e	0.75893295
221	0x3f42e68e	0.7613305
222	0x3f41cd61	0.7570401
223	0x3f54270b	0.82872075
224	0x3f3f363d	0.74692136
225	0x3f3258d4	0.6966679
226	0x3f0d2d10	0.55146885
227	0x3ea6712b	0.32508215
228	0x3e3e8318	0.18604696
229	0x3dbd991a	0.092577174
230	0x3c298bb7	0.010348252
231	0xbe253cb0	-0.16136432
232	0xbda6cff7	-0.08145135
233	0xbdcdf22f	-0.100559585
234	0xbddad7ee	-0.106857166
235	0xbdde6054	-0.10858217
236	0xbcdb789e	-0.026790913
237	0x3d93c094	0.07214466
238	0x3d30e50f	0.043187197
239	0xbc470968	-0.012148239
240	0xbe140ac7	-0.14457236
241	0xbe756961	-0.2396598
242	0xbea63076	-0.32458848
243	0xbeb079f1	-0.34468034
244	0xbecd85c0	-0.40141106
245	0xbedddc05	-0.43331924
246	0xbe9730a8	-0.2952931
247	0xbea9d45e	-0.33169836
248	0xbe672040	-0.22570896
249	0xbdfd437f	-0.123663895
250	0xbd3b3daa	-0.045713104
251	0xbd11fc19	-0.03564081
252	0xbe399bc1	-0.18125822
253	0xbec01274	-0.3751408
254	0xbf25e43b	-0.6480138
255	0xbf93dfe2	-1.1552699

network.1.bias f4 [8]
0	0xbd80ec21	-0.06295038
1	0x3c224832	0.009904908
2	0x3d9925d0	0.07477915
3	0x3da3a663	0.0799072
4	0xbcbbb902	-0.022915367
5	0x3d0317d0	0.03200513
6	0xba1ba99a	-0.00059380534
7	0x3ca22d9e	0.019797143

network.2.weight f4 [8]
0	0x3d550800	0.052009583
1	0x3fe348ca	1.7756588
2	0x4012f80b	2.2963893
3	0x3f970e56	1.180125
4	0x3fe8981a	1.8171418
5	0x3fb7931d	1.434177
6	0x3f844b46	1.0335472
7	0x3fb41398	1.406848

network.2.bias f4 [8]
0	0xbda157cf	-0.07878076
1	0x3c9f2e81	0.019431354
2	0x3eb002c7	0.3437712
3	0xbdd37001	-0.103240974
4	0xbaaa1598	-0.0012976406
5	0xbabf2569	-0.0014583293
6	0xbe13a14f	-0.14417003
7	0x3d97ef2f	0.074186675

network.2.running_mean f4 [8]
0	0xbd973741	-0.07383586
1	0x3ccc8d9d	0.02496987
2	0x3d6b0f97	0.057387915
3	0x3dacdaf7	0.08440202
4	0xbcfa8d9b	-0.0305851
5	0x3ca93863	0.02065677
6	0xbc710d7c	-0.014712688
7	0x3d23e7ed	0.040016104

network.2.running_var f4 [8]
0	0x42f4d275	122.41105
1	0x43763835	246.21956
2	0x4399a612	307.29742
3	0x4359f1e7	217.94493
4	0x4367cc4a	231.798
5	0x437ab216	250.69565
6	0x439194ee	291.1635
7	0x43b31928	358.19653

network.3.weight f4 [16, 1, 96, 1]
0	0x40092e5e	2.143455
1	0x3f7c1b7d	0.98479444
2	0x3e8a8ae3	0.27059087
3	0x3f156558	0.58357763
4	0xbece2ece	-0.40270084
5	0x3e65e686	0.22451219
6	0x3e6ca6f4	0.23110563
7	0xbf0dd994	-0.5541012
8	0xbf6f822c	-0.93558
9	0x3cbc50ca	0.022987742
10	0xbe5c1740	-0.21493244
11	0x3d00d6a2	0.03145469
12	0x3e4180e2	0.18896821
13	0x3df07e47	0.117428355
14	0xbe08d096	-0.13360819
15	0x3d032002	0.032012947
16	0x3d8dd358	0.06925076
17	0xbf092cd5	-0.53584033
18	0xbd408571	-0.04700226
19	0x3d6e53d3	0.05818541
20	0x3f113e63	0.5673582
21	0xbebb052e	-0.3652739
22	0xbbee7b2a	-0.007277866
23	0xbf057f30	-0.521472
24	0xbe426e51	-0.18987395
25	0xbf8d9151	-1.1059972
26	0xbd8884fe	-0.06665991
27	0x3eceeb73	0.40414008
28	0x3ea441e6	0.32081527
29	0x3de9da02	0.11418535
30	0x3e779dc8	0.24181283
31	0xbef5f0bd	-0.4803523
32	0x3fa0b197	1.2554196
33	0x3e61ecb7	0.22062956
34	0x3f22e902	0.6363679
35	0x3e5c2c26	0.21501216
36	0xbf1a9d44	-0.6039622
37	0xbe1d6ee0	-0.15374327
38	0x3eaa2993	0.33234844
39	0xbf052673	-0.52011794
40	0xbe3d475c	-0.18484253
41	0xbe84f17c	-0.25965488
42	0x3f392db6	0.72335374
43	0xbe7665c4	-0.24062258
44	0x3ebb9e2e	0.3664412
45	0x3f15de57	0.5854239
46	0xbe2396e0	-0.15975523
47	0xbf465a3f	-0.77481455
48	0xbe322baa	-0.17399469
49	0xbe8ff90f	-0.28119704
50	0xbcf0c5eb	-0.02939125
51	0x3e434319	0.19068564
52	0x3f28cbc4	0.6593592
53	0x3dcacbc5	0.09902147
54	0x3d27be00	0.040952682
55	0x3e132f19	0.14373435
56	0xbf08b81f	-0.53405946
57	0xbf5309a5	-0.8243659
58	0xbd1b6cd5	-0.037945587
59	0xbee2bc68	-0.44284368
60	0x3d997544	0.0749307
61	0xbe0809a6	-0.1328493
62	0xbccff3c2	-0.025384787
63	0xbe54baf3	-0.2077444
64	0xbc4271d2	-0.011867957
65	0x3e3014fc	0.17195505
66	0xbe855242	-0.2603932
67	0xbdb30d25	-0.087427415
68	0xbe7c5392	-0.24641255
69	0x3d088558	0.03333029
70	0xbf1d79a5	-0.6151374
71	0xbeec6eba	-0.46178228
72	0x3e8dd104	0.2769853
73	0x3dd32a58	0.10310811
74	0x3e5d5759	0.21615352
75	0x3e0cc71c	0.13747829
76	0xbe4ef443	-0.20210366
77	0x3eee43e8	0.46536183
78	0x3dbe31ef	0.09286868
79	0xbd9065ec	-0.0705069
80	0x3ef008bd	0.46881667
81	0xbc42b7a5	-0.011884605
82	0x3f2962e3	0.66166514
83	0xbe3c0aa5	-0.18363436
84	0xbf19bee9	-0.6005693
85	0xbe1102c2	-0.14161208
86	0x3f4b77b8	0.7947955
87	0x3e5e6097	0.21716534
88	0xbeb17144	-0.34656727
89	0xbf27cb50	-0.65544605
90	0xbd8fa405	-0.07013706
91	0xbea729fd	-0.32649222
92	0xbce62edf	-0.028098522
93	0xbf00865a	-0.50205004
94	0x3f1401d4	0.5781529
95	0x3e94c06e	0.29053062
96	0x3cf407e4	0.029788919
97	0xbe879346	-0.26479548
98	0xbe19ad99	-0.15007629
99	0xbf07d568	-0.5306001
100	0x3e7e18d9	0.24814166
101	0x3f1592a8	0.58426905
102	0xbee18db5	-0.44053426
103	0xbe987448	-0.29776216
104	0xbe111a55	-0.14170201
105	0x3ecab56e	0.39591545
106	0x3d505328	0.050860554
107	0x3ddb02df	0.10693907
108	0x3f8b1e93	1.0868706
109	0xbd9c2bc4	-0.07625535
110	0x3dda2508	0.106515944
111	0xbdbcc202	-0.092166916
112	0xbe3ca8dd	-0.18423791
113	0xbf366ff5	-0.7126458
114	0x3ec3c66a	0.38237315
115	0xbedd2bf8	-0.43197608
116	0x3eb7453c	0.3579501
117	0x3ec7967f	0.38982007
118	0x3ea7a320	0.32741642
119	0x3c6a47e5	0.014299368
120	0xbe90849d	-0.28226176
121	0x3e9cd2a2	0.3062945
122	0x3db9cb36	0.090719625
123	0xbf59ae87	-0.8503193
124	0xbf0498f4	-0.5179589
125	0xbf291473	-0.6604683
126	0x3ec4d64a	0.3844474
127	0x3f089bf7	0.53362983
128	0xbe600bce	-0.21879503
129	0xbf1afc61	-0.6054135
130	0x3db407a9	0.087905236
131	0x3ebc76ad	0.36809292
132	0x3efd52e0	0.4947729
133	0x3e99adc2	0.3001538
134	0xbee9cd12	-0.4566427
135	0xbf20205a	-0.62549365
136	0xbe9a8986	-0.30183047
137	0x3f7e6a38	0.99380827
138	0x3eff0a9d	0.49812785
139	0x3f08ec42	0.534855
140	0xbe6bfe2e	-0.2304618
141	0x3df3f083	0.11911108
142	0xbe209ae8	-0.15684092
143	0x3e544196	0.20728144
144	0xbe851db3	-0.2599922
145	0x3e4cf2e8	0.20014536
146	0x3e60ceba	0.2195386
147	0x3e7eed50	0.24895215
148	0x3e0d586a	0.13803259
149	0xbecba25a	-0.39772302
150	0x3d0f7802	0.035026558
151	0xbc2de2c7	-0.01061315
152	0x3eb0ef7b	0.3455771
153	0x3f174111	0.5908366
154	0x3e9e84b2	0.30960613
155	0xbe985b00	-0.29756927
156	0xbefd9b69	-0.4953263
157	0xbe829ab2	-0.25508648
158	0x3d67df02	0.05660916
159	0xbe32e79c	-0.17471164
160	0xbc81de13	-0.015852964
161	0x3f40d5f9	0.75326496
162	0xbe8884ee	-0.26663917
163	0xbece87ab	-0.4033788
164	0xbf0cf8ac	-0.55066943
165	0x3f1b4c85	0.60663635
166	0xbdf15d4c	-0.11785373
167	0x3ece6675	0.40312544
168	0xbdfbf9c3	-0.12303498
169	0x3ec8ed3a	0.3924349
170	0xbf8ab290	-1.0835743
171	0xbf3962a0	-0.72416115
172	0x3e6c6b5e	0.23087832
173	0xbc28a93f	-0.010294258
174	0xbea6642e	-0.32498306
175	0x3f1285ec	0.572356
176	0x3f44cc18	0.7687392
177	0xbe95c016	-0.29248112
178	0xbf7e2737	-0.9927859
179	0xbd46b771	-0.048514787
180	0xbeae0926	-0.33991355
181	0xbe04994f	-0.12949108
182	0x3f524ee2	0.82151616
183	0x3e592d3b	0.2120866
184	0x3b0a8f92	0.0021142703
185	0x3e71ef8b	0.23626535
186	0xbdbaec68	-0.09127122
187	0xbed0c3c3	-0.40774354
188	0x3f9d5c39	1.2293769
189	0x3ea0aa9f	0.31380174
190	0xbe81318b	-0.2523311
191	0x3e1532b9	0.1457013
192	0x3e6cecfe	0.2313728
193	0x3ef0ea4a	0.47053748
194	0x3de85bb7	0.11345618
195	0x3d4a02fe	0.04931926
196	0xbdb72b8a	-0.08943851
197	0xbdd0acff	-0.101892464
198	0xbf17d46a	-0.59308493
199	0x3e306001	0.17224123
200	0x3be9807a	0.0071259113
201	0x3eeb018e	0.45899624
202	0x3f1615cd	0.58627015
203	0xbd50525a	-0.050859787
204	0x3f74b412	0.95587265
205	0x3d6908fe	0.05689334
206	0x3d9b3369	0.07578165
207	0xbddcb3d5	-0.10776488
208	0x3e5697f2	0.209564
209	0xbf3abbac	-0.72942615
210	0xbbc861e2	-0.006115184
211	0xbd813d4b	-0.06310519
212	0x3eb75692	0.35808235
213	0x3de77787	0.11302095
214	0x3e53caa3	0.20682769
215	0xbf2e6263	-0.68118876
216	0xbeb48614	-0.35258543
217	0x3dc3b0fa	0.0955524
218	0xbe6960da	-0.22790852
219	0xbe68ae75	-0.227228
220	0x3c813171	0.015770646
221	0xbe557473	-0.20845203
222	0x3e365e1a	0.17809334
223	0xbe7d299e	-0.24722907
224	0x3e86315e	0.2620954
225	0xbd3f7566	-0.04674282
226	0x3c1062e4	0.00881264
227	0xbdec47f3	-0.11537161
228	0x3e05e686	0.13076219
229	0xbe7012df	-0.23444699
230	0x3df5570c	0.119794935
231	0xbf211c24	-0.62933564
232	0xbf4b15b3	-0.79329985
233	0xbde6d573	-0.11271181
234	0x3f10bf4f	0.56541914
235	0x3f104a43	0.56363314
236	0x3fe44342	1.7833025
237	0x3d25975e	0.040427558
238	0x3e49658a	0.1966764
239	0x3f63ee0d	0.8903511
240	0x3e898fa1	0.26867393
241	0xbeccaffc	-0.39978015
242	0xbd9ef060	-0.07760692
243	0x3e81fd43	0.25388536
244	0x3e8c2a96	0.2737624
245	0x3e7cec43	0.24699502
246	0x3e32d8df	0.17465542
247	0xbc6436ef	-0.013929113
248	0xbdde9893	-0.10868945
249	0xbe1745e0	-0.14772749
250	0xbeb757d2	-0.3580919
251	0xbdb4d816	-0.088302776
252	0x3e0dd6e1	0.13851501
253	0x3edc26d3	0.4299837
254	0xbf17632b	-0.59135693
255	0xbf289bac	-0.65862536

network.3.bias f4 [16]
0	0xbdf9f1ea	-0.122043446
1	0x3e2752b5	0.16340144
2	0x3da86151	0.08221687
3	0xbd6c9b5c	-0.05776535
4	0xbdce19e3	-0.10063531
5	0xbd316c00	-0.043315887
6	0xbd55da9a	-0.052210428
7	0x3e0ac55f	0.13551854
8	0xbd55722f	-0.052110847
9	0x3d132949	0.035928044
10	0xbd15339e	-0.03642618
11	0x3e1862e3	0.14881472
12	0x3dfcf0a7	0.12350588
13	0xbcc040cb	-0.023468396
14	0xbe5641b1	-0.20923497
15	0xbc9ea2e5	-0.019364784

network.4.weight f4 [16]
0	0x406b2c15	3.6745656
1	0x3fe75dc4	1.807549
2	0x4032e031	2.7949336
3	0x3fbf1cdc	1.4930682
4	0x401f0d30	2.48518
5	0x40363635	2.8470585
6	0x3f9f082c	1.2424369
7	0x3f8a7d93	1.0819572
8	0x3f623f4d	0.8837784
9	0x3f5c42eb	0.8603961
10	0x3f8ba2fd	1.0909115
11	0x3f6afaf5	0.9178918
12	0x3f607b7b	0.87688416
13	0x3fa31611	1.2741109
14	0x3fa4aead	1.2865807
15	0x3f776052	0.9663135

network.4.bias f4 [16]
0	0xc06092f4	-3.5089693
1	0xbf2f16ff	-0.68394464
2	0xc007d541	-2.122391
3	0xbe959793	-0.29217204
4	0xbfa3d452	-1.279917
5	0xbfbfc883	-1.4983066
6	0xbe7837e3	-0.24240069
7	0xbe4ff06f	-0.20306562
8	0xbdbd87c8	-0.09254414
9	0xbe10cfdd	-0.14141794
10	0xbe70eb4f	-0.23527263
11	0xbe05032d	-0.12989493
12	0xbe09bc98	-0.13450849
13	0xbeb2c8bb	-0.3491877
14	0xbeb99161	-0.36243728
15	0xbe4279e1	-0.18991806

network.4.running_mean f4 [16]
0	0xbe34db4d	-0.17661782
1	0x3d21b2f9	0.039477322
2	0x3dbc8590	0.092051625
3	0xbd55dba0	-0.052211404
4	0xbf7bd962	-0.98378575
5	0xbf64dee8	-0.8940263
6	0x3d3b0917	0.045662966
7	0xbd0caf72	-0.034347005
8	0xbd57a1c6	-0.052644514
9	0x3d131028	0.03590408
10	0xbd19b36c	-0.037524626
11	0x3e1c6215	0.1527179
12	0x3dc5a85e	0.09651254
13	0x3e20a492	0.15687779
14	0xbe4064b0	-0.18788409
15	0xbd3f491c	-0.046700582

network.4.running_var f4 [16]
0	0x3d096551	0.03354389
1	0x3c618ad2	0.0137660075
2	0x42603523	56.05189
3	0x419c6ff4	19.554665
4	0x420e35af	35.552425
5	0x4201dbf7	32.46481
6	0x414938a6	12.57633
7	0x4114ee09	9.308114
8	0x41f8500a	31.039082
9	0x41ffccda	31.975025
10	0x41709380	15.036011
11	0x40fbbd63	7.8668685
12	0x400cecd4	2.2019548
13	0x40581e36	3.376844
14	0x4086b254	4.2092686
15	0x413834d4	11.5128975

network.9.weight f4 [16, 2, 1, 16]
0	0x3e5178d5	0.2045625
1	0x3dc882e5	0.09790591
2	0x3ddbd69d	0.107342936
3	0x3e092abb	0.13395207
4	0x3eb83221	0.35975745
5	0x3e868fdf	0.2628164
6	0x3ee6c2a9	0.4507039
7	0x3df2aeac	0.11849722
8	0x3df36330	0.11884153
9	0x3d49012b	0.04907338
10	0xbd723cf2	-0.059140153
11	0x3db20bb9	0.08693642
12	0x3dec497f	0.11537456
13	0x3e328bd8	0.17436159
14	0x3ecb1595	0.39664903
15	0x3f0f4fd1	0.55981165
16	0xbd8aa889	-0.06770427
17	0x3c1cd939	0.009573274
18	0x3dcbd02b	0.09951814
19	0x3e15b86e	0.14621136
20	0xbdb75f28	-0.089536965
21	0xbd4d867b	-0.05017708
22	0xbee4c351	-0.44680265
23	0xbed88abc	-0.42293346
24	0xbece151b	-0.40250477
25	0xbef2ca81	-0.47420123
26	0xbe2af792	-0.16696003
27	0xbc94d7ce	-0.01816931
28	0x3b72cfb8	0.003705008
29	0x3ea6aaf0	0.3255229
30	0x3e302856	0.17202887
31	0xbc0974e4	-0.008389685
32	0xbdcc22e0	-0.099675894
33	0xbd8518d3	-0.064988755
34	0xbe018d13	-0.12651472
35	0xbc2a1236	-0.010380318
36	0x3eb9523f	0.3619556
37	0xbde496f1	-0.11161602
38	0x3da5de87	0.08099084
39	0xbdaae24f	-0.08343946
40	0x3dbdccf3	0.092676066
41	0xbe3f50dd	-0.1868319
42	0x3d30db37	0.04317781
43	0x3e15d296	0.14631113
44	0x3e15aa8a	0.14615837
45	0x3e0c48cc	0.13699645
46	0x3e14313b	0.14471905
47	0x3d463e02	0.04839898
48	0x3f008a10	0.50210667
49	0x3e80c323	0.25148878
50	0x3d69f1a0	0.057115197
51	0xbe8463ad	-0.25857297
52	0xbe92cb77	-0.28670856
53	0xbf007ae7	-0.50187534
54	0xbe9c556b	-0.3053392
55	0xbd8a28de	-0.06746076
56	0x3eb8f5e5	0.36125103
57	0x3f3af68c	0.7303245
58	0x3f4906c5	0.78525954
59	0x3ed2d36b	0.41176924
60	0x3e97a008	0.29614282
61	0x3d519f61	0.051177386
62	0xbe3ef1dc	-0.1864695
63	0xbe83872c	-0.25689065
64	0x3f2b6347	0.6694836
65	0x3ef5763f	0.47941777
66	0xbf155508	-0.5833287
67	0x3d827428	0.06369811
68	0x3e982411	0.29715016
69	0x3e4dfbd7	0.201156
70	0x3e8ab067	0.2708771
71	0x3f0d6de3	0.552458
72	0xbe2ce1ab	-0.1688296
73	0x3e42658e	0.18984053
74	0x3dda3f8b	0.10656651
75	0x3d94c894	0.0726482
76	0x3e4eb2c7	0.20185386
77	0xbd915892	-0.070969716
78	0xbcf2b927	-0.029629303
79	0x3f01a50c	0.50642467
80	0xbee7ad3e	-0.4524936
81	0x3df36d67	0.11886101
82	0x3e23dc4d	0.16002007
83	0x3ea16813	0.31524715
84	0x3ec24663	0.37944326
85	0xbe3817f5	-0.17977889
86	0xbc9e9e02	-0.019362453
87	0x3ebef147	0.37293455
88	0xbd0cbf53	-0.03436215
89	0xbe822a11	-0.2542272
90	0xbe1a9b61	-0.15098335
91	0xbdcb0beb	-0.099143825
92	0x3f4dbdf5	0.80367976
93	0x3e93863e	0.28813356
94	0xbece72b0	-0.40321875
95	0xbe3e2591	-0.18569018
96	0x3e4c3598	0.1994232
97	0x3b7b969e	0.0038389335
98	0x3ecf333b	0.40468773
99	0xbed3c0e8	-0.41358113
100	0x3c1b7393	0.009488004
101	0xbe29dcf7	-0.16588198
102	0x3cef1ea2	0.029189412
103	0x3e0f2f3b	0.1398286
104	0x3dcfcbd0	0.10146296
105	0x3e0b1d38	0.13585365
106	0x3ec5c265	0.38624874
107	0xbebb96f9	-0.3663862
108	0xbc9beffc	-0.019035332
109	0x3ce59225	0.028023789
110	0x3d915129	0.07095558
111	0x3c714779	0.014726513
112	0x3eb3cff0	0.3511958
113	0xbf26add6	-0.65109
114	0xbf4d8272	-0.8027717
115	0x3c319607	0.010838992
116	0x3f8ac293	1.0840629
117	0x3f6b6f0e	0.9196633
118	0xbe4fdaae	-0.20298263
119	0xbf1e4beb	-0.6183459
120	0xbf855d48	-1.0419092
121	0xbf45bb77	-0.77239174
122	0x3f1c6d8e	0.6110467
123	0x3f8f1e8c	1.1181197
124	0x3ebe7525	0.3719875
125	0xbe69512f	-0.22784875
126	0xbf1a3c92	-0.6024867
127	0xbe9835de	-0.29728597
128	0xbe6ee021	-0.23327686
129	0xbeec11b4	-0.46107256
130	0xbf1b029d	-0.6055086
131	0xbd542df9	-0.051801655
132	0x3f33a092	0.70166886
133	0x3f2963b7	0.6616778
134	0x3c4fdcdb	0.012686933
135	0xbe110b36	-0.14164433
136	0xbe6737ca	-0.22579876
137	0xbe50d584	-0.2039395
138	0xbeefe51a	-0.46854478
139	0xbe91581e	-0.2838754
140	0x3cf3de07	0.029768957
141	0x3e48dbe1	0.19615127
142	0xbe26bd39	-0.1628312
143	0xbd23aeca	-0.039961614
144	0xbcac58b6	-0.021038394
145	0x3d44c7ab	0.04804198
146	0xbedde7a1	-0.4334078
147	0xbe920ab2	-0.28523785
148	0xbe60223a	-0.21888056
149	0xbe7e99d8	-0.24863374
150	0xbd24ee36	-0.04026624
151	0x3e5c3f30	0.21508479
152	0xbccc5484	-0.024942644
153	0xbe88ac72	-0.26694065
154	0xbec70646	-0.38871974
155	0xbe812a22	-0.25227457
156	0x3ec92d43	0.39292344
157	0x3eaeeed9	0.341666
158	0xbe886795	-0.26641527
159	0xbe9d4cb7	-0.3072259
160	0x3f1f3803	0.6219484
161	0x3da9a304	0.08283046
162	0xbf0dc0f2	-0.55372536
163	0xbedfab44	-0.43685353
164	0xbdd681b6	-0.10473959
165	0xbcad9d4b	-0.021193167
166	0x3ea3bb71	0.31978944
167	0xbdde32e5	-0.10849551
168	0xbe221d40	-0.1583147
169	0xbe27c694	-0.16384345
170	0x3f164258	0.5869498
171	0x3f24c66c	0.6436527
172	0x3d818761	0.063246496
173	0xbef0dbd3	-0.47042713
174	0xbe603e06	-0.2189866
175	0xbea9325b	-0.3304623
176	0x3e30e662	0.17275384
177	0x3e574dd8	0.21025789
178	0x3e4a6368	0.19764483
179	0xbd5fc473	-0.054630708
180	0xbd5c2005	-0.053741474
181	0xbc945a69	-0.018109517
182	0xbea65863	-0.3248931
183	0xbeaefc18	-0.34176707
184	0xbeaffaa3	-0.34370908
185	0xbe9364a9	-0.28787735
186	0x3e9ed635	0.31022802
187	0x3ec67521	0.38761237
188	0x3f0360ee	0.5131978
189	0x3f0c4562	0.5479337
190	0x3e4a8c47	0.19780074
191	0xbf1c70f1	-0.61109835
192	0xbf18d125	-0.5969413
193	0x3ec2b975	0.38032117
194	0x3f38850a	0.72078
195	0x3e66b559	0.22530116
196	0xbe1bf0ad	-0.1522853
197	0xbe13b72b	-0.14425342
198	0xbe801007	-0.25012228
199	0xbe9e04cc	-0.30863035
200	0x3b93fafd	0.004516004
201	0x3f0ac592	0.5420772
202	0x3ebaeece	0.3651032
203	0xbe4fa69d	-0.20278402
204	0xbea37a64	-0.31929314
205	0xbe1d1d19	-0.15343131
206	0xbd124756	-0.035712563
207	0x3e816a7b	0.2527655
208	0x3f826cd1	1.0189458
209	0xbed6ebc7	-0.4197676
210	0xbf9c07b5	-1.2189852
211	0xbf1e89b8	-0.6192889
212	0x3eb82dc8	0.35972428
213	0x3f34d0bb	0.70631
214	0x3f84f08a	1.0385907
215	0x3eb63cfa	0.35593396
216	0xbe90bc0c	-0.28268468
217	0xbf9ad5ed	-1.2096535
218	0xbf4fdc14	-0.8119519
219	0x3e96c642	0.29448134
220	0x3f470762	0.7774564
221	0x3edd97dc	0.43279922
222	0x3e9fef1f	0.31237122
223	0xbf37ac51	-0.7174731
224	0xbeb95615	-0.36198488
225	0x3ede072c	0.43364847
226	0x3e4d0fd1	0.20025565
227	0xbf718922	-0.94349873
228	0xbeb93dda	-0.36180001
229	0x3f8387e8	1.027585
230	0x3f615b6b	0.8803012
231	0xbf00c56a	-0.5030123
232	0xbf432c14	-0.7623913
233	0x3c5c5198	0.013447188
234	0xbee72a92	-0.45149666
235	0xbf145a51	-0.5795031
236	0x3f280bc3	0.65642947
237	0x3faaa067	1.3330201
238	0xbd066b96	-0.032817446
239	0xbfaac4b1	-1.3341275
240	0xbed8865f	-0.42290017
241	0x3ea08db0	0.313581
242	0x3de8e2e2	0.113713995
243	0xbe84cefe	-0.25939173
244	0x3ecf3d7d	0.404766
245	0x3f4b1be9	0.7933946
246	0xbc3c899a	-0.011507416
247	0xbf49758e	-0.78695
248	0xbed347de	-0.41265768
249	0x3eae6e9d	0.34068766
250	0x3aab1d26	0.0013054952
251	0xbe9fea35	-0.31233373
252	0x3e85e8a7	0.26154062
253	0x3f1ec44e	0.6201829
254	0xbe9da048	-0.30786347
255	0xbf01352a	-0.50471747

network.9.bias f4 [16]
0	0x3cc05187	0.023476375
1	0x3c89d7af	0.016826479
2	0x3d9b40fa	0.07580753
3	0xbe948524	-0.29007828
4	0xbde6940a	-0.11258705
5	0x3cfc1375	0.030770997
6	0x3d27e0c0	0.040985823
7	0xbcb32650	-0.021868855
8	0xbe33a191	-0.17542101
9	0xbdacb4ce	-0.08432923
10	0xbd65ecbc	-0.05613397
11	0xbd67b295	-0.056566793
12	0xbdb8db98	-0.09026259
13	0x3b884a1d	0.0041592256
14	0xbdad675c	-0.0846698
15	0x3e265b5f	0.16245793

network.10.weight f4 [16, 16, 1, 1]
0	0x3e7020bf	0.23449992
1	0x3e99f94d	0.30073014
2	0xbdb548a3	-0.08851745
3	0xbe7ab0b9	-0.24481477
4	0x3ee0b96e	0.43891472
5	0x3e535469	0.20637669
6	0x3eb5db34	0.355188
7	0x3f82a393	1.0206169
8	0xbe928684	-0.28618252
9	0xbe620ed8	-0.22075975
10	0x3f32f604	0.6990664
11	0x3e8d44d8	0.27591586
12	0xbd36bb89	-0.04461244
13	0xbf2b795c	-0.66982055
14	0x3efc18d8	0.49237704
15	0x3f6c60ef	0.9233541
16	0xba5f1d74	-0.0008511164
17	0xbeeb0a07	-0.45906088
18	0x3cb014ee	0.021494355
19	0x3f0303c5	0.51177627
20	0x3eec32a1	0.46132377
21	0xbd7c09a7	-0.061532643
22	0x3e9950bb	0.29944405
23	0x3f191692	0.59800065
24	0xbe8cf187	-0.2752802
25	0x3fac8a17	1.3479642
26	0x3f1e18a9	0.6175638
27	0x3dbe2f30	0.09286344
28	0xbf164dab	-0.5871226
29	0x3ec03ea2	0.37547785
30	0xbeda226d	-0.4260439
31	0xbed8d1d1	-0.42347577
32	0x3e8f3dbd	0.2797679
33	0xbec3bb95	-0.3822905
34	0x3e01c86b	0.1267411
35	0x3e8e7481	0.2782326
36	0x3e46912b	0.19391315
37	0x3e96eca2	0.29477412
38	0xbf96b1fe	-1.1773069
39	0x3e6a2920	0.2286725
40	0x3f03e3aa	0.5151926
41	0x3f04f60a	0.51937926
42	0xbf0597be	-0.52184665
43	0xbd820457	-0.06348484
44	0x3f476380	0.778862
45	0xbd6e75ff	-0.058218
46	0xbf06501d	-0.52465993
47	0x3f43cfcd	0.76488954
48	0x3d85ab48	0.0652681
49	0x3d1b2f45	0.037886877
50	0x3ea892e8	0.3292458
51	0xbf35b27b	-0.70975465
52	0x3ef3ba08	0.47602868
53	0x3bb6ae2d	0.0055749626
54	0x3d47fe36	0.04882642
55	0xbf57ff04	-0.843735
56	0xbf21ed47	-0.6325268
57	0x3fb11d6e	1.3837106
58	0xbf6267d6	-0.8843969
59	0x3e2248c7	0.15848075
60	0x3e6608f6	0.22464356
61	0x3e072d08	0.13200772
62	0x3cad184c	0.02112975
63	0x3ca59555	0.020212809
64	0xbed82fce	-0.42223972
65	0x3e0f4254	0.13990146
66	0x3f27a5e6	0.65487516
67	0xbf070d17	-0.5275435
68	0x3e61ff53	0.22070055
69	0x3d456af9	0.04819772
70	0xbf2803a6	-0.6563057
71	0xbf26ef84	-0.6520922
72	0x3ed8761b	0.42277607
73	0xbf9a8b46	-1.2073753
74	0xbea34ae1	-0.31893066
75	0xbd8bc18b	-0.06824025
76	0x3e4f9a10	0.20273614
77	0xbeeb6456	-0.45974988
78	0xbed3d987	-0.41376898
79	0x3d5fd243	0.05464388
80	0x3e82b23d	0.2552661
81	0x3eab44a1	0.33450797
82	0xbe9b3091	-0.3031049
83	0xbe4dcecc	-0.20098418
84	0x3da33332	0.07968749
85	0xbb86d1a2	-0.0041143456
86	0x3f8c6226	1.0967453
87	0xbfac72b7	-1.3472508
88	0xbe3c12ad	-0.18366499
89	0xbd3d5583	-0.04622413
90	0x3f1a722d	0.6033047
91	0xbc8cab08	-0.017171398
92	0x3f00f80f	0.5037851
93	0x3eaf5a13	0.3424841
94	0xbe9f0d8e	-0.3106503
95	0x3f04e840	0.51916885
96	0xbe885c12	-0.26632744
97	0xbdea0d4c	-0.114283174
98	0x3f47f586	0.78109014
99	0x3f4ee1f0	0.80813503
100	0x3d5380b5	0.051636416
101	0xbe26dce8	-0.16295207
102	0x3f8e4ccf	1.111719
103	0x3e6a3e53	0.22875337
104	0x3ea8c56a	0.32963115
105	0x3eaaf407	0.33389303
106	0x3b06c14e	0.0020561996
107	0xbf52badf	-0.8231639
108	0x3f41cb4a	0.7570082
109	0xbe396407	-0.18104564
110	0x3dcd37b8	0.10020393
111	0xbc852142	-0.01625121
112	0x3e96bfac	0.2944311
113	0x3eabebcd	0.3357834
114	0x3e55306f	0.20819257
115	0x3ec3fb2e	0.38277572
116	0x3ee36bb9	0.44418123
117	0x3d8651ab	0.06558546
118	0x3d08dadf	0.033411857
119	0x3f80a944	1.0051656
120	0xbdd8e07d	-0.10589693
121	0x3f6c9b47	0.92424434
122	0x3f6df8df	0.9295787
123	0x3ec5e8d4	0.38654196
124	0x3f403754	0.75084424
125	0x3e9d62d8	0.30739474
126	0xbe46e2ca	-0.1942245
127	0xbe89baea	-0.26900417
128	0xbec87779	-0.3915365
129	0x3dc9ad85	0.09847549
130	0xbe23132e	-0.15925285
131	0xbe8a4254	-0.2700373
132	0xbedf338a	-0.4359401
133	0x3ef0aeb3	0.47008285
134	0xbe99157f	-0.29899213
135	0x3f1733ae	0.5906323
136	0xbf1ad247	-0.6047711
137	0x3ebe3336	0.37148446
138	0x3fbcb651	1.4743139
139	0xbf0cff69	-0.55077225
140	0x3df9c0fe	0.121950135
141	0xbde5bedf	-0.112180464
142	0xbf1698cd	-0.58826905
143	0x3e06f6b1	0.13180043
144	0xbe0e0260	-0.13868093
145	0x3e6afd4d	0.22948189
146	0xbdeaef22	-0.11471392
147	0x3eb836fd	0.35979453
148	0xbdad3c7e	-0.084588036
149	0xbeeccc4c	-0.46249616
150	0x3f387cb9	0.7206531
151	0x3e8c6acf	0.27425238
152	0xbe8d7567	-0.27628633
153	0xbefb5e44	-0.49095356
154	0xbfa4b728	-1.2868395
155	0x3e62775e	0.22115847
156	0x3ef0250e	0.4690327
157	0xbedda2dd	-0.43288317
158	0xbf7b8a68	-0.98258066
159	0x3db3f292	0.08786501
160	0x3e2c9611	0.16854121
161	0xbe967cb7	-0.29392025
162	0xbdadf633	-0.084942244
163	0xbe209423	-0.1568151
164	0x3e30f3fc	0.17280573
165	0xbd8f2514	-0.06989494
166	0xbc7cd502	-0.015431644
167	0xbe26f92c	-0.16305989
168	0xbf6ee07f	-0.93311304
169	0xbf9ed214	-1.2407861
170	0xbfa59c4a	-1.2938321
171	0xbefbed86	-0.49204654
172	0x3e310745	0.1728793
173	0x3efd3a9e	0.49458784
174	0x3ec9c26e	0.3940615
175	0x3d277ee0	0.04089248
176	0xbf0af286	-0.5427631
177	0x3eaacad2	0.33357865
178	0x3e7ed223	0.24884848
179	0xbe837e14	-0.25682127
180	0xbd905235	-0.0704693
181	0x3e1b674e	0.15176126
182	0xbf14a0a0	-0.58057594
183	0x3f5c6f04	0.86106896
184	0x3f097534	0.5369446
185	0x3e828ace	0.25496525
186	0xbf14cfd0	-0.58129597
187	0x3e28a21b	0.16468088
188	0xbf073023	-0.52807826
189	0x3f89eb75	1.0774981
190	0xbdd51055	-0.10403506
191	0x3e95464d	0.29155198
192	0x3ef6f65f	0.4823484
193	0x3eef93fb	0.46792588
194	0x3ed526f0	0.4163127
195	0x3f695a9c	0.91153884
196	0xbe6315db	-0.22176306
197	0x3db9bf37	0.090696745
198	0xbf19eada	-0.6012398
199	0x3e28a704	0.16469961
200	0x3ed80f81	0.4219933
201	0xbeb88065	-0.36035457
202	0xbe33a53a	-0.17543498
203	0xbf619532	-0.8811828
204	0xbf46c046	-0.77637136
205	0xbcc62d65	-0.024191568
206	0xbdc7f069	-0.097626515
207	0xbdf44f3c	-0.11929175
208	0x3d2e9217	0.04261979
209	0xbe07c5f2	-0.13259104
210	0x3f1db5ce	0.61605537
211	0xbf6cf193	-0.92556113
212	0x3e7978eb	0.24362533
213	0xbf183047	-0.59448665
214	0xbf770b4f	-0.9650163
215	0xbe81c4ae	-0.25345367
216	0xbeba0df1	-0.3633876
217	0xbf1341c5	-0.5752223
218	0x3f41244b	0.75446004
219	0xba2f5bc8	-0.00066893967
220	0xbe0f9368	-0.14021075
221	0x3e06bca9	0.13157906
222	0xbf3cbb14	-0.7372296
223	0x39125397	0.00013954785
224	0x3d333664	0.043753043
225	0xbda543c1	-0.08069564
226	0xbd38f6f4	-0.045157388
227	0x3e0f6d97	0.14006649
228	0x3e880a09	0.26570156
229	0x3da468af	0.08027779
230	0x3bb8c114	0.005638251
231	0x3f81aef8	1.0131521
232	0x3f6e71ff	0.93142694
233	0xbf88b943	-1.0681537
234	0x3f9e1690	1.2350636
235	0x3f20c104	0.6279452
236	0x3e52192b	0.20517413
237	0x3e3536d3	0.17696695
238	0xbe1c5b73	-0.1526926
239	0xbe0204df	-0.1269717
240	0x3e8d6884	0.27618802
241	0xbdc04298	-0.09387702
242	0x3e047aa7	0.12937413
243	0x3d154cab	0.03645007
244	0xbcce19f7	-0.025158865
245	0x3f59e930	0.8512144
246	0xbf2ba04b	-0.6704146
247	0xbf9bb08d	-1.2163254
248	0x3e3814f8	0.17976749
249	0xbeee9e45	-0.46605125
250	0xbf12a46c	-0.5728214
251	0x3f018703	0.50596637
252	0x3dbe8407	0.09302526
253	0xbe947297	-0.28993675
254	0xbf0a1ad9	-0.53947216
255	0xbedf9310	-0.43666887

network.10.bias f4 [16]
0	0xbe9ed389	-0.31020764
1	0xbd6d8988	-0.05799249
2	0xbea38dd6	-0.3194415
3	0x3da9b5ed	0.08286653
4	0xbc51564b	-0.0127769215
5	0xbdbad385	-0.091223754
6	0x3dbd5c3e	0.092461094
7	0xbe640dab	-0.22270839
8	0x3cafde87	0.021468414
9	0x3e7096c6	0.23495016
10	0x3e8cf9ae	0.2753424
11	0x3e3b9505	0.18318565
12	0xbe193719	-0.14962424
13	0x3e284c22	0.16435292
14	0x3ea60f7f	0.32433698
15	0xbeb4137b	-0.35171112

network.11.weight f4 [16]
0	0x3e40a255	0.18811925
1	0x3eb1b7e7	0.3471062
2	0x3e5533e1	0.20820571
3	0x3eac63d1	0.33669904
4	0x3e9a1cdf	0.30100152
5	0x3e7d0c59	0.24711742
6	0x3e6129a8	0.21988547
7	0x3e8fafb6	0.28063744
8	0x3e7c9d14	0.24669296
9	0x3e890a98	0.26765895
10	0x3ebf05e5	0.37309185
11	0x3e4ee2b4	0.20203668
12	0x3e1efa11	0.1552508
13	0x3e59546f	0.21223615
14	0x3ede009d	0.43359843
15	0x3e573d0d	0.21019383

network.11.bias f4 [16]
0	0xbb0fafd3	-0.0021924868
1	0xbcc322be	-0.023820277
2	0xbc78811f	-0.015167504
3	0xbcd45000	-0.025917053
4	0xbca9e1e6	-0.0207376
5	0xbcaaa444	-0.020830281
6	0xbc622c3f	-0.013804494
7	0xbce9a800	-0.028522491
8	0xbc3c27ba	-0.011484081
9	0xbccc42bb	-0.024934163
10	0xbcdae6b9	-0.026721345
11	0xbb8e9ed3	-0.0043524294
12	0x3a765617	0.00093969837
13	0xbcbe18a5	-0.02320511
14	0xbcbdb674	-0.02315829
15	0xba37e284	-0.00070146495

network.11.running_mean f4 [16]
0	0xbeb87db2	-0.36033398
1	0xbe6824b5	-0.22670253
2	0xbf5ec802	-0.8702394
3	0x3e9cd5ec	0.3063196
4	0x3e934abf	0.28767964
5	0x3da208a5	0.07911805
6	0xbf3387f4	-0.70129323
7	0xbfa6a142	-1.3017962
8	0x3f430818	0.76184225
9	0x3eed0864	0.46295464
10	0x3f2ca405	0.67437774
11	0x3f27247d	0.6529005
12	0xbfdb908f	-1.7153491
13	0x3e8b0bd9	0.27157477
14	0xbd79349e	-0.060841195
15	0xbf48293c	-0.7818792

network.11.running_var f4 [16]
0	0x42977754	75.73306
1	0x431648d5	150.2845
2	0x42b1ebb8	88.96039
3	0x43245c75	164.36116
4	0x430bf1bd	139.94429
5	0x42d8f850	108.484985
6	0x42d5a023	106.81277
7	0x430101c6	129.00693
8	0x42da2ce5	109.087685
9	0x42d7b783	107.85842
10	0x430c373a	140.21573
11	0x4298672c	76.20151
12	0x42a1c54b	80.88534
13	0x43036cb3	131.4246
14	0x431af889	154.97084
15	0x42ceface	103.48985

fc.weight f4 [40, 256]
0	0xbedd3a02	-0.4320832
1	0x3edefa66	0.43550414
2	0xbde5b495	-0.11216084
3	0x3e1916cd	0.14950104
4	0x3de7ceb8	0.11318725
5	0x3df79070	0.12088096
6	0xbe87c99e	-0.2652101
7	0xbeb2aba9	-0.3489659
8	0x3e6f33ed	0.23359652
9	0x3d2471b5	0.040147502
10	0x3d8f6bcd	0.07002983
11	0xbe967033	-0.29382476
12	0xbe7fbc61	-0.24974205
13	0xbd45334e	-0.04814463
14	0xbe83b630	-0.25724936
15	0x3f119473	0.5686714
16	0x3e16990f	0.14706825
17	0xbe2d8d33	-0.16948394
18	0x3e208934	0.15677339
19	0xbef140b5	-0.4711968
20	0x3ef544b5	0.47903982
21	0x3e322c10	0.17399621
22	0xbeb89c18	-0.3605659
23	0xbeab6967	-0.33478853
24	0xbe487dc5	-0.19579227
25	0xbeb6cf37	-0.35704967
26	0xbd61a38b	-0.055087607
27	0xbe330bc7	-0.17484961
28	0xbefea087	-0.49731848
29	0xbd41ea19	-0.047342394
30	0xbea206d8	-0.31645846
31	0xbb132970	-0.0022455119
32	0xbee0e682	-0.43925864
33	0x3d3ea783	0.04654647
34	0x3eae150e	0.34000438
35	0xbea023b4	-0.3127724
36	0x3e536551	0.20644118
37	0xbc9deafe	-0.019277092
38	0x3d537515	0.05162533
39	0x3e8574a2	0.26065546
40	0xbecbecac	-0.39829004
41	0xbd35504e	-0.044266038
42	0xbe9ed9c0	-0.31025505
43	0x3e7aa6ad	0.24477644
44	0x3ddc5a23	0.1075938
45	0x3d25db7d	0.040492523
46	0xbf07107b	-0.5275952
47	0x3ebfcbf4	0.3746029
48	0xbe3bdf01	-0.18346788
49	0xbf40b8e8	-0.75282145
50	0x3c37f60e	0.011228098
51	0x3e885fdd	0.26635638
52	0x3eb99355	0.36245218
53	0xbdbbc76b	-0.09168895
54	0xbed2f91d	-0.41205683
55	0xbea51199	-0.32239988
56	0x3d949f89	0.072569914
57	0x3d90eb4f	0.070761316
58	0xbed8fa66	-0.4237854
59	0xbea071ef	-0.31336924
60	0xbf16d7fe	-0.5892333
61	0xbc66f95a	-0.014097536
62	0xbea2a767	-0.31768343
63	0x3e9afd79	0.3027151
64	0xbd94cd2f	-0.07265698
65	0x3dda9eef	0.106748454
66	0xbea6e117	-0.32593605
67	0x3bd8994d	0.0066100718
68	0x3ac67856	0.0015142064
69	0x3dfd149f	0.12357449
70	0xbe14c716	-0.1452907
71	0xbec83455	-0.39102426
72	0xbed0d05e	-0.40783972
73	0xbe384c0d	-0.17997761
74	0xbddb3387	-0.107031874
75	0xbe8a9498	-0.27066493
76	0xbe4a9c0c	-0.1978609
77	0xbebc55f6	-0.36784333
78	0xbe706877	-0.2347735
79	0xbec8e2c2	-0.39235502
80	0xbdcb3ee3	-0.09924104
81	0xbf25a8c4	-0.6471064
82	0x3e4951de	0.19660136
83	0xbef887d6	-0.48541135
84	0x3ed71995	0.42011705
85	0xbe7861ef	-0.24256109
86	0xbde0e23c	-0.10980651
87	0xbe9a2033	-0.3010269
88	0xbeae597e	-0.34052652
89	0x3f395f00	0.72410583
90	0x3dbc0089	0.091797896
91	0xbf0e0810	-0.5548105
92	0xbe5f2027	-0.21789609
93	0xbe85623b	-0.26051506
94	0x3ef1a3ac	0.47195184
95	0xbeef3a3b	-0.46724114
96	0xbce677d6	-0.028133314
97	0xbf4135f7	-0.7547297
98	0xbec27e20	-0.3798685
99	0x3ce1511d	0.027504498
100	0x3f2a8044	0.6660197
101	0xbda5b933	-0.080919646
102	0xbd2451b5	-0.040116984
103	0xbea4f2e0	-0.3221655
104	0xbcba229b	-0.02272158
105	0x3dd9e642	0.10639621
106	0xbf0121fb	-0.50442475
107	0xbee4917a	-0.4464224
108	0xbeafe108	-0.34351373
109	0xbe932e74	-0.28746378
110	0x3d9362fc	0.07196614
111	0xbf5eda02	-0.87051404
112	0xbc68a368	-0.014199115
113	0xbec23c60	-0.37936687
114	0x3ee77031	0.45202783
115	0xbdb336cc	-0.08750686
116	0x3edb8a93	0.4287916
117	0x3c9a75bf	0.018854974
118	0x3da16d56	0.07882182
119	0xbe2adf79	-0.1668681
120	0xbee4520a	-0.4459384
121	0x3ea437ab	0.3207372
122	0xbee51abb	-0.44746956
123	0x3ec7ef93	0.39049968
124	0xbeb3017f	-0.3496208
125	0xbcfdc332	-0.030976865
126	0xbe8390c1	-0.25696376
127	0x3d92788b	0.07151898
128	0xbed34d39	-0.41269854
129	0x3ecd2823	0.40069684
130	0xbeac359f	-0.3363466
131	0xbde32cfd	-0.11092565
132	0x3e1e3bad	0.15452452
133	0xbd8ea704	-0.069654495
134	0xbd9d46d3	-0.07679524
135	0xbe255836	-0.16146931
136	0xbed00bef	-0.40634105
137	0x3de6f268	0.11276704
138	0xbe724e53	-0.23662691
139	0x3ec95a9f	0.3932695
140	0xbe0394d2	-0.12849739
141	0xbf3ca12e	-0.7368344
142	0x3ed6342d	0.41836682
143	0xbef0af7d	-0.47008887
144	0x3e01ffc6	0.12695226
145	0xbc96a64b	-0.018389842
146	0xbeb1a07d	-0.34692755
147	0xbcd7970f	-0.026317148
148	0xbf07bfaa	-0.5302683
149	0x3db443d5	0.088020004
150	0x3dd56ac2	0.10420753
151	0xbdfe064c	-0.12403545
152	0xbf042c24	-0.51629853
153	0xbe5b1008	-0.21392834
154	0x3dc5a023	0.09649684
155	0xbe8db129	-0.27674225
156	0xbe2933b7	-0.16523634
157	0xbd82c548	-0.06385285
158	0xbdbc7ffa	-0.09204097
159	0x3d83ce4f	0.064358346
160	0x3f564202	0.8369447
161	0xbe7ff1bf	-0.24994563
162	0x3d8bda55	0.06828753
163	0xbf0deb06	-0.5543674
164	0x3e872dc2	0.26402098
165	0xbe311325	-0.1729246
166	0xbdca93e3	-0.098914884
167	0xbea6377a	-0.324642
168	0xbf05603d	-0.5209997
169	0xbdca56d8	-0.098798454
170	0xbdcddbed	-0.10051713
171	0xbe89aa0b	-0.26887545
172	0xbf2c978a	-0.6741873
173	0x3dd5bc1e	0.10436271
174	0xbdfc9a9c	-0.12334177
175	0x3e65261c	0.22377819
176	0x3dcb65a7	0.09931498
177	0xbdc57ed4	-0.09643331
178	0xbec36bae	-0.3816809
179	0xbe583e80	-0.21117592
180	0x3d72b56f	0.05925506
181	0xbe5c4d5c	-0.21513885
182	0xbe730aa9	-0.23734535
183	0xbdaecf26	-0.08535604
184	0xbd98e558	-0.07465619
185	0x3e815c44	0.25265706
186	0xbf189ddc	-0.59615874
187	0x3ef9c109	0.48780087
188	0xbf205c0c	-0.6264045
189	0xbd18481f	-0.037178155
190	0xbea4441c	-0.32083213
191	0xbedf5b23	-0.4362422
192	0xbea58b22	-0.32332712
193	0x3e30f82a	0.17282167
194	0xbe76ff2b	-0.24120776
195	0xbd9408c2	-0.07228233
196	0x3a77855d	0.0009442175
197	0xbd2378af	-0.039910015
198	0x3e890f33	0.2676941
199	0xbc15181d	-0.009099987
200	0xbef349a8	-0.47517133
201	0xbe992a24	-0.29914963
202	0xbec65fe3	-0.3874503
203	0xbe8d80bf	-0.27637288
204	0x3b935501	0.0044962172
205	0xbd7ebda4	-0.062192574
206	0x3e346005	0.17614754
207	0xbeb94f2b	-0.36193213
208	0xbf6d1545	-0.9261058
209	0x3e95e580	0.29276657
210	0xbe5ed73d	-0.21761794
211	0xbe0b3195	-0.13593133
212	0x3f275d4c	0.65376735
213	0x3d32074a	0.043463983
214	0xbe90505b	-0.28186306
215	0xbeed5800	-0.463562
216	0xbf029971	-0.51015383
217	0xbd79318d	-0.06083827
218	0xbda94b50	-0.08266318
219	0xbe13e8ff	-0.1444435
220	0xbdf5d2dd	-0.120031096
221	0xbf845f2f	-1.0341548
222	0xbd3ea747	-0.046546247
223	0xbeceea74	-0.4041325
224	0xbecb41fb	-0.39698777
225	0xbe0dda9c	-0.13852924
226	0x3eaba3a6	0.3352329
227	0xbe9d5479	-0.3072851
228	0xbe83e141	-0.25757793
229	0xbe2c95e9	-0.16854061
230	0xbdf312ec	-0.118688434
231	0x3cacd4ac	0.021097504
232	0xbeff210d	-0.49829903
233	0xbe8a50fc	-0.2701491
234	0xbf26778a	-0.6502615
235	0xbeb29cd1	-0.34885266
236	0xbe0b4616	-0.13600954
237	0xbed69a04	-0.4191438
238	0x3eb69931	0.3566375
239	0x3eeb6873	0.45978126
240	0x3c700935	0.014650633
241	0xbf16f4f5	-0.58967525
242	0x3ed892d0	0.4229951
243	0xbe423a12	-0.18967465
244	0xbe1c8e77	-0.15288721
245	0x3ef0bf91	0.47021154
246	0xbe9ac092	-0.30225044
247	0x3d950c08	0.072776854
248	0xbf2197a0	-0.63121986
249	0xbea0eaa0	-0.31429005
250	0xbeafe65f	-0.34355447
251	0x3e019e24	0.12657982
252	0xbec8db87	-0.39229986
253	0x3ec3772a	0.38176852
254	0xbf1ff5f0	-0.62484646
255	0x3e5586eb	0.20852248

fc.bias f4 [40]
0	0xbdcdf0a4	-0.10055664
1	0xbe1ab43a	-0.15107813
2	0xbe0fc60f	-0.14040397
3	0xbe19a6d2	-0.15005043
4	0xbe2227da	-0.15835515
5	0xbd026bfa	-0.031841256
6	0xbd86cba2	-0.065818086
7	0xbe0fdf8b	-0.14050119
8	0xbe5d5cc4	-0.21617419
9	0x3bc3f2f4	0.00597989
10	0xbde53781	-0.11192227
11	0xbcc79f93	-0.024368083
12	0xbd3e5831	-0.046470825
13	0xbd5f4bc3	-0.05451561
14	0xbd267e18	-0.040647596
15	0xbc9bd734	-0.019023515
16	0xbe0d76ce	-0.13814852
17	0xbc9c3f26	-0.01907308
18	0x3d54bab7	0.051935878
19	0xbdb77d53	-0.089594506
20	0xbd1b0551	-0.037846867
21	0xbd1623ff	-0.036655422
22	0xbd971deb	-0.07378753
23	0x3d20710e	0.039170317
24	0xbd2d720f	-0.042345103
25	0x3c83661b	0.016039899
26	0xbe03cc62	-0.12870935
27	0xbda0f48b	-0.07859143
28	0xbe9b0ebc	-0.3028468
29	0xbe4c0750	-0.19924664
30	0xbd5a5adb	-0.053309303
31	0xbdc1667a	-0.09443374
32	0xbd167aad	-0.036738086
33	0xbc0186f6	-0.007905712
34	0xbca9521d	-0.020669037
35	0xbb1a7b91	-0.0023572186
36	0xbdcf5b53	-0.101248406
37	0xbe158fd6	-0.1460565
38	0xbb835570	-0.0040079877
39	0x3ba0fe51	0.0049131294
