Experiment/image-LSTM4-512-96-0.pth (torch, 551862 bytes, 8 tensors)

lstm.weight_ih_l0 f4 [512, 96]
000000 13 ed 88 be fd 20 9b 3d b3 e8 72 be 84 bd e0 be
       -0.26743373 0.075746514 -0.2372158 -0.4389459
000010 e5 77 1f 3f 73 71 40 3e 8e a9 0e bf 53 2e c4 3d
       0.6229232 0.18793277 -0.5572747 0.09579148
000020 0d 56 20 be fd a8 49 be 87 a8 82 3d 96 f4 f0 be
       -0.15657826 -0.1969337 0.063798 -0.47061604
000030 89 71 94 3c e5 73 ce be d4 5d b8 3e f1 e5 a4 bf
       0.018120544 -0.40322796 0.36009085 -1.2882673
000040 d9 10 39 be cc 6f 66 bf 85 81 96 be a0 4c fb be
       -0.18072833 -0.9001434 -0.2939569 -0.49081898
000050 fa a1 f4 3d f0 e8 65 3e 26 68 bc bd 14 aa 55 3d
       0.11944957 0.2245214 -0.09199552 0.052164152
000060 6d c2 76 bc a7 48 2b bf 78 fb 1d be f6 78 e1 bd
       -0.015061003 -0.66907734 -0.15427959 -0.110093996
000070 da 8e bf bc 92 50 da 3e be a7 5d 3e 16 36 f1 bd
       -0.023383547 0.42639595 0.2164602 -0.11777894
000080 75 47 13 3f 2f f6 18 be c9 ee bc be b0 f8 9b 3d
       0.5753091 -0.14937662 -0.3690093 0.07615793
000090 1b 4e c3 3b c8 2f d5 3d d1 9b 76 be 02 dc 1d bf
       0.0059602386 0.10409504 -0.24082877 -0.6166383
0000a0 7d f6 4c 3e db f6 16 be 71 b8 a0 be 8e 3a 1b 3f
       0.20015903 -0.14742605 -0.31390718 0.6063622
0000b0 0c 35 b6 be cf 42 1f bf 3d 44 fc 3e f5 ca 75 3e
       -0.35587347 -0.62211317 0.49270812 0.24003203
0000c0 31 06 e6 3d 27 36 16 bf b5 c0 c6 be ae 80 d8 be
       0.1123165 -0.5867638 -0.388189 -0.42285675
0000d0 b6 3f 18 be 7c bf 09 3e 12 0a 12 3f 5d a1 c6 3c
       -0.14868054 0.13451952 0.57046616 0.024246866
0000e0 22 16 51 bd 1f 81 01 3f 31 fb 71 bf db d0 69 bf
       -0.051046498 0.5058765 -0.9452391 -0.91334313
0000f0 51 6e 75 3e 76 e6 f7 be 62 25 80 bc 96 fa 32 3f
       0.23967864 -0.48418015 -0.015642826 0.69913614
000100 80 6d 0d 3d e7 ce a0 3d 7f 61 bb be ca b4 b5 3c
       0.034528255 0.078519635 -0.3659782 0.022180934
000110 8f 47 9e bf 10 b4 fe 3e 70 64 72 bd e8 db 31 be
       -1.2365588 0.49746752 -0.059177816 -0.17369044
000120 39 f7 11 bd 18 1e 4e be 45 90 42 be c9 80 16 bf
       -0.03563616 -0.20128667 -0.19000347 -0.5879026
000130 da 1d 1f be 1d 03 1e 3f 6b a4 80 3d f6 47 d1 bd
       -0.15538731 0.617235 0.0628136 -0.102188036
000140 82 5c ef be bd a7 7a 3e ad fd cc bd 6f 59 f3 bc
       -0.46750265 0.2447805 -0.10009322 -0.029705731
000150 8f f4 4b 3c d0 b4 9c be 87 69 d1 be 55 a5 39 bd
       0.012448444 -0.306067 -0.40900823 -0.04532369
000160 5f be 82 be da 83 df be 54 d7 eb bd a8 d4 7b be
       -0.25535867 -0.43655282 -0.1151568 -0.2459284
000170 0c 64 33 3e 51 6e be be ac d2 ff 3e 67 e8 26 bf
       0.17518634 -0.3719354 0.49965417 -0.6519837
000180 9b f4 a9 bd e0 ba a9 3b 60 b9 c3 3d 77 d5 90 3e
       -0.08298608 0.005179748 0.09556842 0.2828786
000190 70 a4 2f 3f df 87 d3 3e d2 84 bb 3d 95 be 1c 3e
       0.68610287 0.413146 0.09156193 0.15307076
0001a0 32 0b 32 3e 79 2f 42 3f 60 f1 54 3f 14 ef c6 bc
       0.17387083 0.7585369 0.8318081 -0.024283923
0001b0 1b 46 f0 be e8 25 46 3f 3f 71 3d 3e 90 6e fc 3d
       -0.46928486 0.7740159 0.18500231 0.123257756
0001c0 b7 17 d1 3d 3d eb 5f 3e 2a c2 68 3e b4 74 92 be
       0.10209601 0.2186708 0.22730318 -0.28604662
0001d0 50 3d 43 be 8d 7b 0d 3e 31 62 56 bd ec 46 24 3e
       -0.19066358 0.13816662 -0.052339736 0.1604268
0001e0 71 c5 7d 3e 1c d7 81 be b5 2b e9 ba 02 b7 a3 be
       0.24782349 -0.25359428 -0.0017789515 -0.3197556
0001f0 8b d0 28 3f c1 05 13 3e 2f 7c 43 3e 0f c0 64 be
       0.6594321 0.14357664 0.19090341 -0.2233889
000200 3f aa 86 3e 59 dc 13 be 45 5a d3 3e f5 8f 62 be
       0.26301762 -0.14439525 0.41279808 -0.22125228
000210 5d 43 d2 3e e4 83 5d 3e 16 4c 44 3d b0 b4 37 bf
       0.4106702 0.21632344 0.047924124 -0.7176008
000220 fb 2f 8c 3d 09 97 cd bd d5 c5 0f bf 67 ac 57 be
       0.06845089 -0.10038573 -0.5616124 -0.2106186
000230 6f db 59 bf 96 c7 40 be 01 52 55 bf 82 52 a5 3e
       -0.85100454 -0.18826136 -0.83328253 0.3228951
000240 08 8a 1f bf 9e 46 46 be 0d 59 be 3e 6c cc 2b 3f
       -0.62319994 -0.19362876 0.37177315 0.671088
000250 cc 45 93 bd 0b 35 ef 3d 10 ad a5 be 88 cd 3c be
       -0.07191047 0.11680039 -0.323586 -0.18437779
000260 18 fa 5c 3f 0a 1a 2a bf 52 da 12 bf 22 37 1c bf
       0.8631911 -0.6644598 -0.5736438 -0.61021626
000270 10 21 54 be 40 0c 79 3e 23 aa 94 3e 36 57 ca 3e
       -0.20715737 0.24321079 0.29036054 0.39519662
000280 87 6b 65 3d 7c 20 71 be 4a 65 e5 3e e0 db c9 3e
       0.05601075 -0.23547548 0.4480384 0.39425564
000290 31 70 ff 3e 86 88 f7 3d 3e df e2 3e 78 15 66 be
       0.49890283 0.12086587 0.44310945 -0.22469127
0002a0 14 1c c4 3b 18 30 c0 bd 12 e1 84 bc 9e db 1a bd
       0.0059847925 -0.09384173 -0.016220603 -0.0378071
0002b0 df 10 0c 3f 45 e7 9d 3e b5 e9 ac bd aa af 3d 3f
       0.54713243 0.30840507 -0.084430136 0.7409617
0002c0 44 21 0a 3e 94 84 d6 3d 20 a9 17 3f f3 aa 93 3e
       0.13489252 0.10474506 0.5924244 0.2884136
0002d0 39 e3 01 3f 26 34 5c 3c b1 0f 47 3f e3 ce 28 3f
       0.5073734 0.0134401675 0.7775832 0.65940684
0002e0 98 76 15 3d 3b 55 96 3e 5a f7 ef 3e 3d 34 dc bd
       0.036490053 0.293619 0.46868402 -0.10752151
0002f0 8f 13 09 bd 80 31 ce 3e a7 6e 40 3f dc f7 75 3e
       -0.03346592 0.4027214 0.7516884 0.24020332
000300 23 9f 75 bf 9a e7 6d 3e f2 b1 b3 3e 39 99 34 bd
       -0.9594595 0.2323288 0.350967 -0.044091437
000310 24 57 82 be 44 17 f8 3c ee 12 80 be 40 5f 97 3e
       -0.25457108 0.030284531 -0.25014442 0.29564857
000320 65 23 8a 3d 38 d1 47 3e 39 cf 38 bf 93 57 28 bf
       0.06745032 0.19513404 -0.72191197 -0.6575863
000330 84 93 c9 be 07 b6 bd be 9d 93 1b bf db a5 de bd
       -0.39370358 -0.37052938 -0.60772115 -0.10871478
000340 61 47 6b 3b 9a 48 96 bd cf a7 05 3e de 37 12 3e
       0.00359007 -0.073380664 0.13052295 0.14279124
000350 dc db 27 be 3a d3 17 be e9 69 ba be e3 5b e0 be
       -0.16392463 -0.1482667 -0.36408928 -0.43820104
000360 6e 6d 42 3e d5 34 54 3e 22 c8 39 bf e5 c4 e6 3e
       0.18987057 0.20723279 -0.72571003 0.45072094
000370 f7 6b 24 be 53 5a d2 3d 81 33 29 bd cd ae d4 bc
       -0.1605681 0.10271134 -0.041308884 -0.025962258
000380 5f 72 18 bf 45 3a 75 bd 49 c8 79 3c da ef 32 bf
       -0.59549516 -0.059870023 0.015245506 -0.69897234
000390 37 ef 83 bf f6 5a 15 be 41 f0 eb bb da 35 a5 3d
       -1.0307378 -0.1458548 -0.0072002714 0.08066912
0003a0 84 ee ca bd 17 0f f5 3c a5 a9 55 be c3 30 4a be
       -0.099087745 0.029914422 -0.20865496 -0.19745164
0003b0 40 6f ec 3e 1e bf d1 bd 0c da d6 be 03 a1 fc be
       0.46178627 -0.10241531 -0.41963232 -0.49341592
0003c0 c9 98 bf 3d d5 17 9a 3e 96 17 08 3e 92 75 a4 be
       0.09355313 0.30096307 0.13290247 -0.3212095
0003d0 3e e6 d7 3d dd df 6a 3e b3 07 b4 bc d8 19 43 be
       0.10541962 0.2293696 -0.021976328 -0.19052827
0003e0 50 b1 d6 bd e5 41 20 3e a6 99 32 bd 3f 15 55 be
       -0.104830384 0.15650137 -0.04360356 -0.20808886
0003f0 e5 cd 73 be fd 72 f8 bd 12 24 6d be b8 41 76 3c
       -0.23809011 -0.12131307 -0.23158291 0.015030317

lstm.weight_hh_l0 f4 [512, 128]
000000 3e 31 da 3e 4d e7 ad be 8a 1c e5 3e e5 cf 1f 3f
       0.42615694 -0.3396553 0.44748336 0.62426597
000010 aa 79 cb be 04 ce d3 3e 5e f9 2d be b1 14 0c 3e
       -0.3974126 0.41368115 -0.16989657 0.13679768
000020 c1 26 27 3f 24 23 5c 3d 3b e9 06 bf 0c d5 96 3d
       0.6529351 0.05374445 -0.5269963 0.07364854
000030 bb 51 f4 bc 8c 37 72 be ee 28 13 3f 67 c7 a1 3d
       -0.029824128 -0.23654002 0.5748433 0.07899361
000040 77 a8 dd be 8e bd 85 bf ab 2d c1 bd de be 44 3f
       -0.4329259 -1.0448472 -0.094325386 0.7685374
000050 c8 71 60 be 9f 46 64 3f 11 26 ec 3e 70 9b a5 3e
       -0.21918404 0.8917026 0.46122792 0.32345152
000060 29 ed 3e 3d 16 31 85 3e 74 a2 02 bf fa d2 6a 3d
       0.046612892 0.26014012 -0.51029134 0.05733011
000070 70 ee 83 bf 9a 06 26 3e e3 35 f1 be f2 b7 46 bf
       -1.030714 0.16213456 -0.47111425 -0.7762443
000080 dc 7c c2 bb 24 3f 85 3c a9 3e ef bd 03 91 af be
       -0.0059352946 0.01626546 -0.11681873 -0.34290323
000090 37 f1 e8 be ce 47 b5 3e 66 0f 85 bf c7 db fb bb
       -0.45496532 0.35406345 -1.0395324 -0.0076861116
0000a0 9b f6 5a bf e6 8f ae be e4 ac ec be b1 7d 94 3d
       -0.8553254 -0.3409416 -0.46225655 0.07250536
0000b0 79 26 71 be dd 50 11 3f ee 13 a2 be 79 31 11 3f
       -0.23549832 0.5676401 -0.3165583 0.56716114
0000c0 f6 b0 11 bf be 4b 8a be 5e 71 cb be 95 72 ff be
       -0.56910646 -0.27010912 -0.3973493 -0.49892107
0000d0 f3 7f 03 bf 66 47 a3 be f4 9b b1 3e b7 b9 f2 3e
       -0.5136711 -0.3189041 0.34689295 0.47407314
0000e0 46 2d 0a 3f 4d 84 f4 bd 09 8f cf 3e 77 17 39 bf
       0.5397533 -0.11939297 0.40538815 -0.7230143
0000f0 bc c8 36 bf 6f 61 1f 3f e3 96 81 3e 9c 4c 8d 3d
       -0.71400046 0.62258047 0.2531043 0.06899378
000100 91 44 e2 3e 40 ba 89 bd 2a 1e d8 be 89 54 96 bd
       0.44192937 -0.067249775 -0.42210513 -0.073403426
000110 4f 67 bf bd 43 7a 32 3f 7f 8e 75 bf 1c 8e 16 be
       -0.093458764 0.69717807 -0.95920557 -0.14702648
000120 a1 5e e2 be 14 52 03 bd 47 e4 f4 3e 84 85 11 bf
       -0.4421282 -0.032060698 0.47830412 -0.56844354
000130 09 0f 7d bd 33 b2 98 3f ff a8 95 bd 4f be 2c bf
       -0.061781917 1.1929382 -0.07307624 -0.6747789
000140 6a 86 2d bf ad af 46 3e 4c 42 1f be d1 32 ea bd
       -0.67783225 0.19402952 -0.15552634 -0.11435474
000150 90 9d 12 3e a6 ca 21 bf 00 64 0b bf 48 fe 64 bf
       0.14317918 -0.6319984 -0.5444946 -0.894505
000160 71 c5 a4 3d 67 5a eb be 01 eb 32 3e 79 8b fe bd
       0.080454715 -0.4596741 0.1747246 -0.12428946
000170 a1 d7 d1 be e2 b5 a2 3e 3c 7d 9b 3e 3d 23 c0 3e
       -0.40984824 0.3177939 0.30368984 0.37526885
000180 33 25 12 be f4 d0 ee 3d 7c 92 f2 be 08 ba ae 3e
       -0.14272003 0.116609484 -0.47377384 0.34126306
000190 cb ee e7 3d 48 ba 89 3e da 82 c3 bb 68 e8 ad 3e
       0.11324843 0.26899934 -0.0059665265 0.33966374
0001a0 7a 95 31 bf 32 e8 3d bf 13 40 8b bd 7f 45 a2 be
       -0.6936871 -0.74182427 -0.067993306 -0.31693646
0001b0 11 e2 1c 3f ed 88 fa be 06 f5 4f 3f 9b 38 c9 be
       0.6128245 -0.4893259 0.8123325 -0.39301
0001c0 9b 0a 56 3f ce f2 0e bf 20 60 b9 be cd 75 2f be
       0.8360993 -0.5583924 -0.3620615 -0.17134781
0001d0 c3 d0 a7 3d 12 18 e9 3e 11 ed 42 3f ee 8d eb be
       0.08194115 0.45526177 0.76142985 -0.4600672
0001e0 09 3f 23 3e f5 61 ab 3e 0a 09 26 be 23 93 cd 3c
       0.15942015 0.33473173 -0.16214386 0.025094574
0001f0 86 60 69 be 23 60 a1 be 0b a5 81 3f d4 c0 99 3e
       -0.22790727 -0.3151866 1.0128492 0.3002993
000200 30 d3 0f 3e 44 eb 7b 3e b6 58 d7 be 2b 43 41 bf
       0.14045405 0.24601465 -0.4205987 -0.75493115
000210 a7 1a 62 bf 7d a8 a4 bc ae 33 3e 3e 93 ea 35 3f
       -0.8832192 -0.020099873 0.18574402 0.71061057
000220 1c 2d df be 03 7f b5 3d 4f 6e ab 3e 48 6d b4 3e
       -0.43589103 0.08862116 0.33482596 0.35239625
000230 01 39 50 3e 37 c6 5f 3e de 15 24 bf 86 3b d9 3e
       0.20334245 0.21852957 -0.64095867 0.42428225
000240 e6 80 7c be 6a 92 6d 3e 9e 81 8a 3e b3 13 25 bf
       -0.24658546 0.23200384 0.27052015 -0.64483184
000250 4e c3 57 be 4f e4 05 be 2f d1 28 bf 80 8f 3c be
       -0.21070597 -0.13075374 -0.6594419 -0.18414116
000260 86 87 d5 bd 84 ac 80 3d 61 5b 7b be 77 57 e5 be
       -0.1042624 0.06282905 -0.24546577 -0.44793293
000270 09 e2 6c 3d d8 21 99 3f cd d9 e7 3c 86 68 73 bd
       0.05783275 1.1963453 0.028302098 -0.059425853
000280 1d df f3 3d dc d2 be 3e 49 a1 d2 be 80 ea 19 bf
       0.1190779 0.37270248 -0.41138676 -0.60123444
000290 d9 0d 84 be d0 a6 30 bf 77 2b 87 be d1 3a 17 3f
       -0.25791815 -0.69004536 -0.2640035 0.5907412
0002a0 da a7 00 be b3 2c 3c bf 9b 87 a6 be bc 95 0f 3e
       -0.1256403 -0.73505706 -0.32525334 0.14021963
0002b0 55 9f ae 3d 6f 71 86 3e d0 47 00 3f 1f b5 0e bf
       0.08526484 0.26258418 0.5010958 -0.5574512
0002c0 09 bc 25 bf 8c c6 7c 3e d8 82 17 3f 75 9b 43 be
       -0.64740044 0.24685115 0.59184027 -0.19102271
0002d0 3e b9 1a 3f 07 c0 51 3e ab e2 93 bd d0 57 c8 be
       0.6043891 0.20483409 -0.07220968 -0.39129496
0002e0 fd 3b b4 3d 6c 2b fe bd 4d b6 fd 3d e2 bb 11 3e
       0.08800504 -0.12410626 0.12388287 0.14231828
0002f0 87 ea 80 bf 19 9a 8e be 0d 6a 29 be 6d f0 9c be
       -1.0071572 -0.27851942 -0.16544361 -0.3065218
000300 0f 53 f7 be 5c 9e d9 3f 81 4c 40 3e a9 f2 12 bf
       -0.48305556 1.7001452 0.18779184 -0.5740152
000310 f1 14 8c be db 4c bd 3d ef 36 19 3f 9d c1 68 3e
       -0.27359727 0.09243175 0.59849447 0.22730108
000320 87 a6 73 bd e4 7d ea be ec 1b ee 3e c7 3d 99 3e
       -0.059484985 -0.45799172 0.46505678 0.29929945
000330 84 a4 19 3f d4 69 47 3f 06 4f a1 3d 3c 54 0c 3e
       0.60016656 0.77895856 0.07876401 0.13704008
000340 3a e1 b3 bf 40 a9 53 3f 20 06 03 3f 69 3b 4b bf
       -1.4053109 0.8268013 0.5118122 -0.7938753
000350 cf 3c e7 3e b5 c6 15 bf fb 3c 97 3d 80 2a 40 3e
       0.4516358 -0.5850633 0.07384678 0.18766212
000360 c7 78 3c 3f aa 9a 57 be 39 67 6a 3e 09 14 18 3f
       0.7362179 -0.21055093 0.22890939 0.5940557
000370 10 67 2b 3f 8d 84 6d bf c5 ef 3f 3f 51 05 ab 3e
       0.66954136 -0.9278038 0.74975234 0.33402494
000380 37 37 91 3e d9 53 32 bf 28 ce 04 3f 61 a5 a1 bd
       0.28362438 -0.6965919 0.5187707 -0.07892872
000390 28 b7 53 3d d9 84 b6 3d b1 83 b0 be ef cb 8d 3e
       0.051688343 0.089120574 -0.34475473 0.2769465
0003a0 27 0f 87 3f d1 b1 22 3e 9f 16 0a 3f df be bb 3d
       1.0551499 0.15888144 0.5394077 0.09167265
0003b0 31 d5 d5 3c e8 ec 2d bf b2 f8 15 bf 5b 02 5f 3f
       0.026102634 -0.67939615 -0.58582604 0.8711297
0003c0 25 f0 90 bf 85 86 bc 3d f9 da 53 3f 46 80 b4 be
       -1.1323286 0.09205345 0.82756 -0.35254115
0003d0 ed 07 b1 be d8 b3 51 bb f7 31 9c bd b3 1d f3 3e
       -0.3457636 -0.0031998064 -0.076267175 0.47483596
0003e0 6c 4b 12 3f bc eb 5f 3e 87 8b 7a 3a a1 3a 7f bf
       0.57146335 0.2186727 0.00095575344 -0.99698836
0003f0 2a f9 97 3d 8b 19 86 bf 79 22 15 bf 40 cc b4 3e
       0.07420571 -1.0476545 -0.58255726 0.3531208

lstm.bias_ih_l0 f4 [512]
000000 34 f7 0b bd 6a 9f 22 3e 2f 82 83 3c b8 ed f3 bc
       -0.0341713 0.15881124 0.016053287 -0.02977644
000010 b8 3f 05 bf 88 8b 32 3e ad 4e 60 3c 85 e4 32 3e
       -0.5205035 0.1743604 0.013690633 0.17469986
000020 5e 88 23 ba 7d 06 f5 be c4 2d bb 3e a0 d5 3d 3e
       -0.0006238277 -0.47856513 0.36558354 0.18538523
000030 76 c5 48 3e d7 fc 78 3d 41 39 d0 3d 53 6f 19 3e
       0.19606575 0.060788002 0.1016717 0.14983873
000040 06 6e 19 3e 2f e7 39 be dc 67 e2 bd ad da 1e bf
       0.14983377 -0.18154596 -0.11054966 -0.6205242
000050 0e 4a 26 bd de a8 04 3e 41 b3 75 bd 97 5d 4d 3a
       -0.040597968 0.12955043 -0.059985403 0.00078340754
000060 12 e3 19 3f a8 70 ea 3e ea fa 42 bd df 06 13 bc
       0.60112107 0.45789075 -0.04760257 -0.008973806
000070 48 03 be 3e b2 99 38 3e 46 b0 da bd 94 04 a2 be
       0.37111878 0.1802738 -0.10678153 -0.31644118
000080 71 48 0f 3e 78 36 27 3b 4e 12 d9 3b e4 6f a8 be
       0.13992478 0.0025514644 0.0066244965 -0.32897866
000090 87 85 cd bd 05 81 35 3e 8d 15 4d be e8 ff ef 3d
       -0.10035234 0.17724998 -0.20027752 0.11718732
0000a0 b6 77 55 3d f5 20 a3 3e 04 a1 b1 bd 11 3a f1 3e
       0.05211612 0.31861082 -0.086732894 0.47114614
0000b0 5d d4 e5 3e 40 ba 4f bd 39 a0 41 bf dc 05 11 3e
       0.44888583 -0.05071473 -0.75635105 0.14162391
0000c0 a1 5d 14 3e 15 0f 61 3c 0b 65 d3 3c ec e4 a1 be
       0.14488842 0.013736506 0.025805017 -0.31619966
0000d0 8a 0d 28 3e d3 d1 d7 be 25 f5 8e 3e 91 d5 30 bf
       0.16411415 -0.4215227 0.27921405 -0.69075876
0000e0 03 3c 22 be cf c5 95 be 2f 27 80 3d 98 76 23 3e
       -0.15843205 -0.29252478 0.06257474 0.15963209
0000f0 18 2f 5f bc fa b0 b2 be cf 6c 14 bc 31 8a ae be
       -0.013622068 -0.34900647 -0.009059145 -0.34089807
000100 8a 97 43 3d 25 bc 6b 3e f9 84 be bd 87 62 ab 3b
       0.04775194 0.2302099 -0.09302706 0.0052302512
000110 b3 6e 83 bc 7e 4a 28 3e d7 9e 9a 3e e7 d9 55 3e
       -0.016043996 0.16434667 0.3019931 0.20883904
000120 29 62 54 3e 69 24 c4 be 9a 6c 19 bf 9c 92 1f ba
       0.2074057 -0.3830903 -0.5993134 -0.0006087215
000130 61 16 76 be e9 39 0e bf 60 cc 8f be 61 8f 2f be
       -0.24031974 -0.55557114 -0.28085613 -0.17144538
000140 62 4a 22 3f ed ec 99 3d 28 63 4d 3e c1 e7 a0 bd
       0.6339475 0.07515893 0.20057356 -0.078567035
000150 0b 6f 43 3e f0 0b f8 3c 5a 30 78 be 10 66 22 be
       0.19085328 0.03027913 -0.24237195 -0.15859246
000160 da aa 19 be 0f be d6 bd 5c a4 93 3d e2 3d 1d bd
       -0.15006581 -0.104854695 0.072090834 -0.038389094
000170 17 34 8a bd 26 35 2f be d4 a8 97 bd e6 3d 97 3e
       -0.067482166 -0.17110118 -0.07405248 0.29539412
000180 f4 10 42 3e 47 6e 4c 3e 57 99 9b be 66 fe 08 be
       0.1895178 0.19963942 -0.30390427 -0.13378295
000190 3f b9 64 3e 68 a1 ba be b5 d7 ab 39 6d c2 0e 3e
       0.22336291 -0.36451268 0.00032776376 0.13941355
0001a0 5e a5 a5 3d ab 30 0b 3d 67 93 02 3f 94 27 5b bd
       0.08088182 0.03398196 0.5100617 -0.05350454
0001b0 8e 45 91 3e 18 3b da 3d 78 20 ed bd 08 4b 0e bf
       0.2837338 0.106558025 -0.115784585 -0.5558324
0001c0 ce cb be 3e ab bc 1a be aa d5 5d be b3 86 ef 3d
       0.37264866 -0.15111034 -0.21663538 0.11695614
0001d0 7d d6 19 be 1d 5d b1 3e 50 60 8c 3e ab 53 ff bc
       -0.15023227 0.34641352 0.2741723 -0.031167826
0001e0 43 12 0b 3e a0 71 a1 bb 2c 26 9a 3e 33 e8 72 3e
       0.13581185 -0.0049268752 0.30107248 0.2372139
0001f0 13 11 08 bf 44 24 da 3c e3 34 88 be bb 41 2b bd
       -0.53151053 0.02662862 -0.2660285 -0.041810732
000200 6a ea e9 be da 92 bf 3d 29 6b 1a be c0 b1 bf bd
       -0.45686656 0.093541816 -0.15079941 -0.09360075
000210 db d6 b5 be 5d 5f ae bd a9 61 f6 bd cd d1 01 be
       -0.35515484 -0.08514283 -0.12030346 -0.12677689
000220 5b 34 da bd 3c b4 be be dd 03 1a bf 57 74 b4 3e
       -0.10654517 -0.37246883 -0.60162145 0.3524501
000230 6e 40 6c be 35 77 3a bf 65 d1 4a 3e 0d 11 c7 be
       -0.23071453 -0.72838145 0.1980644 -0.38880196
000240 eb 5d c4 3e 2c a4 08 bf 2a 0e 77 be ee de c4 be
       0.38352904 -0.53375506 -0.24126497 -0.38451332
000250 1e 99 db be a2 ac 01 bf d1 f4 a8 be 98 27 06 bf
       -0.42890257 -0.5065404 -0.3299928 -0.52404165
000260 5f ba 75 be ff fb 56 bc 6e 34 f0 be f6 34 1a bc
       -0.23996876 -0.013121604 -0.46915 -0.009412041
000270 03 0d c2 be 7f 42 30 be 6d a9 17 bf 07 e6 4c be
       -0.37900552 -0.17212866 -0.592429 -0.20009623
000280 f4 6b f5 be 2d 3f f2 bc 3d db 4f 3e 81 f2 c0 be
       -0.47933924 -0.02957114 0.20298477 -0.37685016
000290 47 e5 05 bf b5 d4 81 be ef a0 36 bf 6f a1 dd be
       -0.52302974 -0.25357595 -0.71339315 -0.43287227
0002a0 d4 81 d3 be c1 f1 fe be cf b2 fb bd 4a 2d ec bc
       -0.41309988 -0.4979382 -0.122899644 -0.02883019
0002b0 4a ab 1f bf 05 6c a1 be 1b 1c 6e bf 5d 2f 65 be
       -0.6237074 -0.31527725 -0.93011636 -0.22381349
0002c0 57 be 74 3e ab 5f 0b bf a6 a9 b0 be 28 9f ae be
       0.23900734 -0.5444285 -0.3450443 -0.34105802
0002d0 2d f3 69 be 72 fa ba bd 5a c0 5a 3e b1 4e d8 be
       -0.2284667 -0.091298 0.21362439 -0.42247537
0002e0 b6 65 05 be 1f e3 84 be e5 f2 48 bf 22 c3 f5 3d
       -0.13027081 -0.2595453 -0.7849563 0.12000109
0002f0 23 9d da be 8c f7 9d be 35 cb dc bc 3d 1c 34 be
       -0.4269801 -0.30852926 -0.026952365 -0.17588897
000300 15 b7 c7 3e ea 6a 88 3e 9b 42 9a bd ae d6 10 bf
       0.39006868 0.2664407 -0.07532235 -0.56577575
000310 b8 52 ec 3d b5 fb 1e be ff 90 4a be a6 a8 77 3e
       0.11539215 -0.15525706 -0.19781874 0.24185428
000320 60 62 b0 bd 24 7f 29 bf 1f 37 9e be e8 66 17 bf
       -0.086125135 -0.66209626 -0.3090143 -0.591414
000330 9e 8d 90 3e ea bf 1d bf b1 6c 7c bd 37 6e da 3d
       0.28233045 -0.6162096 -0.061627094 0.10665553
000340 13 43 c5 be cc 00 21 bf e3 f8 13 3f 7b 0a a5 be
       -0.38527736 -0.6289184 0.57801646 -0.32234558
000350 96 25 af be 7d fe a3 3d ac 4c 26 3e 4b 31 1b 3e
       -0.34208363 0.08007524 0.16240185 0.15155523
000360 e8 78 a1 3d 77 84 29 bf fc 1f 36 bd 31 22 11 3e
       0.07884389 -0.6621775 -0.044464096 0.14173199
000370 14 44 2b be e1 e0 da bd f5 49 91 bd d0 8c e4 3d
       -0.16725188 -0.106874235 -0.07094184 0.1115967
000380 59 67 bf be c6 27 7d 3d 35 14 c9 be 6c 8d 84 be
       -0.37383536 0.06180551 -0.3927323 -0.25889146
000390 09 ae 5f be 3c 46 89 be cc 7c a5 bd c0 90 0f 3e
       -0.21843733 -0.26811397 -0.08080444 0.14020061
0003a0 eb 6b 01 bf 0c 7c 12 be 72 75 df be d8 71 8d be
       -0.50555295 -0.14305133 -0.4364429 -0.27625918
0003b0 43 4a 78 be 09 7d a7 be a1 58 01 bf e0 72 31 be
       -0.24247079 -0.32712582 -0.5052586 -0.17328978
0003c0 e9 9c c9 3d 47 20 dd be 04 76 a3 bd 66 cf 0e be
       0.09844381 -0.43188688 -0.07981494 -0.13946304
0003d0 3f ef 9e be 70 48 00 3e 94 2c ae bd 90 a3 31 be
       -0.31041905 0.12527633 -0.08504596 -0.1734755
0003e0 f8 b9 62 be d4 36 06 bf 29 9c 44 3d df e3 ef 3d
       -0.22141254 -0.5242741 0.04800049 0.11713385
0003f0 35 e3 d6 be 08 9c d0 be 10 ab 2d bf 5b 12 46 3d
       -0.4197022 -0.40744042 -0.67839146 0.04835735

lstm.bias_hh_l0 f4 [512]
000000 7a ff 8f bd d5 d0 46 3e 1f 5b aa bb 9e e0 b8 3d
       -0.0703115 0.194156 -0.0051988508 0.09027217
000010 cb a6 f3 be da f4 55 3e 1a 37 75 3d 70 b0 62 3e
       -0.4758819 0.20894185 0.059867002 0.22137618
000020 46 3c 2a bc a8 3b fe be 7d f6 ed 3e 07 a1 5d 3e
       -0.010390347 -0.4965489 0.46477118 0.21643458
000030 3a 6a 36 3e c8 d1 c4 3d 20 3f 44 3e 3b 17 4b 3e
       0.1781396 0.09610325 0.19164705 0.1983308
000040 9b 98 c7 3d 18 0d d0 bd fe 7f 83 be 08 45 1d bf
       0.09745904 -0.101587474 -0.25683588 -0.6143346
000050 61 65 f1 bc 36 ac 81 3d 74 0f 51 be 2a cb 03 3d
       -0.029467287 0.06331675 -0.20416051 0.032176174
000060 f9 02 19 3f a9 cc c4 3e df c1 46 bd 80 07 af bd
       0.5977016 0.38437393 -0.048524734 -0.085463524
000070 06 13 85 3e b5 f5 70 3e 89 d0 3d bd bb c1 84 be
       0.25991076 0.2353123 -0.046341453 -0.25929055
000080 b7 65 11 3e 20 aa c0 3d 43 90 43 bd ae e8 55 be
       0.14198957 0.09407449 -0.047745 -0.20889542
000090 87 2e d6 bd 21 a9 27 3e 7d 82 bc bd f2 e6 7e 3d
       -0.10458093 0.16373111 -0.09204576 0.062231965
0000a0 ad 13 f2 3d 86 d8 9a 3e 3d b3 ac bc 47 fe cb 3e
       0.11820159 0.3024332 -0.021081561 0.39842436
0000b0 04 e5 e7 3e c2 2c 7e bc 96 c6 4d bf 72 ea d1 3b
       0.45291913 -0.015513601 -0.80381143 0.006406122
0000c0 42 4c 7e 3e 0c 44 00 be e5 55 21 bd 3e a3 bf be
       0.24833778 -0.12525958 -0.039388556 -0.3742923
0000d0 fe 60 f0 3d 16 ea 97 be 17 40 c0 3e 5a 71 15 bf
       0.1173725 -0.2967078 0.37548897 -0.58376086
0000e0 38 cd 8c be 8d b2 bb be 12 0f 2e 3e dd 17 7c 3e
       -0.2750032 -0.3665966 0.16997936 0.24618478
0000f0 58 80 e0 bd a3 e1 89 be bf 38 68 3d c8 6e 9c be
       -0.1096198 -0.2692996 0.056694742 -0.3055327
000100 dc 65 c6 bb 2f c6 6d 3e a3 e3 4c bd 49 7f f9 bd
       -0.006054623 0.23220132 -0.05002178 -0.12182481
000110 e1 09 4a bc b4 70 bd 3d d9 f5 8a 3e 71 99 5e 3e
       -0.012331457 0.09250012 0.27140692 0.21738221
000120 eb 71 38 3e 4a 97 de be 05 a8 20 bf 4b c3 f9 bc
       0.18012206 -0.434748 -0.6275638 -0.03048863
000130 5d c6 d8 bd a7 7b 20 bf ab f9 86 be ad f9 75 be
       -0.1058471 -0.6268868 -0.26362357 -0.24021025
000140 1f 89 37 3f e7 36 f9 3d 34 4b cd 3d 12 87 44 be
       0.71693605 0.12168675 0.100241095 -0.1919215
000150 27 9e 21 3e 3d 73 71 bb 9a 45 8c be 9b 92 98 be
       0.15782987 -0.003684237 -0.27396852 -0.2979935
000160 a7 10 c4 bd 65 ec d9 bd 3e f5 f8 bb 2a 13 ce bc
       -0.09573489 -0.10640792 -0.0075975945 -0.025155623
000170 69 08 eb bd 00 2c 47 be 8f 05 a7 bd 29 a5 8a 3e
       -0.114762135 -0.19450378 -0.08155357 0.27079132
000180 43 25 1a 3e 12 e0 fc 3d 09 d4 8c be 14 aa fd bd
       0.15053277 0.123474255 -0.2750552 -0.123859555
000190 00 fd c6 3e 1b a2 b6 be 98 1e 1b bc 0d ca 14 3e
       0.388649 -0.35670552 -0.009467743 0.14530201
0001a0 6f b8 ee 3d a4 a0 86 3d 6d c5 0d 3f bd 03 fc bc
       0.11656272 0.065736085 0.5537937 -0.030763501
0001b0 c5 04 9d 3e db 11 38 3c 2a c7 ea bd df 20 ec be
       0.306677 0.011234726 -0.11463769 -0.4611883
0001c0 e2 92 cf 3e fd 45 b9 bd ee 37 b1 be b7 50 db 3d
       0.4054175 -0.09046552 -0.34612983 0.107087545
0001d0 b5 ac 5c be c6 28 6a 3e 08 61 80 3e 6b b6 6f 3d
       -0.21550258 0.22867116 0.2507403 0.058523577
0001e0 af b9 c0 3d b6 4c 35 bc cb 30 83 3e 4a 42 81 3e
       0.09410416 -0.011065653 0.25623164 0.25245887
0001f0 a3 98 02 bf ad 42 1a 3c 4c 7e e1 bd 47 da 3b bd
       -0.51014155 0.009415311 -0.11010417 -0.045862462
000200 89 89 d0 be b1 ad d4 3d 84 eb 00 be c1 27 9b 3b
       -0.4072993 0.103846915 -0.12589842 0.0047349636
000210 ba f0 c0 be 01 a8 73 be ad 98 bc bd e8 be ec bd
       -0.3768366 -0.23794557 -0.09208808 -0.1155985
000220 43 7a c1 bd 5d b8 dc be 25 ec 17 bf cf 63 7d 3e
       -0.09447148 -0.43109408 -0.593447 0.24745105
000230 61 77 87 be 8e 3c 3e bf 90 53 43 3e ab eb ca be
       -0.26458266 -0.7431115 0.19074845 -0.39632925
000240 51 50 8d 3e 9a ba fb be 72 d2 d4 be 2f c2 e9 be
       0.2760034 -0.49165803 -0.41566807 -0.45655963
000250 80 7a 14 bf 25 ad d6 be 60 49 84 be f0 2c d6 be
       -0.5799942 -0.41928974 -0.2583723 -0.4183116
000260 52 2f 81 be 4b 32 e7 bb f9 57 e0 be a1 c2 36 3c
       -0.25231415 -0.007055556 -0.43817118 0.011154802
000270 8b b6 7d be a9 26 65 be 19 21 08 bf c6 ab 67 be
       -0.24776666 -0.22378029 -0.53175503 -0.2262412
000280 84 28 ba be 3e 0c a3 bd a2 b0 98 3e 0e d0 84 be
       -0.36359036 -0.079613194 0.2982226 -0.25939983
000290 43 9f f5 be 6c 4a 6e be fa 06 3a bf b3 d1 fc be
       -0.4797307 -0.23270577 -0.72666895 -0.49378738
0002a0 c5 12 8b be 04 a1 d7 be 70 1b 97 3c 87 64 a8 bc
       -0.27162758 -0.42115033 0.0184457 -0.020555748
0002b0 dc 85 0f bf 38 4b a1 be 45 e8 7f bf 6b a5 80 be
       -0.5606363 -0.315027 -0.9996379 -0.25126204
0002c0 8b 4a ef 3d f9 bb 0f bf 1a ca e1 be 87 23 a8 be
       0.1168414 -0.561462 -0.44099504 -0.32839605
0002d0 a3 22 70 be e0 75 20 be 27 40 85 3e ee aa a6 be
       -0.23450713 -0.15669966 0.26025507 -0.32552284
0002e0 c1 0d 8f bd e7 59 cb be 1d e3 3a bf 57 66 54 3e
       -0.06985045 -0.39717028 -0.730028 0.20742165
0002f0 21 bb c1 be 05 9a c5 be eb fe 6c 3d 56 e3 7d bd
       -0.3783808 -0.3859407 0.057860296 -0.061984383
000300 99 75 b1 3e dd 6c 83 3e 41 1e 39 be ba 46 07 bf
       0.34660032 0.25668994 -0.18077947 -0.52842295
000310 43 07 c8 3d 74 f9 8b bb 9e 5a 7f be 34 ee 62 3e
       0.0976701 -0.0042716805 -0.24936911 0.2216118
000320 a1 e6 a5 bd 70 9b 2b bf f2 c4 aa be 4e 43 ee be
       -0.081006296 -0.67034054 -0.33353382 -0.46535724
000330 e4 18 8a 3e 56 a8 2b bf 29 f1 b6 bd 08 03 67 3e
       0.26972115 -0.67053735 -0.089327164 0.2255975
000340 31 33 e3 be f0 86 1f bf 6a ca 01 3f 80 c3 8b be
       -0.44374993 -0.62315273 0.50699484 -0.27297592
000350 91 24 71 be 54 18 2a 3d 4a c4 cf 3d 2e 10 4d 3d
       -0.23549105 0.041527107 0.10144861 0.05006426
000360 a3 da a2 bc f0 a4 01 bf 59 30 bc 3b 5e df 3f 3e
       -0.019879645 -0.506423 0.005743068 0.18737552
000370 f1 66 eb bd e3 72 3f be 0c d7 c0 bd e5 f4 dd 3d
       -0.11494244 -0.1869617 -0.09416017 0.108377255
000380 e7 39 08 bf 63 2e 28 3d 67 38 ad be 36 5a 84 be
       -0.5321335 0.041059863 -0.33832094 -0.25850075
000390 32 ef a1 be 38 7a 8b be ef d3 b5 bc 2f db fe 3d
       -0.31627804 -0.27241683 -0.022195784 0.1244415
0003a0 be 6b 0d bf 12 53 c3 bd 9a 51 f2 be 7e 4a 76 be
       -0.55242527 -0.09537329 -0.47327882 -0.24051854
0003b0 a2 b5 6f be 08 d7 d0 be 36 78 f2 be c4 e8 58 be
       -0.23409131 -0.40789056 -0.4735734 -0.21182543
0003c0 69 07 f3 bb b2 5d d0 be 7d 8c fc bc d4 7a b6 bc
       -0.007416655 -0.40696484 -0.030828709 -0.022275366
0003d0 a2 02 97 be 1f e9 65 3e b8 2d 88 bc 43 35 21 be
       -0.29494196 0.2245221 -0.016623363 -0.15742974
0003e0 14 2e 92 be b0 60 fd be fc ad 0c 3e d2 66 57 3d
       -0.2855078 -0.4948783 0.13738245 0.05258829
0003f0 29 f2 d7 be 9d 0a b6 be 85 2d 32 bf d1 ee 30 3e
       -0.4217694 -0.35554972 -0.6960071 0.17278601

output1.weight f4 [128, 128]
000000 72 29 96 3e 2e 6f 37 3f 71 cb 59 3d 4a 58 09 3f
       0.29328495 0.7165402 0.053172532 0.53650343
000010 01 55 4c bf 11 96 7d be df ba 4e 3d 6c 36 1b 3f
       -0.79817206 -0.24764277 0.050471183 0.60629916
000020 f7 18 b5 3e a7 95 03 3f 5c 43 19 bc b3 33 84 3f
       0.3537061 0.51400226 -0.009354439 1.0328277
000030 89 3e 8d be a2 7a 6b bf dc 43 57 be cb 6b 1c bf
       -0.27586773 -0.91984 -0.2102198 -0.6110198
000040 2e 56 1e be 23 aa c5 be 78 9f 98 3e f6 09 18 3f
       -0.15462562 -0.38606367 0.29809165 0.593902
000050 89 6d c4 bd 8b e3 0f 3f 3a 5d a3 3c 9a 53 f2 3d
       -0.09591205 0.5620658 0.019941915 0.11832352
000060 40 7d b0 3e 3e 52 b6 3f ff 5f 10 3f b3 56 e6 be
       0.34470558 1.4243848 0.5639648 -0.4498802
000070 53 e4 54 bd 77 1b 0e 3f c9 03 63 bf fe 0d 82 be
       -0.05197556 0.5551066 -0.8867765 -0.254013
000080 3f 45 40 3c 32 6c 5b 3f e6 19 8f bd ce 4e b3 3c
       0.01173526 0.8571197 -0.069873616 0.021888163
000090 e0 d0 f7 bd fe a8 d2 3d 70 1a 0c be 90 1d a8 3d
       -0.121003866 0.10286139 -0.1368196 0.082087636
0000a0 65 23 ec 3e 8f 60 b3 be 5f 26 db bd 3a 38 07 bf
       0.46120754 -0.35034606 -0.10700678 -0.5282017
0000b0 c7 7c e2 bd 09 ba 18 3f c4 bc 3d 3f 03 40 16 3f
       -0.11058956 0.5965887 0.7411616 0.58691424
0000c0 7c ae ee 3e 3e 78 2c bf 2d a8 f5 3e e8 a8 4a 3f
       0.46617496 -0.67370975 0.4797987 0.7916398
0000d0 45 dc c3 be 41 30 96 3f 20 b5 14 3f 00 fc cb 3d
       -0.3825399 1.1733476 0.58088875 0.099601746
0000e0 b1 a7 f1 be cc 3d f6 be af be 7e be 81 b8 86 3b
       -0.4719825 -0.48094022 -0.24877428 0.00411135
0000f0 eb 02 0c 3f d4 25 91 3e f9 c9 36 3f 31 8e 65 3e
       0.5469195 0.28349173 0.71401936 0.22417523
000100 fc ba 17 be 61 b3 cf 3e 70 d5 0b 3e 15 bd 2a 3f
       -0.14817423 0.40566543 0.13655639 0.66694766
000110 6f 3a d6 be 2d fc 02 bc c9 82 89 bd 69 46 f8 3e
       -0.41841456 -0.007994694 -0.067143984 0.4849122
000120 79 10 44 3d 6c 26 7c 3f 6b d3 86 3d 39 e9 01 be
       0.047867272 0.9849613 0.065832935 -0.12686624
000130 77 2b e3 bf fe 1b dd be 5e 47 58 3f 5f de 91 3b
       -1.774764 -0.4318542 0.844839 0.0044515575
000140 ce 16 1f 3f ff a6 15 bf 4a ce 14 be eb 02 bc bf
       0.6214417 -0.5845794 -0.14531818 -1.468839
000150 45 4f 44 3f 2f e0 89 be 6a eb b4 be e2 ca 2b bf
       0.76683456 -0.2692885 -0.35335857 -0.6710645
000160 57 21 98 be 10 77 e8 3b 60 c0 9f be 60 94 6c bf
       -0.29712936 0.0070942715 -0.31201458 -0.924139
000170 a2 ef 5a bf a1 c7 87 be 40 28 88 3e 48 5c c1 3e
       -0.855219 -0.26519492 0.26593208 0.37765718
000180 c4 98 ab 3f 7b 08 91 be ca a6 28 3e 14 80 09 bf
       1.3405995 -0.28326783 0.16469875 -0.53711057
000190 d5 b9 c5 3c 49 c9 8f 3e 54 ee 33 3f 64 ec 39 3f
       0.024136463 0.28083256 0.70285535 0.7262633
0001a0 b3 ca 36 3f c7 c9 81 bf 22 9f 18 bd a9 29 56 3f
       0.71403044 -1.0139703 -0.037261136 0.8365732
0001b0 8a fd 09 3f 00 68 f9 3c a2 2d 0b 3d f2 ef 92 bd
       0.53902495 0.030445099 0.033979066 -0.07174672
0001c0 9a a8 ea be fa a5 2e bd 30 af 65 3f cc 12 e2 3d
       -0.45831758 -0.042638756 0.8972044 0.110387415
0001d0 b2 ac 3a 3f 2e 2b d9 bd 64 e0 d1 3e 5f b9 d1 3e
       0.7291976 -0.10603939 0.4099151 0.4096174
0001e0 ea e1 13 3f 5f 4e 45 3f 33 ac 90 bf ea a3 3f be
       0.5776659 0.7707271 -1.1302551 -0.18714872
0001f0 61 81 ca bf 68 7b 88 3f 72 47 90 3e e2 ad b1 3e
       -1.5820733 1.0662661 0.28179508 0.34702975
000200 c2 ea c1 be a2 5d b7 3f 16 69 2f bf 4b b1 93 be
       -0.37874418 1.432545 -0.68519723 -0.288462
000210 65 96 81 bf 4f 44 d8 3e 74 9d 38 3f 45 21 fa 3e
       -1.0124022 0.42239615 0.72115254 0.48853508
000220 a0 54 6f 3e b3 91 ed be f3 ee 16 bf 6f f4 f5 be
       0.23372126 -0.46400222 -0.5895836 -0.4803805
000230 02 8c cd 3b cf 77 4a 3d 6d 9e 1c bf 26 27 71 bf
       0.0062727937 0.049430665 -0.6117924 -0.9420036
000240 5e a8 a9 3e e1 9b e0 3e 8b d7 6d 3f ac e2 b7 be
       0.33136266 0.43868926 0.9290702 -0.35915124
000250 e9 13 a7 be a5 1e 85 bf e0 fe fa 3e 0b 05 1d 3f
       -0.32632378 -1.0399977 0.4902258 0.6133582
000260 c3 db 89 be fe 35 ec 3d ff d7 e6 3e ff 0f 5f be
       -0.26925477 0.11533736 0.45086667 -0.21783446
000270 27 9a bf 3e 9c bf 40 3f 98 03 eb be a5 0a b5 3e
       0.37422296 0.7529237 -0.4590118 0.35359684
000280 3b 20 41 bf 71 71 fd bd a6 ef 0c bf 04 30 20 3f
       -0.75439805 -0.12375153 -0.55053174 0.62573266
000290 9b 52 56 bf 09 dc 6a bf 25 38 68 be 30 25 33 be
       -0.83719796 -0.91741997 -0.22677667 -0.17494655
0002a0 39 33 8f 3e 53 74 02 3f 4f b7 2d be 3c 80 83 3c
       0.27968767 0.50958747 -0.16964458 0.016052358
0002b0 06 fb f4 bd b9 c3 54 3f 2c 93 d7 3e 18 71 73 3d
       -0.119619414 0.8311115 0.4210447 0.059434026
0002c0 42 cf 7a 3e 3b c0 61 3f a3 7f 64 be 9e 90 8c bf
       0.24493125 0.88183945 -0.22314315 -1.0981634
0002d0 01 09 49 bf 4e d6 bd bc 6a 51 21 bf 86 d7 10 bf
       -0.78529364 -0.023173478 -0.63014853 -0.5657886
0002e0 a6 5b 33 3f bd a3 18 3c 54 89 3b bf 1a 17 5a 3f
       0.7006172 0.009316382 -0.7325642 0.851915
0002f0 ea 49 32 3e b8 8b 40 3d 0c 32 ad bb e5 c8 f0 3d
       0.17411008 0.047008246 -0.005285507 0.117570676
000300 29 95 14 3e a2 84 88 3e cb 79 1a 3f 34 89 22 bf
       0.14510025 0.2666369 0.6034209 -0.63490605
000310 75 1e 82 3f 4f 00 04 be c8 73 1f 3d bd a2 60 bd
       1.0165545 -0.12890743 0.038928777 -0.0548427
000320 85 e6 bc 3e 34 99 20 bf 8a 6a 9c be 7e c9 a7 3e
       0.36894622 -0.6273377 -0.30550033 0.32770914
000330 7c 3a 2b be 22 0b 16 3f ba df d2 be 6f 63 8e bf
       -0.16721529 0.5861074 -0.41186315 -1.1124095
000340 94 d5 42 bf 39 72 3b bf c6 73 60 3f d6 4f 0f 3e
       -0.76107144 -0.73221165 0.87676656 0.13995299
000350 86 24 a4 bd 79 71 6a be 1d a3 ed be 85 66 0f bf
       -0.08014779 -0.22894849 -0.46413508 -0.5601581
000360 13 c8 53 bf ce 44 24 3f aa 14 06 bf 2b 22 6b be
       -0.82727164 0.6416749 -0.5237528 -0.22962253
000370 2e ba 87 3e 80 fb 8d be da 0c aa bf e0 d5 58 bd
       0.2650923 -0.27730942 -1.3285172 -0.052938342
000380 63 22 86 3e da c2 13 bf eb 39 ad 3e 6c e7 85 be
       0.2619811 -0.57719195 0.3383325 -0.26153123
000390 b5 9b 5e 3c ae 62 95 3e ed 6b 31 be ec e7 81 3f
       0.013586928 0.2917685 -0.17326327 1.0148902
0003a0 3e 0c ca be 7f 09 c6 bc 6b 3e 32 be 29 70 b1 bf
       -0.39462465 -0.02417445 -0.17406623 -1.3862354
0003b0 8e 04 f5 3d 65 e5 77 bd 11 3a 4b bf bf 3f 88 3e
       0.11963759 -0.060521502 -0.7938548 0.26611134
0003c0 fd b4 70 3d 91 27 8f 3f 9c ec 7a 3d 34 5e 5b bf
       0.058766354 1.118395 0.061260805 -0.8569062
0003d0 8d a6 78 bf fc 31 93 3e f5 d7 1b bf 64 f5 02 bf
       -0.97129136 0.28749073 -0.608764 -0.51155686
0003e0 fc 14 0b 3f 09 60 5f bf d9 eb 28 3f a2 a2 b8 3e
       0.54328895 -0.87255913 0.65984875 0.3606158
0003f0 65 b2 a2 bf 96 54 17 bd d2 97 7d 3f 66 a3 98 3e
       -1.2710692 -0.0369459 0.99059784 0.29812163

output1.bias f4 [128]
000000 c5 57 63 bf cf dc 23 bf 29 5a 64 bf 04 96 ee be
       -0.888058 -0.640088 -0.89200073 -0.46598828
000010 61 80 8c bf 09 8c 89 bf 77 54 20 bf c4 2f 06 bf
       -1.0976678 -1.074586 -0.62628883 -0.52416635
000020 fe 5c 68 bf a2 e1 1c bf 95 8d 6c bf b9 90 1c bf
       -0.90766895 -0.6128179 -0.9240354 -0.6115833
000030 38 0b 56 bf 9e f5 2d bf 85 de 1f bf e6 00 4a bf
       -0.8361087 -0.6795291 -0.6244891 -0.7890762
000040 15 13 0c bf 8f ca d1 be 74 63 6a bf 77 79 1b bf
       -0.54716617 -0.40974852 -0.91558003 -0.60732216
000050 4f 6b 5b bf 1e 42 70 bf de d2 55 be b2 0f 8d bf
       -0.85710615 -0.93850887 -0.2088122 -1.1020415
000060 4b 8a 0b bf 75 c8 12 bf a3 2e 36 bf 3a 25 32 bf
       -0.54507893 -0.57337123 -0.7116491 -0.69588053
000070 c5 63 14 bf 36 5c 67 bf 5a 08 bc be 57 20 7c be
       -0.57964736 -0.9037508 -0.36725122 -0.24621712
000080 37 1f 1a bf 5c 22 4c bf 13 7d d9 be b5 1f f5 be
       -0.6020388 -0.7973993 -0.42478237 -0.47875753
000090 1d 7f 4a bf 68 ee 4a be b1 bc 90 bf cc 2e 2d bf
       -0.7910021 -0.19817507 -1.1307584 -0.6764953
0000a0 2f 5a e7 be 9d 05 3a bf 78 03 d1 bd ea 6d 6f bf
       -0.45185992 -0.72664815 -0.1020574 -0.9352709
0000b0 2f 53 63 bf f4 ef 3f bf b7 92 a9 bf a9 78 31 bf
       -0.88798803 -0.74975514 -1.3247899 -0.6932474
0000c0 76 a3 48 bf b0 c5 03 bf 3f b6 8d bf 8d 49 28 bf
       -0.7837442 -0.5147352 -1.1071242 -0.6573723
0000d0 d3 60 dc be 67 43 bd be e0 0e de be 24 60 57 bf
       -0.4304262 -0.36965486 -0.43370724 -0.84131074
0000e0 c8 21 29 bf 23 df 5c bf 55 da 5b bf 8a b7 e0 be
       -0.6606717 -0.8627798 -0.85880023 -0.4389003
0000f0 71 13 ba be 84 23 7e bf 7f 77 70 be cb 4b 24 bf
       -0.36342958 -0.9927294 -0.23483084 -0.6417815
000100 3d fa 85 bf 37 a2 97 bf 7b ab a3 bd d6 07 16 bf
       -1.0466992 -1.1846379 -0.07991692 -0.58605707
000110 8f 5e 4f bf 5e ed 31 bf 7b 5b 49 bf 2e 7e 76 bf
       -0.8100366 -0.6950282 -0.78655213 -0.96286285
000120 61 59 01 bd eb 4e 6b be 6c ba 48 bf ef 00 c2 be
       -0.03157938 -0.22979324 -0.7840946 -0.37891337
000130 07 8c 83 be 05 0e 3e be aa 4a 02 bf a8 30 fd be
       -0.2569277 -0.18560036 -0.5089518 -0.49451184
000140 8a a0 0c be 27 8c 5c bd a6 f6 37 bf 2e c2 69 bf
       -0.13733116 -0.053844597 -0.7186073 -0.9131192
000150 99 a5 48 be 2b 56 91 bf 7c ad 16 bf 20 6f 45 bf
       -0.1959442 -1.1354421 -0.58858466 -0.7712269
000160 f8 0c 1d bf dd 14 cd be d3 58 d5 be 96 1e 81 bf
       -0.61347914 -0.4005498 -0.4166933 -1.0087459
000170 9f d8 30 bf 6e 2c 58 bf a4 d5 5f bf 2b f2 88 bf
       -0.6908054 -0.84442794 -0.87435365 -1.0698904
000180 e6 39 37 bf 3c 56 fa be b7 26 c0 be 61 9c 0a bf
       -0.7157272 -0.48893917 -0.37529537 -0.54144865
000190 b7 88 8a bf e2 9c 36 bf db 16 76 bf 05 ff b3 be
       -1.0822972 -0.71333134 -0.96128625 -0.35155502
0001a0 d6 87 fe be 4a f3 34 bf cc 39 8b bf ae 70 38 bf
       -0.4971301 -0.7068373 -1.0877013 -0.72046936
0001b0 59 1f 32 bf e1 f0 3a bf b2 3c 4b bf 43 31 cc bd
       -0.6957908 -0.730238 -0.7938949 -0.099703334
0001c0 ad 9c 0d bf 07 dd c2 be 34 62 23 bf aa 6c 08 bf
       -0.55317193 -0.38059255 -0.6382172 -0.5329081
0001d0 d9 65 34 bf 39 9d f9 be 15 82 2c bf 75 be 3e bf
       -0.7046791 -0.48752764 -0.6738599 -0.74509364
0001e0 7a e5 87 bf df 65 f6 be c9 5e 0f bf 2a da 1e bf
       -1.0616906 -0.48124596 -0.56004006 -0.6205164
0001f0 8a 68 d9 be 5a 39 e8 be cf dd 66 bf d6 87 00 bf
       -0.4246257 -0.45356256 -0.90182203 -0.5020727

output2.weight f4 [40, 128]
000000 d8 0a 68 bf 9a 54 00 3f bb ca 94 be d4 be c6 be
       -0.90641546 0.5012909 -0.2906092 -0.38817465
000010 e0 8b e6 be dd 39 03 be eb 7a 2b bf c0 28 15 3e
       -0.4502859 -0.12815042 -0.6698443 0.14566326
000020 4a de 95 bf 06 5a 03 3f 6e 5f 2f 3e 24 e4 6b 3e
       -1.1708462 0.5130924 0.17126247 0.23036247
000030 5d 24 0c c0 82 ac 54 3d 04 8c 01 3d 52 28 27 be
       -2.1897194 0.05192233 0.03162767 -0.16323975
000040 31 1c 33 bf 97 bc de bf 91 c8 82 3f ff c3 a5 bd
       -0.6996489 -1.7401303 1.0217458 -0.08094024
000050 d9 f2 ed bf a6 5c b3 3f d3 d2 84 be b7 6c c9 bf
       -1.8589736 1.4012649 -0.25942096 -1.5736302
000060 fa 6a 1e bf b2 c2 a9 bf ce 81 fd be 79 17 7f be
       -0.61881983 -1.3262541 -0.49513096 -0.24911298
000070 78 d2 a7 3c 70 96 b2 3f b6 38 b1 3e 61 d4 28 3f
       0.020486102 1.395216 0.3461358 0.65949064
000080 4a e0 66 bf ca dc ae bf 97 74 58 3f ba e7 0f bb
       -0.9018599 -1.366113 0.845529 -0.0021958188
000090 1b 00 84 3f 59 5f 9f bf d3 58 03 bf 27 42 b2 bf
       1.0312532 -1.2450973 -0.5130741 -1.3926438
0000a0 9b b3 e3 bf 2f e9 e3 bf 63 52 b5 bf ab 46 3e bf
       -1.7789186 -1.7805537 -1.4165767 -0.7432658
0000b0 dc 10 e1 3e 26 c8 f2 bf a0 98 95 bf 57 3a 32 bf
       0.43958175 -1.896733 -1.1687202 -0.6962027
0000c0 9a d3 2c 3f 0e da 08 c0 a8 07 75 bf 34 14 a1 be
       0.6751038 -2.138309 -0.9571481 -0.31460726
0000d0 6a 4a 0a 3f e8 6b 97 bb 71 d5 93 bf 38 2c d8 be
       0.54019797 -0.0046210177 -1.1549512 -0.42221236
0000e0 b2 93 ff bf 0e fd 03 c0 a1 e5 88 bd 21 4a 92 bf
       -1.9966948 -2.0623202 -0.06684423 -1.1428872
0000f0 20 15 20 bf aa 79 89 3f 6d 3b 05 bf e6 00 08 c0
       -0.62532234 1.0740254 -0.520438 -2.1250548
000100 23 a0 6b 3e fe 14 d2 bf b4 60 27 3f 0d 38 50 bf
       0.23010306 -1.6412656 0.6538193 -0.81335527
000110 d6 5a 13 c0 69 db bf be e4 c3 ad 3c b4 84 c4 bf
       -2.3024192 -0.37472084 0.021211572 -1.5352998
000120 b2 c7 60 3d 49 ef 84 bb 36 36 97 be 1b dc 77 3c
       0.054877944 -0.0040568453 -0.29533547 0.015128161
000130 a3 02 c9 bf f8 81 9a 3e ad c9 d9 bf 4d 3a d7 be
       -1.570393 0.30177283 -1.7014672 -0.42036667
000140 01 1e 7d 3e 71 7b 80 3f 11 c5 c6 bf 50 f6 91 be
       0.24718477 1.0037671 -1.552889 -0.28508234
000150 a3 3d 1b 3f 86 57 42 be 06 29 78 3e b6 4f 9b bf
       0.60640925 -0.189787 0.24234399 -1.2133701
000160 0d c0 71 bb ab a7 a7 be 17 69 ea bf e3 eb 55 3f
       -0.0036888153 -0.32745108 -1.8313321 0.8356306
000170 98 bc 3a bf 32 db f2 bf 50 ea 82 3f 8b 6d f2 bf
       -0.7294402 -1.8973143 1.0227757 -1.893968
000180 2e 59 57 bf 88 b5 4c 3d 56 f0 5f bf 22 64 a4 3f
       -0.8412045 0.04997781 -0.874761 1.2843058
000190 76 75 b7 bf b1 3f 53 bf aa dc fb 3e a8 1d da bf
       -1.4332721 -0.8251906 0.4919179 -1.70403
0001a0 a7 4f ef be fa 9f 50 bf 25 33 49 bf ac bc 4d bf
       -0.46740457 -0.81494105 -0.78593665 -0.80366015
0001b0 7f 01 5e be f7 62 7f 3e 74 85 c5 bf 8d 15 ac 3d
       -0.21680258 0.24940096 -1.5431352 0.08402548
0001c0 4b ef bb be 55 fa dd be 87 f6 ca bf f3 40 3e 3f
       -0.36706004 -0.4335505 -1.5856484 0.74317855
0001d0 88 00 44 bf 38 39 6e bf 90 08 73 3f 16 ac f7 be
       -0.7656331 -0.9305606 0.9493494 -0.4837348
0001e0 7f 1d 11 bf 91 af b5 3f 72 90 a0 bd ee 52 85 bf
       -0.5668563 1.4194204 -0.07840051 -1.0415933
0001f0 6f 42 ea bd 9f 2a 01 bf e2 d5 80 bf 9d 6f 8a bf
       -0.114384525 -0.5045566 -1.0065272 -1.0815312
000200 6b 89 58 bd 86 74 0d bd 97 aa 12 bf 33 79 20 be
       -0.052865427 -0.034534954 -0.5729155 -0.15671234
000210 5d 75 2c 3d 22 a8 0b c0 fb 2e 05 c0 a1 da 60 bc
       0.042104114 -2.182137 -2.0809925 -0.013724
000220 5a 8a 45 3f 9c 16 4d 3c 7c 9b 0d c0 a4 b6 74 3f
       0.7716423 0.0125175975 -2.212615 0.9559119
000230 76 0e d0 bf c6 47 81 3d d5 a4 5e bf d6 5a 19 bf
       -1.6254413 0.06312518 -0.86970264 -0.5990423
000240 bf f9 48 3e 74 16 30 c0 73 67 d6 bf e8 e6 cd bf
       0.1962652 -2.7513704 -1.675032 -1.6086092
000250 d0 5f 91 bd 03 70 89 be e6 2a 67 bf e0 fa 08 c0
       -0.07098353 -0.2684327 -0.9029983 -2.1403122
000260 5f a1 cf 3e 9e bf ec bf e2 54 a8 bf 96 f0 ab 3e
       0.40552804 -1.8495977 -1.3150904 0.3358199
000270 61 f6 27 bf bf d0 1d be 7e 39 35 be e8 4b 3c be
       -0.6561032 -0.15411662 -0.17697713 -0.18388331
000280 45 31 aa 3f ac ec c0 bf 7a 81 cd bf 21 46 51 3f
       1.3296286 -1.5072227 -1.6055138 0.81747633
000290 b0 5a 78 bc cf fb ae bf ed df 62 bf d7 df fa bf
       -0.01515834 -1.3670596 -0.88622934 -1.959956
0002a0 8b 09 a6 3e 3a 8a 1b 3e 00 62 2f 3f f0 0b f1 bf
       0.32429156 0.15189448 0.6850891 -1.8831768
0002b0 dd 92 b3 bf 2a 78 b8 be 45 e0 68 bf 34 d4 69 3e
       -1.4029194 -0.36029178 -0.9096721 0.22834855
0002c0 df 90 36 bf 3e 35 d3 bf 79 c9 27 c0 9b 87 8a be
       -0.71314806 -1.6500623 -2.621672 -0.27056584
0002d0 d1 5d 4d bf 1c 6e a0 bf 01 59 a4 3e c4 41 28 3f
       -0.8022128 -1.2533603 0.32099155 0.6572535
0002e0 3e 98 b2 bf b7 0e e4 be 9e 38 cd be 48 91 98 bd
       -1.3952711 -0.44542477 -0.40082258 -0.07449585
0002f0 39 82 4c bf 76 8b 99 bf e1 89 10 bf 83 6d 65 bf
       -0.79886204 -1.1995685 -0.56460387 -0.89620227
000300 a6 6e 7b bf 1a 9d c9 be e6 55 cf be 7b fd f6 3e
       -0.9821571 -0.3937767 -0.40495223 0.48240265
000310 91 ed 26 bf 67 36 fa be 81 6b 8e bf 54 1e 2c c0
       -0.6520625 -0.4886963 -1.1126558 -2.689351
000320 be ae 4b be 79 03 2c bf c5 ea bb bf 2b 86 38 3f
       -0.19890878 -0.671928 -1.4681021 0.72079724
000330 68 43 2b bf a0 08 67 bf 25 82 b7 be d8 e1 6e 3f
       -0.6689973 -0.90247536 -0.3584148 0.9331336
000340 02 db 17 be b1 8d 54 3f f0 57 cc bf 9d 3e 0e 3f
       -0.14829639 0.83028704 -1.5964336 0.5556429
000350 4f bb d4 bf 48 cd f4 bf 51 f6 20 3e 47 4b 97 be
       -1.6619662 -1.9125147 0.15718962 -0.2954962
000360 fe 9a db be d0 47 53 bf 9b 65 6e 3f d1 c6 23 3f
       -0.42891687 -0.8253145 0.9312379 0.63975245
000370 bb 07 4a bf ab 42 5d 3f ff 92 77 bf 4a 7a 71 3e
       -0.78918046 0.8642985 -0.96708673 0.23581806
000380 0f d3 16 bd f4 3f 38 be 6d d6 aa 3e 31 7a 09 bf
       -0.036822375 -0.17993146 0.3336672 -0.53702074
000390 ba 26 19 c0 c1 7b 90 3f 43 ea 93 bf 8b 38 3e 3e
       -2.3929887 1.1287767 -1.1555866 0.18576257
0003a0 21 6d 31 bf eb 33 f0 bd 95 48 a1 bd 86 c3 48 bf
       -0.6930714 -0.117286526 -0.07875172 -0.78423345
0003b0 32 f4 7f bf 8d f9 2c 3f a1 5c 59 3f fe 99 4b be
       -0.9998199 0.67568284 0.84906965 -0.19882962
0003c0 f4 51 0b bf 94 3c 2e 3f f8 bf 06 3e 98 9b 59 bf
       -0.54421926 0.68061185 0.13159168 -0.8500304
0003d0 53 7d f8 ba 31 75 f8 bf 7d bb 1b c0 79 e8 8f 3e
       -0.0018958248 -1.9410764 -2.4333184 0.2810705
0003e0 dc 5d 42 3f e2 7c bc bd 07 f3 79 3f 32 07 a9 3e
       0.7592447 -0.09203507 0.97636455 0.33013302
0003f0 50 31 d5 be 50 75 4d bf 63 99 1f c0 f2 28 ba bf
       -0.41639185 -0.8025713 -2.493737 -1.4543746

output2.bias f4 [40]
000000 ff 95 c4 be ba 55 01 be 84 6a 0e bd c6 8f 7a bd
       -0.38395688 -0.12630358 -0.03476955 -0.06117227
000010 1d 80 fe bc 28 95 b3 be 78 06 89 bd f2 b1 04 3e
       -0.031066949 -0.35074735 -0.06690687 0.12958506
000020 cb 62 b3 be 34 41 95 3c 24 b1 93 3d f5 b9 87 be
       -0.3503631 0.018219568 0.07211521 -0.2650906
000030 b2 12 82 bd 97 6a 27 3e 83 a6 8f bc 33 9a 03 be
       -0.06351222 0.16349255 -0.017535454 -0.12851791
000040 19 c3 9c be 2c cd 24 bd 3e 1b 01 3e 7b 09 bb bd
       -0.30617598 -0.04023473 0.12608048 -0.09132668
000050 2c 13 20 bd 33 34 ab 3d d6 15 ee 3d 93 d0 85 be
       -0.039080784 0.083595656 0.116252586 -0.26135692
000060 80 0b b9 3d a3 35 96 bd b6 32 c5 bd 9f f5 17 3e
       0.090353966 -0.07334449 -0.09628813 0.14839791
000070 1b c2 db bb aa f0 b8 3d 3f 9e 5d 3e 53 78 42 bd
       -0.006706489 0.09030278 0.21642397 -0.04747803
000080 75 36 d1 3d b3 1f 07 3d 41 04 46 be 27 98 32 bd
       0.10215465 0.032989215 -0.1933756 -0.043602135
000090 b0 bf e3 bd 51 fb d7 be 07 14 02 be 42 ca 58 be
       -0.11120546 -0.42183927 -0.12702952 -0.21170905
