Experiment/image-CNN-512-96-0-noshuffle.pth (torch, 165119 bytes, 6 tensors)

conv1.weight f4 [8, 1, 32]
-0.32929236 -0.050993647 0.21638584 0.2951774 0.1569853 -0.055577897 0.028805569 -0.16041134
0.016990216 0.056725286 -0.06358189 0.17180157 0.1531707 0.13446349 0.029707858 -0.2068667
0.03411231 -0.02874595 -0.26028767 -0.09551668 0.04957038 -0.09631639 -0.013302031 0.22774333
0.1568477 -0.0801753 -0.15760398 -0.09907205 -0.09224312 0.0106626935 0.09570276 0.40726078
-0.15685703 -0.017203907 0.03608132 -0.0048914375 0.10515492 -0.11387287 -0.16496526 0.03679996
0.043701667 -0.12205788 -0.025674172 -0.06861723 0.1123148 0.03669046 0.10696114 -0.1473477
-0.13757154 0.046404034 0.0075799753 0.042038497 -0.059304032 0.061932933 0.11845824 -0.14323871
-0.12332826 0.1562116 0.040150587 -0.038184848 0.042900994 -0.24686898 0.058881838 0.1071217
0.21409057 -0.037061043 -0.18159893 -0.03776183 0.10195229 0.0672602 0.02830011 0.04346438
0.119814925 -0.026014958 -0.03424707 0.08825794 -0.124458216 0.17118256 0.02454293 0.10192319
0.05902625 -0.099556796 0.1364696 -0.048264254 0.015801614 0.10773395 -0.022291876 0.13081895
-0.07138937 0.09647806 -0.0007814877 0.079160675 -0.008228378 -0.10579747 0.07024927 0.13048099
-0.05410006 -0.054229844 -0.096149914 0.23210815 0.047530867 0.004963285 -0.035180524 -0.13179736
0.060514614 0.0460594 -0.18262473 0.034012154 0.09952478 -0.017016362 0.03027183 0.065524355
-0.109764926 -0.08056219 0.18540204 -0.14068589 0.0677029 -0.11757052 0.02071807 0.075006545
0.117907636 0.006021125 0.12053951 0.02589993 -0.22069319 -0.08940985 0.083748266 0.20943457
-0.323293 0.10919883 -0.044911113 0.21743912 0.062432814 0.016989281 -0.1835738 -0.079910964
-0.12174928 0.17183593 -0.03934809 0.029504681 0.039368257 0.067739084 -0.010720778 -0.03198866
0.06007774 -0.0391776 -0.012825576 -0.017238306 0.022186244 -0.09954361 0.10188776 0.08767317
-0.016843459 -0.056099202 -0.1556939 -0.16795693 0.24733037 0.091417395 0.027525483 -0.27133563
0.04059501 0.085352734 0.119567856 -0.1285579 -0.10416522 0.047938243 -0.071532615 0.20743713
0.052021492 -0.104188725 0.04869882 0.12035323 0.0140413055 -0.13409391 0.031657014 -0.12039086
0.119987294 0.0032537372 0.056559294 -0.014590919 -0.14126132 0.045113694 0.14576745 -0.034705374
-0.05737602 -0.13248554 -0.008058444 0.18292947 -0.03990368 -0.049807552 0.11678014 -0.1561771
0.43383828 0.047586698 -0.10921792 -0.28783345 -0.13452508 -0.026832504 0.07382845 -0.0037690008
0.1542734 -0.07564057 0.016276471 -0.04118132 -0.16041306 -0.138255 -0.091636665 0.05459228
0.16954127 -0.11554885 0.19021936 0.094966635 0.16786909 0.1068265 -0.15440951 -0.19799969
0.013065779 0.04209753 0.15678757 0.0008795828 0.1451793 -0.0072269486 -0.20733744 -0.17339596
-0.048518073 0.038306225 0.0052112937 -0.17870738 -0.11541353 0.03020056 0.10729724 -0.1811149
0.12726797 0.05811916 -0.067013934 -0.21947925 -0.11390125 0.09950541 0.05511801 0.03727964
-0.118455485 -0.110606536 -0.08129887 0.076286934 0.038843557 -0.061566427 0.1734154 -0.19586673
-0.2025365 -0.17904451 -0.07161662 0.085376605 0.06980983 0.12664135 0.12402887 -0.4542545
00000000: 0299 a8be b7de 50bd 4094 5d3e 7e21 973e
00000010: c1c0 203e a6a5 63bd a8f9 eb3c df42 24be
00000020: 112f 8b3c c658 683d 3937 82bd c0ec 2f3e
00000030: c8d8 1c3e ccb0 093e e55d f33c ddd4 53be
00000040: 59b9 0b3d a07c ebbc 6d44 85be 409e c3bd
00000050: 500a 4b3d 8741 c5bd c3f0 59bc 8c35 693e
00000060: af9c 203e f332 a4bd f062 21be 49e6 cabd
00000070: f6e9 bcbd 94b2 2e3c cfff c33d 7c84 d03e
00000080: 219f 20be 35ef 8cbc 02ca 133d 5a48 a0bb
00000090: 765b d73d 2e36 e9bd a7ec 28be 8ebb 163d
000000a0: 8500 333d 7bf9 f9bd a452 d2bc 3187 8cbd
000000b0: 4d05 e63d bc48 163d 710e db3d 51e2 16be
000000c0: 8edf 0cbe 2812 3e3d 7161 f83b 8f30 2c3d
000000d0: c9e8 72bd 63ad 7d3d 3c9a f23d 2bad 12be
000000e0: 8793 fcbd eff5 1f3e f174 243d b767 1cbd
000000f0: f4b8 2f3d 39cb 7cbe 152e 713d 9f62 db3d
00000100: 8f3a 5b3e 52cd 17bd 12f5 39be 26ac 1abd
00000110: 5dcc d03d b7bf 893d a2d5 e73c b507 323d
00000120: 8761 f53d 521d d5bc a846 0cbd 94c0 b43d
00000130: f3e3 febd 7b4a 2f3e 410e c93c 1bbd d03d
00000140: 82c5 713d 6fe4 cbbd b0be 0b3e bdb0 45bd
00000150: 6372 813c 9ea3 dc3d 749d b6bc 67f5 053e
00000160: 9734 92bd 4a96 c53d c0dc 4cba fe1e a23d
00000170: 52d0 06bc 58ac d8bd d9de 8f3d cf9c 053e
00000180: 0698 5dbd 1d20 5ebd 3fea c4bd c2ad 6d3e
00000190: baaf 423d 0da3 a23b 7419 10bd e3f5 06be
000001a0: 2cde 773d c8a8 3c3d fa01 3bbe 5450 0b3d
000001b0: a6d3 cb3d e665 8bbc a1fc f73c a231 863d
000001c0: 6fcc e0bd cafd a4bd 08da 3d3e f60f 10be
000001d0: d1a7 8a3d d0c8 f0bd f1b8 a93c 089d 993d
000001e0: 8f79 f13d db4c c53b 6bdd f63d 172c d43c
000001f0: 65fd 61be 831c b7bd 3684 ab3d 0476 563e
00000200: a986 a5be a3a3 df3d b7f4 37bd 5ca8 5e3e
00000210: 8db9 7f3d 1b2d 8b3c c5fa 3bbe 5ca8 a3bd
00000220: b057 f9bd c2f5 2f3e 762b 21bd cdb3 f13c
00000230: 9c40 213d caba 8a3d 34a6 2fbc 8b06 03bd
00000240: 1414 763d b178 20bd 5d22 52bc 5937 8dbc
00000250: edbf b53c 85dd cbbd 88aa d03d fe8d b33d
00000260: 4bfb 89bc 47c8 65bd 396e 1fbe e7fc 2bbe
00000270: 2c44 7d3e 0b39 bb3d 1f7d e13c 81ec 8abe
00000280: f446 263d 6acd ae3d fedf f43d afa4 03be
00000290: 9354 d5bd e45a 443d b17f 92bd 666a 543e
000002a0: 7d14 553d e660 d5bd 6a78 473d c17b f63d
000002b0: 810d 663c ea4f 09be c9aa 013d 7c8f f6bd
000002c0: e6bb f53d a73c 553b b8aa 673d c00e 6fbc
000002d0: cfa6 10be 23c9 383d 1044 153e 3927 0ebd
000002e0: 1e03 6bbd 4aaa 07be 9007 04bc dd51 3b3e
000002f0: 0b72 23bd 0103 4cbd 6d2a ef3d e4ec 1fbe
00000300: 0d20 de3e 45ea 423d a5ad dfbd e85e 93be
00000310: f1c0 09be d7cf dbbc 5f33 973d 5701 77bb
00000320: d9f9 1d3e 71e9 9abd 3c56 853c bead 28bd
00000330: 5243 24be b892 0dbe 01ac bbbd 289c 5f3d
00000340: 3a9c 2d3e e0a4 ecbd ddc8 423e de7d c23d
00000350: e0e5 2b3e dac7 da3d 871d 1ebe 6ec0 4abe
00000360: d911 563c 766e 2c3d ec8c 203e cd93 663a
00000370: e2a9 143e 0ad0 ecbb 4450 54be b68e 31be
00000380: e3ba 46bd fde6 1c3d 80c3 aa3b 11ff 36be
00000390: ee5d ecbd 2a67 f73c a8be db3d 2f76 39be
000003a0: 8952 023e 5b0e 6e3d 9a3e 89bd 2bbf 60be
000003b0: 0f45 e9bd 7ec9 cb3d 6cc3 613d 89b2 183d
000003c0: ca98 f2bd ae85 e2bd 0680 a6bd 533c 9c3d
000003d0: 6c1a 1f3d 142d 7cbd ce93 313e 4a91 48be
000003e0: ba65 4fbe 7257 37be bcab 92bd eed9 ae3d
000003f0: 75f8 8e3d 45ae 013e d902 fe3d 0c94 e8be

conv1.bias f4 [8]
-0.08976678 -0.010681704 -0.057973232 -0.033536483 -0.0151030775 -0.004815861 -0.063312516 -0.060234472
00000000: a5d7 b7bd 5002 2fbc 5775 6dbd 8d5d 09bd
00000010: e672 77bc 5fce 9dbb fea9 81bd 6cb8 76bd

fc1.weight f4 [40, 768]
-0.016076125 0.2678163 0.3921797 0.22719075 0.38943613 -0.005518121 -0.034650553 0.14165401
0.16303733 0.019380545 0.37651497 0.08959233 -0.04827135 -0.07938947 0.27709362 0.20393443
0.08292292 0.15212174 -0.0025120366 -0.26577258 0.13777691 0.30110902 0.19345424 0.30081233
-0.1619047 -0.06544932 0.08146938 -0.31273335 -0.023046406 0.04730733 -0.31150484 0.10822342
0.1107594 0.036660716 -0.03820162 -0.07043079 -0.3736593 0.053480897 -0.021378595 0.1080401
0.23387045 0.22482736 -0.17824316 0.03830264 0.024294462 -0.046854127 0.20455752 0.031748913
0.10256771 -0.19658521 0.084673785 -0.21813443 0.40443924 0.034946114 0.28766435 -0.035573624
-0.043179557 -0.30262953 -0.13089506 -0.35047057 0.30066016 0.05734473 0.020223837 -0.026301973
-0.03577948 -0.3915441 -0.18011858 -0.31838217 -0.076787665 0.16164641 0.10206983 -0.015826056
0.11836867 -0.10288176 -0.032557935 -0.30185452 0.16995393 0.38615113 0.36463916 0.1609732
0.47634828 0.4837562 -0.20542735 0.5212501 -0.004792346 -0.09182425 0.69940466 0.16613339
-0.10804705 -0.36086956 0.3396894 -0.37715772 -0.46587226 0.5668094 -0.19487265 0.029429378
-0.07781575 0.29316816 -0.10710808 0.08511427 -0.10249259 -0.72427386 0.005772029 -0.26387313
-0.008077816 0.01129881 0.107381776 0.022699296 -0.17303471 0.0066966265 0.00470337 -0.14016682
-0.044165965 0.01542652 0.06994829 0.23915857 -0.11905715 -0.60447365 0.023714771 -0.39899197
0.25770736 -0.072402395 0.50857264 0.112434275 0.0685473 0.2740097 0.261234 0.080140494
0.07839963 -0.07285057 0.00815415 -0.16462527 -0.15030192 0.115941614 -0.12886806 -0.06571986
-0.13786176 -0.5503293 -0.064669594 -0.25361913 -0.3183312 0.25492185 -0.058066294 0.0943289
-0.14538167 -0.21234633 -0.05677997 -0.23523623 -0.19215025 0.4056064 -0.17102943 0.008075939
-0.16256854 -0.000893425 0.031666353 0.18916889 -0.11032338 -0.09194745 -0.31130964 -0.20929635
-0.054584034 -0.112559706 0.016118929 -0.045154933 0.05585007 0.16321802 0.064022414 -8.035921e-05
0.008089461 0.14029531 0.13490877 -0.032357197 -0.06909917 0.08150787 0.0009742445 0.14907733
0.0077915275 0.21689813 -0.13105442 -0.050050307 -0.28805262 -0.1320832 -0.12337195 0.34286863
0.11795173 0.7609832 0.3299713 0.59825784 0.16319604 -0.14286444 0.0040238546 0.5101501
-0.07858741 0.5960213 0.3574744 0.54992193 0.54445165 -0.32885373 0.18120314 0.20740965
0.066654354 0.24131887 -0.28067714 0.13090406 0.3102847 -0.3295549 0.22193626 0.27241728
-0.025026174 0.20148297 0.14310615 -0.102955446 -0.36702064 -0.0015207483 -0.008862047 0.35398385
0.05119029 0.3654784 0.39324188 0.7233173 -0.38977364 -0.07192069 -0.027197741 -0.03989315
0.047794156 0.26946273 0.20485957 0.30776232 -0.0695567 0.024806323 -0.05482698 0.22994775
-0.076554574 -0.13975249 -0.1431819 -0.014590782 -0.16703165 -0.0002877556 -0.00978496 -0.08966452
-0.20232616 0.014413667 -0.13399892 -0.034068067 -0.2727226 0.21892852 -0.21401085 0.12752865
-0.20967126 0.0076369317 0.21529712 0.15674166 0.088451676 0.1994468 -0.27250978 0.1176434
00000000: 14b2 83bc 381f 893e c7cb c83e b1a4 683e
00000010: 2c64 c73e 5bd1 b4bb bded 0dbd c00d 113e
00000020: 42f3 263e f3c3 9e3c 92c6 c03e 2f7c b73d
00000030: 2eb8 45bd f296 a2bd 37df 8d3e 30d4 503e
00000040: 7ed3 a93d cdc5 1b3e fba0 24bb 5813 88be
00000050: 6415 0d3e f62a 9a3e de18 463e 1304 9a3e
00000060: 58ca 25be 4b0a 86bd 6bd9 a63d 961e a0be
00000070: d1cb bcbc 55c5 413d 907d 9fbe 3ea4 dd3d
00000080: d3d5 e23d 8c29 163d 4d79 1cbd 053e 90bd
00000090: 4650 bfbe c90e 5b3d 2a22 afbc 2144 dd3d
000000a0: bc7b 6f3e 2539 663e 6085 36be 3be3 1c3d
000000b0: 2e05 c73c 1dea 3fbd 8777 513e 260b 023d
000000c0: 050f d23d a24d 49be 7369 ad3d a25e 5fbe
000000d0: a912 cf3e a823 0f3d be48 933e a6b5 11bd
000000e0: 0cdd 30bd 42f2 9abe 5b09 06be e170 b3be
000000f0: 21f0 993e 4fe2 6a3d 76ac a53c 3c77 d7bc
00000100: 818d 12bd 7878 c8be 0171 38be fd02 a3be
00000110: da42 9dbd a386 253e fd09 d13d a5a5 81bc
00000120: 466b f23d acb3 d2bd 785b 05bd ad8c 9abe
00000130: 6708 2e3e 9ab5 c53e fcb1 ba3e 29d6 243e
00000140: ece3 f33e e5ae f73e 8c5b 52be a670 053f
00000150: 1d09 9dbb 5a0e bcbd 2f0c 333f df1e 2a3e
00000160: c647 ddbd e5c3 b8be c5eb ad3e d11a c1be
00000170: cf86 eebe 6c1a 113f b28c 47be e115 f13c
00000180: dd5d 9fbd 231a 963e 7b5b dbbd 6450 ae3d
00000190: a3e7 d1bd 036a 39bf 4a23 bd3b 611a 87be
000001a0: d158 04bc a51e 393c faea db3d e0f3 b93c
000001b0: 0330 31be 606f db3b ba1e 9a3b e487 0fbe
000001c0: 5fe7 34bd 84bf 7c3c 0d41 8f3d fce5 743e
000001d0: 3cd4 f3bd c9be 1abf 7b45 c23c ad48 ccbe
000001e0: 38f2 833e b547 94bd d131 023f f143 e63d
000001f0: 8762 8c3d 004b 8c3e 76c0 853e b320 a43d
00000200: fc8f a03d ae32 95bd fc98 053c 8793 28be
00000210: bfe8 19be cc72 ed3d fdf5 03be 2298 86bd
00000220: a22b 0dbe 62e2 0cbf 7e71 84bd 5eda 81be
00000230: 4ffc a2be 1e85 823e ecd6 6dbd 832f c13d
00000240: efde 14be 5171 59be 1d92 68bd c4e1 70be
00000250: 09c3 44be a4ab cf3e 5722 2fbe f150 043c
00000260: 5e78 26be bd34 6aba 94b4 013d 7db5 413e
00000270: 39f1 e1bd f24e bcbd fa63 9fbe c851 56be
00000280: 8293 5fbd b485 e6bd d80b 843c 61f4 38bd
00000290: 0bc3 643d a022 273e 2f1e 833d 8686 a8b8
000002a0: a989 043c 93a9 0f3e 8625 0a3e fb88 04bd
000002b0: de83 8dbd 99ed a63d 7164 7f3a baa7 183e
000002c0: 1250 ff3b 8b1a 5e3e 2133 06be 8d01 4dbd
000002d0: a27b 93be d240 07be 6faa fcbd 7a8c af3e
000002e0: ad90 f13d cccf 423f 00f2 a83e 6d27 193f
000002f0: dd1c 273e 0e4b 12be 8ada 833b 3299 023f
00000300: 70f2 a0bd da94 183f e206 b73e afc7 0c3f
00000310: 2f61 0b3f 845f a8be 518d 393e 3263 543e
00000320: 1482 883d 4b1c 773e eab4 8fbe b70b 063e
00000330: a3dd 9e3e 6bbb a8be 4243 633e 477a 8b3e
00000340: b103 cdbc 8d51 4e3e 6b8a 123e 4eda d2bd
00000350: 21ea bbbe d853 c7ba 1f32 11bc 5f3d b53e
00000360: e9ac 513d fc1f bb3e 0057 c93e 532b 393f
00000370: 6990 c7be 284b 93bd cccd debc 0067 23bd
00000380: cec3 433d 05f7 893e b5c6 513e 0693 9d3e
00000390: be73 8ebd a136 cb3c 4192 60bd 6c77 6b3e
000003a0: a5c8 9cbd 471b 0fbe 479e 12be 2d0e 6fbc
000003b0: 580a 2bbe e7dd 96b9 1951 20bc 08a2 b7bd
000003c0: 972e 4fbe 4d27 6c3c 0337 09be f58a 0bbd
000003d0: 4ca2 8bbe cc2e 603e a925 5bbe df96 023e
000003e0: 10b4 56be 3a3f fa3b d976 5c3e e380 203e
000003f0: 2726 b53d c83b 4c3e 6786 8bbe 06ef f03d

fc1.bias f4 [40]
0.036954623 0.024025101 0.0015523738 -0.0064466344 -0.06685406 -0.0023077016 -0.096768185 -0.09956363
-0.026965724 0.013428999 0.08016725 0.022643164 0.047555774 0.058032036 -0.028837785 -0.034327526
0.076786846 -0.14715579 -0.0529099 0.016706718 0.003235284 -0.018093709 -0.032699235 -0.012698656
0.0015616997 0.05054137 -0.04201319 0.038275175 0.010738432 0.014597933 -0.061377384 -0.008999472
0.025706662 0.041249774 -0.0911691 0.014090737 0.0016506771 0.049474325 0.0698723 0.06807248
00000000: bb5d 173d 4ad0 c43c 0579 cb3a 4a3e d3bb
00000010: c8ea 88bd cf3c 17bb 662e c6bd 04e8 cbbd
00000020: 39e7 dcbc 4e05 5c3c ba2e a43d 287e b93c
00000030: d8c9 423d 00b3 6d3d 383d ecbc 059b 0cbd
00000040: 6c42 9d3d 02b0 16be 0db8 58bd 87dc 883c
00000050: 0f07 543b 4239 94bc a2ef 05bd 060e 50bc
00000060: f2b1 cc3a 7804 4f3d 0616 2cbd 6ec6 1c3d
00000070: 40f0 2f3c 2b2c 6f3c da66 7bbd 8572 13bc
00000080: c796 d23c 86f5 283d ddb6 babd d6dc 663c
00000090: 885b d83a 97a5 4a3d 3519 8f3d 9669 8b3d

fc2.weight f4 [40, 240]
-0.13271903 -0.110831484 0.04078873 -0.121587545 0.12766805 -0.064135395 0.07151833 -0.06968519
-0.07643115 0.18356273 -0.3820488 0.14265987 0.08450063 -0.25528228 0.2703943 -0.11298811
0.01588395 -0.09610229 0.015991287 -0.072328225 0.018049954 -0.02458786 0.13433489 0.023925295
-0.09092018 0.137238 -0.12837218 0.17295146 0.03771545 0.16492693 -0.3048174 -0.1206637
0.09872317 0.04482893 0.16295542 0.0024601182 -0.05444263 0.034144923 -0.16075546 0.09195075
-0.019568382 -0.14232503 -0.03888907 0.13695051 -0.029811705 0.027379379 -0.19620277 0.29033414
-0.03844357 0.2127138 -0.088826746 0.14926717 -0.310088 0.009844157 0.028348189 -0.014067326
-0.034043062 0.03987366 -0.027440611 -0.02365272 0.18403843 0.07075147 0.102011114 -0.10558021
-0.022398656 0.04595731 -0.05637119 -0.20420748 0.025409754 0.043494478 -0.015445245 -0.01852443
0.05018217 0.18813202 -0.0017097555 0.15106393 0.02689012 0.08981281 -0.03696802 -0.21139582
0.16583684 0.2693408 -0.05126048 -0.24250501 0.14015552 0.15191369 -0.075255506 0.10810758
-0.08338927 0.072426885 0.14035669 -0.14134376 0.19467705 -0.15442458 -0.108439066 0.120117456
0.19004466 -0.13143642 0.15982746 -0.040310685 0.003991822 -0.19431685 0.077529095 -0.12986916
0.09007624 -0.0008768406 0.08949663 -0.16434476 -0.07837918 0.15420245 -0.1959543 -0.008723004
0.13552462 -0.14145473 0.08408561 -0.1081104 0.1097213 -0.02198516 -0.025815135 0.13068397
0.049634434 -0.22785723 0.037006304 -0.11993031 0.11347951 -0.055029273 -0.016671034 -0.1369953
0.0048272875 0.1002813 -0.13930587 0.11502291 0.07051749 -0.12693472 0.15217403 -0.085743815
0.16126958 -0.07064133 0.23947476 -0.008647755 0.044413727 0.14997037 0.1343801 -0.23864177
0.100794315 -0.07025061 0.19056478 -0.09022905 -0.16963339 0.11440301 -0.13226816 0.008884693
0.15216815 -0.09259983 -0.1159211 -0.20059033 0.16328533 -0.08884592 -0.10495928 0.12923011
-0.21265946 0.021788152 -0.011017879 0.075198166 0.013543456 -0.20021924 0.23762386 -0.073117785
-0.1540348 0.13283363 -0.14000997 0.26914644 -0.08798918 0.12000516 -0.21754447 0.18517536
-0.14245352 0.14427488 -0.02654948 0.22284614 -0.23367423 -0.08456671 0.12755623 -0.28236273
-0.017752988 0.086994484 0.06619673 -0.09096626 0.06398406 0.024716657 -0.060199372 -0.14201409
-0.0861113 -0.06439736 0.08204413 -0.07323579 0.31289452 -0.10550829 0.13866168 0.031953122
0.091850445 -0.20459323 -0.09657488 -0.22430314 0.08554671 -0.09922528 0.042256583 -0.062391724
0.22190827 -0.053816047 -0.27542812 0.10248909 0.041375794 -0.07172393 0.0658822 -0.032278482
-0.0497723 0.12843661 -0.31261468 0.06630976 -0.08550005 0.31628639 -0.006906438 -0.11509614
-0.16273783 0.16798994 -0.17645189 0.0752056 0.14767423 -0.001265563 0.09986417 0.050201774
-0.09121909 0.14107455 -0.011161912 -0.27531627 0.3936569 -0.31232733 0.14708444 -0.16113602
-0.03299202 -0.06636471 -0.16506377 0.010629644 0.06749698 -0.11023379 -0.0017372398 0.04983121
-0.15117632 0.26385695 -0.10822603 0.18147264 -0.16877945 0.3266151 -0.13970324 0.26516205
00000000: 7fe7 07be 9efb e2bd 1512 273d e402 f9bd
00000010: 6abb 023e 6b59 83bd 3478 923d 1cb7 8ebd
00000020: ef87 9cbd def7 3b3e e69b c3be 6e15 123e
00000030: ab0e ad3d 5cb4 82be 1f71 8a3e 4f66 e7bd
00000040: 0f1f 823c 47d1 c4bd 2900 833c d220 94bd
00000050: 7fdd 933c 7b6c c9bc 168f 093e fbfe c33c
00000060: 5c34 babd 1e88 0c3e ff73 03be 301a 313e
00000070: 847b 1a3d 9be2 283e 0711 9cbe 881e f7bd
00000080: 602f ca3d 8a9e 373d c9dd 263e ef39 213b
00000090: 3cff 5ebd 8cdb 0b3d 149d 24be ad50 bc3d
000000a0: df4d a0bc a7bd 11be 254a 1fbd c13c 0c3e
000000b0: ad37 f4bc b84a e03c 61e9 48be ada6 943e
000000c0: 0177 1dbd a5d1 593e ccea b5bd 7ed9 183e
000000d0: dbc3 9ebe 6349 213c 763a e83c a47a 66bc
000000e0: bd70 0bbd 9052 233d 22cb e0bc 59c3 c1bc
000000f0: 9274 3c3e 26e6 903d 34eb d03d 703a d8bd
00000100: 637d b7bc bb3d 3c3d 7ae5 66bd c41b 51be
00000110: 1e28 d03c 4427 323d 0e0e 7dbc 8cc0 97bc
00000120: d28b 4d3d aea5 403e e019 e0ba 81b0 1a3e
00000130: ab48 dc3c c7ef b73d c76b 17bd 2578 58be
00000140: 22d1 293e 0ae7 893e 82f6 51bd 3c53 78be
00000150: ee84 0f3e 438f 1b3e 8f1f 9abd 8267 dd3d
00000160: fec7 aabd 8c54 943d aab9 0f3e 6bbc 10be
00000170: 6c59 473e 7a21 1ebe 4d15 debd 2400 f63d
00000180: 119b 423e 4597 06be cfa9 233e d11c 25bd
00000190: d4cd 823b fffa 46be 93c7 9e3d 6cfc 04be
000001a0: e479 b83d c7db 65ba 024a b73d fe49 28be
000001b0: 4385 a0bd 3fe7 1d3e 3ea8 48be eeea 0ebc
000001c0: f7c6 0a3e 82d9 10be 1435 ac3d fc68 ddbd
000001d0: 90b5 e03d 391a b4bc 437a d3bc 05d2 053e
000001e0: 7a4d 4b3d 6853 69be ec93 173d 069e f5bd
000001f0: f267 e83d 6066 61bd b191 88bc 7f48 0cbe
00000200: 392e 9e3b 4860 cd3d 33a6 0ebe 2291 eb3d
00000210: 796b 903d 2dfb 01be 82d3 1b3e 749a afbd
00000220: da23 253e 67ac 90bd df38 753e 50af 0dbc
00000230: 2beb 353d d591 193e f09a 093e 825e 74be
00000240: 406d ce3d 8ddf 8fbd 6a23 433e 02ca b8bd
00000250: 60b4 2dbe 204c ea3d 4e71 07be 1a91 113c
00000260: f8d1 1b3e fba4 bdbd 0b68 edbd 8d67 4dbe
00000270: 4534 273e daf4 b5bd e4f4 d6bd e654 043e
00000280: 67c3 59be 117d b23c 5584 34bc 7f01 9a3d
00000290: 5fe5 5d3c 4606 4dbe ab53 733e c7be 95bd
000002a0: 4cbb 1dbe 8a05 083e c65e 0fbe 90cd 893e
000002b0: ac33 b4bd 44c5 f53d fac3 5ebe 9c9e 3d3e
000002c0: 56df 11be cbbc 133e 4c7e d9bc c731 643e
000002d0: 4c48 6fbe 5031 adbd 1a9e 023e d991 90be
000002e0: b76e 91bc 2a2a b23d 2792 873d 854c babd
000002f0: 130a 833d 967a ca3c 9e93 76bd 246c 11be
00000300: 1f5b b0bd c3e2 83bd c106 a83d a5fc 95bd
00000310: b633 a03e bb14 d8bd 54fd 0d3e 47e1 023d
00000320: 161c bc3d e380 51be 0dc9 c5bd b9af 65be
00000330: 1d33 af3d a036 cbbd 3d15 2d3d 778e 7fbd
00000340: ec3b 633e 376e 5cbd ea04 8dbe cde5 d13d
00000350: aa79 293d ffe3 92bd 3fed 863d 7136 04bd
00000360: 0ade 4bbd e384 033e 080f a0be 69cd 873d
00000370: a61a afbd 4af0 a13e 674f e2bb 86b7 ebbd
00000380: bfa4 26be 8e05 2c3e ceaf 34be 6505 9a3d
00000390: ea37 173e 3fe1 a5ba 9685 cc3d 60a0 4d3d
000003a0: 13d1 babd d975 103e 74e0 36bc 41f6 8cbe
000003b0: 668d c93e 5ee9 9fbe 4e9d 163e d700 25be
000003c0: a422 07bd 39ea 87bd 7a06 29be f527 2e3c
000003d0: db3b 8a3d 41c2 e1bd 18b4 e3ba d01b 4c3d
000003e0: f7cd 1abe 4218 873e 9ca5 ddbd f7d3 393e
000003f0: 85d4 2cbe 183a a73e 5e0e 0fbe 52c3 873e

fc2.bias f4 [40]
-0.02384188 -0.08141885 -0.14224908 -0.16707918 -0.13173035 -0.035679102 -0.021771353 -0.050225448
-0.15535578 -0.01291567 -0.040705223 -0.040648967 -0.058862764 -0.0045256964 -0.005776712 -0.039479155
-0.119024 -0.025465792 -0.004770059 -0.032137178 0.024451876 -0.024393398 0.0010035888 -0.0016994897
-0.05308237 -0.056330975 -0.04808853 -0.06046756 -0.31881982 -0.17905264 -0.087802656 -0.103005365
-0.036143977 -0.08147033 -0.05957028 -0.029314227 -0.08646879 -0.068882175 -0.018541638 -0.080796525
00000000: 0c50 c3bc edbe a6bd bea9 11be ce16 2bbe
00000010: 52e4 06be 4024 12bd d659 b2bc 33b9 4dbd
00000020: 9615 1fbe 3f9c 53bc 85ba 26bd 887f 26bd
00000030: 151a 71bd 4b4c 94bb 934a bdbb e5b4 21bd
00000040: dbc2 f3bd a39d d0bc 284e 9cbb 46a2 03bd
00000050: 4d4f c83c aad4 c7bc da8a 833a 69c1 deba
00000060: e66c 59bd 4fbb 66bd 7af8 44bd d5ac 77bd
00000070: 5a3c a3be 9359 37be e1d1 b3bd 7af4 d2bd
00000080: b50b 14bd ebd9 a6bd f7ff 73bd 6424 f0bc
00000090: 8d16 b1bd 1912 8dbd a2e4 97bc a678 a5bd
