Experiment/image-EEGNet-512-96-0-noshuffle.pth (torch, 67874 bytes, 22 tensors)

network.1.weight f4 [8, 1, 1, 256]
0	0x3e28db95	0.16490014
1	0x3df58f8f	0.11990272
2	0x3e02845b	0.12745802
3	0x3df2b907	0.118516974
4	0x3d88c147	0.0667749
5	0x3ca08633	0.019595241
6	0x3d91ea7a	0.07124801
7	0x3c0fd8c8	0.008779712
8	0x3d767f75	0.060180146
9	0x3d522b42	0.051310785
10	0xbc87e73b	-0.016589751
11	0x3d450611	0.04810149
12	0x3d2c35c3	0.04204346
13	0x3d7e344c	0.062061593
14	0x3d8bd570	0.06827819
15	0x3cef149c	0.029184632
16	0x3e14d369	0.14533772
17	0x3e1d90a2	0.15387204
18	0x3da94788	0.08265597
19	0x3e091cb2	0.13389853
20	0x3e273207	0.16327678
21	0x3dc0221e	0.09381507
22	0x3dd136eb	0.10215553
23	0x3e2de22c	0.16980809
24	0x3e0c83f8	0.13722217
25	0x3d5620d4	0.0522774
26	0x3cd63bf7	0.02615164
27	0x3d23bf78	0.03997752
28	0x3ca31696	0.01990823
29	0x3c75b304	0.014996294
30	0xbb947921	-0.0045310413
31	0x3d815879	0.06315703
32	0x3c668298	0.014069222
33	0x3cbf807c	0.023376696
34	0x3d3da735	0.04630204
35	0x3d854627	0.06507521
36	0x3e16f3bb	0.14741413
37	0x3dc3c407	0.095588736
38	0x3dbdbc0b	0.09264382
39	0x3e2b0e4d	0.16704674
40	0x3e25bb46	0.1618472
41	0x3db62572	0.08893861
42	0x3ddd4810	0.108047605
43	0x3da78264	0.08179167
44	0x3e12c3d9	0.14332522
45	0x3df57623	0.119854234
46	0x3e1da345	0.15394314
47	0x3d96efb1	0.07369936
48	0x3dae9234	0.0852398
49	0x3e0d87d0	0.1382134
50	0x3dd6a0a6	0.1047986
51	0x3dc34a3d	0.09535644
52	0x3d18bcbb	0.037289362
53	0x3d764161	0.060120944
54	0x3d8fef73	0.07028093
55	0xbca10d78	-0.019659743
56	0x3b283f7c	0.0025672605
57	0x3e019c8d	0.12657376
58	0x3de76318	0.112981975
59	0x3dd8ef34	0.105924994
60	0x3e0e2f64	0.13885266
61	0x3c6bdc3e	0.014395772
62	0x3da13c56	0.07872836
63	0x3cd5d80d	0.026103998
64	0xbce655c4	-0.028117068
65	0xbd9cf279	-0.076634355
66	0xbdffd1d9	-0.12491197
67	0xbdbf1c1f	-0.093315355
68	0xbd8f2a15	-0.069904484
69	0xbde019de	-0.10942434
70	0xbe0d3ea8	-0.13793433
71	0xbe0d4fa8	-0.13799918
72	0xbdeddf86	-0.11614899
73	0xbe33e010	-0.17565942
74	0xbe48b8bf	-0.19601725
75	0xbe368076	-0.17822441
76	0xbe905b86	-0.28194827
77	0xbe669760	-0.22518682
78	0xbea06d13	-0.31333217
79	0xbe9c71ba	-0.30555516
80	0xbea332fe	-0.3187484
81	0xbeb2cbc8	-0.34921098
82	0xbe60e922	-0.21963933
83	0xbe6aca02	-0.22928622
84	0xbe191e4d	-0.14952965
85	0xbd7a8b9d	-0.0611683
86	0xbd9cde47	-0.076595835
87	0xbc92235f	-0.017839132
88	0xbdd0b8db	-0.101915084
89	0xbd3e518c	-0.046464488
90	0xbdb8c219	-0.09021396
91	0xbd877403	-0.06613924
92	0xbdb7d7a2	-0.089766756
93	0xbde5547d	-0.111977555
94	0xbd03f973	-0.032220315
95	0x3bb5559c	0.005533887
96	0xbc22b04b	-0.009929727
97	0x3d035971	0.03206772
98	0x3d4a6f0e	0.049422316
99	0x3e368bec	0.17826813
100	0x3dcda3fb	0.100410424
101	0x3d6e46e1	0.058173064
102	0xbc8278fc	-0.01592683
103	0xbe06d98f	-0.1316893
104	0xbe1dfe56	-0.15429053
105	0xbe73415f	-0.23755406
106	0xbec23be5	-0.3793632
107	0xbead7779	-0.33880213
108	0xbea5df2e	-0.32396835
109	0xbea7d636	-0.32780617
110	0xbe846bb1	-0.25863412
111	0xbe3f1608	-0.18660748
112	0xbe416657	-0.18886696
113	0xbdf216fc	-0.1182079
114	0x3ca065c6	0.01957978
115	0xbd912e99	-0.07088966
116	0x3c055e14	0.008140106
117	0xbd5a1b1c	-0.05324851
118	0xbb472120	-0.0030384734
119	0x3ca83997	0.020535273
120	0x3d4576af	0.04820889
121	0x3c364b8a	0.011126408
122	0x3d8e51bf	0.069491856
123	0x3d8fa869	0.070145436
124	0x3cb1cf9e	0.021705445
125	0x3db1f42d	0.08689151
126	0x3e1bb29f	0.15204857
127	0x3e2b1e06	0.16710672
128	0x3dd47ce2	0.10375382
129	0x3e4c87c6	0.19973668
130	0x3e1da012	0.15393093
131	0x3e979087	0.29602453
132	0x3e9e7d17	0.3095481
133	0x3eb84b96	0.35995167
134	0x3eb3be5b	0.35106167
135	0x3ee2092c	0.44147623
136	0x3ef2379d	0.47308055
137	0x3f1d9d40	0.6156807
138	0x3f134b43	0.57536715
139	0x3f214b1d	0.6300524
140	0x3f286571	0.6577979
141	0x3f29cbcb	0.6632659
142	0x3f1ce005	0.61279327
143	0x3f108e62	0.5646726
144	0x3f0bb86f	0.545783
145	0x3ee794f5	0.45230833
146	0x3ed6dbb7	0.41964504
147	0x3ecfc42b	0.40579352
148	0x3ee1f2cf	0.4413056
149	0x3ee007e9	0.43756035
150	0x3f0ee444	0.55817056
151	0x3f1853dd	0.59502965
152	0x3f131d0c	0.57466197
153	0x3f09ad27	0.53779835
154	0x3ee217bb	0.4415873
155	0x3eb04ff5	0.34436002
156	0x3ec51530	0.38492727
157	0x3e78fb24	0.24314553
158	0x3e3eb68b	0.18624322
159	0x3e06e1aa	0.13172022
160	0x3df85f3d	0.1212754
161	0x3e3fdabb	0.18735783
162	0x3e5b108c	0.21393031
163	0x3dd511c0	0.10403776
164	0x3d6bda27	0.057581093
165	0x3d10b47b	0.03532837
166	0xbdd3de90	-0.10345185
167	0xbdf77f5e	-0.1208484
168	0xbe9bfde9	-0.30467156
169	0xbefe5325	-0.4967281
170	0xbf1156bc	-0.5677297
171	0xbf23f414	-0.6404431
172	0xbf401edd	-0.75047094
173	0xbf5b42bb	-0.856487
174	0xbf53f718	-0.8279891
175	0xbf654844	-0.89563394
176	0xbf506ee1	-0.8141919
177	0xbf5be2bb	-0.8589284
178	0xbf566bfb	-0.83758515
179	0xbf5bc1bb	-0.85842484
180	0xbf66e0d6	-0.9018682
181	0xbf599a61	-0.8500119
182	0xbf54ac20	-0.8307514
183	0xbf687445	-0.90802413
184	0xbf6b0644	-0.91806436
185	0xbf74ebda	-0.9567238
186	0xbf69759c	-0.9119508
187	0xbf55346e	-0.83283126
188	0xbf6445f3	-0.89169234
189	0xbf5e1b57	-0.8676047
190	0xbf4604ed	-0.77351266
191	0xbf56ba58	-0.8387809
192	0xbf4420db	-0.76612633
193	0xbf423329	-0.75859314
194	0xbf37394e	-0.71571815
195	0xbf385b6e	-0.7201451
196	0xbf220555	-0.63289386
197	0xbf1028a6	-0.56312025
198	0xbefb7f47	-0.49120542
199	0xbeeedf3d	-0.46654692
200	0xbeac9d41	-0.33713725
201	0xbea722c4	-0.32643712
202	0xbe4966f9	-0.19668187
203	0xbe01396b	-0.1261956
204	0xbdc87e5e	-0.09789728
205	0xbd3f4f1e	-0.04670631
206	0xbcb7c0fb	-0.022430887
207	0x3c46afab	0.012126843
208	0x3cd3c3d5	0.025850216
209	0xbd9c5805	-0.07633976
210	0x3d273189	0.040818725
211	0x3ccb7189	0.024834411
212	0x3d96d4d3	0.07364812
213	0x3da13a33	0.07872429
214	0x3c52ee50	0.012874201
215	0x3cb2e8c2	0.021839503
216	0x3debc2ed	0.115117885
217	0x3e1779c8	0.1479255
218	0x3e46a8a1	0.19400264
219	0x3e09e36d	0.13465662
220	0x3e3bc5b6	0.1833714
221	0x3e1319ac	0.14365262
222	0x3de2149d	0.11039088
223	0x3e3ce512	0.18446758
224	0x3e184382	0.14869502
225	0x3e2d6a21	0.16935016
226	0x3e11d1d3	0.14240198
227	0x3d952652	0.072827
228	0x3dd6cc29	0.10488159
229	0x3e27e840	0.1639719
230	0x3e50e202	0.20398715
231	0x3de6d322	0.11270739
232	0x3e67de3a	0.22643366
233	0x3e570eef	0.2100179
234	0x3e2945d4	0.16530544
235	0x3dd85900	0.105638504
236	0x3e081053	0.13287477
237	0x3e33e97e	0.17569539
238	0x3e0a1a10	0.13486505
239	0x3de9e28c	0.114201635
240	0x3d651143	0.055924665
241	0x3d629913	0.055321764
242	0x3da2445b	0.07923194
243	0x3e26b892	0.16281345
244	0x3e3d8aa5	0.1850992
245	0x3e3acaff	0.182415
246	0x3e93b4cf	0.28848884
247	0x3e280972	0.16409853
248	0x3e17e5e1	0.14833786
249	0x3e0ae1ac	0.1356265
250	0x3e11ef05	0.14251335
251	0x3e3012a7	0.17194615
252	0x3e2c8dd8	0.16850984
253	0x3e747cd5	0.23875745
254	0x3ec04e13	0.37559566
255	0x3ed7931a	0.42104417

network.1.bias f4 [8]
0	0x3bb1abb8	0.005422082
1	0x3d518b27	0.051158097
2	0x3cb8b1e6	0.022545766
3	0x3d95346c	0.07285389
4	0xbd955951	-0.072924264
5	0x3d47e671	0.04880375
6	0xbd29e6a6	-0.04147973
7	0xbc551076	-0.013004413

network.2.weight f4 [8]
0	0x3f12e529	0.5738092
1	0x40017607	2.0228288
2	0x3f7524fa	0.95759547
3	0x3f8a7367	1.0816468
4	0x3fb28894	1.394793
5	0x3f614f41	0.88011557
6	0x3f976469	1.1827518
7	0x3f828e31	1.0199643

network.2.bias f4 [8]
0	0x3d28e662	0.041235335
1	0x3d08c747	0.03339317
2	0x3d2add30	0.041714847
3	0xbd005e9b	-0.031340223
4	0x3dc727a4	0.09724358
5	0x3dade8e6	0.084916875
6	0xbbb37b72	-0.0054773623
7	0xbe50efdb	-0.20403998

network.2.running_mean f4 [8]
0	0xbaf99668	-0.0019042017
1	0x3d1a795b	0.03771339
2	0x3c563c23	0.013075861
3	0x3daa4626	0.08314161
4	0xbd9bfb54	-0.076162964
5	0x3d69fd09	0.05712608
6	0xbd16763b	-0.036733847
7	0xbd4e64c4	-0.050389066

network.2.running_var f4 [8]
0	0x4325aa90	165.66626
1	0x430c4b36	140.2938
2	0x42f1e8fb	120.95504
3	0x430d428d	141.25996
4	0x432c5c56	172.36069
5	0x43336ec9	179.43275
6	0x4304f10d	132.9416
7	0x43662315	230.13704

network.3.weight f4 [16, 1, 96, 1]
0	0x3fc26176	1.5185993
1	0x3f94b44b	1.1617521
2	0xbe5f7144	-0.21820551
3	0x3f1cd7a1	0.61266524
4	0xbe435f86	-0.19079408
5	0xbd1e24f4	-0.03860946
6	0xbe38d764	-0.18050915
7	0xbe7049a2	-0.23465589
8	0xbf0e47bc	-0.5557821
9	0x3e8a27ad	0.26983395
10	0xbe1c6c97	-0.15275799
11	0xbcfccafd	-0.030858511
12	0x3daa3163	0.08310201
13	0x3c38ab17	0.01127126
14	0x3d24e255	0.04025491
15	0x3e564506	0.20924768
16	0xbf2c1ac9	-0.6722837
17	0xbdfe4566	-0.124155805
18	0xbee9fa3d	-0.4569873
19	0xbe2bdb8e	-0.16782972
20	0x3e4ed4da	0.20198384
21	0x3d9344e3	0.071908735
22	0xbd0a3c62	-0.03374899
23	0xbe85e0a0	-0.26147938
24	0xbe8c8499	-0.27444914
25	0xbf1a3b08	-0.60246325
26	0x3de30109	0.11084182
27	0x3ec4f48b	0.3846782
28	0x3eabefe0	0.33581448
29	0x3e522a5a	0.20523968
30	0x3d97e681	0.07417012
31	0xbeb08680	-0.34477615
32	0x3fa4bc47	1.2869958
33	0x3edca541	0.4309483
34	0x3eff40c6	0.49854106
35	0xbe87f215	-0.2655188
36	0xbea09647	-0.31364653
37	0xbd29ff94	-0.041503504
38	0xbddb9a17	-0.1072275
39	0xbe32d3cd	-0.17463608
40	0xbe732e29	-0.23748077
41	0x3b2d8cee	0.0026481706
42	0x3f0c7dcc	0.5487945
43	0xbf094d1a	-0.5363327
44	0x3db8da15	0.09025971
45	0x3f54e395	0.8315976
46	0x3bc11b2d	0.005893132
47	0xbf21d0cb	-0.6320922
48	0x3e4c4b5c	0.19950622
49	0xbe4a2c4d	-0.19743462
50	0x3c502793	0.012704748
51	0xbdba480a	-0.090957716
52	0xbe2d3cf8	-0.16917789
53	0x3e07f84e	0.13278314
54	0xbd7026f1	-0.058630887
55	0x3f05c24c	0.522496
56	0xbf0be9f9	-0.5465389
57	0xbf3fa2a2	-0.7485753
58	0xbe166763	-0.14687876
59	0xbf2bcd70	-0.6711035
60	0x3dfc37f5	0.123153605
61	0xbe2c006f	-0.1679704
62	0x3d963c4d	0.0733572
63	0x3e512ec9	0.20428003
64	0x3d70f56e	0.05882781
65	0x3e28ef70	0.16497588
66	0xbe81db6d	-0.2536272
67	0x3c6dbd22	0.014510425
68	0xbeb826ec	-0.35967195
69	0x3ea0bd08	0.3139422
70	0xbedb3edd	-0.42821398
71	0x3ca8366f	0.020533768
72	0x3e23db02	0.16001514
73	0xbd766ac8	-0.06016043
74	0x3d3f345d	0.046680797
75	0xbe03e9df	-0.12882183
76	0x3dbb0c48	0.09133202
77	0x3eb41fce	0.35180515
78	0x3d055718	0.032553762
79	0x3e86ac62	0.26303393
80	0x3ea8c866	0.32965392
81	0x3dd5432b	0.10413202
82	0x3cbe5ffa	0.023239125
83	0xbd4aa585	-0.049474258
84	0xbbe6dbdb	-0.007045252
85	0x3e9e6992	0.3093992
86	0xbe0bf8a4	-0.13669068
87	0xbc5f7c89	-0.013640531
88	0x3e799c7d	0.24376102
89	0xbe9b3670	-0.3031497
90	0xbe3edfa5	-0.18640001
91	0xbe218373	-0.157728
92	0xbe98f2de	-0.29872793
93	0xbe796a6b	-0.24357001
94	0x3e91174d	0.2833809
95	0xbd09eddf	-0.033674117
96	0xbb879eb2	-0.004138791
97	0xbe5e0f65	-0.2168556
98	0x3e8d01e9	0.2754052
99	0xbe51b9d5	-0.20481046
100	0x3e7b7b2e	0.24558708
101	0xbe8468db	-0.25861248
102	0x3e980694	0.2969252
103	0xbdda8813	-0.10670485
104	0x3f13b94d	0.5770462
105	0xbce58d8a	-0.028021593
106	0xbef7691d	-0.48322383
107	0xbde4197e	-0.11137675
108	0xbe0aff76	-0.13574013
109	0x3edc003e	0.42968935
110	0xbde8f9b8	-0.11375755
111	0xbee5d40f	-0.4488835
112	0x3ea9ac77	0.33139393
113	0x3c830584	0.015993841
114	0xbeadc3a1	-0.33938316
115	0xbd2785f9	-0.04089925
116	0xbdc15fca	-0.094420984
117	0xbdf48033	-0.119385146
118	0x3d1fb070	0.038986623
119	0x3f03f6ea	0.51548636
120	0xbe46ad31	-0.19402005
121	0x3f1ba57c	0.60799384
122	0xbe0347c3	-0.12820344
123	0x3e1f0416	0.15528902
124	0xbf10b64d	-0.5652817
125	0x3ea52e64	0.32261956
126	0x3e552b1c	0.20817226
127	0x3d1004fb	0.035161
128	0xbef3be97	-0.47606346
129	0xbd9f0684	-0.07764915
130	0x3ecf80b4	0.4052788
131	0x3e5f27d5	0.21792538
132	0x3e26273b	0.16225903
133	0x3db34325	0.08753041
134	0x3d612b3b	0.05497287
135	0x3eacf46e	0.33780235
136	0xbdb61c69	-0.088921376
137	0xbd804168	-0.06262475
138	0xbf653d82	-0.8954698
139	0x3e9222fd	0.2854232
140	0x3e8746c4	0.26421177
141	0x3cf3d5c2	0.029765014
142	0xbefd15c8	-0.4943068
143	0xbcd21362	-0.025644008
144	0x3ea12e06	0.31480426
145	0xbe684e36	-0.22686085
146	0xbe4d4669	-0.2004639
147	0xbe062d51	-0.13103224
148	0xbbaea68d	-0.005329913
149	0xbe848f57	-0.2589061
150	0xbe46fc9f	-0.19432305
151	0xbe040a4d	-0.12894554
152	0x3e881cb1	0.2658439
153	0x3e7a1bb4	0.2442463
154	0x3e5388d4	0.20657665
155	0xbf6b291f	-0.9185962
156	0x3bdbed3c	0.00671163
157	0xbe15ff7d	-0.14648242
158	0x3dcba7f5	0.09944145
159	0x3ebe5df8	0.37181067
160	0xbecf934f	-0.40542075
161	0x3e0f25a1	0.13979198
162	0xbf5150e7	-0.8176407
163	0x3ee40e43	0.4454213
164	0xbd1bfe7f	-0.038084503
165	0xbc57ef1c	-0.013179567
166	0x3cbfee95	0.023429194
167	0xbf48183a	-0.78161967
168	0xbe898401	-0.26858523
169	0xbf159fe4	-0.584471
170	0x3f3cb209	0.7370916
171	0xbf1a1e5e	-0.60202587
172	0x3f0ea27f	0.557167
173	0x3ea770f2	0.32703358
174	0x3e51938b	0.2046644
175	0xbef04743	-0.46929368
176	0x3e5b4b08	0.21415341
177	0x3e85b885	0.2611734
178	0x3dc22288	0.094792426
179	0x3ee58f1d	0.4483575
180	0xbd91e8ca	-0.07124479
181	0xbef0d0e3	-0.47034368
182	0x3f1470c5	0.5798457
183	0x3e0cc3b5	0.13746531
184	0x3d366607	0.044530895
185	0xbdd1c686	-0.102429435
186	0x3e7cf8ef	0.24704336
187	0x3f29c50b	0.6631629
188	0x3f0b7048	0.544682
189	0xbe297448	-0.16548264
190	0x3d1c6834	0.038185313
191	0xbef38590	-0.47562838
192	0xbe922b4d	-0.2854866
193	0xbea83386	-0.3285181
194	0x3d21189f	0.03933012
195	0x3ea2dd33	0.31809387
196	0xbdf1aeec	-0.11800942
197	0x3ee357a7	0.4440281
198	0x3b831483	0.004000248
199	0x3ce54406	0.027986538
200	0x3e282a8f	0.16422485
201	0xbdb541df	-0.088504545
202	0x3da68ba0	0.081321
203	0xbe9e4a11	-0.30915883
204	0xbf4c9ecf	-0.7992982
205	0xbd05fdcf	-0.032712754
206	0x3e4296cc	0.19002837
207	0x3eeba465	0.4602386
208	0x3e7173ff	0.23579405
209	0x3ebeb328	0.3724606
210	0x3dea6fee	0.1144713
211	0xbeccbf5b	-0.39989743
212	0xbeaaf9bb	-0.33393654
213	0x3e8fd8db	0.28095135
214	0xbe52f7f4	-0.20602399
215	0xbe57dd98	-0.21080625
216	0x3ebd2465	0.3694183
217	0x3ed57ffd	0.4169921
218	0xbebaee21	-0.36509803
219	0x3eb086e1	0.34477904
220	0xbf084e43	-0.5324442
221	0x3e0edcd1	0.13951422
222	0x3ee78011	0.45214894
223	0x3e21df7a	0.15807906
224	0x3ee793eb	0.4523004
225	0xbda74212	-0.08166899
226	0x3d644bae	0.055736236
227	0x3e6acfcb	0.22930829
228	0xbdcb90d0	-0.0993973
229	0x3e6f115b	0.23346464
230	0xbf450943	-0.7696726
231	0xbf281d88	-0.6567006
232	0xbf3ff54b	-0.7498366
233	0x3f14c2f6	0.58109987
234	0xbd7658ed	-0.0601434
235	0xbdcc5991	-0.09978021
236	0x3e86df55	0.26342264
237	0xbe9cde1e	-0.30638212
238	0x3dbdc984	0.09266952
239	0x3ed3aeb8	0.41344237
240	0xbdcf4110	-0.101198316
241	0x3e243dca	0.16039196
242	0x3f1a36ff	0.6024017
243	0xbe7a3a10	-0.24436212
244	0x3d8a1c61	0.06743694
245	0xbea76c31	-0.3269973
246	0xbe5bca7d	-0.21463962
247	0xbea06203	-0.31324777
248	0xbe5f587e	-0.21811101
249	0x3ea70a70	0.3262515
250	0xbe41858f	-0.18898605
251	0xbdb544d8	-0.088510215
252	0x3e74d49a	0.23909226
253	0xbf015f0b	-0.5053565
254	0xbda24fd3	-0.079253815
255	0x3e97d584	0.29655087

network.3.bias f4 [16]
0	0xbe71dd2b	-0.23619525
1	0xbc79f1ab	-0.015255372
2	0xbcc3c694	-0.0238984
3	0xbda23e0a	-0.07921989
4	0xbd99ba8c	-0.07506284
5	0x3bb9953c	0.005663542
6	0xbcd92424	-0.026506491
7	0x3d369a81	0.04458094
8	0xbca0e9e9	-0.019642787
9	0xbd10ebd8	-0.035381168
10	0xbe10caaa	-0.1413981
11	0x3d594ba0	0.053050637
12	0x3db29c8f	0.087212674
13	0x3d29032c	0.04126279
14	0xbe1605a3	-0.14650588
15	0xbd96a760	-0.07356143

network.4.weight f4 [16]
0	0x404ac443	3.1682289
1	0x3f97cf50	1.1860142
2	0x3fc0933a	1.504493
3	0x40214ca9	2.520304
4	0x3f42906b	0.76001614
5	0x3f4faa5b	0.81119317
6	0x3f83408e	1.0254076
7	0x3f9df642	1.2340777
8	0x3f7c9820	0.98669624
9	0x3f803733	1.0016845
10	0x3f6a96db	0.9163644
11	0x3fb24e67	1.3930176
12	0x3f830c86	1.0238197
13	0x3fb3ef11	1.4057332
14	0x3f8d271b	1.1027559
15	0x3f744be7	0.9542832

network.4.bias f4 [16]
0	0xc03e7ac4	-2.976243
1	0xbeba6db4	-0.36411822
2	0xbe8ed824	-0.27899277
3	0xbf82c852	-1.0217383
4	0xbdad32b5	-0.08456937
5	0xbd860f59	-0.06545896
6	0xbdbd0470	-0.09229362
7	0xbf0ba8b0	-0.5455427
8	0xbdee4de7	-0.116359524
9	0xbe211481	-0.15730478
10	0xbe0097d2	-0.12557915
11	0xbeb05b81	-0.34444812
12	0xbe146eb2	-0.14495352
13	0xbe9d398e	-0.30707973
14	0xbeaf7183	-0.3426629
15	0xbe4c3cab	-0.19945018

network.4.running_mean f4 [16]
0	0xbe58aa25	-0.21158655
1	0xbc9faf41	-0.019492747
2	0xbd303e09	-0.04302791
3	0xbd330510	-0.043706
4	0xbd8fdb99	-0.07024307
5	0x3d151f02	0.036406524
6	0xbcc422d1	-0.023942383
7	0x3d3818b3	0.04494543
8	0x3d040d84	0.032239452
9	0xbd2919cb	-0.041284364
10	0xbe6be19f	-0.23035286
11	0x3e429362	0.19001535
12	0x3db6cb3a	0.08925481
13	0x3d2abc0e	0.04168325
14	0xbe73beba	-0.23803225
15	0xbe2c9515	-0.16853745

network.4.running_var f4 [16]
0	0x40145064	2.3174067
1	0x3f5e68a8	0.8687844
2	0x4144985e	12.287199
3	0x4168b86e	14.545027
4	0x40651ddd	3.5799477
5	0x40ef0c62	7.4702616
6	0x41089f85	8.538945
7	0x415e695b	13.900722
8	0x41470178	12.437859
9	0x413d6c79	11.838983
10	0x401a24c4	2.408494
11	0x40389d6c	2.8846083
12	0x40781748	3.876421
13	0x40821171	4.064629
14	0x403f9249	2.9933035
15	0x4019e9ac	2.4048872

network.9.weight f4 [16, 2, 1, 16]
0	0x3eadef41	0.339716
1	0x3e3277b6	0.17428479
2	0xbc1b3d6e	-0.009475095
3	0x3dfe63ad	0.124213554
4	0x3e52e6eb	0.205959
5	0x3dd92ea9	0.10604603
6	0x3e049c5a	0.12950268
7	0x3cfc3798	0.030788228
8	0x3e0f3ab5	0.13987239
9	0x3e1cfce6	0.15330848
10	0x3dc9cf33	0.09853973
11	0x3d439294	0.04774721
12	0x3e0ab37d	0.13545032
13	0x3e8ab544	0.2709142
14	0x3ebade6b	0.36497816
15	0x3e9837e5	0.29730144
16	0xbd25ecfe	-0.040509216
17	0x3d23755b	0.03990684
18	0x3e98c3f8	0.29837012
19	0x3eb198c0	0.34686852
20	0x3e055020	0.13018847
21	0x3e293ffc	0.16528314
22	0xbe1f5329	-0.15559067
23	0xbe3fcbfd	-0.18730159
24	0xbe50dab5	-0.2039593
25	0xbe9b8539	-0.30375078
26	0xbeb33f09	-0.3500903
27	0xbe1c9175	-0.15289862
28	0xbe10352f	-0.14082788
29	0x3dc71153	0.09720101
30	0xbd492741	-0.0491097
31	0x3da92094	0.08258167
32	0x3d0bd9d4	0.034143284
33	0xbe3b6a1c	-0.18302196
34	0xbd4f08c5	-0.050545473
35	0x3c339083	0.010959747
36	0xbded14f9	-0.11576266
37	0xbdc7901e	-0.09744285
38	0xbe2fec63	-0.17180018
39	0xbd100e61	-0.035169963
40	0x3d35f0b0	0.04441899
41	0xbe27e5ac	-0.16396207
42	0xbdd2c753	-0.10291924
43	0xbe05d32e	-0.1306884
44	0xbde94b93	-0.11391368
45	0xbe511b8b	-0.20420663
46	0xbd916b49	-0.07100541
47	0x3ca0a764	0.019611068
48	0x3f5ff9ab	0.8749034
49	0x3f1f9b79	0.6234661
50	0x3e9238a4	0.28558838
51	0xbc8ea804	-0.0174141
52	0xbd933f50	-0.0718981
53	0xbece9c03	-0.40353402
54	0xbeb1ab43	-0.34700975
55	0xbe85186e	-0.259952
56	0xbe350b0b	-0.17679994
57	0xbdef138d	-0.11673651
58	0x3c644900	0.01393342
59	0x3e4f0b4f	0.20219158
60	0x3ec56563	0.38553914
61	0x3eaabc8f	0.33346984
62	0x3dd978d3	0.106187485
63	0xbc05f5c6	-0.008176273
64	0x3f1851a9	0.59499604
65	0x3e2510f5	0.1611975
66	0xbf38523b	-0.72000474
67	0xbf266168	-0.6499238
68	0xbe7e6950	-0.24844861
69	0x3e7eb009	0.2487184
70	0x3e9acef7	0.30236027
71	0x3e89ce26	0.2691509
72	0x3d0428c9	0.03226546
73	0x3c0276bc	0.007962879
74	0xbc37719b	-0.011196519
75	0xbc9589ae	-0.018254127
76	0xbec797f2	-0.38983113
77	0xbf07e02d	-0.5307644
78	0x3e040be3	0.1289516
79	0x3ece3b49	0.40279606
80	0xbf50eea1	-0.8161412
81	0xbee43be0	-0.4457693
82	0x3eaff4f2	0.34366566
83	0x3f2fbc61	0.6864682
84	0x3e9199fa	0.28437787
85	0xbe2dce6e	-0.16973278
86	0xbef72af2	-0.48274952
87	0xbe7b8753	-0.24563341
88	0xbdcbe7c2	-0.09956314
89	0x3d75b9a0	0.05999148
90	0x3daa7943	0.0832391
91	0x3c887917	0.016659303
92	0xbda4c19f	-0.08044743
93	0xbe65b271	-0.22431351
94	0xbe1ce999	-0.15323485
95	0xbe4f8468	-0.20265353
96	0x3e882c2b	0.26596197
97	0x3e13c43b	0.14430325
98	0xbda6ed83	-0.081507705
99	0xbf060610	-0.52353
100	0xbf0018b4	-0.50037694
101	0xbec4931c	-0.38393486
102	0xbe5bd6b1	-0.21468617
103	0x3de8b1d3	0.11362042
104	0x3f7b7fda	0.9824196
105	0x3f7f1fa3	0.9965765
106	0x3e241825	0.16024835
107	0xbef10549	-0.47074345
108	0xbe267af3	-0.16257839
109	0xbe557ddc	-0.20848793
110	0xbebc6f6f	-0.36803767
111	0xbe8a866c	-0.2705568
112	0x3e2dd54f	0.16975902
113	0xbe25ae6d	-0.1617982
114	0xbe43cece	-0.19121858
115	0x3c7b4ab1	0.015337632
116	0xbdf35c6b	-0.11882862
117	0xbdc83a51	-0.09776748
118	0x3e8ff246	0.28114527
119	0x3e74dc16	0.23912081
120	0xbe5ca070	-0.21545577
121	0xbebe99d2	-0.3722673
122	0xbdc49c13	-0.09600081
123	0x3da79d98	0.081843555
124	0xbd8ea37e	-0.069647774
125	0xbd47a556	-0.04874166
126	0x3d3d49d7	0.046212997
127	0x3dcfca2e	0.101459846
128	0xbe928ba3	-0.2862216
129	0xbf020b28	-0.50798273
130	0xbea96e11	-0.33091787
131	0x3f56a0a8	0.8383889
132	0x3eda9cf5	0.42697874
133	0x3dcfb441	0.101418026
134	0xbe757a1e	-0.23972365
135	0x3dc3d67e	0.095623955
136	0x3ef12f40	0.4710636
137	0xbe071344	-0.13190943
138	0xbeb3c75e	-0.35113043
139	0xbdbc00d0	-0.091798425
140	0x3eb40a65	0.3516418
141	0xbe04d0a9	-0.12970223
142	0xbed9c338	-0.42531753
143	0xbe6f8785	-0.2339154
144	0x3e0b55ce	0.1360695
145	0xbe6ca71d	-0.23110624
146	0xbdb3bde4	-0.08776453
147	0x3f4f6c14	0.8102429
148	0x3ebfbb15	0.3744742
149	0x3d5cfc93	0.05395181
150	0xbea68427	-0.325227
151	0x3e4e85bf	0.20168208
152	0x3e6d1336	0.2315186
153	0xbde4fe3a	-0.11181302
154	0xbe4d3a5a	-0.2004179
155	0xbe4ac1b5	-0.19800456
156	0x3e981823	0.29705915
157	0x3d37f1c4	0.0449083
158	0xbe6b0cb8	-0.2295407
159	0xbcf23d61	-0.029570283
160	0x3d8c3a69	0.06847078
161	0x3eee877f	0.4658775
162	0xbe25e43f	-0.1620035
163	0xbf3c9b54	-0.7367451
164	0x3e1cba56	0.15305457
165	0x3f3efd84	0.74605584
166	0x3ea59147	0.323374
167	0xbed762bf	-0.42067525
168	0xbec6d146	-0.38831538
169	0x3f04cd8a	0.5187613
170	0x3ef66504	0.48123944
171	0xbf076b3f	-0.5289802
172	0xbf68e3b9	-0.9097248
173	0xbc1f4946	-0.00972206
174	0x3f272f4b	0.6530654
175	0xbda336db	-0.07969447
176	0xbe36000c	-0.17773455
177	0x3f33f244	0.70291543
178	0x3e12c284	0.14332014
179	0xbf5027a6	-0.813105
180	0xbe7d3dca	-0.24730602
181	0x3f2ff0c1	0.68726736
182	0x3f0f4b1a	0.5597397
183	0xbedcccbc	-0.4312495
184	0xbef09e15	-0.46995607
185	0x3e975ad0	0.29561472
186	0x3f1c2dda	0.61007464
187	0xbd5cb162	-0.053880103
188	0xbf41cd8b	-0.7570426
189	0xbe835e30	-0.25657797
190	0x3f0912d6	0.53544366
191	0x3e4d3dfa	0.20043173
192	0xbef3f486	-0.47647494
193	0x3dc009dc	0.093768805
194	0x3f133993	0.57509726
195	0x3ea5fd14	0.32419646
196	0xbee5f8d5	-0.44916406
197	0xbf177804	-0.59167504
198	0xbed0c3ca	-0.40774375
199	0x3e8f5cd4	0.2800051
200	0x3eb4c26b	0.3530458
201	0x3f0bdf99	0.5463806
202	0x3eade461	0.33963302
203	0xbec6581e	-0.38739103
204	0xbf3faad5	-0.74870044
205	0xbe2b2310	-0.16712594
206	0x3e962134	0.29322207
207	0x3eb2131b	0.347802
208	0x3e661728	0.22469771
209	0xbe826d29	-0.25473908
210	0xbec47c1e	-0.38375944
211	0xbec75cf6	-0.3893811
212	0x3e4e3b01	0.20139696
213	0x3f3537c7	0.70788234
214	0x3f070154	0.527364
215	0xbe82cc41	-0.25546458
216	0xbe6c991a	-0.23105279
217	0xbf15dcc4	-0.58539987
218	0xbe591ab4	-0.21201593
219	0x3ee925b5	0.4553658
220	0x3f49067e	0.7852553
221	0x3e243269	0.16034855
222	0xbe1e1b91	-0.15440203
223	0xbe9c8a6f	-0.30574366
224	0x3ea50f92	0.32238442
225	0x3e47fc53	0.19529848
226	0xbeb031a6	-0.3441288
227	0xbf1e1dc3	-0.6176416
228	0xbef8c0b8	-0.48584533
229	0x3d39f37c	0.04539822
230	0x3f38ae69	0.7214113
231	0x3ecca1df	0.39967248
232	0xbe605fb3	-0.21911506
233	0xbf1b338e	-0.6062554
234	0xbe969e04	-0.2941743
235	0xbe15ddad	-0.14635344
236	0x3e9e31d0	0.3089738
237	0x3e977d1b	0.29587635
238	0xbe0de1a3	-0.13855605
239	0xbe402073	-0.18762378
240	0xbd60f612	-0.05492217
241	0xbec9efe4	-0.39440835
242	0xbee5a69b	-0.44853672
243	0x3db1bad0	0.0867821
244	0x3e5be4d9	0.21474017
245	0x3e9f9b39	0.31173113
246	0x3dcd13a1	0.100135095
247	0xbf1d2576	-0.61385286
248	0xbf3ed7bc	-0.74547935
249	0xbdb17125	-0.08664159
250	0x3e4e0426	0.2011877
251	0x3eb66ea6	0.35631293
252	0x3ea76c0b	0.32699618
253	0xbe8bfa2b	-0.273393
254	0xbea0b7ac	-0.3139013
255	0xbd98eac0	-0.0746665

network.9.bias f4 [16]
0	0x3e11855e	0.14211032
1	0x3e22f3be	0.15913293
2	0xbbbf4941	-0.00583759
3	0x3d5d0b4d	0.053965855
4	0xbdc79a01	-0.09746171
5	0x3e8c395c	0.27387512
6	0xbd878b6a	-0.06618388
7	0x3e186e68	0.14885867
8	0x3d4c88c6	0.049935125
9	0x3e973fe7	0.2954094
10	0x3e05a108	0.1304971
11	0xbe1b553c	-0.15169233
12	0xbddcd788	-0.10783297
13	0xbe3020e4	-0.17200047
14	0xbe4cfe18	-0.20018804
15	0x3e15b83f	0.14621066

network.10.weight f4 [16, 16, 1, 1]
0	0x3eae1ab5	0.3400475
1	0x3e8e590a	0.27802306
2	0x3d9fe062	0.078064695
3	0xbde89108	-0.113557875
4	0x3e098636	0.13430104
5	0x3d81e64c	0.06342754
6	0x3d03eba5	0.03220715
7	0x3ebdcd62	0.37070757
8	0x3da48ed8	0.08035058
9	0xbf0bfffd	-0.5468748
10	0x3f410181	0.7539292
11	0xbf1dde3a	-0.61667216
12	0x3ef18406	0.47171038
13	0x3e1945f6	0.14968094
14	0x3e10bdb0	0.1413486
15	0x3f18da95	0.5970853
16	0x3e8b393f	0.27192113
17	0xbec94753	-0.3931223
18	0x3f3e26d3	0.7427799
19	0x3eca2fef	0.39489695
20	0x3e309a7c	0.17246431
21	0xbeff2adc	-0.49837387
22	0xbedcb136	-0.4310395
23	0xbe5f2dd4	-0.21794826
24	0x3e400a4f	0.18753932
25	0x3f2da892	0.6783534
26	0x3edf2d80	0.435894
27	0xbe369fb4	-0.1783436
28	0xbf120b53	-0.5704853
29	0x3b97ebb0	0.0046362504
30	0xbea7918e	-0.32728237
31	0x3cc8df0b	0.024520418
32	0x3c913d03	0.017729288
33	0x3ea8e630	0.3298812
34	0x3ea881de	0.3291158
35	0x3e8121c0	0.25221062
36	0xbcc8cdc7	-0.024512185
37	0x3e6eb988	0.23312962
38	0xbf0fbf17	-0.56150955
39	0x3d35d8fb	0.04439638
40	0x3ea77577	0.32706806
41	0x3f552c2e	0.8327054
42	0x3e02c1a5	0.12769182
43	0xbf085b95	-0.53264743
44	0x3f1efc7c	0.6210401
45	0xbaf9d803	-0.0019061569
46	0xbe22a5a7	-0.15883504
47	0x3f043962	0.5165006
48	0x3e64d195	0.22345574
49	0x3e2f78a0	0.17135859
50	0x3e6fd613	0.23421507
51	0xbeef1dd4	-0.46702445
52	0x3e9eca7d	0.3101386
53	0xbedf6b6c	-0.43636644
54	0x3e429805	0.19003303
55	0xbeed587d	-0.46356574
56	0xbef098be	-0.46991533
57	0x3f21f9af	0.6327161
58	0xbdcf6c06	-0.10128026
59	0x3ee45a22	0.44600016
60	0x3ea4b914	0.32172453
61	0x3f22a6bf	0.63535684
62	0xbdf92531	-0.12165297
63	0xbef36af8	-0.47542548
64	0xbe90ef4e	-0.28307575
65	0x3d0f384a	0.03496579
66	0x3f02349c	0.50861526
67	0xbe4522de	-0.19251582
68	0xbba7a73a	-0.0051163705
69	0x3e2620b1	0.16223408
70	0xbd3169f2	-0.043313928
71	0x3cb5bbe3	0.022184318
72	0xbe4973a7	-0.19673024
73	0xbedc36bb	-0.43010506
74	0xbee720a7	-0.451421
75	0x3f89d5c6	1.0768363
76	0x3df46ec2	0.11935188
77	0xbd6127ae	-0.054969482
78	0xbe4e97de	-0.2017512
79	0x3f1b93cc	0.60772395
80	0x3e1bff4d	0.15234108
81	0x3d54e919	0.05198011
82	0x3dd73ec1	0.10510016
83	0xbdc0cc38	-0.09413952
84	0xbeefe65c	-0.46855438
85	0xbca9a9f3	-0.02071092
86	0x3f2c4a51	0.673009
87	0xbf4adc89	-0.7924276
88	0x3f16ba9d	0.588785
89	0x3ec59437	0.3858964
90	0xbe20475b	-0.1565222
91	0x3d9f8ef1	0.07790936
92	0x3f1e019f	0.61721224
93	0xbe87ae37	-0.26500103
94	0x3c8d6f3e	0.017264958
95	0x3eb34cfa	0.35019666
96	0xbf06b966	-0.52626646
97	0x3d659a4a	0.056055345
98	0x3d521683	0.051291
99	0x3c90087b	0.017582169
100	0x3e86a843	0.26300249
101	0xbf729d42	-0.94771206
102	0x3f30dc10	0.6908579
103	0xbe64001c	-0.22265667
104	0xbee446ca	-0.44585258
105	0x3ec8e984	0.39240658
106	0x3dc42273	0.09576883
107	0xbea421d6	-0.32057065
108	0x3e6f518a	0.23370948
109	0x3dbdb043	0.09262135
110	0xbe33f63d	-0.17574401
111	0x3e770d1e	0.24126098
112	0xbdd6321d	-0.10458777
113	0x3edc1840	0.4298725
114	0xbebe7377	-0.37197468
115	0xbc893f02	-0.016753677
116	0x3df471c7	0.11935764
117	0xbecc4ffb	-0.3990477
118	0xba558322	-0.00081448455
119	0x3f2a598b	0.6654288
120	0x3e64ebeb	0.2235562
121	0x3d3ba7d2	0.045814343
122	0x3f19db18	0.60099936
123	0x3dcff1b0	0.1015352
124	0x3ec645da	0.38725168
125	0xbf5a1c18	-0.8519912
126	0xbea7a2e3	-0.3274146
127	0xbeb3147d	-0.3497657
128	0xbd0822cf	-0.03323632
129	0xbde08f2a	-0.109648064
130	0x3dbe80c4	0.09301904
131	0xbd9e68b3	-0.077348135
132	0xbe808392	-0.2510038
133	0x3fa0cadc	1.2561908
134	0x3eeeb513	0.46622524
135	0x3eb1839e	0.34670728
136	0xbf168c56	-0.58807886
137	0xbe401112	-0.18756512
138	0x3f0a7ffa	0.54101527
139	0x3e9e531d	0.30922785
140	0xbd7f53b5	-0.06233569
141	0x3e11d8c9	0.14242853
142	0xbd303505	-0.043019313
143	0xbcdcca2c	-0.026951872
144	0x3e20d5c8	0.15706551
145	0xbe90de98	-0.28294826
146	0xbcf2873c	-0.0296055
147	0x3ea0ef47	0.31432554
148	0x3cbc8c62	0.023016158
149	0xbf6f9759	-0.93590313
150	0x3eee1c70	0.4650607
151	0x3ee187d8	0.44048953
152	0x3ed34fdc	0.41271865
153	0xbf15bcac	-0.58491015
154	0xbdb5ddec	-0.08880219
155	0x3f214de2	0.63009465
156	0xbe48f831	-0.19625928
157	0x3ddeefc6	0.10885577
158	0xbe77518e	-0.24152204
159	0x3c9b3a71	0.018948765
160	0xbe5f3d8a	-0.21800819
161	0x3e1aa1c6	0.15100774
162	0x3ee039c6	0.43794078
163	0xbf27695b	-0.65395135
164	0xbef0f861	-0.47064498
165	0xbe62df0a	-0.22155395
166	0xbdcc9d84	-0.09990981
167	0x3db2cc7b	0.08730408
168	0x3d515e8f	0.05111557
169	0xbf1078ba	-0.56434214
170	0xbe2edf02	-0.17077258
171	0xbe985f4c	-0.29760206
172	0xbf10f0c0	-0.56617355
173	0x3f50231c	0.8130357
174	0x3e9b8fa0	0.30383015
175	0x3d960c34	0.07326546
176	0xbe6c0a54	-0.23050815
177	0x3e7414fb	0.23836128
178	0x3f03dd1f	0.5150928
179	0x3eb7c7ae	0.3589453
180	0xbe571d84	-0.21007353
181	0x3e87edcf	0.2654862
182	0xbe1a14e7	-0.15047036
183	0x3ed23f91	0.41064122
184	0x3e7c4aa6	0.24637851
185	0x3f140170	0.57814693
186	0xbeb19ce8	-0.34690022
187	0x3f2f0647	0.68368953
188	0xbe8156f5	-0.25261655
189	0x3ed4f256	0.41591138
190	0x3e990fd8	0.298949
191	0xbea45993	-0.3209959
192	0xbda9bda3	-0.082881235
193	0x3e359afc	0.17734903
194	0x3ecd7093	0.4012495
195	0x3f24e4b6	0.64411485
196	0x3d945a0e	0.07243739
197	0x3e35813e	0.17725083
198	0x3f2b9370	0.67021847
199	0xbd1cf1c5	-0.038316507
200	0x3e9c2feb	0.30505309
201	0xbe8aa724	-0.27080643
202	0x3e4f28d4	0.20230418
203	0xbf306174	-0.688987
204	0xbed06235	-0.40699926
205	0x3f08ffc0	0.53515244
206	0x3cb3f731	0.021968456
207	0xbe4ae0b4	-0.1981228
208	0xbe8f7044	-0.2801534
209	0xbdf94dec	-0.121730655
210	0x3e510a9b	0.20414202
211	0xbe95cf4f	-0.29259726
212	0x3d2dee00	0.042463303
213	0xbf14bbd0	-0.5809908
214	0xbf5895c6	-0.84603536
215	0xbe9aa601	-0.30204776
216	0x3e190204	0.14942175
217	0xbf21bc33	-0.63177794
218	0x3e5b0fd0	0.2139275
219	0xbe200263	-0.1562591
220	0x3ef94f64	0.48693383
221	0x3eac44cc	0.33646238
222	0xbc3b044b	-0.011414598
223	0xbe2abcd3	-0.16673593
224	0xbd9fb5a4	-0.07798317
225	0xbeb988f3	-0.36237296
226	0x3f16cc9a	0.5890595
227	0x3cab2ca4	0.02089531
228	0x3eee574e	0.46550983
229	0xbea04640	-0.31303596
230	0x3f145341	0.57939535
231	0x3e938436	0.28811806
232	0xbd3033cf	-0.04301816
233	0xbf441e0d	-0.76608354
234	0x3efdbed2	0.49559647
235	0x3e6469b3	0.22305946
236	0x3eada01c	0.33911216
237	0xbed1308c	-0.4085735
238	0x3eab4518	0.33451152
239	0xbe5b5fd7	-0.21423279
240	0x3dae9e33	0.08526268
241	0xbd0ef5f0	-0.034902513
242	0x3ee20329	0.44143036
243	0x3ddf4762	0.10902287
244	0xbf69c0f1	-0.9131003
245	0x3f6a4ffa	0.91528285
246	0xbdc9a1e9	-0.09845335
247	0x3e575efa	0.21032324
248	0x3ed7e40f	0.42166182
249	0xbe6d52c2	-0.23176101
250	0x3cc7d898	0.024395272
251	0xbdc30b6e	-0.095236644
252	0x3e6cb45c	0.23115677
253	0x3c705841	0.014669479
254	0xbf29999b	-0.6625001
255	0xbe830885	-0.25592437

network.10.bias f4 [16]
0	0xbe655744	-0.2239657
1	0x3ad20147	0.0016022109
2	0xbd9def3f	-0.07711648
3	0x3db581c4	0.088626415
4	0xbe7365dd	-0.23769327
5	0xbd397e6b	-0.045286577
6	0x3e3e8119	0.18603934
7	0x3df28c6e	0.11843191
8	0x3d4f1397	0.05055579
9	0x3db40dab	0.087916695
10	0x3d5f895e	0.054574363
11	0x3e727432	0.23677137
12	0xbe0b8763	-0.13625865
13	0x3d452852	0.048134156
14	0x3d2f38fd	0.042778958
15	0xbe1b12dd	-0.15143915

network.11.weight f4 [16]
0	0x3ee04c16	0.4380805
1	0x3ec8ef76	0.39245194
2	0x3efe8f82	0.49718863
3	0x3edc8532	0.4307037
4	0x3eeb1820	0.45916843
5	0x3eea8a5e	0.4580869
6	0x3eefcfde	0.46838278
7	0x3ed24655	0.41069284
8	0x3eed5867	0.46356508
9	0x3ef3ef65	0.4764358
10	0x3ee3074b	0.44341502
11	0x3f086e37	0.53293175
12	0x3eecf5da	0.4628132
13	0x3efdc1cc	0.49561918
14	0x3ef1e191	0.47242406
15	0x3ef35535	0.47525945

network.11.bias f4 [16]
0	0xbd28955b	-0.04115806
1	0xbd08755d	-0.03331505
2	0xbd6ee69b	-0.05832539
3	0xbd5dfc9c	-0.054195985
4	0xbd26f6a8	-0.040762573
5	0xbce570d3	-0.0280079
6	0xbd5607a5	-0.052253384
7	0xbd4395e2	-0.04775036
8	0xbd5bb32a	-0.05363766
9	0xbd28d61c	-0.041219816
10	0xbd61397e	-0.05498647
11	0xbd99f65c	-0.075176924
12	0xbd2b4c44	-0.04182078
13	0xbda0ff55	-0.07861201
14	0xbd85133c	-0.06497809
15	0xbd5f852d	-0.054570366

network.11.running_mean f4 [16]
0	0xbeb89638	-0.36052108
1	0xbeba3619	-0.36369398
2	0x3f0cad3c	0.54951835
3	0xbee842ee	-0.45363563
4	0xbe1e51b0	-0.15460849
5	0xbed270f1	-0.41101792
6	0x3eed5e5d	0.46361056
7	0x3f5b1ffa	0.8559567
8	0x3ecd7c31	0.40133813
9	0xbf30e93c	-0.6910589
10	0xbbfabac6	-0.0076516597
11	0x3f20dba8	0.6283517
12	0xbdf42b29	-0.11922295
13	0xbe9ceafe	-0.30648035
14	0xbf162ed6	-0.58665216
15	0x3e164851	0.14676024

network.11.running_var f4 [16]
0	0x42597722	54.36634
1	0x427c2d44	63.044205
2	0x42899c44	68.80521
3	0x4263ca38	56.94748
4	0x42803feb	64.12484
5	0x424feffe	51.984367
6	0x427a5ee3	62.592663
7	0x42417fae	48.374687
8	0x42875407	67.664116
9	0x42742238	61.033417
10	0x426c2734	59.038284
11	0x4267c09b	57.93809
12	0x42690e68	58.26407
13	0x4261c550	56.442688
14	0x4274e917	61.227627
15	0x4270ebb0	60.230164

fc.weight f4 [40, 256]
0	0x3f38f5d4	0.72250104
1	0x3da00644	0.07813695
2	0xbeb8caf9	-0.36092356
3	0xbd041a71	-0.03225178
4	0x3e13b8f9	0.1442603
5	0xbe66b5fd	-0.2253036
6	0x3eadcf03	0.33947
7	0xbe74aa06	-0.23892984
8	0xbdb4df6e	-0.08831678
9	0xbe8d468b	-0.27592883
10	0xbe62b348	-0.22138703
11	0x3dd54fc7	0.10415607
12	0x3e19b8d0	0.15011907
13	0xbd26cbc9	-0.04072169
14	0x3c692979	0.014231079
15	0x3da065fe	0.078319535
16	0x3e72ae27	0.23699246
17	0xbf11826a	-0.5683962
18	0x3ea1debd	0.31615248
19	0xbecbe47e	-0.39822763
20	0x3dd78f3f	0.10525369
21	0xbe47b7c7	-0.19503699
22	0xbe07bce4	-0.1325565
23	0xbe155e50	-0.14586759
24	0x3e3abfae	0.18237182
25	0xbe53b332	-0.20673826
26	0xbe4c3fea	-0.19946256
27	0x3e7a478a	0.24441352
28	0x3e8c3cd2	0.27390152
29	0xbf0937d1	-0.53600794
30	0xbe0f3c19	-0.13987769
31	0xbec1fc7b	-0.3788794
32	0x3f0bc8f2	0.54603493
33	0xbe89e8a2	-0.26935297
34	0xbea0f969	-0.31440285
35	0x3debca85	0.11513237
36	0x3d851234	0.064976126
37	0xbc9e5e0d	-0.019331956
38	0x3e0fefba	0.14056292
39	0xbe5823b2	-0.21107367
40	0x3c8b7a13	0.017025983
41	0xbe8cdad5	-0.27510706
42	0xbd5ccbb5	-0.053905208
43	0x3e7c0158	0.24609888
44	0x3ee6fbb9	0.45113924
45	0xbed7d249	-0.42152622
46	0xbe101822	-0.14071706
47	0xbe247347	-0.160596
48	0xbed828f0	-0.42218733
49	0x3db8af00	0.090177536
50	0x3cdc1052	0.02686325
51	0xbe38c638	-0.18044364
52	0x3d45c886	0.048286937
53	0xbd9739c8	-0.07384068
54	0x3e48aeeb	0.19597976
55	0x3df37ab7	0.118886404
56	0x3d9877ab	0.074447
57	0xbe40c1aa	-0.18823877
58	0xbd3e211e	-0.0464183
59	0xbf2ab948	-0.66688967
60	0xbd875462	-0.066078916
61	0xbd253492	-0.040333338
62	0xbf00b466	-0.50275266
63	0x3e99bf4d	0.30028763
64	0x3e9931a0	0.29920673
65	0xbdbb0b08	-0.091329634
66	0xbea67cb4	-0.32517016
67	0xbea10eb1	-0.3145652
68	0x3e27ad5e	0.16374728
69	0xbd7f06a0	-0.062262177
70	0xbe447d94	-0.19188529
71	0x3e204935	0.15652926
72	0xbc838c48	-0.016058102
73	0xbdce67c7	-0.10078388
74	0xbe715b73	-0.23570041
75	0xbe1a5a6b	-0.15073554
76	0x3e124aab	0.14286296
77	0xbd9a47e3	-0.075332426
78	0xbeb1851d	-0.3467187
79	0xbd293fb4	-0.041320518
80	0x3e6aa9ce	0.22916338
81	0xbdc9ce60	-0.09853816
82	0xbf1b8bbe	-0.60760105
83	0x3cde2cfb	0.027121058
84	0xbe83b452	-0.2572351
85	0xbe58da4d	-0.21177025
86	0x3d856ed8	0.065152824
87	0x3cdaf2c7	0.026727093
88	0x3de5c253	0.11218705
89	0xbe55bbe6	-0.20872459
90	0xbed378ec	-0.41303194
91	0xbe0769c0	-0.13223934
92	0xbe84985a	-0.25897485
93	0xbe075142	-0.13214591
94	0xbebc7a3a	-0.36812
95	0x3e37ae7d	0.17937656
96	0x3f314058	0.69238806
97	0xbd59f41f	-0.053211328
98	0xbd86b4ca	-0.065774515
99	0xbe43f802	-0.19137576
100	0x3cb8d9e5	0.022564838
101	0xbe1501e3	-0.14551501
102	0xbe668ce2	-0.2251468
103	0x3cc9b243	0.024621135
104	0xbbc87973	-0.0061179935
105	0x3cea27bf	0.028583406
106	0xbe7c3ea6	-0.24633273
107	0xbe9a5cdc	-0.3014897
108	0x3cc69289	0.024239795
109	0x3e2c9a7e	0.16855809
110	0xbeee6126	-0.46558493
111	0xbc9d9f36	-0.019240957
112	0xbddfed1f	-0.10933899
113	0x3d60cfeb	0.054885786
114	0xbe71aaee	-0.23600361
115	0xbe937262	-0.28798205
116	0x3e338b3f	0.17533587
117	0xbdeeec30	-0.11666143
118	0xbde508c5	-0.11183313
119	0xbed246ae	-0.4106955
120	0xbdbcf819	-0.092270084
121	0x3e165f5b	0.14684813
122	0xbe2b54da	-0.16731587
123	0xbdda0155	-0.10644785
124	0xbde19cc8	-0.11016232
125	0xbec79b18	-0.38985515
126	0xbe9527c7	-0.2913191
127	0xbe89a683	-0.2688485
128	0x3e8bd38d	0.27309838
129	0x3d27b491	0.040943686
130	0xbd5bd527	-0.053670075
131	0xbe201088	-0.15631306
132	0xbe3b6042	-0.18298438
133	0x3d66c616	0.056341253
134	0xbd594964	-0.053048506
135	0x3ea97768	0.33098912
136	0xbc67aee7	-0.014140821
137	0xbec1a17e	-0.3781852
138	0xbe829355	-0.2550303
139	0xbdc6f21b	-0.09714147
140	0xbf051803	-0.51989764
141	0x3d8169a2	0.06318976
142	0xbec477fc	-0.3837279
143	0xbe848db2	-0.25889355
144	0x3dd51345	0.10404066
145	0xbddd12fa	-0.10794635
146	0xbe27e127	-0.16394483
147	0xbe0f9837	-0.14022909
148	0x3cb27b8c	0.021787427
149	0x3e8b8014	0.27246153
150	0xbde9d7e5	-0.11418132
151	0x3e2246a1	0.15847255
152	0xbe2b6f72	-0.16741732
153	0x3daa4101	0.0831318
154	0xbeb7a38d	-0.35866967
155	0xbe2da5cb	-0.16957776
156	0x3e369b32	0.1783264
157	0xbf36812e	-0.7129086
158	0xbe9f6cb1	-0.31137612
159	0x3e449d62	0.19200662
160	0xbd41aac2	-0.047281988
161	0xbe2a48e1	-0.16629364
162	0xbf0ba6d5	-0.5455144
163	0x3e490ff7	0.19634996
164	0xbe2aa6dd	-0.16665216
165	0xbf18d976	-0.5970682
166	0x3e0f4bd8	0.13993776
167	0xbe9318cb	-0.28729853
168	0xbd512978	-0.05106494
169	0xbdf921fd	-0.12164686
170	0x3ea5bd3e	0.32370943
171	0xbe4d495d	-0.20047517
172	0xbe4ace21	-0.19805194
173	0xbe212b47	-0.15739165
174	0xbf08d420	-0.5344868
175	0x3eb4085f	0.35162637
176	0xbe002764	-0.12515026
177	0x3ced2c71	0.028951855
178	0xbeafba0e	-0.34321636
179	0xbd01ddcb	-0.03170566
180	0xbe751ae5	-0.2393604
181	0xbb99b5a4	-0.0046908427
182	0xbdedacab	-0.116051994
183	0x3e8df736	0.2772767
184	0xbe233f10	-0.15942025
185	0xbe659551	-0.22420241
186	0xbe37b6c7	-0.17940818
187	0xbf23535b	-0.63799065
188	0xbe63dbc7	-0.22251807
189	0xbee53441	-0.4476643
190	0x3e364160	0.17798376
191	0x3ebe72be	0.37196916
192	0x3e2da1ff	0.16956328
193	0xbc4e77a3	-0.012601766
194	0xbd89fe47	-0.06737953
195	0x3d7ef429	0.062244568
196	0x3da03f91	0.07824624
197	0xbe997359	-0.29970816
198	0xbe9216a5	-0.285329
199	0xbc2989b3	-0.010347771
200	0xbe113dbb	-0.14183705
201	0xbe9967f0	-0.2996211
202	0x3cc9c17e	0.024628397
203	0xbf04c3fa	-0.51861537
204	0x3f0ce958	0.55043554
205	0x3e1d6fbf	0.15374659
206	0xbe34c916	-0.17654833
207	0xbcf697c4	-0.030101664
208	0xbea8cd91	-0.32969335
209	0xbe107f23	-0.14110999
210	0x3f0ff076	0.5622629
211	0x3d63c09b	0.055603605
212	0xbe0e6faf	-0.13909791
213	0xbeaa2413	-0.33230647
214	0x3deffab4	0.1171774
215	0xbd89f013	-0.06735244
216	0x3e3d796b	0.18503349
217	0xbdd7e185	-0.10541061
218	0xbd425d90	-0.04745251
219	0xbe921975	-0.28535047
220	0xbec74414	-0.38919127
221	0x3bcf6f40	0.0063304007
222	0x3d0d7095	0.034531195
223	0xbec7df23	-0.39037427
224	0x3e391315	0.18073685
225	0xbe441444	-0.19148356
226	0xbdfbe5e0	-0.122997046
227	0x3e865138	0.2623384
228	0xbd61762c	-0.055044338
229	0xbe857495	-0.26065508
230	0x3e9a1c72	0.30099827
231	0x3d8f0686	0.06983666
232	0x3d0288ea	0.031868853
233	0xbea1be26	-0.31590384
234	0xbdc8049e	-0.09766506
235	0x3b9b63dc	0.004742129
236	0x3da2a4f9	0.07941622
237	0x3e615d76	0.22008309
238	0xbf06734d	-0.52519685
239	0x3cecd029	0.028907852
240	0xbd90aa65	-0.0706375
241	0xbe056c66	-0.13029632
242	0x3f1fd45a	0.624334
243	0xbf065ad2	-0.5248233
244	0xbc645ba9	-0.013937869
245	0xbeb86cd8	-0.3602054
246	0x3eb816da	0.35954934
247	0xbdc51e0d	-0.09624872
248	0x3cdf62be	0.027268764
249	0xbe855b84	-0.26046383
250	0xbe3c1d8d	-0.18370648
251	0xbe365504	-0.17805868
252	0x3d1a2965	0.037637133
253	0xbf19590c	-0.599015
254	0x3e59e49a	0.21278611
255	0xbdecd36b	-0.11563762

fc.bias f4 [40]
0	0xbd20876b	-0.039191645
1	0xbdf54222	-0.119755045
2	0xbcc36ec1	-0.023856523
3	0xbe15d9fa	-0.14633933
4	0xbd5a26b8	-0.05325958
5	0x3cdad398	0.026712224
6	0x3d602b90	0.054729044
7	0xbe0f00ea	-0.13965192
8	0xbe502f87	-0.2033063
9	0xbd099009	-0.03358463
10	0xbdb49575	-0.08817569
11	0xbd40a0e5	-0.04702844
12	0x3c44d936	0.012014678
13	0x3b32474f	0.0027203148
14	0x3c8584f5	0.01629875
15	0xbc342fe6	-0.010997748
16	0xbdd27a94	-0.10277286
17	0x3d53587d	0.05159806
18	0x3db1e132	0.08685531
19	0xbe152d5a	-0.14568081
20	0x3c2c24b6	0.010506799
21	0xbd959f85	-0.073058166
22	0x3d94de28	0.072689354
23	0x3d3bef26	0.045882367
24	0xbd01a7b0	-0.03165406
25	0x3d526010	0.051361144
26	0x3d02d706	0.031943344
27	0xbdf44ddd	-0.11928914
28	0xbe97520a	-0.29554778
29	0xbe491ea4	-0.19640595
30	0xbd631025	-0.05543532
31	0xbe12aaac	-0.14322919
32	0xbcb99137	-0.022652252
33	0xbd9d307b	-0.076752625
34	0x3c771ad6	0.015082082
35	0x3cc2f332	0.023797605
36	0xbd96d9c0	-0.07365751
37	0x3c9f2439	0.019426452
38	0xbb43457c	-0.0029796055
39	0x3dc6f693	0.09714999
