Experiment/image-LSTM4-512-96-0-noshuffle.pth (torch, 551996 bytes, 8 tensors)

lstm.weight_ih_l0 f4 [512, 96]
00000000: f7d2 9abe 0f41 60be 8b1d 1e3f 7b22 003f
00000010: 8c83 913d a283 37bf f8ba 5ebf cc08 59bf
00000020: 8780 42be 6032 8fbe 147e 153d cfb0 d2bc
00000030: e5d3 253f a2c0 0d3f 5dcf 88be d081 d23d
00000040: d58d 64be 8b0e 82bf 05fc 93bd 7001 273e
00000050: d1e5 233d 6da8 56bd 321b c7be 3c76 8ebe
00000060: 3867 39be a56c 953e 42ac 6ebd f33e 7abd
00000070: a39d 993e 7821 58bf 3113 90bd 9b59 fbbe
00000080: 3fb2 61bd 3a36 183e 399e 7abe 8dfa ec3c
00000090: d907 44be 9b21 80bf e2e6 493d 3e2f ffbe
000000a0: 00c7 b5be 19f6 f33d eb5c f43d 34cd b8be
000000b0: 068a ccbe 7d9e a13d 65ab 11bc 2326 113e
000000c0: c540 ddbe 6428 99bd 59e8 db3a 866d 1abf
000000d0: 032d ebbd 5d9f 43be 1516 093f c0c2 6cbd
000000e0: bdfa dabe 7335 db3d 1653 5cbe 4c11 623e
000000f0: f628 ca3c 2c3f 29be b447 823d cff7 b7be
00000100: 4bf0 063e aa4a a7be 3d57 ecbe f196 b73e
00000110: 4264 0e3e 4540 cbbe 0a26 563b 6422 8dbe
00000120: 556d 43be ac94 fb3d 4aa7 1c3e 8cb0 10bd
00000130: 9e77 79be f1d4 33bd 41b3 273e 1646 93be
00000140: be8a f83d eb1e d03e e0ae 813e 967b 08be
00000150: 727d a03e 0371 77be 40eb 13be 41c9 0abd
00000160: 538d 00be 3716 0e3f 17e7 993d 2a52 7dbe
00000170: 8dab 6b3c ec85 1cbe 0fcb afbe 58f2 bf3e
00000180: 5183 dcbe 61d5 b5bd ae24 26be 17af b03c
00000190: 8d43 68be cbf9 6cbe 4f05 91be 9386 343f
000001a0: 5b59 893e ed31 873e 3b84 44be 3f1f b6be
000001b0: 8c11 a2be e936 12be dd19 82bc 62b9 ec3c
000001c0: f47c 553f 0ed4 b43e d8e1 b63e 6a1c 493e
000001d0: 6ba5 be3e 5b1e 30be d0fd 98be 3aee 893e
000001e0: 6964 8cbe 9557 03bf caa7 0e3f b6ab 41bd
000001f0: 62f1 b33e a620 1f3f 2cbb 3a3f 4190 82bd
00000200: 7162 b8be b10b 5d3d 553b 5c3e 439e a13e
00000210: 0ad0 b93d f5d0 a7bc 9f73 05bf 9d70 8f3e
00000220: b555 88bd 0192 2b3e dc4c 293e b874 d03e
00000230: e1c3 863e e695 143d 16c7 53be 80fd a7bb
00000240: 8066 2a3f 6df6 303e 9303 103f eba1 84be
00000250: 7660 863e cd9f b03e 8e25 b33e 6659 183e
00000260: 8193 75be 6501 593d 0328 dd3d df44 55be
00000270: 55d9 58be 052f e2be 83cf 173f 492a 1e3e
00000280: 5c81 fb3e 6e4f ee3b 6dec bebd e62c b8be
00000290: 6e60 263f 521f c03d c66a 6cbe 8eb6 bb3e
000002a0: 27e4 32bf 095f e1be 4da5 933d 3838 78bd
000002b0: ff14 78be 8567 95be 16cf 34bc a857 073e
000002c0: 96e4 3cbf e2bf 12be 9034 bb3e 6629 da3d
000002d0: 5236 cb3c dd84 f0be 5ef6 f0bb 6397 a43e
000002e0: 736b 1dbd 7245 cb3e 7596 453e 7587 ba3e
000002f0: a7f4 2dbe 54ee d73d ddbd 6cbd d783 dc3e
00000300: 276c 433d 54c1 b13e 2951 763f 9a70 403d
00000310: ba27 453f dd71 ae3e 8534 333e 8ba8 593e
00000320: 663e d7bd 02b8 c13e a33f 533e 58df 21bf
00000330: 4231 833e e0a0 2f3f 0ccb 8c3e 0c5f 323d
00000340: 5cbe 693c c5c3 033f 99f0 403f 2365 a9be
00000350: 5b68 293f 6b55 7ebe 9368 6d3e 6fe2 18bf
00000360: 8c5e 273f e336 a8bd 5d20 0fbf 1113 c9be
00000370: 00e4 05bf 4617 acbe 64a4 00be bdb8 4cbd
00000380: 5788 ae3e f95e 7f3e afb9 853e e72a 673e
00000390: 800a fabe d338 053f 74a5 673f b317 5f3f
000003a0: 24c0 883f 2830 073f 869e 423e c580 563f
000003b0: 7a7c 8cbd b9b0 c2bd 67ee 9abe e92c 98bc
000003c0: 822f a93e 7ae3 7c3e 8dd1 2b3f c8f2 ed3c
000003d0: 1fc3 46bc 5a5a 8ebd bfb8 913e 35a7 b13e
000003e0: fd8e 893e a62e b03e a76f 013e 79c0 8bbd
000003f0: f802 533e cf1e b93d 59ee 38bd eb21 6cbe
-0.30239078 -0.21899818 0.6176383 0.50052613 0.07105169 -0.7168523 -0.8700404 -0.8477905
-0.18994342 -0.2796812 0.03649719 -0.025719075 0.6477645 0.5537206 -0.26720706 0.10278666
-0.2231973 -1.0160688 -0.07225803 0.16309142 0.040014092 -0.052406717 -0.38887936 -0.2782458
-0.18105781 0.29184452 -0.058269747 -0.06109519 0.3000308 -0.8442607 -0.070349105 -0.490918
-0.05510163 0.14864436 -0.2447442 0.028928066 -0.19143619 -1.0010256 0.049292453 -0.4984073
-0.35503387 0.11912174 0.11931785 -0.36094058 -0.39949054 0.07891557 -0.008890961 0.14174704
-0.43213478 -0.07478407 0.0016777619 -0.6032337 -0.11483195 -0.19103761 0.5354932 -0.057802916
-0.42769423 0.10703554 -0.2151607 0.2207691 0.024677735 -0.16528004 0.063613325 -0.3593125
0.13177602 -0.32674152 -0.46160308 0.35857347 0.13905433 -0.3969747 0.0032676482 -0.275653
-0.19084676 0.12284216 0.1529819 -0.03532462 -0.24362037 -0.04390425 0.16376974 -0.2876441
0.12135838 0.4064859 0.25328732 -0.13328394 0.31345707 -0.24164204 -0.1444521 -0.033883337
-0.12553911 0.5550265 0.0751478 -0.24738374 0.014384163 -0.15285462 -0.3433461 0.3748958
-0.43068936 -0.088785894 -0.1622493 0.021567864 -0.22682019 -0.23142163 -0.28324363 0.70517844
0.26825985 0.26405278 -0.19191067 -0.35570714 -0.31654012 -0.14278759 -0.015881473 0.028896991
0.8339379 0.35318035 0.3571918 0.19639745 0.3723558 -0.1719908 -0.29881144 0.26939565
-0.27420357 -0.51305515 0.55724776 -0.047282897 0.35145098 0.6215919 0.7294185 -0.063751705
-0.36012605 0.053966228 0.21507008 0.31566057 0.090728834 -0.02048538 -0.5212955 0.28015605
-0.06656972 0.16754915 0.16533226 0.4071405 0.2632132 0.036275767 -0.20681414 -0.005126655
0.6656265 0.17281504 0.56255454 -0.25904784 0.2624547 0.34496918 0.3498959 0.14877853
-0.2398205 0.052979846 0.10798647 -0.20827053 -0.21176656 -0.44176498 0.5930101 0.15445818
0.4912213 0.0072726524 -0.093224384 -0.35971755 0.6499089 0.09380974 -0.23087606 0.36662716
-0.6987938 -0.4401782 0.07209263 -0.06060049 -0.2422676 -0.29180542 -0.011035701 0.13217032
-0.73786294 -0.1433101 0.3656354 0.106524274 0.024806175 -0.46976367 -0.007353588 0.3214675
-0.03843255 0.3970142 0.19295676 0.3643147 -0.16987859 0.10543504 -0.057798255 0.43069336
0.047710564 0.3471781 0.9621759 0.046982385 0.7701374 0.34071246 0.17500503 0.212557
-0.105099484 0.378357 0.20629744 -0.6323142 0.25623518 0.6860485 0.27498662 0.043547675
0.014266577 0.51470596 0.7536712 -0.33084974 0.6617486 -0.24837272 0.23184423 -0.5972051
0.6537864 -0.08213594 -0.5590876 -0.3927236 -0.52301025 -0.33611506 -0.1256271 -0.049980868
0.34088394 0.24938573 0.26118228 0.2257496 -0.48836136 0.5203983 0.90486836 0.8714554
1.0683637 0.52807856 0.19005784 0.83790237 -0.068596795 -0.095063634 -0.30260012 -0.018576102
0.33044058 0.2469615 0.67116624 0.029046431 -0.012131481 -0.06950827 0.28461263 0.3469788
0.26866904 0.3441059 0.12640248 -0.068238206 0.20606601 0.090390794 -0.04514918 -0.23059814

lstm.weight_hh_l0 f4 [512, 128]
00000000: 3ebe 5f3c 4015 293f 950e f23e 523a 633e
00000010: 9131 e83d f7f7 1cbf 423e 32be 400b 1b3f
00000020: 4646 253e 30d3 00bb b42a d1bd 75e9 463f
00000030: 8fd5 e73e 2526 bfbd bb77 43bf eabf 663e
00000040: 5238 183f df20 3abe 94c7 0abe 3775 ad3e
00000050: 7da0 06bf 28b7 57be f486 8dbd 9f58 85be
00000060: adae 96be e8e1 24bf 7696 41be b1ad 96be
00000070: d37d 89be 90cd 04bf e950 363f 585d e03e
00000080: d1d5 ee3d 210c f5be e559 993e ba30 be3e
00000090: 7fb5 4f3e e96c 8f3e e171 18bf 51d0 593e
000000a0: 7426 cb3e 3316 9fbe 4acc 683e b651 89be
000000b0: e3ff 1a3e e804 7abf 1b70 80be 9041 063f
000000c0: de57 3bbe 2d2f cfbe 2d71 9f3e 3ac6 fc3c
000000d0: 44db 153f 39bd 0cbe 8f05 1a3f 08db 8bbe
000000e0: 9657 b83e 5040 673d db83 2d3f 97b4 5dbe
000000f0: e4f4 55bf df99 1abf f0e7 013e ff9d 373e
00000100: 6b14 d0be 4eee f63e bd65 84be 5358 f7be
00000110: 9924 2abf cbef 3e3e 109d 10bf a3f8 78be
00000120: 1454 2dbb 6f63 0c3f 90b6 6cbe 387b ddbe
00000130: ef09 08bf 9d95 b3bc b8af 053e 49c4 b9be
00000140: 11ea 573d d910 fd3e e4d6 1bbf fb93 d3be
00000150: 4410 15be 281b 783e 334b 063f 5707 363e
00000160: 6402 9e3c 2b09 7c3c cb02 2b3e bc16 033f
00000170: d8c0 d03e 5462 30bf 9134 a43e 518d 79bc
00000180: d594 7e3e 0f16 66bd 35d8 d8bd b517 db3e
00000190: daf7 43bf a693 1d3e e05a 69be fd1e 98be
000001a0: 24ea 413e 5cb6 82be 78f3 d73d e733 1bbd
000001b0: 3b26 ba3d 7e0b b8bd bab1 453e c783 623e
000001c0: 3f8a 4e3e 8f22 7e3b 7a9d a93e 43a4 e63e
000001d0: 06b8 2e3e 17c1 cfbe 1250 f13d 1e89 593e
000001e0: 5394 7a3e c158 0b3d 9c54 2b3e 4230 e6bd
000001f0: 8190 f23e 0d35 7e3e b55d 893e fa16 58be
00000200: b396 3c3f fdc5 8f3e eaf3 083f 3750 3abe
00000210: 2228 9dbe aae7 a2be fbcf a7be d6d2 803e
00000220: fdd0 67bf 5946 363f cd06 6b3f da27 f63e
00000230: ad54 47bf c95d 51be ca4f bd3d a90e 04bf
00000240: ad14 e23d 6ef8 cabe 579a c0bd 86b0 ddbe
00000250: 1056 2a3e d6da d43e 6b5d e93e 6be8 5f3e
00000260: 9123 20bf 0573 c43e d87e e13e ca63 d3bd
00000270: 927e 00bf a341 113f 3874 9f3e 770a e23e
00000280: 09ba 313f 8b58 073f 6283 b53e fc3d 1abf
00000290: 1114 113e e3a9 063e 1554 dbbd 0c1b 013e
000002a0: 7bfb 75bf a5bf c4be b036 43bf 5908 9abe
000002b0: 27fe c13e 8eaa e43b e0e0 c8bd 6801 96be
000002c0: 715b e43e eac8 adbf d5d0 30bf bc94 993d
000002d0: 33fd 8b3f 0214 5abe 6cda 30bd ae2c e93b
000002e0: fda3 eabc 3ae5 823d 88c7 2cbf 1707 cd3e
000002f0: 3a6c 763d ac37 5e3c c7c1 4c3e 2927 84be
00000300: 898d 21bf 39bb 9b3e dada 193f 26df 4d3e
00000310: 2391 b93e df47 b8be 5fd7 cc3e a559 1cbf
00000320: ec78 d33d 8a19 11bf 0c6f d4be 3edc 6a3f
00000330: 6e74 6fbc 9cde f4be 01ce 5abd 0f10 983d
00000340: 97c4 863f a2e7 86be 5048 3f3e 3be7 99be
00000350: 5615 a0be f602 8c3d 94c8 91be 9045 02be
00000360: 16c1 5cbd 96bd ee3e b233 85be 22a5 44bf
00000370: cb1e 72be 7751 22bf 5377 2b3e cc19 65bd
00000380: 904d 23be e058 b3bd 1f23 03bf f5a1 ad3e
00000390: dcc6 5fbe 5296 bf3d f146 eebd 896f 94be
000003a0: fbe4 683f 23b9 2cbe e180 80be 6ad2 753e
000003b0: 8e3f b3be a195 4ebf 2b9c ea3e c363 fa3a
000003c0: ad19 00be 90c1 13bf efa1 45bf 50f3 ecbe
000003d0: c81a 97be f699 0d3f 302d c4bd 12ca 6e3f
000003e0: dfad a4bd 8e4d 2f3e 4af5 893e e96e d1be
000003f0: eadc 8bbf 10e0 96bf 895c 7d3e 092a 833f
0.013656197 0.6604805 0.4727675 0.22190216 0.11337579 -0.61315864 -0.17406562 0.6056404
0.16140088 -0.0019657128 -0.10213223 0.7769998 0.4528012 -0.09333447 -0.7635457 0.22534147
0.5946094 -0.18176602 -0.13552696 0.3387849 -0.52588636 -0.21065962 -0.06910506 -0.26044175
-0.29430142 -0.64407206 -0.18905053 -0.2942939 -0.2685381 -0.51876163 0.7121721 0.43821216
0.11661876 -0.47860816 0.29951397 0.3714655 0.20284079 0.2801278 -0.59548765 0.21270873
0.39677775 -0.31071624 0.2273418 -0.26820153 0.15136676 -0.97663736 -0.2508553 0.5244379
-0.18295237 -0.4046568 0.31141034 0.03085624 0.585377 -0.13744058 0.6016473 -0.27315545
0.36004323 0.056457818 0.6777932 -0.21650921 -0.835768 -0.6039104 0.12686133 0.17931364
-0.40640578 0.48228687 -0.2585887 -0.48309574 -0.66462094 0.18646161 -0.5648966 -0.24313597
-0.002644782 0.54839224 -0.23116517 -0.4325807 -0.5314016 -0.021921927 0.13055313 -0.36282566
0.052713457 0.49426916 -0.6087477 -0.41323838 -0.14556986 0.2422911 0.52458495 0.17776237
0.01928825 0.015383045 0.16700284 0.51206565 0.40772128 -0.68900037 0.32071355 -0.015231446
0.24861462 -0.05617338 -0.10588113 0.42791525 -0.76550066 0.15388355 -0.22788572 -0.29711142
0.18936974 -0.25529754 0.10544485 -0.037891295 0.09089323 -0.08986567 0.19306079 0.22120582
0.20169924 0.0038777923 0.33127958 0.45047197 0.17062387 -0.40577003 0.1178285 0.21243712
0.24470644 0.03402019 0.16731495 -0.11239673 0.47375873 0.24824925 0.26829305 -0.21102515
0.7366745 0.2808074 0.53497183 -0.18194662 -0.3069468 -0.3181737 -0.32775864 0.25160855
-0.90553266 0.7120109 0.9180725 0.4807728 -0.7786358 -0.20445932 0.09243734 -0.5158487
0.110391 -0.39642662 -0.09404438 -0.4329874 0.16634393 0.4157321 0.45579085 0.21866004
-0.6255427 0.38369003 0.44042087 -0.10321768 -0.5019313 0.5674078 0.31143355 0.4414861
0.6942449 0.5286948 0.354518 -0.6025083 0.14167811 0.13150744 -0.10709397 0.12607974
-0.96086854 -0.38427463 -0.7625532 -0.30084494 0.37889215 0.0069783395 -0.098085165 -0.29297948
0.44601014 -1.3576939 -0.6906865 0.07499072 1.0936645 -0.21296695 -0.043177053 0.007115922
-0.028642649 0.06391378 -0.6749196 0.40044472 0.060161807 0.013563078 0.19995795 -0.25811127
-0.6310659 0.30416277 0.60099566 0.20104656 0.36243543 -0.35992333 0.40008065 -0.61074287
0.103257984 -0.56679595 -0.41490972 0.9174231 -0.014615161 -0.47826087 -0.053419117 0.07424938
1.0528744 -0.26348597 0.18679929 -0.30059227 -0.31266278 0.06836502 -0.2847334 -0.12721848
-0.05389508 0.46629018 -0.26016003 -0.7681447 -0.23644559 -0.63405555 0.16744737 -0.055932805
-0.15947556 -0.08757186 -0.51225466 0.33912626 -0.21853203 0.09354843 -0.11634625 -0.28991345
0.90974396 -0.16867499 -0.25098327 0.24006048 -0.35009426 -0.80697066 0.45822272 0.0019103218
-0.12509795 -0.5771723 -0.77200216 -0.46279383 -0.2951262 0.5531305 -0.09578931 0.93277085
-0.08040976 0.17119429 0.26944953 -0.4090493 -1.0926793 -1.1787128 0.2474233 1.0247203

lstm.bias_ih_l0 f4 [512]
00000000: ef98 e5bc aeff 2d3c 3343 0d3d 90c5 893d
00000010: db4e a83d 0d39 953d 3ec4 96be 8ed9 c5bd
00000020: dfd0 ccbe a656 e33d 2ef9 04be e8af 00be
00000030: 53ad 9ebe d238 c73d 3ef3 813c 19df 0dbf
00000040: 21a0 8cbe 251b cc3d d3d1 4dbe 3b37 6fbd
00000050: 3be9 a0be 4deb ba3c ed50 babc 360a 5cbe
00000060: 28f6 ab3e b5d1 25be 029a 6a3e 6b55 7b3e
00000070: 50a0 fcbe 86d9 873e 5a43 283e 3af8 7a3d
00000080: 2f76 8b3d a3e6 933d ff79 5bbe 65e3 dabe
00000090: 9f30 79ba 0d84 ac3d 3482 453e c343 ce3d
000000a0: acd2 423e d822 8d3e 2c59 28bd c882 0abe
000000b0: d36f f93d 2ab6 d83d d2cd 043e ecde 9b3d
000000c0: c93a 193d 0a6e e9bd 2f1b 10bf 9450 2c3d
000000d0: 9248 c6be 4a31 0c3e b72a 33be 7e2b a83c
000000e0: c2df 9dbb b663 44be f039 1dbe b32d 7c3e
000000f0: f779 0bbe 7757 d63d 5df4 f4bd 0ada c6bd
00000100: 6600 49bb 518d 7abc a728 d5bd 9773 0dbf
00000110: cc4f 5e3e fe96 c23e 4b9c f5bd 6f9c 893c
00000120: c2a4 723a c10f 513e c7bd ec3e 2602 c1be
00000130: 0120 11bf 6e6c 13be 6139 4bbc d638 fb3d
00000140: ebd9 583e 9a89 24be b9c5 a93e d4c2 df3e
00000150: 126b 313e 4c88 593e fabe 17be 73d8 a13e
00000160: f283 31be 087d 7ebc 7678 c9bd 7d00 b2bd
00000170: 31c7 d63e bced 083d c71c 893e ee8a f03e
00000180: 5f61 91bd 716f 04bf 555e 803e 3d15 443e
00000190: eaf9 1d3e cb8e dc3d e755 613e 4ea3 a93e
000001a0: 392d 3ebd 67b7 1ebe 8705 cd3e b443 9e3d
000001b0: 7af9 753c c631 92bc 192f 793e db9e ee3c
000001c0: 1800 ebbd a8df 583e 377b 2e3c 384a 873d
000001d0: 2cbb d13e 3bbb d9be 7c26 8dbd dc70 b0bd
000001e0: ff80 c73e d833 ab3d ec33 09be 41a9 663d
000001f0: 569a 823d e0f7 a5bd 5c59 86be 754a 7e3d
00000200: 95b0 10bd f465 92be f6e2 88bd cd91 353d
00000210: 4175 9abd a2f4 1bbe 9c3a 96be 2fc1 023e
00000220: 24ba 00bf 2227 8dbe aa97 5ebe e776 e0bd
00000230: 3780 adbe 0b26 7e3e c87d 0fbf 332f 12bf
00000240: 97c5 3bbe f467 97bd bf37 98be 16e7 55be
00000250: a4a0 a73e c85c d3bd 617b f1bd cfef 293e
00000260: bd58 fb3c 4fc5 f73d 5d74 b83d e1ed e9be
00000270: 0fe2 953e f9d8 163e e97f e8be 323a 69be
00000280: 5681 c7bd 6726 87be d00f 1c3e d397 c7be
00000290: b613 82be b034 12bf 4fbc c53d 3da8 3abd
000002a0: 59c4 68be 1b8e aabe 244b 91be e7ce 493d
000002b0: c376 583e 42c3 a7be 13d4 243e 7391 0abe
000002c0: 83d5 0c3b 79e5 b4bd dd6a ddbe 8700 57be
000002d0: 0471 9abe 8dc2 36be ae93 0dbe 5300 aebe
000002e0: 73a8 fb3e 68fc adbd 7d5c 21be 4e54 eebd
000002f0: 83d9 c9be a417 95bd 09cb c4be f4d8 63be
00000300: 6ebd cfbd a539 29be 165c d6be 8289 bbbe
00000310: 70ba a9bd 14e5 81be cbb2 97be bf3b e0be
00000320: 8368 b7bd e2ac 21be 7049 1bbe cfa5 d8be
00000330: 4fbe 03bf bb18 8fbc 9d41 2d3e 803e 91be
00000340: a567 0ebf 76c5 f5bd cde5 923d f974 20be
00000350: db37 e8bc 5367 aebe 2182 b6be 7af6 6ebe
00000360: 4964 b53d 2f2f 41bf d6b2 9a3e ee39 0f3d
00000370: e569 2bbc 892d 73bd 63cf e5bd 1de4 b4bd
00000380: 7511 50bd b2a1 88be a5ea 17be c3dc 29bf
00000390: 8e52 22bb b3ba 9e3c 062f f1be 8a3f 863d
000003a0: b1e9 30be 8d6b 92be c819 abbd 09bf 5f3e
000003b0: dd4b a7be 0255 8cbe fe1f fc3e 86b7 16be
000003c0: bcab 3abe 0cfa 8bbd 46ec 54be 674e 39be
000003d0: 135f 08bf 4649 93bd 90f2 a8be 2b06 123d
000003e0: 9226 3e3e 42ca 30be 6879 afbd 3faf 84be
000003f0: 3012 ec3e 7794 87be 3a53 86bc 2458 2bbe
-0.028027026 0.010620041 0.034487914 0.06727135 0.082181655 0.07286272 -0.29446596 -0.09660636
-0.40003106 0.11100511 -0.1298568 -0.12567103 -0.3099161 0.097276345 0.015863057 -0.55418545
-0.2746592 0.09966115 -0.20099573 -0.05840228 -0.3142794 0.022817278 -0.022743667 -0.2148827
0.3358624 -0.16193278 0.22910312 0.24544303 -0.4934106 0.26533145 0.16431943 0.061271884
0.06809651 0.07221725 -0.21433257 -0.42751613 -0.00095058413 0.08423624 0.1928795 0.10071518
0.19025677 0.27565646 -0.041100666 -0.13526452 0.12179532 0.1058162 0.12969139 0.07610878
0.037409578 -0.113979414 -0.5629148 0.042069033 -0.38727242 0.13690677 -0.17496763 0.020528551
-0.004817934 -0.19178662 -0.15354133 0.24626808 -0.13620745 0.10465901 -0.11960671 -0.097095564
-0.0030670404 -0.0152924815 -0.104081444 -0.552545 0.21710128 0.38005823 -0.11992701 0.016798226
0.0009256118 0.20416166 0.4623854 -0.37696952 -0.5668946 -0.14396831 -0.012403817 0.122667
0.21176879 -0.16068116 0.33158663 0.4370333 0.17326 0.212434 -0.14818946 0.3161045
-0.1733549 -0.015532739 -0.09837429 -0.086914994 0.41948846 0.033429846 0.26779768 0.46980995
-0.0709865 -0.51732546 0.2507197 0.19148727 0.15427366 0.10769423 0.22005425 0.33132404
-0.046429846 -0.1549965 0.4004328 0.07727757 0.015013093 -0.017846 0.24334373 0.029128483
-0.11474627 0.21179068 0.010649494 0.06605953 0.40963113 -0.42525658 -0.06892106 -0.08615276
0.38965604 0.08359498 -0.13398713 0.056313757 0.063770935 -0.08103919 -0.2624005 0.062082727
-0.03532465 -0.2859341 -0.06683914 0.0443285 -0.07541896 -0.15230039 -0.2934159 0.12769006
-0.5028403 -0.27568918 -0.21737543 -0.10960179 -0.33886883 0.248192 -0.560513 -0.5710327
-0.18337093 -0.07392874 -0.2973003 -0.20888934 0.32739747 -0.10320431 -0.11791111 0.16595386
0.030681962 0.120981805 0.090065695 -0.456893 0.29274032 0.14731206 -0.45410088 -0.22776106
-0.09741466 -0.26396486 0.15240407 -0.3898302 -0.25405663 -0.57111645 0.09655058 -0.0455706
-0.2273115 -0.33311543 -0.2837764 0.049269583 0.21139054 -0.32766157 0.16096525 -0.13532047
0.0021489568 -0.08832831 -0.43245593 -0.20996295 -0.3016435 -0.17847653 -0.13825867 -0.33984622
0.49151954 -0.08495408 -0.15757938 -0.116371736 -0.3942376 -0.072799 -0.38436154 -0.2225073
-0.10143553 -0.16525896 -0.4186713 -0.36628348 -0.08287513 -0.25370085 -0.29628596 -0.43795583
-0.08955481 -0.15788606 -0.15164733 -0.42314002 -0.5146226 -0.017467847 0.1691956 -0.28367996
-0.556269 -0.12000553 0.07172737 -0.15669622 -0.028346946 -0.34063205 -0.35646155 -0.23336211
0.088570185 -0.7546262 0.30214566 0.034967355 -0.010462259 -0.059369598 -0.112211965 -0.08832572
-0.0507979 -0.26685864 -0.14835604 -0.6635248 -0.0024768445 0.019376134 -0.4710619 0.06555088
-0.17276646 -0.2859768 -0.08354527 0.21850218 -0.32675067 -0.27408606 0.49243158 -0.14718446
-0.18229574 -0.06834802 -0.20793256 -0.18096314 -0.5327007 -0.0719171 -0.3299756 0.035650413
0.18569401 -0.17264655 -0.08568078 -0.25914952 0.46107626 -0.26480457 -0.016397107 -0.16732842

lstm.bias_hh_l0 f4 [512]
00000000: 2ce1 0b3b 9703 ebbc ac0a 923d 9a49 40bd
00000010: 4906 ee3d ea2f 793c 7683 b7be 804b 40bc
00000020: e838 dcbe 6408 fa3d 25dd 5cbd e0ff 58bd
00000030: 97f2 98be 1e26 ca3d 6cb6 0ebe 5e6e 16bf
00000040: ae1c 69be 6c9d e83d 2e2e 61be f3bb 2cbd
00000050: 5678 54be c445 343e a522 f13d 29f3 abbe
00000060: ffd0 b13e 9a1e 07be 0482 7c3e e49b ca3e
00000070: f97e 0fbf c762 843e ffd2 2a3e e36e 9ebb
00000080: 7665 373d cc53 c83d 7e63 89be 3ad0 d7be
00000090: 1f22 a83c a3e9 133d 3be5 e23d 5820 ff3c
000000a0: bcc7 403e c5b5 873e f673 2dbd a2b4 68bd
000000b0: 3329 0b3e 0c5d 923d 704c 203d 7820 e53d
000000c0: 0c48 3a3e c2d4 7fbc f72c e7be 9031 453e
000000d0: 629b 06bf 7af2 293e fa73 8bbe a83c 483d
000000e0: 2c65 debd d1ac e6bd 56c3 1abe b7b7 9e3e
000000f0: f34a 21be 54e1 463e 5105 0dbd 0915 94bd
00000100: edf0 493c 8f44 acbd da5b 69be 69a1 d7be
00000110: fe03 7b3e d791 ba3e da96 e2bd 55b9 9dbc
00000120: 059e 013e 2859 7e3e 6df3 b03e 3c7d b9be
00000130: 22ff 13bf d5ce 0fbd 043b aa3d 870b db3d
00000140: 9530 ac3e 7054 31be 433c b33e 498e ca3e
00000150: 4dbb 413e e552 0e3e e4a9 d9bd c168 963e
00000160: 3fc9 cabd 2a7f d2bd d8eb ecbd 4312 b1bd
00000170: 5229 b93e 8a1a e53d 6e98 7f3e 0760 bf3e
00000180: 9e0a c13c 0003 05bf cab8 883e 0071 f53d
00000190: e43a 3b3e 82d4 763d 3507 693e b670 8b3e
000001a0: 2ff8 43bd 3740 6dbe 4e05 823e 4d44 083e
000001b0: 9570 783c 9e40 563d c806 7e3e fbbb 6cbd
000001c0: da77 23be e0c3 383e 94cd ba3d 7a13 b23d
000001d0: 14b4 b03e 33f5 b3be 051d 943d 7b6d 09bd
000001e0: 15f3 ab3e 490c 86bd 0de9 18be 2067 b43d
000001f0: f38f bc3d 9e84 00be 3fc6 bebe d4cb 033e
00000200: 6c35 32bd 005f 63be d428 113d 0b3e 3abd
00000210: 04ee 8ebd 1280 89bd c82c a6be 319c d13d
00000220: 682f fcbe 3db9 aabe 72c1 8abe 1707 29be
00000230: 2350 e2be ece4 463e 814d 12bf f260 1dbf
00000240: a28a a1be 7694 25be 8c12 78be cc87 83be
00000250: 78d6 c33e 8879 99bd 8551 31be c094 243e
00000260: eb29 00bc 7392 8f3d eeed 583e 0a50 09bf
00000270: 2b6e 823e 64d1 083e a6e5 a2be 8c3d b8bd
00000280: feb7 043d 940c 93be a76e 193e d725 a9be
00000290: eef2 00be 2a73 19bf 8e3f 613d d4f3 edbd
000002a0: b9ee ebbd 5926 abbe 2ae0 97be f574 5e3e
000002b0: e420 443e afea c0be 65dc 5f3e 9f30 ccbd
000002c0: 16eb 1cbe b460 1ebe fb0b bbbe a69f 4fbe
000002d0: c8a2 a0be 77d2 37be 70ec d6bd e704 4bbe
000002e0: 1833 fe3e f060 03bc 350b dfbd 71a7 b1bd
000002f0: fcd3 dabe 86d8 d9bb 2a07 d4be 8718 7ebe
00000300: 0090 debd 36d9 bdbd 3951 06bf f748 d5be
00000310: 9cca d9bd a173 83be fd20 8ebe eb14 08bf
00000320: e0c6 6cbe 57b8 14be fb4d b3bd 12a8 dabe
00000330: e916 fabe 51f1 bcbd ff43 813e 847b 98be
00000340: 974b cebe 4e88 9bbd cb77 b8bc 3a89 e6bd
00000350: 0053 a4bd 4d84 d1be 47c2 b9be 177a 35be
00000360: 0967 683d 6ee4 3dbf 551e 623e 4b41 953a
00000370: cf13 033d 21c3 0dbe 3391 c2bd d068 84bd
00000380: 18fc c73b 10d9 72be a6ce 19be 95ad 1ebf
00000390: db04 c4bd 9638 cabb 7055 e1be 6683 5bbd
000003a0: 64fe 6ebd dcc1 37be a267 febd 5b23 c43e
000003b0: 4285 96be bafb c3be 31b2 d13e a750 4dbe
000003c0: 15dc 20be 82e6 92bc 37df 0cbe a3ba 7ebd
000003d0: 3d08 07bf ded8 1b3d 3300 85be 5fba 1cbd
000003e0: 3d28 7c3e 38f7 0ebe 2adc 66bb df4c 10be
000003f0: 9e8d d13e a320 a8be 2577 743d b58d 85be
0.002134393 -0.028688235 0.07130942 -0.046945192 0.116222925 0.0152091775 -0.35842484 -0.011736751
-0.43012166 0.12208632 -0.053921837 -0.052978396 -0.2987258 0.098705515 -0.13936776 -0.58762157
-0.22764847 0.11358151 -0.21990272 -0.04217143 -0.2074903 0.17604738 0.11774186 -0.33583954
0.34729764 -0.13195267 0.24658972 0.3957206 -0.5605312 0.2585661 0.16682051 -0.004834996
0.044774495 0.09781608 -0.2683372 -0.42151052 0.020524083 0.036111485 0.110788785 0.031143352
0.18826193 0.26505867 -0.042346917 -0.05681289 0.13589935 0.071466535 0.039135396 0.111878335
0.18191546 -0.01561469 -0.45151493 0.19257188 -0.52580845 0.16596404 -0.2723692 0.04888597
-0.10859141 -0.11263431 -0.15113577 0.30999538 -0.15751247 0.19421893 -0.0344289 -0.07230575
0.012325508 -0.08411514 -0.22788945 -0.42115334 0.24513242 0.36439392 -0.11063929 -0.019253412
0.12657936 0.24838698 0.3456072 -0.3622836 -0.57811177 -0.03510936 0.083120376 0.10695558
0.33630815 -0.17317367 0.35006914 0.3956168 0.18919106 0.13898809 -0.10628107 0.29376796
-0.09901666 -0.10278161 -0.11568421 -0.08646061 0.36164337 0.111867025 0.24960491 0.3737795
0.023564633 -0.519577 0.26703483 0.11984444 0.18284184 0.060261257 0.22756656 0.2723443
-0.04784411 -0.23169027 0.25394672 0.13307305 0.01516356 0.052307718 0.24807274 -0.05779646
-0.15963688 0.1804347 0.09121242 0.08695121 0.3451239 -0.3514801 0.072320975 -0.033551674
0.33583894 -0.06545312 -0.14932652 0.08808732 0.09207144 -0.1255059 -0.37260625 0.12870723
-0.04350798 -0.22204208 0.035439327 -0.045469325 -0.06978992 -0.067138806 -0.3245604 0.10234869
-0.49254918 -0.3334445 -0.27100712 -0.16506611 -0.44201764 0.19423264 -0.5714951 -0.6147605
-0.3155108 -0.16169915 -0.24225825 -0.25689542 0.38249564 -0.07493883 -0.17316253 0.16072369
-0.007822494 0.07010355 0.21184513 -0.53637755 0.25474676 0.13361126 -0.31815833 -0.08996114
0.03240203 -0.28720534 0.14983617 -0.33036682 -0.1259267 -0.5994135 0.05499225 -0.11618772
-0.11520142 -0.33427694 -0.2966321 0.21724303 0.19153172 -0.3767905 0.21861418 -0.09970211
-0.15324053 -0.15466577 -0.36532578 -0.20275745 -0.31374192 -0.1795138 -0.104943156 -0.19826089
0.49648356 -0.008018717 -0.108908094 -0.08674515 -0.42739856 -0.006648126 -0.41411716 -0.24814044
-0.108673096 -0.09269945 -0.52467686 -0.4165723 -0.10634348 -0.25674155 -0.27759543 -0.5315692
-0.2312274 -0.14523445 -0.08755108 -0.42706352 -0.48845604 -0.09225715 0.2524719 -0.29781735
-0.40292045 -0.075943574 -0.02251806 -0.11256643 -0.080236435 -0.4092125 -0.36281034 -0.17722355
0.056738887 -0.7417668 0.22081883 0.0011387257 0.032001313 -0.13843967 -0.09500351 -0.06465304
0.00610305 -0.23715615 -0.15020236 -0.61983615 -0.095712386 -0.0061712964 -0.44010496 -0.05359211
-0.058348075 -0.17945045 -0.1242211 0.38308224 -0.29398543 -0.3827799 0.40956262 -0.20050298
-0.15708955 -0.01793218 -0.13757025 -0.06218971 -0.52746946 0.038048618 -0.25976714 -0.038263675
0.24624725 -0.13961494 -0.0035226443 -0.14091824 0.40928358 -0.328374 0.059683938 -0.26084676

output1.weight f4 [128, 128]
00000000: 3a87 3d3f 197a c4be 38f4 6e3e 5713 d5be
00000010: 05e5 643f df32 523f 131c b3be 9e45 973e
00000020: 484d b1be b772 3d3f 5729 073f 7f3f a83d
00000030: adb0 373d 3238 e53d 0898 ffbe 5770 8b3e
00000040: 046d 0bbe eff7 91be 43af 653f 018c 7bbd
00000050: 1488 dd3e d594 993e 69af 7e3e bcac b3be
00000060: 4aa1 b2bf b93a 383e 8a2f 22be e7e7 803e
00000070: bf52 bbbd 93fe 143d 9e30 ea3e 08f8 91be
00000080: cf88 513d 9929 82be 8811 a53e 65f0 4f3f
00000090: 9f00 9e3e b798 b23e 4770 d5bd cb40 ee3e
000000a0: ab65 ec3c 3361 c1bd c6f5 a93e f770 ef3e
000000b0: ca45 b13e 7988 42bf d11b 0d3f a7bd e43d
000000c0: da2f 333f 1ed5 35bf 0c97 c33f 3caf 53be
000000d0: 5bed 56be 4805 98be 2739 803e 033d 1abf
000000e0: d37d 11bf c81e 4ebe 4b31 1d3e c1d7 a2be
000000f0: bbfd 0bbf 2784 07be 9e2e 7fbe 3216 eabe
00000100: 9a2d 79bd ce5b ccbe 09a6 e8bd 04c5 c13f
00000110: da0f dfbe 90d6 e6bd 508c fbbe 99d1 21bf
00000120: 63f3 4e3b cd22 273f cc99 8ebe a4e3 82be
00000130: 5115 81bf ec49 7bbf 7eab 9cbc 9443 a63e
00000140: d54e de3e 4a08 94bf ce45 5b3c b955 c4be
00000150: 0558 c2be 25fd 3abf 46a3 9d3e 6429 543f
00000160: 82c0 593f 3040 ad3d 72b7 8b3e a615 a03e
00000170: 7fc5 5dbf e3b7 60bf 0402 3d3f 4fa6 703d
00000180: 8bff 0abf b257 aa3d 155b cd3d cdec 76be
00000190: f39a af3d 364b 4cbe 56ef 50bf b059 c5be
000001a0: 91e0 953f bfa3 82bd 7434 17bf 1ac2 cd3e
000001b0: cfda 233f 0358 e8bc c64e aebe 0b33 dabd
000001c0: ae86 52bb ca4b 933e 8c90 3dbf 22e9 b6be
000001d0: 2a28 c93e 154a 46bf 48f2 8ebe db35 de3e
000001e0: e657 b33d 1a43 9abe 840c 033f a5d6 d7be
000001f0: 0dd9 6dbf b811 cdbd e79e 88be e139 703e
00000200: 4928 e43e 2a7b 95bf 7ad5 c83e 7556 67be
00000210: 6b9d 5bbd 33d0 28be 3dc8 93bd 5648 96be
00000220: a96c 96bf 340c f83c 7e51 1e3e 48ac a53f
00000230: 527c 003e 64ec dbbe 2a64 04be 9645 01be
00000240: 469c 873d fd88 5fbe c0bf 2fbe d0c7 313f
00000250: 1ed7 023f 9d01 42bd c89c 9b3e 5ceb 4e3e
00000260: 6216 fabe 221f 8bbe 75ab df3e a645 883f
00000270: 0fae 60bf 0466 8a3e 6a11 913d 2d60 1bbd
00000280: 98af 7d3f 9feb 54be 1214 673e 4a1c e33c
00000290: d020 e33c bc83 5c3f fef8 d63e 19a8 12bf
000002a0: 1db2 83bf 9647 343f f93f dabe 733f 67be
000002b0: 4fdd 1fbf a224 bf3e bf64 86bf 2352 9b3d
000002c0: 4d0d d1bd 7a09 ad3d d304 80be d850 88be
000002d0: b598 033e 97ca c13d 2a09 c43e fd00 6d3e
000002e0: 818f 88be c838 47bf e05c 3abd 7224 483f
000002f0: 0287 f63e 89dd c23f bb57 3bbe 4ab5 b8be
00000300: f7c6 c3be 516b 003f 7e1a dbbe 941a 88be
00000310: 4813 b0be df8d 3cbd 1046 50bf 3578 e53e
00000320: e4d7 773e b3c3 5c3e ab0b 6f3b 9149 04bf
00000330: 9fa4 ddbd b2be a83e d16e 46bf 89e7 cc3e
00000340: ab7c f9bd e757 3fbd fa8f 083f 877c e5be
00000350: 74c1 323f 0080 353f 834d 9f3d 43dc ec3e
00000360: 0382 c63e 28db 93be 984c ba3e b4c0 77bf
00000370: 98b0 073f 4718 223f a3fc 9e3e 17b3 36bf
00000380: 0a06 30bc ff4a 10be 0ade 9b3e f1ee 933f
00000390: 3a5d 13bf 21c7 143d 7581 593d e882 82bd
000003a0: 288f c9bd ca59 89be cde9 31bf 5f11 0a3d
000003b0: 8b6c 373d f174 1d3f f733 363e 113e 183e
000003c0: c2a4 efbe 86ce 273e bfbe 44bc 5635 eebe
000003d0: 0246 dcbe dfbd 8f3c 1f5d f5bd e0fe 3dbf
000003e0: 399e 99be 27b5 123e 8eac 8e3f 395a babd
000003f0: 581b 48bf 7966 1cbe 7ed0 47bf fd29 f5be
0.74034464 -0.38374403 0.2333535 -0.41616318 0.89411956 0.82108873 -0.34982356 0.295453
-0.34629273 0.74003166 0.52797455 0.08215236 0.044846226 0.11192359 -0.49920678 0.27234146
-0.13615805 -0.2850947 0.89720553 -0.061412815 0.43267882 0.29996362 0.24871601 -0.35092723
-1.3955472 0.17991151 -0.15838447 0.25176927 -0.09146642 0.036375593 0.45740217 -0.28509545
0.05115586 -0.25422361 0.32239938 0.8122619 0.3085985 0.34882137 -0.10421806 0.46533808
0.028857073 -0.094423674 0.33195323 0.46765873 0.34623557 -0.7598949 0.5512057 0.11168986
0.6999489 -0.71028316 1.5280471 -0.20672315 -0.20988981 -0.2969153 0.25043604 -0.60249346
-0.5683262 -0.2012893 0.15350835 -0.31805232 -0.54684037 -0.13234006 -0.24920127 -0.4572006
-0.060834505 -0.3991379 -0.11359794 1.5138249 -0.4356678 -0.11271393 -0.49130487 -0.63210446
0.0031578175 0.65287477 -0.27851713 -0.255643 -1.008463 -0.9815967 -0.019124743 0.32473433
0.4341952 -1.156503 0.013383342 -0.3834665 -0.3795778 -0.7304252 0.3078863 0.8287566
0.8505937 0.084595084 0.27288395 0.31266516 -0.8662948 -0.8778059 0.738312 0.058752354
-0.5429618 0.08317508 0.10027138 -0.2411377 0.08574476 -0.19950566 -0.816152 -0.3854499
1.1709157 -0.06378888 -0.5906441 0.4018715 0.6400575 -0.02836228 -0.34044474 -0.10654267
-0.0032123732 0.2876876 -0.74048686 -0.3572474 0.39288455 -0.7745679 -0.2791922 0.43400463
0.08757 -0.3012932 0.5119097 -0.42155948 -0.9290932 -0.10013145 -0.26683733 0.23459579
0.44561985 -1.1678212 0.3922537 -0.22591574 -0.053616922 -0.16485672 -0.07215927 -0.29352063
-1.175191 0.030279256 0.15460774 1.2943201 0.12547424 -0.4295379 -0.12928835 -0.12624201
0.06621604 -0.218296 -0.1716299 0.69445515 0.5110949 -0.04736482 0.30393052 0.2020697
-0.48845202 -0.2717219 0.436855 1.0646255 -0.8776559 0.27030957 0.070833996 -0.037933517
0.9909606 -0.20793007 0.2256625 0.02772345 0.027725607 0.8613851 0.4198684 -0.57287747
-1.0288731 0.7042173 -0.42626932 -0.22582798 -0.62447065 0.37332636 -1.0499495 0.07584026
-0.10207615 0.08449073 -0.2500368 -0.2662418 0.12851222 0.09462469 0.38288242 0.23144908
-0.26671985 -0.77821016 -0.04549873 0.7818061 0.48149878 1.5223857 -0.18295185 -0.36075813
-0.38237736 0.5016375 -0.4279365 -0.26582778 -0.3438971 -0.046033736 -0.81356907 0.44818273
0.2420345 0.21559028 0.003647546 -0.51674753 -0.108224146 0.3295799 -0.7751284 0.40020397
-0.12181982 -0.04671469 0.5334469 -0.4482157 0.69826436 0.7089844 0.07778456 0.46261796
0.38771066 -0.2887814 0.3638656 -0.96778417 0.53003836 0.63318294 0.31052122 -0.7136702
-0.010743627 -0.14091109 0.3044284 1.1557294 -0.5756413 0.036322717 0.053101975 -0.06372625
-0.09841758 -0.26826316 -0.69497377 0.033707973 0.04478125 0.61506563 0.1779326 0.14867426
-0.46805388 0.16387376 -0.012008368 -0.46525067 -0.43022162 0.017546592 -0.11980652 -0.74217033
-0.30003527 0.14326917 1.114641 -0.0909924 -0.78166723 -0.15273465 -0.7805251 -0.47883597

output1.bias f4 [128]
00000000: 82a0 05bf 3f4b 5abf 9bc8 8abe ec2a 07bf
00000010: e7a8 05bf 83fb 63bf cfdd 2fbf 1e21 43bf
00000020: 7923 89bf ae2a 0fbf f13c 58bf 9a8a 31bf
00000030: 6190 b9be af97 62bf 298b 3ebf 3662 47bf
00000040: 5ef5 6dbf e365 8abf 65b3 48bf 3abc 15bf
00000050: 704d 23bf fa07 4bbf 1ad5 17bf 04a2 33bf
00000060: 6836 37bf f395 7abf c06f 6dbf 493f e9be
00000070: a543 a6bf e62e 8bbe e63a 7cbf 810f 91bf
00000080: 2898 1dbf 19e3 37bf d3dd 82bf 8431 1dbf
00000090: 162b 21bf 43cc 0cbf ee11 9cbe 7a7e a8bf
000000a0: 69ab 27be 12a5 96bf 8c17 87bf 77f5 b0be
000000b0: 601e 2cbe b3a2 4bbf 5f59 ecbe a0f5 7cbf
000000c0: 3748 9cbd 9b69 2abf 260f 77bf 7046 84bf
000000d0: ea35 26bf 6ffa 95be ae0f cebe bb83 15bf
000000e0: da7d 6ebf 5ae8 a2bf 07bc c9be 2ea8 4ebf
000000f0: 0474 f1be ae1e 36bf effb 16bf c608 30bf
00000100: f31e 1ebf f463 95bf 6277 31bf 7144 01bf
00000110: f3b6 5ebf 996c 91bf 31b4 8cbd 20ee 65bf
00000120: 3301 9abf 7cff 11bf e145 53bf 5dc7 07bf
00000130: 67d1 28bf 0ecb 09bf 40d8 94be eb46 2ebf
00000140: 60f9 8bbf 5149 edbe 76a1 03bf a036 64bf
00000150: d5fd 6dbf d7e1 5bbf 5f05 07bf 7391 2bbe
00000160: 9abf 91bf 1c34 44bf bb92 1bbd 0d59 6fbf
00000170: 58d3 dabe 8d1a cdbe 9fe8 4dbe c508 b4be
00000180: 89dd 70bf c201 2cbf 7e8a 9cbf 3ab7 1fbf
00000190: 0bc9 4fbf dd0a 78bf 16bf 35bf 459c 3cbf
000001a0: 086d 0cbf 545f 6abf ee34 86bf 69f2 83bf
000001b0: 20b4 11bf 9390 0bbf 72df 51bf 0203 77bf
000001c0: 2fc1 72be 3c95 69bf 3b94 4bbe 6a99 2ebf
000001d0: 84a6 80be a73a fabe fe45 d2be e78c 47bf
000001e0: 1ef7 5cbf cd9a f5be c34a d8be b4ee 07bf
000001f0: fd6d 13bf 6f75 edbe 77e8 2abf 17d7 edbe
-0.5219804 -0.85271066 -0.27106175 -0.5279987 -0.5221085 -0.8905565 -0.6869783 -0.7622241
-1.071395 -0.559245 -0.8446799 -0.69352114 -0.36242965 -0.885127 -0.7443109 -0.77884233
-0.92952526 -1.0812343 -0.78398734 -0.58490336 -0.63790035 -0.79309046 -0.5930954 -0.7016909
-0.7156739 -0.97885054 -0.9274864 -0.45556095 -1.2989393 -0.27184218 -0.9852737 -1.1332856
-0.61560297 -0.718309 -1.0223945 -0.6140368 -0.6295637 -0.5499918 -0.3048243 -1.3163598
-0.16373982 -1.1769125 -1.0554061 -0.34562275 -0.16808462 -0.79545134 -0.46161935 -0.98812294
-0.076309614 -0.6656739 -0.9650749 -1.0333996 -0.64926016 -0.29292628 -0.40246338 -0.5840413
-0.93160784 -1.2727158 -0.39401266 -0.8072537 -0.47158825 -0.71140563 -0.5897817 -0.6876339
-0.61765975 -1.1671128 -0.6932279 -0.5049506 -0.8699791 -1.1361266 -0.06870306 -0.89816475
-1.2031616 -0.57030463 -0.825285 -0.5303858 -0.6594452 -0.5382546 -0.29071236 -0.6807696
-1.0935478 -0.46344998 -0.51418245 -0.8914585 -0.9296544 -0.8589148 -0.5274257 -0.16754703
-1.1386597 -0.7664201 -0.03798173 -0.93495256 -0.42739367 -0.4005932 -0.20108269 -0.3516294
-0.94088036 -0.6719018 -1.2229764 -0.62388957 -0.8116614 -0.96891576 -0.709947 -0.7367595
-0.5485387 -0.9155171 -1.0484903 -1.0308353 -0.56915474 -0.5451748 -0.81981575 -0.96488965
-0.23706506 -0.9124334 -0.19880764 -0.6820284 -0.2512704 -0.48872873 -0.41069025 -0.77949375
-0.8631457 -0.47969666 -0.4224454 -0.5309861 -0.57589704 -0.46378657 -0.66760963 -0.46453163

output2.weight f4 [40, 128]
00000000: e8a3 3fbe 9b23 c4bf 1f4e f9bf fad3 6cbf
00000010: 1082 b6bf 1feb e6bf a6e8 11c0 9a95 c73e
00000020: d3d4 b1be 9782 a3be 74de 61bf a884 483e
00000030: 9924 abbf b1ee 41bc 78e2 aebd 9447 1ebe
00000040: aa84 123d ef8c 0b3f aafb dfbe f023 2cbe
00000050: 9675 94bf 72ff 2ebf a85b cdbe 35f4 60bf
00000060: 7fa7 00bd ec77 aebd 4146 29c0 3625 f73e
00000070: 3689 f03e d29a 55bd 40b2 b9bf d162 6fbe
00000080: dabb 1cc0 6dc5 3bbe 7e93 c9bf db50 b03e
00000090: 9969 6f3e 9feb 16bf afb5 b0be 5cee bcbf
000000a0: 751b a4be 2904 babc 473a 5cbf e95d cb3d
000000b0: 6d87 9cbe 5c14 86be 89a3 8fbf cc57 5cbe
000000c0: 8902 3c3d dfca 6abe b379 353f 0ed5 4bbf
000000d0: 7702 d3bf f887 ac3e e659 393f d15d 27bf
000000e0: b31b 1fbe 71ae 5f3e 5f18 153e c087 f1be
000000f0: f5f0 d93d fe5c 80bf c421 9fbf a5ef 363d
00000100: 7aab 82bf 31a2 79be 8eb4 77bf 4d50 173f
00000110: a123 17c0 4ce8 d0bd eee2 babf 1b50 2e3f
00000120: c9e7 debf 4597 9e3f c16e 9fbd 2a5a 843e
00000130: 36e1 bebf fc93 f2be 51e3 9c3e 08d5 84bf
00000140: 0871 a53e 551a c5bd 5b14 8ebd 4a1a 1dbf
00000150: 72b2 0ec0 4aa5 04c0 8f38 8dbd 672b 8a3e
00000160: 2129 27bf c7bc aabe d259 77bc 57ab 0ebf
00000170: b1ed 9dbf fd17 0a3e 5f10 6dbf 1fce 073f
00000180: 7002 d23d c6cf 44bf 3383 bcbf a834 d4bd
00000190: 6ef9 dcbe 8870 61bf 6f3e 96be c61c 853e
000001a0: c41b 4e3e 2ef0 51bf 76fd 81bf 00a3 1fbf
000001b0: 18e3 f23d 6261 61bf 3715 353d ec15 24c0
000001c0: d98f 6dbd f9f0 583d 7c47 b4be 3f95 54bf
000001d0: f6af 863e c7af 4e3f 8119 47bf 9ad2 a4be
000001e0: 9f26 0fc0 44e7 e0bf 734f 70bf 8e4c c33c
000001f0: b01c 3e3d ede9 cdbe a537 0abf cfd5 8fbe
00000200: 243b 29bc 8d86 4bbe 252e 9dbe 8785 67be
00000210: bce0 cabf c546 433f 3760 57bf 4e0e 833e
00000220: 7883 eb3e 03d5 a73e 598e 53be f625 14bd
00000230: f101 0cbf f0a5 69bf a2c9 7bbc 3530 4bbf
00000240: 5b1c 24be 0e0a 87bf 21af c9bf e271 b3bf
00000250: facb e83d 0699 683d 621a 2bbf 8164 41bf
00000260: a985 37bf 6d21 97bf 2085 8e3d a35a 003e
00000270: 60c8 8f3d a7b6 d73e f9e0 d03e 8279 293d
00000280: 414e 36bf 9d74 b13e f84a cebf afb7 fcbe
00000290: ef87 c3be 49cc b6bd 9877 be3e d06b 8ebf
000002a0: 93a8 11bd 015b 83be aad3 11bf e8d1 a73d
000002b0: b900 02bf f69f 66be fb9a 1b3f 0e2b b2be
000002c0: 3ef6 d7be e2ba d9be 652d 94bf 1eeb c1bf
000002d0: a2f0 c1bd cb92 bc3d 51ef 71bf 384b 153e
000002e0: 7ffd a3bf 0251 98bd d0fe d8bd 88d1 5e3f
000002f0: 5177 823e 3e04 9ebf 46a8 d2bf f5cf 273e
00000300: e503 fd3e 8619 40be 4f53 bfbd e176 eabe
00000310: 755e 31bf 29e1 43be f73c ae3e 369a bdbf
00000320: 3f5a d7be 046b f0bf 1d17 98bf 1d73 a3be
00000330: b6f7 11be 2641 163d cf2d 0abd 5e06 97bf
00000340: c28b 01c0 1ed7 533e b304 69be cf32 eb3e
00000350: 3a3d c8bf 5052 eabf a0f2 41bf 155f b2bf
00000360: beed 92bf 12e6 d4bf 976b c63e 34c8 45bf
00000370: 8c1b 07bf fa85 d73e e0cc 61bd 8913 f3be
00000380: 9762 acbf 4298 babe eafb d7be 8463 14bf
00000390: 17b4 bfbd 08ee 75be 3240 b93d 2ff8 13be
000003a0: f9ed 70bf 0c1a e8be 01cd 19bf 9183 483e
000003b0: 0437 ebbf 84ad 0dc0 cbc1 f3bd 0bd2 febe
000003c0: 2d71 ecbd f146 0b3f 2ed0 053f 18dd 9fbe
000003d0: a93d 0abf 321f 193f 01ad 0cbf b7e2 02c0
000003e0: 0b7a b9be 9ae6 02bf aa03 b4be dda5 fdbe
000003f0: 11ba bdbc 0095 6fbf 05ac dbbf d0d9 00bf
-0.18714869 -1.5323366 -1.9476966 -0.9251095 -1.4258442 -1.8040503 -2.2798247 0.38981324
-0.34732684 -0.3193557 -0.8823006 0.19581854 -1.3370544 -0.011836694 -0.08539289 -0.15456992
0.03577105 0.5451192 -0.43746692 -0.16810584 -1.1598384 -0.6835853 -0.4010899 -0.8787263
-0.031409737 -0.08518967 -2.644913 0.48270577 0.46979684 -0.0521496 -1.4507523 -0.23377539
-2.4489655 -0.1833703 -1.5748136 0.34436688 0.23380126 -0.5895328 -0.34513614 -1.4760242
-0.32052198 -0.022707062 -0.86026424 0.09930021 -0.30572072 -0.26187408 -1.1221782 -0.21517867
0.045900855 -0.22928952 0.70888823 -0.7962197 -1.6485127 0.33697486 0.724028 -0.6537753
-0.1553791 0.21843888 0.14560078 -0.47173882 0.10641662 -1.0028379 -1.243218 0.044662137
-1.020858 -0.24378277 -0.9675988 0.59106904 -2.3615496 -0.10200557 -1.4600503 0.6809098
-1.7414485 1.2389914 -0.077847965 0.2585004 -1.4912479 -0.47378528 0.3064218 -1.0377512
0.32312799 -0.09624163 -0.06937476 -0.6136824 -2.2296414 -2.0725884 -0.06895553 0.26986238
-0.6529713 -0.3334715 -0.015097098 -0.55730194 -1.2338163 0.13485713 -0.92603105 0.5304889
0.10254371 -0.7687954 -1.4727539 -0.10361606 -0.4315905 -0.88062334 -0.29344508 0.25998515
0.20127779 -0.8200711 -1.0155475 -0.62358093 0.11859721 -0.8803922 0.044209685 -2.563838
-0.057998512 0.052964184 -0.35210788 -0.8304023 0.26306123 0.80736965 -0.7777329 -0.32191926
-2.2367322 -1.7570577 -0.9387123 0.023840215 0.046414077 -0.40217534 -0.53991157 -0.2809281
-0.010329042 -0.19875546 -0.30699268 -0.2260953 -1.5849833 0.7627986 -0.8413119 0.2559685
0.4599874 0.32779703 -0.2065977 -0.036169015 -0.5469046 -0.91268826 -0.015367897 -0.79370433
-0.16026442 -1.0549943 -1.575657 -1.4019129 0.113670304 0.05678656 -0.6683713 -0.7554398
-0.71688324 -1.1807076 0.06958985 0.12534575 0.070206404 0.4213154 0.4079664 0.041375645
-0.71213156 0.3465928 -1.6116629 -0.4935889 -0.38189647 -0.08925683 0.37200618 -1.1126652
-0.035561156 -0.25655368 -0.569636 0.08194333 -0.5078235 -0.22521958 0.60783356 -0.34798473
-0.42180055 -0.42525393 -1.1576353 -1.5149877 -0.09469725 0.09207686 -0.9450579 0.14579475
-1.2811736 -0.07437326 -0.105954766 0.8703847 0.25481656 -1.2345045 -1.6457603 0.16387923
0.49417034 -0.18759736 -0.09342062 -0.45793822 -0.69284755 -0.1912886 0.34030887 -1.4812686
-0.4206104 -1.8782659 -1.1882054 -0.31923762 -0.1425465 0.036683224 -0.033735093 -1.1798818
-2.0241551 0.2068753 -0.22755699 0.459372 -1.5643685 -1.830637 -0.7576084 -1.3935267
-1.1478803 -1.6632712 0.3875396 -0.7725861 -0.5277641 0.42094404 -0.055127025 -0.47475842
-1.3467587 -0.36444288 -0.42184383 -0.5796435 -0.09360521 -0.24016583 0.090454474 -0.14450143
-0.9411312 -0.45332372 -0.60078436 0.19581439 -1.8376164 -2.2137156 -0.119021975 -0.49769625
-0.11545024 0.54405123 0.5227078 -0.3122337 -0.54000336 0.59813225 -0.54951483 -2.0450876
-0.36225924 -0.5113312 -0.35159045 -0.49540606 -0.023160012 -0.9358673 -1.7161871 -0.50332355

output2.bias f4 [40]
00000000: 7580 e03c c37e 2ebd 8724 d9bd 8e26 863d
00000010: 25ea 213e 955b a2be 2044 41be a852 80be
00000020: 4b6c a1bd a241 c93d 07be b13d a133 d6bc
00000030: c89d 87bd 4975 aa3e a87c d2be 0b47 8d3d
00000040: 833d 183c a7a2 403e 68ea 7a3c b468 94bd
00000050: c4a8 073e 87d7 a6be 6a88 3d3b d250 513d
00000060: 8682 46be 6e58 633e 4e0e a93c 6cf5 01bd
00000070: 79c1 22bf fbbf 033e 62b5 003e 3ead 793c
00000080: f780 bdbd 7911 16bf 175e 3cbd c6d0 cabe
00000090: 4656 023e d831 01be 7f68 813e 8e83 5dbd
0.027405003 -0.04260136 -0.1060267 0.065503225 0.15811975 -0.31710497 -0.18873644 -0.25063062
-0.07881983 0.098269716 0.08678823 -0.026147665 -0.06621891 0.33292606 -0.4111073 0.06898316
0.009292009 0.18812047 0.015314676 -0.07246533 0.13247973 -0.3258631 0.002892042 0.051102467
-0.19385728 0.22201702 0.020636704 -0.031728193 -0.63576466 0.12866203 0.12569192 0.015239058
-0.09253114 -0.5862041 -0.04598817 -0.39612406 0.12728223 -0.1261667 0.25275037 -0.05408054
