Experiment/LSTM4-500-128.pth (torch, 617349 bytes, 8 tensors)

lstm.weight_ih_l0 f4 [512, 128]
0	0x3e812067	0.25220034
1	0x3e1c4dd6	0.15264067
2	0xbe0011c6	-0.1250678
3	0xbd01612f	-0.031586822
4	0x3ef812a0	0.4845171
5	0xbf13a714	-0.57676816
6	0x3de3c723	0.11121967
7	0xbe10ee64	-0.14153439
8	0xbeac67af	-0.33672854
9	0x3e4af5e0	0.19820356
10	0xbeae838b	-0.34084734
11	0x3c1a058e	0.009400738
12	0xbe9f0f1c	-0.31066215
13	0xbe2cf20d	-0.1688921
14	0xbe8aa279	-0.27077082
15	0xbd13b82d	-0.036064316
16	0x3d31e982	0.04343558
17	0xbe6b6c37	-0.229905
18	0xbe8d486f	-0.27594325
19	0xbb1a6aa3	-0.0023562096
20	0x3cdd5fd3	0.027023232
21	0xbe808b31	-0.25106195
22	0xbdc04083	-0.09387305
23	0x3d2e1b2f	0.042506393
24	0xbde152f5	-0.11002151
25	0x3e98df29	0.29857758
26	0xbdf962b1	-0.12177027
27	0x3d562d22	0.052289136
28	0x3d3b89cf	0.04578572
29	0x3d6d3517	0.05791196
30	0xbe26d74c	-0.16293067
31	0xbdb93e12	-0.09045042
32	0xbe5641b2	-0.20923498
33	0xbc350776	-0.011049142
34	0x3eb02654	0.34404242
35	0x3e733090	0.23748994
36	0xbec061c6	-0.37574595
37	0x3d94367e	0.07236956
38	0x3d1f740e	0.038929038
39	0xbea901fe	-0.33009332
40	0xbe9a1192	-0.3009153
41	0xbe2a0da8	-0.16606772
42	0xbedd5bd2	-0.43234116
43	0xbd012f4f	-0.031539258
44	0x3e5b3f39	0.21410836
45	0xbe55bed5	-0.20873578
46	0x3baef165	0.005338835
47	0xbc565140	-0.013080895
48	0x3da5e979	0.08101172
49	0xbd20bb89	-0.039241347
50	0xbc7b9ad7	-0.015356741
51	0x3c884a40	0.016636968
52	0xbdd81489	-0.10550792
53	0x3c6ad839	0.014333778
54	0xbdc24328	-0.09485465
55	0xbf3efca4	-0.7460425
56	0xbcdca4a5	-0.026933977
57	0xbd6af29f	-0.057360288
58	0x3eb82787	0.35967657
59	0xbcb74c0a	-0.022375125
60	0x3d1a6566	0.037694357
61	0xbd3e97f8	-0.046531647
62	0xbe5d00ec	-0.21582383
63	0xbe4918d7	-0.19638382
64	0x3bfeb0c7	0.0077725383
65	0xbe0f3438	-0.13984764
66	0xbc0ab358	-0.00846561
67	0xbe413942	-0.18869498
68	0xbc7fcbda	-0.015612567
69	0x3e01bff0	0.12670875
70	0xbd5ecd63	-0.05439509
71	0x3e92cba8	0.28671002
72	0x3ea3899f	0.31940934
73	0xbe1ec195	-0.15503533
74	0x3dfac29a	0.122441486
75	0x3d97df19	0.074155994
76	0xbdb71def	-0.08941256
77	0x3ea1d835	0.31610265
78	0xbed1f217	-0.41005012
79	0xbe9c627a	-0.30543882
80	0xbc72d52f	-0.014821335
81	0x3baa5ca6	0.005199033
82	0x3d6e211d	0.058137048
83	0x3d0e4a33	0.03473873
84	0x3b433a2a	0.0029789307
85	0xbc678aea	-0.014132241
86	0xbdcb216e	-0.099184856
87	0x3c64c579	0.013963097
88	0x3dc50e13	0.09621825
89	0x3dcb0807	0.099136405
90	0x3e9e6861	0.3093901
91	0xbd9443b6	-0.07239477
92	0xbe2cf33f	-0.16889666
93	0x3e60052c	0.21876973
94	0xbda75fc4	-0.08172563
95	0x3d8ef95e	0.06981157
96	0x3e125fdd	0.14294381
97	0x3df245ae	0.118296966
98	0x3e05e45c	0.13075393
99	0x3e2efc5d	0.17088456
100	0x3ec14fd4	0.37756217
101	0x3e9b2372	0.3030048
102	0x3f36d1a6	0.7141365
103	0xbd71c5a3	-0.05902637
104	0x3c25e16c	0.010124546
105	0xbb0c15ec	-0.002137537
106	0xbdd7c8cc	-0.10536346
107	0xbf07cd78	-0.53047895
108	0x3e018061	0.12646629
109	0x3e5ff852	0.2187207
110	0x3ee7f385	0.45302978
111	0xbe867cb7	-0.26267025
112	0xbeaa3788	-0.33245492
113	0xbda9a730	-0.082838416
114	0x3ca58437	0.020204647
115	0xbd667a81	-0.056269173
116	0x3ddfa3b8	0.10919899
117	0xbea40ae7	-0.32039568
118	0xbda51b09	-0.08061797
119	0x3e299ff7	0.16564928
120	0x3e23fc83	0.16014294
121	0x3e0cc3f0	0.13746619
122	0x3d070959	0.0329679
123	0xbe5e3d33	-0.21703033
124	0x3ed9ab9b	0.42513737
125	0xbca1a623	-0.01973254
126	0x3df9b716	0.12193124
127	0x3ee4035d	0.44533816
128	0xbe0909f6	-0.13382706
129	0x3d3f476d	0.046698976
130	0xbe94ef89	-0.29089
131	0xbea039f8	-0.31294227
132	0xbeaac0e8	-0.333503
133	0xbcc88a13	-0.024479901
134	0x3d2fb51d	0.042897332
135	0xbe051d7a	-0.12999526
136	0x3ed1cbf3	0.40975913
137	0x3d9bb9ff	0.07603835
138	0x3e994488	0.29935098
139	0xbd738288	-0.059450656
140	0xbda727ae	-0.08161865
141	0x3db5be91	0.08874238
142	0x3e5203c6	0.20509252
143	0xbe112d08	-0.14177334
144	0x3e8eaa3b	0.2786425
145	0xbde07cc6	-0.10961299
146	0x3e5aef9e	0.21380469
147	0xbd7697bb	-0.060203295
148	0x39767442	0.00023503698
149	0xbcfbb037	-0.030723674
150	0x3e27b79d	0.16378637
151	0x3e431da8	0.19054282
152	0xbd873921	-0.06602693
153	0x3d380300	0.044924736
154	0x3c58061d	0.013185051
155	0xbc1cf057	-0.009578786
156	0x3de88ab8	0.113545835
157	0x3e26ab64	0.16276318
158	0x3e04173d	0.1289949
159	0x3e1bfc34	0.15232927
160	0xbd239055	-0.039932568
161	0x3e48a38b	0.19593637
162	0x3de2e5a3	0.11078956
163	0x3dd2cb24	0.10292652
164	0x3d71a7a2	0.058997758
165	0x3e6b557f	0.22981833
166	0x3df60269	0.120121785
167	0xbf07c99d	-0.5304201
168	0x3d2ed230	0.04268092
169	0x3e807266	0.2508728
170	0xbe225f3c	-0.15856642
171	0xbee2150c	-0.44156682
172	0x3ebaac40	0.3645954
173	0x3d8459aa	0.064624146
174	0xbdb61d51	-0.088923104
175	0x3e334c05	0.17509468
176	0xbd422ae8	-0.0474042
177	0x3eb40833	0.35162506
178	0x3d781353	0.060565304
179	0xbe15d145	-0.14630611
180	0xbe66ec1a	-0.22551003
181	0xbddebce8	-0.10875875
182	0x3d9e3df6	0.07726662
183	0xbea4dcdb	-0.3219975
184	0x3d5f9b70	0.054591596
185	0x3d1c715d	0.03819405
186	0xbdc1d70b	-0.09464844
187	0xbdc1aeaa	-0.09457143
188	0xbd74794c	-0.05968599
189	0x3d86b149	0.06576783
190	0xbacf9ad8	-0.0015838994
191	0x3da8798a	0.08226307
192	0x3e7d879e	0.24758765
193	0xbdda397d	-0.10655496
194	0x3e196544	0.14980036
195	0xbdef84f9	-0.116952844
196	0xbdf22bda	-0.1182477
197	0xbe8514e6	-0.25992507
198	0x3e0d4077	0.13794123
199	0xbe949130	-0.2901702
200	0xbebef45f	-0.37295815
201	0xbe5bbfc9	-0.21459879
202	0x3c1a9cbc	0.009436782
203	0xbcdfb1d1	-0.02730647
204	0xbd6672b1	-0.056261722
205	0xbe9a3c4d	-0.3012413
206	0xbdd1133d	-0.102087475
207	0xbf194096	-0.59864175
208	0xbe8fbf59	-0.28075674
209	0x3dbd0eb8	0.09231323
210	0x3e02bf26	0.1276823
211	0xbe4188b8	-0.1889981
212	0x3df94ad1	0.12172473
213	0xbe88f7be	-0.26751512
214	0xbe55b63c	-0.20870298
215	0x3d437ab8	0.047724456
216	0x3dc96c51	0.09835113
217	0x3e3b63cf	0.18299793
218	0xbe8af075	-0.2713658
219	0xbdcdae35	-0.10042993
220	0xbe05075a	-0.12991086
221	0x3e0f8d44	0.14018732
222	0x3e5b62d8	0.21424425
223	0xbe2c2044	-0.16809183
224	0x3df8b5b3	0.121440314
225	0xbd0da80e	-0.034584098
226	0xbd116b11	-0.035502497
227	0x3eb61224	0.35560715
228	0x3cbf5d52	0.023359928
229	0xbdbd950f	-0.09256946
230	0x3e721d48	0.23643982
231	0x3db9b7f1	0.09068287
232	0xbd0f50a3	-0.03498901
233	0xbea08108	-0.31348443
234	0xbdcc6f01	-0.0998211
235	0x3ed284f9	0.41117075
236	0xbe44f6c0	-0.19234753
237	0x3c1450f0	0.0090525
238	0xbc0aa9c3	-0.008463326
239	0xbe84c0c3	-0.25928316
240	0x3de3c640	0.111217976
241	0x3df4fc26	0.11962156
242	0xbdf4abf0	-0.11946857
243	0xbe5e349e	-0.2169976
244	0xbe676f54	-0.22601062
245	0xbeeb467a	-0.45952207
246	0x3e1b15fb	0.15145104
247	0xbf1f6966	-0.622702
248	0xbd69f133	-0.05711479
249	0x3d0fa34a	0.035067834
250	0xbe7366a7	-0.23769628
251	0x3f254031	0.64551073
252	0xbf12a0de	-0.57276714
253	0x3d082499	0.033238027
254	0xbcc1d8d6	-0.023662966
255	0x3ea85b8d	0.32882348

lstm.weight_hh_l0 f4 [512, 128]
0	0x3eab1adc	0.3341893
1	0xbde77a97	-0.11302679
2	0x3b0f7272	0.0021888283
3	0x3e2fd629	0.1717154
4	0x3ee05a2e	0.43818802
5	0xbdcb5eff	-0.099302284
6	0xbe503631	-0.20333172
7	0xbe960ec1	-0.2930813
8	0xbeb32812	-0.3499151
9	0x3c12730e	0.008938564
10	0x3ec716be	0.38884538
11	0x3e6b382a	0.22970644
12	0x3eeff076	0.46863145
13	0x3e8ee068	0.27905583
14	0xbde22cf3	-0.1104373
15	0xbec6e05d	-0.3884305
16	0xbee2f146	-0.44324702
17	0x3dae973c	0.085249394
18	0x3da7afe7	0.081878476
19	0xbe5c8946	-0.2153674
20	0xbec042d7	-0.37550995
21	0x3db3e0a6	0.08783083
22	0x3e5eba24	0.21750695
23	0xbecf5d9d	-0.4050111
24	0x3d62732f	0.05528563
25	0xbe7a897e	-0.24466512
26	0xbe4855ff	-0.19564055
27	0x3dba5a3d	0.09099243
28	0x3f0cd216	0.55008066
29	0x3f74bea8	0.9560342
30	0x3e4f1ebf	0.20226572
31	0xbeae68ff	-0.3406448
32	0xbe5208e4	-0.20511204
33	0x3e574fb8	0.21026504
34	0x3e6b870d	0.23000737
35	0x3e58f692	0.21187809
36	0xbe9167b8	-0.28399444
37	0xbde5d679	-0.11222548
38	0xbb9ccaf4	-0.004784936
39	0xbe08ded4	-0.13366252
40	0xbeaf404f	-0.3422875
41	0xbe82a51b	-0.2551659
42	0x3deee517	0.11664789
43	0xbf21b07b	-0.6315991
44	0x3d931667	0.07182007
45	0x3e6d81eb	0.23194091
46	0x3e1b7d77	0.1518458
47	0x3e5d4385	0.21607788
48	0xbeeec496	-0.46634358
49	0xbdf35f81	-0.1188345
50	0xbd18bd2f	-0.037289795
51	0xbd258e27	-0.04041877
52	0xbe9feb11	-0.3123403
53	0x3cce4b52	0.0251824
54	0xbd5006a1	-0.05078757
55	0xbdf08bb1	-0.11745394
56	0xbdf4efe2	-0.119598165
57	0xbd142e42	-0.036176927
58	0x3d5cd0e4	0.05391015
59	0x3e5db98c	0.21652812
60	0xbde85b55	-0.11345545
61	0xbe20acec	-0.15690964
62	0xbe1879f8	-0.14890277
63	0x3e30832e	0.17237541
64	0x3e1fd81f	0.15609787
65	0xbe75a521	-0.23988773
66	0xbe72fa40	-0.23728275
67	0x3e834ae2	0.2564307
68	0x3e7844e8	0.24245036
69	0xbe627d0b	-0.22118013
70	0xbe137a0b	-0.14402024
71	0xbdd7c9b8	-0.10536522
72	0xbea2bbb3	-0.31783828
73	0x3d169621	0.036764268
74	0xbde2c55a	-0.11072798
75	0xbea0b94f	-0.3139138
76	0x3da6ecf8	0.08150667
77	0xbe30c707	-0.17263423
78	0x3e3d4f21	0.18487217
79	0x3dcd315f	0.100191824
80	0x3e104c01	0.14091493
81	0xbe507bb4	-0.20359689
82	0xbe084748	-0.13308442
83	0x3da59063	0.0808418
84	0xbe40872a	-0.18801561
85	0xbb671d8d	-0.0035265416
86	0xbe40e7be	-0.18838403
87	0xbe37cc60	-0.17949057
88	0xbe902dc4	-0.28159916
89	0xbd5e2ce2	-0.054242022
90	0x3e69721b	0.22797434
91	0x3eefd1b0	0.46839666
92	0xbedd8e05	-0.43272415
93	0xbd72d242	-0.05928255
94	0x3ecdc3df	0.401885
95	0x3f10add3	0.56515235
96	0x3ed96449	0.42459324
97	0x3e16b18c	0.14716166
98	0xbf0128f1	-0.50453097
99	0xbef1b21d	-0.47206202
100	0xbf3b7d06	-0.73237646
101	0x3d608343	0.05481268
102	0xbd3bfe53	-0.04589684
103	0x3e60e770	0.21963286
104	0xbce6f510	-0.028193027
105	0x3c88403a	0.016632188
106	0x3e832206	0.25611895
107	0xbd0cdc23	-0.034389626
108	0xbdec3620	-0.11533761
109	0xbe9c1954	-0.30488074
110	0xbe1f848e	-0.1557791
111	0xbe065543	-0.13118462
112	0xbe1a6de5	-0.15080984
113	0x3d9bf283	0.07614615
114	0xbe91e609	-0.28495815
115	0xbe0a0103	-0.13476948
116	0xbe5b9687	-0.2144414
117	0xbc8fdcf0	-0.017561406
118	0x3e1e2340	0.15443134
119	0xbe0c1e44	-0.1368342
120	0x3d4e841e	0.050418966
121	0xbdcb517d	-0.09927652
122	0x3f299d67	0.662558
123	0x3c1f1edc	0.009711947
124	0x3eea3a36	0.45747536
125	0x3ed240a4	0.41064942
126	0x3eb1bd93	0.34714946
127	0xbdccce6b	-0.100003086
128	0xbe938751	-0.28814176
129	0xbeb60f83	-0.3555871
130	0xbe213d8a	-0.15746132
131	0x3e5ca786	0.2154828
132	0xbe266726	-0.16250286
133	0xbe8e839a	-0.2783478
134	0xbee5e90d	-0.44904366
135	0x3e9de277	0.3083684
136	0x3dd120e0	0.102113485
137	0xbca149f1	-0.019688578
138	0x3dd37a2b	0.10326036
139	0x3d9cc934	0.07655564
140	0xbe299a7c	-0.16562837
141	0x3db919ec	0.09038147
142	0xbe09c8ea	-0.13455549
143	0x3e938261	0.2881041
144	0xbcd3c9ff	-0.025853155
145	0xbec2e890	-0.38068056
146	0xbd649a03	-0.05581094
147	0xbd1a7905	-0.03771307
148	0xbc5253d6	-0.012837371
149	0xbead0536	-0.33793038
150	0xbe5570e6	-0.20843849
151	0x3c67afe1	0.014141054
152	0x3db40579	0.08790106
153	0xbd741086	-0.05958607
154	0xbec74899	-0.38922575
155	0xbe75033c	-0.23927015
156	0x3dc7f026	0.097626016
157	0x3dec8ec2	0.115506664
158	0xbe6004be	-0.21876809
159	0xbe0f93c9	-0.1402122
160	0xbcf34c7f	-0.029699562
161	0x3e3d4dd1	0.18486716
162	0xbd9043e5	-0.070442
163	0x3e0a81af	0.13526033
164	0x3e03b8db	0.12863486
165	0xbca6be8e	-0.020354535
166	0xbce755c5	-0.02823914
167	0xbd42a574	-0.04752107
168	0xbed88676	-0.42290086
169	0xbcfe3422	-0.031030718
170	0xbecf5b8f	-0.4049954
171	0x3c94073e	0.01806986
172	0x3ed34c52	0.41269165
173	0x3e3c6561	0.18398048
174	0x3e5ed9ef	0.21762823
175	0xbefd33cb	-0.49453577
176	0xbe15ccb0	-0.14628863
177	0xbe0b92df	-0.13630246
178	0xbe28ef0d	-0.1649744
179	0xbd5eb701	-0.054373745
180	0xbe51093f	-0.20413683
181	0x3dae7372	0.08518113
182	0xbcadc560	-0.02121228
183	0xbe02354e	-0.12715647
184	0x3e2ad404	0.1668244
185	0x3cc8667d	0.024462933
186	0x3dfbaa5e	0.12288354
187	0xbd7540f2	-0.05987639
188	0xbe8c4462	-0.27395922
189	0x3e2faf24	0.17156655
190	0x3d5eebc3	0.05442406
191	0x3e3840e6	0.17993507
192	0x3e29d96e	0.16586849
193	0xbedd4182	-0.4321404
194	0x3d2d0c7d	0.042248238
195	0xbd6baefb	-0.05753992
196	0xbc548cd2	-0.012973027
197	0x3ea6ff28	0.32616544
198	0xbd2cc321	-0.042178277
199	0x3df8bc42	0.12145282
200	0xbd0bc10a	-0.034119643
201	0xbf193f55	-0.5986226
202	0xbc7368c4	-0.014856521
203	0xbe8681dc	-0.2627095
204	0x3e5d2682	0.21596721
205	0x3ddbceb9	0.107327886
206	0xbe03e3b9	-0.12879838
207	0x3e28f5f0	0.16500068
208	0x3d431421	0.04762662
209	0x3dd84aad	0.10561118
210	0xbe635312	-0.22199658
211	0xbe21131a	-0.15729943
212	0x3e57cedc	0.21075004
213	0x3ea2dfbc	0.3181132
214	0xbebfb2b7	-0.37441036
215	0x3ea1be30	0.31590414
216	0xbe9ee37a	-0.31032926
217	0xbeeb3c8d	-0.45944634
218	0x3ed9245e	0.42410558
219	0x3e2ffeb5	0.17187007
220	0xbd08c9c3	-0.03339554
221	0xbe87d72d	-0.26531354
222	0x3edadd49	0.42746952
223	0xbea4d24d	-0.32191697
224	0xbf0e5bd4	-0.5560887
225	0xbcd7680a	-0.026294727
226	0x3cb8f0fe	0.022575852
227	0x3ec7da4c	0.39033735
228	0x3e5e1bbe	0.2169027
229	0x3d9ae460	0.0756309
230	0xbd91354f	-0.07090246
231	0x3df26064	0.11834791
232	0xbdfedd10	-0.12444508
233	0xbec4b02d	-0.3841566
234	0x3e9b979e	0.30389112
235	0xbda27539	-0.07932515
236	0x3d0bbc5d	0.034115184
237	0x3e33ebe9	0.17570461
238	0x3da6d836	0.08146708
239	0xbe89a5ab	-0.26884207
240	0x3ec46a58	0.38362384
241	0x3e6352d5	0.22199567
242	0xbd7b871b	-0.061408143
243	0x3e96f85e	0.29486364
244	0x3ec69a4a	0.38789588
245	0x3d378c8b	0.044811767
246	0x3ecaf40b	0.39639315
247	0xbdbd9a88	-0.0925799
248	0x3e6ed4a0	0.23323298
249	0x3daeea18	0.085407436
250	0xbcf96a67	-0.030446244
251	0x3eaa446a	0.3325532
252	0xbc413588	-0.011792548
253	0xbf20e687	-0.62851757
254	0x3eb586e3	0.35454473
255	0xbd8292a7	-0.06375628

lstm.bias_ih_l0 f4 [512]
0	0xbcb3d8d7	-0.021953983
1	0xbd9e786a	-0.07737811
2	0xbeb5e22c	-0.35524118
3	0xbeb4e401	-0.35330203
4	0x3d0d673c	0.03452228
5	0xbe5913fb	-0.21199028
6	0xbdbbf67f	-0.09177875
7	0xbde7f75b	-0.11326476
8	0xbd290c19	-0.041271303
9	0x3c6d315e	0.014477102
10	0x3e89a18a	0.26881057
11	0xbe942324	-0.2893306
12	0xbeb4654e	-0.3523354
13	0x3e159c1a	0.1461033
14	0x3f082089	0.53174645
15	0xbdd3efe2	-0.103484884
16	0x3e7edba0	0.24888468
17	0x3d9f527d	0.07779405
18	0xbc155995	-0.009115596
19	0xbe890403	-0.26760873
20	0xbe0e7f1d	-0.13915677
21	0x3e4e754d	0.20161934
22	0xbe00a491	-0.12562777
23	0x3cd2df0e	0.025741126
24	0xbeb0c99d	-0.3452882
25	0x3e65328c	0.22382563
26	0xbb1fabe1	-0.0024363922
27	0x3d36b161	0.044602755
28	0xbed84ac6	-0.42244548
29	0xbe343806	-0.17599496
30	0x3d133d46	0.035947107
31	0xbe79eb13	-0.2440608
32	0xbe219ce3	-0.15782504
33	0xbe92647d	-0.2859229
34	0x3e8c6eaa	0.2742818
35	0xbe5c49c6	-0.21512517
36	0xbe379042	-0.17926124
37	0xbe781dea	-0.24230161
38	0x3e529b9b	0.20567171
39	0xbca8554a	-0.020548481
40	0x3c4ad02b	0.012378733
41	0xbec2a12c	-0.3801359
42	0xbd328410	-0.043582976
43	0xbe7fda7f	-0.24985693
44	0xbeab323f	-0.33436772
45	0x3d416985	0.047219772
46	0xbd113751	-0.035453144
47	0xbd773abc	-0.060358748
48	0xbe609edc	-0.219356
49	0xbec00779	-0.375057
50	0xbea950c8	-0.33069444
51	0x3e4314eb	0.19050948
52	0x3eee4a5d	0.4654111
53	0xbe1f0a96	-0.15531382
54	0x3d37eed6	0.044905506
55	0xbe0a5caa	-0.13511911
56	0x3e2ac29e	0.16675803
57	0x3d8961f3	0.067081355
58	0x3e5022a3	0.20325713
59	0x3d1d11e5	0.038347144
60	0x3d8474eb	0.06467613
61	0xbe828fb6	-0.25500268
62	0xbef7bf0f	-0.48387954
63	0x3dba5070	0.090973735
64	0xbeb9e81a	-0.36309892
65	0x3e8d0c6a	0.27548534
66	0x3de00c3d	0.10939834
67	0xbe37a733	-0.17934875
68	0x3dec0116	0.115236446
69	0xbee9d70c	-0.4567188
70	0x3e54bf9d	0.2077622
71	0x3e5ce17f	0.21570395
72	0xbee903b7	-0.45510647
73	0x3eb3d241	0.35121349
74	0xbd942c8c	-0.07235059
75	0xbbd3e813	-0.0064668744
76	0xbe9124e7	-0.28348467
77	0xbe979adf	-0.29610345
78	0x3e035d55	0.12828572
79	0xbc89ce51	-0.016822012
80	0xbf04ee4d	-0.5192612
81	0x3ea69407	0.3253481
82	0xbe6d9f9f	-0.23205422
83	0x3e28e104	0.16492087
84	0xbe56fd9a	-0.20995179
85	0xbdaa0a99	-0.083028026
86	0xbeba406a	-0.3637727
87	0x3e3c8359	0.1840948
88	0xbe8d16da	-0.27556497
89	0x3e87697b	0.26447663
90	0xbf1f44b6	-0.6221422
91	0x3eb46555	0.3523356
92	0x3e63fffe	0.22265622
93	0xbef90065	-0.48633114
94	0xbe708012	-0.23486355
95	0xbdab7b22	-0.08373095
96	0x3dd153c3	0.102210544
97	0xbb272c41	-0.0025508555
98	0xbe913bfa	-0.2836607
99	0xbd080ebb	-0.033217173
100	0x3d1c0257	0.03808817
101	0xbdb1245c	-0.08649513
102	0xbe24119f	-0.16022347
103	0xbe9e4902	-0.30915076
104	0xbe8ae83f	-0.27130315
105	0xbe51ea1f	-0.20499466
106	0xbebf1d55	-0.37327066
107	0x3ec49fe1	0.38403228
108	0x3e09384a	0.13400379
109	0xbcbed0ed	-0.023292983
110	0xbce6c8c0	-0.028171897
111	0x3da3aeb4	0.07992306
112	0x3cedf970	0.029049605
113	0xbf12cdbb	-0.5734517
114	0x3eca43b3	0.39504775
115	0xbcb8d119	-0.022560643
116	0x3ef079d8	0.4696796
117	0xbedff101	-0.4373856
118	0xbd966833	-0.07344093
119	0xbe92eae9	-0.28694847
120	0xbdac0b42	-0.08400585
121	0xbe853dfa	-0.26023847
122	0xbd8c0640	-0.068371296
123	0xbe99415f	-0.29932687
124	0x3e15d741	0.14632894
125	0x3caefbe2	0.021360341
126	0x3e8f94a5	0.28043094
127	0x3c2f2e6a	0.010692218
128	0x3d9d35a1	0.076762445
129	0xbe085b8f	-0.13316177
130	0x3d829e5d	0.06377862
131	0x3e07e6f2	0.13271692
132	0xbd0def5b	-0.034652095
133	0x3ebfd7d5	0.37469354
134	0xbe1153da	-0.14192143
135	0x3e8c2342	0.2737065
136	0x3e15b1f0	0.14618659
137	0x3cef467d	0.029208416
138	0x3e1f1992	0.15537098
139	0x3d7e8a87	0.06214383
140	0xbdab4b3e	-0.08363961
141	0x3d8f31f3	0.06991949
142	0x3e87736f	0.26455256
143	0x3c1b24e3	0.009469244
144	0x3e8513fc	0.2599181
145	0x3e749c33	0.2388771
146	0x3c8cacbf	0.017172216
147	0x3e905055	0.28186288
148	0x3e80137f	0.25014874
149	0xbdc35ba5	-0.09538964
150	0x3e5d20d5	0.21594556
151	0xbdcb40ab	-0.09924444
152	0x3e97431f	0.29543397
153	0xbcb0711d	-0.021538312
154	0xbb9c74b2	-0.0047746534
155	0x3d87f70a	0.06638916
156	0x3df0098d	0.11720572
157	0xbd93ba51	-0.072132714
158	0x3e986122	0.29761606
159	0xbc6a50c1	-0.01430148
160	0x3c8005e4	0.015627809
161	0x3e061999	0.13095702
162	0xbd62345c	-0.055225715
163	0x3ebed286	0.37269992
164	0x3e2e9813	0.17050199
165	0xbdc78be6	-0.097434804
166	0x3ec42b27	0.38314173
167	0x3ea2ca90	0.31795168
168	0xbc7f3242	-0.015575947
169	0x3ebb005a	0.36523706
170	0xbe2ba2a6	-0.16761264
171	0xbdc0b192	-0.09408869
172	0x3da96f8d	0.0827323
173	0xbc02cd14	-0.007983465
174	0x3d2307c8	0.039802343
175	0x3d80a268	0.062809765
176	0x3c5d214f	0.013496711
177	0xbd3e4ae4	-0.04645814
178	0xbd815407	-0.06314855
179	0x3e8f03f1	0.27932695
180	0x3dd2bab6	0.102895185
181	0x3d8d6175	0.06903354
182	0xbde259e9	-0.11052305
183	0x3e3d320f	0.18476127
184	0xbdf7af6f	-0.12094008
185	0xbe22d9de	-0.15903422
186	0xbc947731	-0.018123241
187	0x3e318ef2	0.17339686
188	0x3e75e2b0	0.24012256
189	0x3e43a0e5	0.19104345
190	0x3da6a024	0.08136013
191	0x3e2460ac	0.16052502
192	0x3e1890c6	0.14898977
193	0x3ec3388a	0.38129073
194	0x3e074060	0.13208151
195	0xbe679703	-0.226162
196	0x3e1fcf2a	0.1560637
197	0x3d9b3add	0.07579587
198	0x3cef3353	0.029199278
199	0x3b0d3cd5	0.0021551151
200	0x3e6aabcb	0.22917096
201	0x3dcf3330	0.10117185
202	0x3e96d09a	0.29456025
203	0x3da26f96	0.079314396
204	0xbcbcc41a	-0.023042727
205	0x3e1be1f9	0.1522292
206	0x3dea9287	0.11453729
207	0x3e242796	0.16030726
208	0x3d38a668	0.045080572
209	0xbc7a72ff	-0.015286206
210	0x3d2221fe	0.0395832
211	0x3dce9e44	0.100887805
212	0x3dad46fd	0.084608056
213	0xb9bdf6a9	-0.00036232665
214	0x3e78a45d	0.2428145
215	0x3d46db95	0.048549253
216	0xbd893005	-0.06698612
217	0x3dcc7d0a	0.09984787
218	0x3ddb0abf	0.10695409
219	0xbe189381	-0.14900018
220	0x3d1258d6	0.03572925
221	0xbe114b0a	-0.14188781
222	0x3e21cc17	0.1580051
223	0x3d958b9d	0.0730202
224	0xbd444eb1	-0.04792661
225	0x3cde219c	0.027115636
226	0x3d9c0c9c	0.076195925
227	0x3dafb8b7	0.085801534
228	0x3db4423d	0.088016964
229	0x3cad843d	0.02118122
230	0x3cc3927d	0.023873562
231	0x3e921e59	0.28538778
232	0xbdccdfe3	-0.100036405
233	0x3e8424df	0.2580938
234	0x3e0b7ddd	0.13622232
235	0xbe009324	-0.1255613
236	0xbd051e0d	-0.03249936
237	0xbe33b2a6	-0.17548618
238	0xbe311650	-0.17293668
239	0xbdf72e37	-0.12069362
240	0xbd900ea9	-0.07034046
241	0x3c1df1f6	0.0096402075
242	0x3e693581	0.22774316
243	0x3ea578f7	0.3231885
244	0x3dc01ebe	0.093808636
245	0xbcf2c2e0	-0.02963394
246	0x3b82f8e1	0.003996954
247	0x3df10a20	0.11769509
248	0xbe9e9845	-0.30975547
249	0xbd06047b	-0.032719117
250	0x3d36a05f	0.044586536
251	0x3b81f635	0.0039661177
252	0x3d5a6fa4	0.053329125
253	0xbd7149ed	-0.05890839
254	0xbdfc624e	-0.12323438
255	0x3dbb2553	0.091379784

lstm.bias_hh_l0 f4 [512]
0	0x39b43a88	0.00034375885
1	0xbdfa2cb1	-0.122155555
2	0xbe85366b	-0.2601808
3	0xbe591d4a	-0.21202579
4	0x3d4a996a	0.049462713
5	0xbe300874	-0.17190725
6	0xbdcb3d50	-0.09923804
7	0xbd3b2cd6	-0.045697056
8	0xbe053d5b	-0.13011687
9	0xbb84a59b	-0.004048062
10	0x3e69038b	0.22755258
11	0xbe878d03	-0.2647477
12	0xbe744b72	-0.23856905
13	0x3dcf7a50	0.10130751
14	0x3ee79418	0.45230174
15	0xbde37bcb	-0.11107596
16	0x3e9ab189	0.30213574
17	0x3e26d58b	0.16292398
18	0xbc1ef2d5	-0.00970145
19	0xbe90d84f	-0.2829003
20	0xbdd30d1f	-0.10305237
21	0x3e3ea748	0.186185
22	0xbdcc8a37	-0.099873
23	0xbca51cdf	-0.020155368
24	0xbed534cb	-0.4164184
25	0x3e1f0711	0.1553004
26	0x3c4918b9	0.012273961
27	0x3de982a9	0.114018746
28	0xbeafbd6b	-0.34324202
29	0xbe546769	-0.20742573
30	0x3d38500c	0.044998214
31	0xbe510564	-0.20412213
32	0xbdd391ab	-0.10330518
33	0xbeac97af	-0.33709475
34	0x3e7cfdf6	0.24706253
35	0xbe98e34c	-0.29860914
36	0xbe8fd4ea	-0.28092128
37	0xbe6615c9	-0.22469248
38	0x3e5825ae	0.21108124
39	0xbdbd3259	-0.09238119
40	0x3d496c47	0.049175527
41	0xbeada041	-0.33911327
42	0xbe20969f	-0.15682457
43	0xbdf8384c	-0.12120113
44	0xbe6695e1	-0.22518112
45	0x3d3b354d	0.04570513
46	0x3cd6e742	0.02623332
47	0xbdd4cb24	-0.103903085
48	0xbe81f515	-0.25382295
49	0xbeac9ebd	-0.33714858
50	0xbea3fa5a	-0.3202694
51	0x3e82a8b9	0.2551935
52	0x3ee462db	0.4460667
53	0xbe476387	-0.1947156
54	0x3b7e825f	0.0038835031
55	0xbe871c32	-0.263887
56	0x3e561b6c	0.20908898
57	0x3b5e4772	0.0033917096
58	0x3e79682c	0.24356145
59	0x3d75a4cd	0.05997162
60	0x3e1e85bb	0.15480702
61	0xbe3b05d4	-0.18263942
62	0xbef23c7a	-0.47311765
63	0x3c371a5e	0.01117572
64	0xbe8ce245	-0.2751638
65	0x3e41c73f	0.18923663
66	0x3d543b88	0.051814586
67	0xbe60357b	-0.21895401
68	0x3d6daec5	0.058028
69	0xbf0ece5f	-0.5578365
70	0x3e870ffe	0.2637939
71	0x3e3a21cb	0.18176953
72	0xbede6007	-0.43432638
73	0x3e9840a3	0.29736814
74	0xbcba39de	-0.022732671
75	0x3d02efd6	0.031967007
76	0xbe8abc1d	-0.27096644
77	0xbe55a90d	-0.20865269
78	0x3e6a530f	0.22883247
79	0x3de36344	0.11102918
80	0xbf172297	-0.59037155
81	0x3e35e431	0.1776283
82	0xbe853dab	-0.2602361
83	0x3e560d84	0.20903593
84	0xbdc627e1	-0.09675575
85	0xbd8ed870	-0.06974876
86	0xbeaf1187	-0.3419306
87	0x3da04404	0.07825473
88	0xbdfe9e87	-0.124325804
89	0x3eab8157	0.33497116
90	0xbf1cd4bb	-0.612621
91	0x3ed63eec	0.4184488
92	0x3e7d22a1	0.24720241
93	0xbeb1117b	-0.3458365
94	0xbe6ed140	-0.2332201
95	0xbdc6aed0	-0.097013116
96	0x3d994af6	0.07485001
97	0xbd4361c1	-0.047700647
98	0xbe569219	-0.2095417
99	0x3d02f82d	0.03197496
100	0xbdbcd8e0	-0.09221053
101	0xbe02f3c4	-0.12788302
102	0xbe6301c7	-0.22168647
103	0xbeb61de7	-0.3556969
104	0xbe3501b6	-0.17676434
105	0xbe433d16	-0.19066271
106	0xbea986b6	-0.3311059
107	0x3eb27360	0.3485365
108	0x3e916a40	0.28401375
109	0x3cffba63	0.031216806
110	0x3c40667f	0.011743187
111	0x3d20e7b5	0.039283473
112	0x3b590bd7	0.003311863
113	0xbf06470c	-0.5245216
114	0x3ee728a0	0.45148182
115	0xbc1d3648	-0.009595461
116	0x3ef787f2	0.48345906
117	0xbe96941d	-0.29409876
118	0xbd44433a	-0.047915675
119	0xbea003af	-0.3125281
120	0xbd692567	-0.056920435
121	0xbea72fa9	-0.3265355
122	0xbe3346f9	-0.17507543
123	0xbe4c9833	-0.19979934
124	0x3e01d1c3	0.12677674
125	0x3db10d35	0.08645097
126	0x3eb4ec78	0.3533666
127	0x3d6dbbe9	0.058040533
128	0xbc931166	-0.017952632
129	0xbd9d79e7	-0.07689267
130	0x3e0248fc	0.12723154
131	0x3e72abed	0.23698397
132	0xbd84c888	-0.06483561
133	0x3eed4b31	0.4634643
134	0xbe4bb5d4	-0.1989358
135	0x3e2bcc9d	0.16777273
136	0x3e5a8598	0.21340024
137	0xbd72d321	-0.05928338
138	0x3e035d45	0.12828548
139	0xbd25531c	-0.040362462
140	0xbe1a5ce6	-0.150745
141	0x3d1977bb	0.0374677
142	0x3e8ecee7	0.2789223
143	0xbd00797a	-0.03136585
144	0x3e8b5042	0.2720967
145	0x3dc83fbf	0.097777836
146	0x3df2c15e	0.11853288
147	0x3e905555	0.28190103
148	0x3e03f0a3	0.12884764
149	0xbdb2d6a4	-0.08732346
150	0x3ddfb3ff	0.109230034
151	0xbe04fe45	-0.12987621
152	0x3e723029	0.23651184
153	0x3a1844ad	0.00058085733
154	0xbd575d4a	-0.0525792
155	0x3d7f512f	0.062333282
156	0x3d0606ed	0.03272145
157	0xbd14e088	-0.036346942
158	0x3e824259	0.25441244
159	0xbcafd753	-0.02146498
160	0xbb4b3a6f	-0.003101017
161	0x3c30022c	0.010742705
162	0x3d81c919	0.063371845
163	0x3e58cc4d	0.21171685
164	0x3e0a136e	0.13483974
165	0x3c24015f	0.0100100925
166	0x3ef8fecb	0.48631892
167	0x3ebe99f7	0.3722684
168	0x3dc7de76	0.09759228
169	0x3ec23f81	0.37939075
170	0xbe79aad0	-0.24381566
171	0xbdecab5f	-0.11556124
172	0x3cac4aa1	0.02103168
173	0xbdd35bd5	-0.1032025
174	0x3c28c608	0.010301121
175	0x3d495832	0.049156375
176	0x3dc9cbaa	0.09853299
177	0xbdd9d01e	-0.10635398
178	0xbe0a60ef	-0.1351354
179	0x3e335ef8	0.17516696
180	0x3dcaebed	0.099082805
181	0x3c5a746c	0.013333421
182	0xbd915fdb	-0.07098361
183	0x3e48d4dd	0.19612451
184	0x3ca9fde1	0.020750942
185	0xbd466abc	-0.048441634
186	0x3e14eb35	0.1454285
187	0x3d64d29a	0.055864908
188	0x3e8a866d	0.27055684
189	0x3e546fad	0.20745726
190	0x3daaa456	0.08332126
191	0x3e77fa85	0.2421666
192	0x3dca2d15	0.0987188
193	0x3e93b64c	0.2885002
194	0x3df858e3	0.12126329
195	0xbe892f07	-0.26793692
196	0x3e2f247a	0.17103758
197	0x3de6c783	0.112685226
198	0x3c2295b2	0.009923385
199	0x3d1c0390	0.038089335
200	0x3df2a9df	0.118488066
201	0x3e2b564d	0.1673214
202	0x3ea25a27	0.31709406
203	0x3cfeb15d	0.031090433
204	0x3d1f9a09	0.03896526
205	0x3e453ba4	0.19261032
206	0x3ddbe420	0.10736871
207	0x3db56290	0.0885669
208	0xbab412e1	-0.0013738537
209	0x3d808d9e	0.06277011
210	0xba28be10	-0.0006437013
211	0x3dec2179	0.11529822
212	0x3dc05088	0.0939036
213	0xbd24cc29	-0.040233765
214	0x3e590b1c	0.21195644
215	0xbd87f95a	-0.06639357
216	0xbdbf9c81	-0.093560226
217	0xba0a9942	-0.00052871194
218	0x3e16ab0b	0.14713685
219	0xbd082dec	-0.03324692
220	0x3d8f2fa5	0.06991509
221	0xbe0a6b93	-0.13517599
222	0x3e0f8305	0.14014824
223	0x3da8394c	0.082140535
224	0xbdb624de	-0.088937506
225	0x3d99d7a3	0.075118326
226	0x3c8ced83	0.017203098
227	0x3d737fd6	0.059448086
228	0x3d890eb9	0.06692261
229	0xbc643f26	-0.013931071
230	0x3d308c62	0.04310263
231	0x3ea00cc8	0.3125975
232	0xbd4ff879	-0.05077407
233	0x3e594f1a	0.21221581
234	0xbc5ee38a	-0.013604054
235	0xbb4561d5	-0.0030118127
236	0xbd9beb5c	-0.076132506
237	0xbdd2ff3c	-0.10302588
238	0xbe329032	-0.17437819
239	0xbda66144	-0.08124021
240	0xbcecd756	-0.028911274
241	0xbd804a82	-0.06264211
242	0x3e6333fe	0.22187802
243	0x3e93728b	0.28798327
244	0xbd0aca6c	-0.03388445
245	0x3c91c0d1	0.017792137
246	0xbc77bf60	-0.015121311
247	0x3e3776c2	0.17916396
248	0xbea8e721	-0.32988837
249	0x3dc94c88	0.0982905
250	0x3e546b84	0.20744139
251	0x3cf59b7b	0.029981365
252	0x3b5bd1c0	0.0033541769
253	0xbe3def69	-0.18548359
254	0xbdea27ec	-0.11433396
255	0x3e21772c	0.15768117

output1.weight f4 [128, 128]
0	0xbe78d4ef	-0.24299978
1	0x3d4a2645	0.049352903
2	0xbf0ec7fc	-0.557739
3	0xbd8ff818	-0.07029742
4	0xbda32572	-0.079661265
5	0xbee4c158	-0.4467876
6	0x3d1b79e2	0.037958033
7	0xbe8f1292	-0.27943856
8	0x3e8b5cd5	0.27219263
9	0xbdfafd3c	-0.12255332
10	0xbe2ca497	-0.16859661
11	0xbf137049	-0.5759321
12	0x3f33f258	0.7029166
13	0xbde511bf	-0.111850254
14	0xbde74bab	-0.112937294
15	0xbea71630	-0.32634115
16	0x3dde6658	0.10859364
17	0x3ea6f1bb	0.326063
18	0xbe631875	-0.22177298
19	0xbea91fdc	-0.3303212
20	0x3e8b9607	0.272629
21	0xbf33302f	-0.699954
22	0xbd8fca75	-0.070210375
23	0xbe92eba0	-0.28695393
24	0xbebc113b	-0.36731896
25	0xbebb4e6b	-0.36583266
26	0x3f1393d1	0.57647425
27	0x3e59a964	0.21256024
28	0xbe5c5bbc	-0.21519369
29	0x3f08ae8c	0.5339134
30	0x3f2e45b2	0.68075097
31	0xbef82e88	-0.48473
32	0xbe407691	-0.1879523
33	0xbe60e2dd	-0.21961541
34	0xbf3c5406	-0.7356571
35	0x3f181ed9	0.5942207
36	0x3cb81750	0.022472054
37	0x3e46af55	0.19402821
38	0xbefe528e	-0.4967236
39	0x3e481e5a	0.19542828
40	0xbc876faf	-0.016532747
41	0x3eabb208	0.33534265
42	0x3e0fa1c7	0.14026557
43	0xbe62a30a	-0.22132507
44	0xbeb03447	-0.34414884
45	0xbe73e398	-0.23817289
46	0xbf0394e8	-0.5139909
47	0x3ef285c6	0.47367686
48	0x3dccf2f9	0.10007281
49	0xbf0b2352	-0.5435077
50	0x3e3d86d3	0.18508463
51	0x3e843ef6	0.25829285
52	0x3eb7b647	0.35881254
53	0x3e1e9c3f	0.1548929
54	0xbe96a86f	-0.2942538
55	0xbe965a0b	-0.29365572
56	0xbe5a0fcb	-0.21295087
57	0xbe6f763c	-0.23384947
58	0xbef529ce	-0.47883457
59	0xbe9dd7d9	-0.3082874
60	0x3e3204c8	0.17384636
61	0xbeaddff8	-0.33959937
62	0xbe5d634f	-0.21619914
63	0x3eecf459	0.46280172
64	0x3e34e236	0.17664418
65	0x3f1d6881	0.61487585
66	0x3e4d3d6e	0.20042965
67	0xbdd21658	-0.10258168
68	0xbf15f3b3	-0.5857498
69	0xbea98c2b	-0.33114752
70	0xbeac32a4	-0.33632386
71	0xbeb187dd	-0.34673968
72	0x3f1c4052	0.61035645
73	0x3e85042e	0.2597975
74	0x3ef467ef	0.47735545
75	0x3eb263f4	0.34841883
76	0x3e13f053	0.14447145
77	0x3e915180	0.28382492
78	0xbe83da2a	-0.25752383
79	0xbe63ab1d	-0.22233243
80	0xbf3b5bc8	-0.7318692
81	0xbe2e9e87	-0.17052661
82	0xbe6fc47d	-0.23414798
83	0x3ed2cfdb	0.41174206
84	0x3ec9bbf6	0.39401215
85	0xbe63e8ff	-0.2225685
86	0xbd7aa1e6	-0.061189555
87	0xbe0c7184	-0.13715178
88	0x3e9eb2b2	0.3099571
89	0x3eb5ac88	0.35483193
90	0x3de903de	0.11377691
91	0x3e5bcaf1	0.21464135
92	0x3ec94e65	0.39317623
93	0x3e30c02b	0.17260806
94	0x3f347326	0.704882
95	0xbdde5dce	-0.108577356
96	0x3eadf578	0.3397634
97	0xbd8fdd57	-0.07024639
98	0x3e989bf7	0.29806492
99	0xbf23acb4	-0.639354
100	0xbe5c156a	-0.21492544
101	0xbe68ecdf	-0.22746609
102	0x3eaff5ae	0.34367126
103	0xbf0731b4	-0.52810216
104	0x3e727759	0.2367834
105	0x3cd44111	0.025909932
106	0xbee4caba	-0.44685918
107	0x3da29f92	0.07940592
108	0x3e3bbf21	0.18334629
109	0x3dcb9c65	0.09941939
110	0x3b9c8312	0.004776367
111	0xbf0b6ea8	-0.54465723
112	0x3ea5ffe4	0.32421792
113	0x3d254252	0.04034645
114	0xbebc506e	-0.36780113
115	0x3ef85d9e	0.48508924
116	0xbe4af9e1	-0.19821884
117	0xbf0e1814	-0.5550549
118	0xbecb0f48	-0.39660096
119	0xbe5c89fd	-0.21537013
120	0xbd8f67c1	-0.07002211
121	0x3e0cffbf	0.13769434
122	0xbe451eba	-0.19250003
123	0x3e593f85	0.21215637
124	0x3e11e3fa	0.14247122
125	0xbea057d1	-0.31317
126	0x3ccd324e	0.025048401
127	0x3e4a1b1e	0.19736907
128	0xbecb12b5	-0.3966271
129	0xbe24d2bf	-0.16096018
130	0x3e9b28b3	0.3030449
131	0xbdbabc52	-0.091179505
132	0xbe18d970	-0.14926696
133	0x3d0a9fa9	0.03384367
134	0x3d2e595d	0.042565692
135	0x3e9ee9a0	0.31037617
136	0x3dbc7fc1	0.092040546
137	0x3ea3057a	0.31840116
138	0x3e44b633	0.19210128
139	0xbe3d7d5b	-0.1850485
140	0x3d4e86bf	0.050421473
141	0xbe1955d0	-0.14974141
142	0x3c090537	0.00836306
143	0xbd28c695	-0.041205008
144	0x3eb73a95	0.35786882
145	0x3ea897e0	0.3292837
146	0xbecbad48	-0.3978064
147	0x3d949218	0.07254428
148	0xbd8222ae	-0.06354271
149	0x3c14446c	0.009049516
150	0xbe037ae9	-0.12839855
151	0xbc02eba5	-0.007990752
152	0x3ebdf86c	0.37103593
153	0x3e4e9e44	0.20177561
154	0xbef3b2fe	-0.47597498
155	0xbe4b093b	-0.1982774
156	0x3e11b643	0.14229684
157	0xbe6a4fb9	-0.22881974
158	0x3e2e1991	0.1700194
159	0xbf36baec	-0.7137897
160	0x3eb255c2	0.34831053
161	0x3dc52b2a	0.096273735
162	0x3e833d0b	0.2563251
163	0x3dbd14a0	0.092324495
164	0xbe22e437	-0.1590737
165	0xbe79b0ff	-0.24383925
166	0x3e1d147d	0.15339847
167	0x3e6aec31	0.22941662
168	0xbf502050	-0.81299305
169	0xbdbb3214	-0.09140411
170	0xbf0965b2	-0.536708
171	0xbe235389	-0.15949835
172	0x3e4816c0	0.19539928
173	0xbc6e181a	-0.014532113
174	0xbed80ccd	-0.42197266
175	0x3dcb5b88	0.099295676
176	0xbec2e625	-0.3806621
177	0x3e1e66fb	0.15468971
178	0xbe6c25ba	-0.23061267
179	0xbec2e4f8	-0.38065314
180	0xbdae20a1	-0.08502317
181	0xbf194090	-0.5986414
182	0xbbcf0800	-0.0063180923
183	0x3d6db602	0.058034904
184	0x3e984956	0.2974345
185	0x3ebbd96e	0.36689323
186	0xbd5073ed	-0.050891805
187	0x3ede6f03	0.4344407
188	0xbef354c2	-0.47525603
189	0xbd3c07b5	-0.045905787
190	0xbe2efdd2	-0.17089012
191	0xbe4af4ef	-0.19819997
192	0x3f24ab9c	0.64324355
193	0xbe0e62b7	-0.13904844
194	0xbe9ea96d	-0.30988637
195	0xbe21e64c	-0.15810508
196	0xbe8f4ecf	-0.27989814
197	0x3e765dcb	0.24059217
198	0xbe9dd46f	-0.30826136
199	0xbe78ee00	-0.2430954
200	0xbf08443e	-0.5322913
201	0xbf1f8b34	-0.6232178
202	0x3f151edc	0.5825021
203	0xbe5454cc	-0.20735472
204	0xbe900497	-0.28128502
205	0x3f42028f	0.75785154
206	0x3e8ff1ed	0.28114262
207	0xbe61c7f8	-0.22048938
208	0xbf1ea6e9	-0.61973435
209	0xbdf0904f	-0.11746275
210	0xbe78e209	-0.24304976
211	0xbe103807	-0.14083873
212	0x3cc7d13d	0.024391765
213	0xbe264956	-0.16238913
214	0xbe1b9689	-0.15194143
215	0x3ec08ad8	0.3760593
216	0x3d64fb30	0.055903614
217	0xbea8260a	-0.32841522
218	0x3e2b69c1	0.1673956
219	0xbe94175d	-0.28924075
220	0xbdff1236	-0.12454645
221	0x3f2f5a12	0.6849681
222	0x3dbc44aa	0.09192784
223	0x3ebd721a	0.37001115
224	0x3eb54638	0.35405135
225	0xbe638a65	-0.22220762
226	0x3d791844	0.060814157
227	0xbedaa75e	-0.42705816
228	0xbdd5a422	-0.104316965
229	0x3e4debf5	0.20109542
230	0xbebb5345	-0.36586967
231	0xbe568f33	-0.20953064
232	0x3ca149d3	0.019688522
233	0xbdfd4118	-0.12365931
234	0x3e36a3b6	0.17835888
235	0xbee299aa	-0.4425786
236	0xbeb22579	-0.34794214
237	0xbf194838	-0.5987582
238	0xbec5d066	-0.38635558
239	0x3da42d25	0.08016423
240	0x3f624759	0.8839012
241	0xbe192b15	-0.1495784
242	0x3ba8489f	0.0051356102
243	0x3de7d0d0	0.11319125
244	0x3f074f33	0.52855223
245	0xbd553650	-0.05205375
246	0x3e324ff5	0.17413314
247	0x3b536437	0.0032255778
248	0xbdfca04a	-0.1233526
249	0x3ee65d9d	0.44993296
250	0xbf5f4d8b	-0.87227696
251	0xbebf129e	-0.3731889
252	0xbe9bc58e	-0.3042416
253	0x3cb5d384	0.022195585
254	0x3ea73eca	0.32665092
255	0xbec1abba	-0.3782633

output1.bias f4 [128]
0	0x3e5135fc	0.2043075
1	0xbda9906a	-0.08279498
2	0xbe5ddefb	-0.21667092
3	0x3e230a3e	0.15921876
4	0x3d84b3b2	0.06479587
5	0x3ea0adc3	0.3138257
6	0x3de8ef70	0.11373794
7	0xbec376c7	-0.38176557
8	0x3e8a0000	0.26953125
9	0x3e9c28b7	0.30499813
10	0x3f1bfeb4	0.6093552
11	0x3cf9ff2e	0.030517187
12	0x3ead0265	0.3379089
13	0x3e414516	0.1887401
14	0x3dfa799c	0.122302264
15	0x3e759838	0.23983848
16	0xbe224339	-0.15845956
17	0x3e36b278	0.17841518
18	0x3e3b5c84	0.1829701
19	0xbd671af8	-0.056422204
20	0x3e28886b	0.1645829
21	0x3df4296f	0.11921965
22	0x3e538d02	0.20659259
23	0x3d741ac6	0.059595846
24	0x3ea9de86	0.33177584
25	0x3e79476d	0.24343653
26	0x3e445bd0	0.19175649
27	0x3d206ea8	0.03916803
28	0x3d9f1ec9	0.07769544
29	0xbca8dd45	-0.020613322
30	0x3e6b3504	0.22969443
31	0xbd401bef	-0.04690164
32	0x3ddb3203	0.10702898
33	0x3e594238	0.21216667
34	0x3e985ce6	0.29758376
35	0x3d24f5f6	0.04027363
36	0x3e7cb8e9	0.24679913
37	0x3de5360b	0.111919485
38	0x3e27b3f1	0.16377236
39	0x3e9bbff4	0.30419886
40	0x3e3be870	0.18350387
41	0x3e0582ca	0.13038173
42	0x3e92af47	0.2864935
43	0xbd10d342	-0.03535772
44	0x3ee42ceb	0.4456552
45	0x3dcab3a3	0.09897544
46	0xbd81430d	-0.06311617
47	0x3d0f2823	0.034950387
48	0xbe7eb874	-0.24875051
49	0x3e5e9c3d	0.21739288
50	0xbdba155b	-0.090861045
51	0x3d7f1364	0.06227435
52	0x3d500b0e	0.050791793
53	0x3e13de90	0.1444037
54	0x3e735cf1	0.23765923
55	0x3d5cdbe6	0.05392065
56	0xbe20cefa	-0.15703955
57	0x3e851404	0.25991833
58	0x3e8f9001	0.28039554
59	0xba3f16ce	-0.000728947
60	0x3e6bdca6	0.2303339
61	0x3bf7b264	0.0075591076
62	0xbb962609	-0.004582171
63	0x3cf23b48	0.029569283
64	0x3e24c3d4	0.16090328
65	0x3e2e0bb7	0.16996656
66	0xbd44a463	-0.048008334
67	0x3e10fa7d	0.14158054
68	0x3c05e7d6	0.00817295
69	0xbd70f481	-0.058826927
70	0x3ea9c0f0	0.33155012
71	0xbd4d7b9e	-0.05016672
72	0x3da0ad89	0.07845599
73	0xbda4f1b9	-0.080539174
74	0x3eaee85b	0.34161648
75	0x3de97b27	0.114004426
76	0x3d9caca4	0.07650116
77	0x3e80668d	0.2507824
78	0x3e36758c	0.17818278
79	0x3dde70fc	0.10861394
80	0x3e1f13c7	0.15534888
81	0x3d1b8161	0.037965182
82	0x3cf7ae7a	0.030234564
83	0xbd0ae2f0	-0.03390783
84	0x3df6d641	0.120525844
85	0x3db31d79	0.08745856
86	0x3e530149	0.20605959
87	0x3b359fec	0.002771373
88	0x3e2d0d61	0.16899635
89	0x3e0f151f	0.13972901
90	0x3c5591df	0.013035267
91	0xbe8f9b0e	-0.28047985
92	0xbe0ddb4e	-0.1385319
93	0x3e0d3cea	0.13792768
94	0x3db3a5e0	0.087718725
95	0xbdb42f51	-0.087980874
96	0x3d681bcf	0.056667145
97	0x3e43e996	0.19132075
98	0xba333537	-0.0006836238
99	0x3d5f23ec	0.054477617
100	0x3dd66406	0.10468297
101	0x3e1afc2a	0.15135255
102	0xbd5aa60b	-0.053381007
103	0x3ed0ed39	0.40805987
104	0xbd68727f	-0.056749817
105	0x3df9c1cc	0.12195167
106	0x3e4104c2	0.18849471
107	0xbbecb45d	-0.0072236494
108	0x3df419ef	0.11919009
109	0xbd9d867f	-0.07691669
110	0x3db0faf1	0.08641613
111	0xbd4188c6	-0.047249578
112	0xbe146288	-0.14490712
113	0xbba1b58c	-0.004934972
114	0x3e48d5a2	0.19612744
115	0xbe523a1d	-0.20529981
116	0x3f0e66c6	0.5562557
117	0x3eb30269	0.34962776
118	0x3d1a7681	0.03771067
119	0x3ebb3bdc	0.36569107
120	0x3ccbea55	0.024892012
121	0xbaacc35a	-0.0013180778
122	0xbd28b92f	-0.04119223
123	0x3e5608ca	0.2090179
124	0x3e919317	0.28432533
125	0x3c031b08	0.00800205
126	0x3dcb1df6	0.09917824
127	0xbe329ece	-0.17443392

output2.weight f4 [40, 128]
0	0xbd9cc79c	-0.0765526
1	0xbee13f27	-0.43993494
2	0xbe9b384d	-0.30316392
3	0x3efa26c5	0.48857704
4	0x3c87477d	0.01651358
5	0xbfab59a2	-1.3386729
6	0x3f3991d4	0.7248814
7	0x3e5442e8	0.20728648
8	0x3e7761dd	0.24158426
9	0xbf2242ea	-0.6338335
10	0x3d9de94f	0.07710516
11	0xbdae78f2	-0.08519162
12	0x3e3eae62	0.1862121
13	0x3e4f32d1	0.20234229
14	0x3ee8bc78	0.4545629
15	0xbcd21a58	-0.025647327
16	0xbc123a57	-0.008925042
17	0xbd77500e	-0.06037908
18	0xbf060f17	-0.52366775
19	0x3e99b0b6	0.30017632
20	0xbf001b51	-0.5004168
21	0xbf868a46	-1.0510948
22	0xbf2e18fe	-0.68006885
23	0xbd610040	-0.05493188
24	0x3dc6b177	0.097018175
25	0xbf101d5d	-0.56294805
26	0x3e9d0ba4	0.30672944
27	0xbf59637f	-0.84917444
28	0x3e4963f9	0.19667043
29	0x3ea609d0	0.3242936
30	0xbe8d7d26	-0.27634543
31	0xbf63c1ef	-0.88967794
32	0xbe9b9cce	-0.3039307
33	0x3d62c17e	0.05536031
34	0x3e1dfaf3	0.15427761
35	0xbc2f1527	-0.010686195
36	0xbf17ef5a	-0.59349597
37	0x3e08ac6b	0.13347022
38	0xbd11d6f9	-0.035605405
39	0xbdb3389a	-0.0875103
40	0x3e4a3b9f	0.19749306
41	0xbdcc68ad	-0.09980903
42	0xbe81d785	-0.2535974
43	0xbeae8d13	-0.34092006
44	0x3d8315c0	0.06400633
45	0xbe25d523	-0.16194586
46	0x3e4f1462	0.20222619
47	0x3bdcdfc5	0.0067405426
48	0x3c7a1caf	0.015265628
49	0xbea74fbc	-0.3267802
50	0xbe9aae2e	-0.30211014
51	0xbf9424ff	-1.157379
52	0xbed7e586	-0.421673
53	0x3c1fdb79	0.009756916
54	0xbde10c53	-0.10988679
55	0x3edd7a65	0.43257442
56	0x3e0dda9b	0.13852923
57	0xbed38e9f	-0.4131975
58	0x3ea7030d	0.32619515
59	0xbfa1fe33	-1.26557
60	0xbe2b8185	-0.16748627
61	0xbe86a887	-0.2630045
62	0xbf5354b6	-0.82551134
63	0x3db3bec8	0.08776623
64	0x3e3eb44a	0.18623462
65	0x3e7083c3	0.23487763
66	0xbee2dcaa	-0.44308978
67	0x3e0b0662	0.13576654
68	0xbf821508	-1.0162668
69	0xbedb4bc9	-0.42831257
70	0xbf74c362	-0.9561063
71	0xbf980d21	-1.1879007
72	0xbedb5f6b	-0.42846236
73	0x3efcfd90	0.49412203
74	0xbe281b9e	-0.16416785
75	0xbe372a55	-0.17887242
76	0xbd77b969	-0.060479555
77	0xbe96bc47	-0.2944052
78	0x3caafecb	0.020873448
79	0xbed4a525	-0.41532245
80	0xbd6903a9	-0.056888256
81	0xbd7fec64	-0.0624813
82	0xbc6d169d	-0.014470723
83	0xbfa425b2	-1.2824004
84	0xbf5c53c7	-0.86065334
85	0xbf1b1ab7	-0.6058764
86	0x3e1a31d1	0.15058066
87	0xbee7ef78	-0.45299888
88	0x3d7f1761	0.062278155
89	0x3d91db6b	0.07121929
90	0x3d254cac	0.040356323
91	0x3e45838e	0.19288465
92	0x3e8cc24e	0.27491993
93	0x3de54459	0.11194677
94	0x3e159168	0.1460625
95	0xbe8c19f8	-0.27363563
96	0x3e5107a9	0.20413078
97	0xbee261f2	-0.4421535
98	0xbf14a910	-0.5807047
99	0xbd21ce9d	-0.039503682
100	0x3ec48932	0.38385922
101	0x3e955cf5	0.29172483
102	0x3e228d28	0.1587416
103	0x3dd9efd6	0.10641448
104	0xbeaffb0f	-0.3437123
105	0xbf4319e9	-0.7621141
106	0x3e8b58e1	0.27216247
107	0xbf108288	-0.56449175
108	0xbed35ea7	-0.41283152
109	0xbe882836	-0.2659318
110	0x3e54596b	0.20737235
111	0xbe2c5c44	-0.16832072
112	0xbf288100	-0.6582184
113	0xbdd31871	-0.10307396
114	0xbe4eafbd	-0.20184226
115	0xbece397f	-0.4027824
116	0xbf14296e	-0.57875717
117	0x3eea809c	0.45801246
118	0xbea4bb6c	-0.32174242
119	0xbf4e4425	-0.8057273
120	0xbf7a8cbc	-0.97870994
121	0xbeb608ba	-0.35553533
122	0x3f097a61	0.5370236
123	0xbdec6226	-0.11542158
124	0x3e8fd6c5	0.28093544
125	0xbe0352fc	-0.12824625
126	0xbf79a57d	-0.9751814
127	0x3e9d0e59	0.3067501
128	0xbf3d6f0a	-0.7399756
129	0xbd87d050	-0.06631529
130	0xbe3c0dd4	-0.1836465
131	0xbd02d86f	-0.03194469
132	0xbfbb90ef	-1.4653605
133	0x3db4c9e8	0.08827573
134	0xbf6728b9	-0.9029651
135	0xbe73a450	-0.23793149
136	0xbe98751a	-0.2977684
137	0xbced3208	-0.02895452
138	0x3c23c3c5	0.009995406
139	0xbe120042	-0.14257911
140	0xbde3bd92	-0.11120142
141	0xbece0db1	-0.4024482
142	0x3db01010	0.08596814
143	0x3f0b03e6	0.54302824
144	0x3e9771bd	0.29578963
145	0xbcb2da92	-0.021832738
146	0x3cc8d083	0.024513489
147	0x3e7ebee5	0.24877508
148	0x3df10352	0.117682114
149	0x3dfbe819	0.123001285
150	0x3e7205dd	0.23635049
151	0xbf70e7dd	-0.94103795
152	0xbf110e24	-0.566622
153	0x3e26d5a9	0.16292442
154	0x3dae877d	0.08521936
155	0x3e1796e3	0.14803652
156	0xbe9281dd	-0.28614703
157	0x3c831c58	0.016004726
158	0xbf26e84d	-0.6519821
159	0x3e58e0f4	0.21179563
160	0xbdc787db	-0.09742709
161	0x3e47ebd9	0.19523562
162	0xbf29d157	-0.6633505
163	0xbf1ccc80	-0.6124954
164	0x3e7a7b69	0.2446114
165	0xbe9b8e9e	-0.30382246
166	0xbfb126b2	-1.3839934
167	0xbe818315	-0.2529532
168	0xbe68d7ea	-0.22738615
169	0xbda1dbe3	-0.07903268
170	0xbde2bdd1	-0.11071361
171	0xbe5d81dc	-0.21631569
172	0xbe479826	-0.19491634
173	0x3e04a6d2	0.12954262
174	0x3e040223	0.1289144
175	0xbf870d5f	-1.0550956
176	0xbe062215	-0.13098939
177	0xbef4f0f8	-0.47840095
178	0xbf1457b2	-0.5794631
179	0x3f44dbb5	0.76897746
180	0xbf439308	-0.76396227
181	0x3e96cc43	0.29452714
182	0xbcfe5abf	-0.03104913
183	0xbf72c15f	-0.9482631
184	0xbd5c8dcf	-0.053846177
185	0x3e9994de	0.2999639
186	0xbe776905	-0.24161156
187	0x3e994d35	0.29941717
188	0xbfa9eeb5	-1.3275973
189	0xbe8b9a9c	-0.27266395
190	0x3e551848	0.20810044
191	0xbf077145	-0.5290721
192	0xbf2cf111	-0.6755534
193	0x3e457aa5	0.19285066
194	0x3d913684	0.07090476
195	0x3f104a55	0.5636342
196	0x3d3c93b3	0.046039294
197	0xbda72177	-0.0816068
198	0xbe891372	-0.26772648
199	0x3f03636a	0.5132357
200	0x3da06825	0.07832364
201	0xbe3ecb1f	-0.18632172
202	0xbd8eee77	-0.06979077
203	0x3ebf9019	0.37414625
204	0x3e7bb7bd	0.2458181
205	0x3d1f3f88	0.038878947
206	0xbee8bd9d	-0.45457163
207	0xbf62c5cd	-0.8858307
208	0x3f03b949	0.514546
209	0xbcc24827	-0.023716046
210	0xbebbf26c	-0.3670839
211	0x3db2076c	0.08692822
212	0xbe995533	-0.29947814
213	0x3e991a73	0.29902992
214	0xbe39f266	-0.18158874
215	0x3f285c38	0.65765715
216	0xbf274df1	-0.65353304
217	0xbef5fe60	-0.48045635
218	0xbf89d927	-1.0769395
219	0xbf504b6e	-0.81365097
220	0xbf0a0302	-0.5391084
221	0xbe5026fd	-0.20327373
222	0xbe574587	-0.21022616
223	0xbfb049b3	-1.3772491
224	0x3eb7d92c	0.35907876
225	0xbe431fc4	-0.19055086
226	0x3c99836a	0.01873942
227	0x3ea1fa47	0.3163626
228	0xbf87aba6	-1.0599258
229	0xbfaa7439	-1.3316718
230	0x3eaa9ab1	0.33321145
231	0xbdc3c416	-0.09558885
232	0x3ea721bf	0.32642934
233	0xbe8a73b3	-0.27041396
234	0xbf7fcadb	-0.9991891
235	0x3f132067	0.5747132
236	0xbd22cbd3	-0.039745163
237	0xbd77ddc1	-0.060514215
238	0x3ef9fb9a	0.4882477
239	0x3ec4571a	0.38347703
240	0xbf4fffbb	-0.8124959
241	0xbf0ecf61	-0.55785185
242	0x3e9ae92a	0.30256015
243	0x3d590eb9	0.052992556
244	0x3db95052	0.09048523
245	0x3e2aefb2	0.16692999
246	0x3e29cbc9	0.16581644
247	0x3de70d30	0.11281812
248	0xbde69d99	-0.11260528
249	0xbf5ae09b	-0.8549897
250	0xbba073e3	-0.0048966273
251	0xbdcfab07	-0.10140043
252	0xbc88e1ce	-0.016709235
253	0xbf298ea8	-0.662333
254	0xbe16d729	-0.14730515
255	0x3ebb747b	0.36612305

output2.bias f4 [40]
0	0x3d42fac7	0.04760244
1	0xbd9eeb30	-0.07759702
2	0x3d0117b1	0.031516735
3	0xbda0cf4c	-0.07852039
4	0xbe026c0f	-0.12736534
5	0x3c9f23ea	0.019426305
6	0xbbdf7689	-0.0068195504
7	0xbe1b5b17	-0.15171467
8	0x3d4d9a80	0.05019617
9	0xbbd92e7b	-0.0066278554
10	0xbd97e23f	-0.074162
11	0xbe1b236b	-0.1515023
12	0xbcc4ce1c	-0.024024062
13	0xbe48f828	-0.19625914
14	0x3dc87f31	0.09789885
15	0xbdb65ad7	-0.08904045
16	0x3e35c78f	0.17751907
17	0x3d79a6bd	0.06095003
18	0x3db9c7df	0.090713255
19	0xbd157b11	-0.03649432
20	0xbd9eda1d	-0.077564456
21	0xbd4f72d7	-0.05064663
22	0x3db1cadb	0.0868127
23	0x3d3eed8e	0.04661327
24	0x3da2bfdc	0.079467505
25	0x3b4f9be1	0.0031678604
26	0xbd2008e0	-0.039070964
27	0x3c8738bb	0.016506543
28	0x3d739076	0.05946394
29	0x3dc26156	0.094912216
30	0x3a880eab	0.0010380348
31	0x3e3a1ecd	0.18175812
32	0xbd8fe810	-0.07026684
33	0xbe5f1e7c	-0.21788973
34	0x3d46ffbb	0.048583727
35	0x3c5bd60d	0.013417733
36	0xbdd42b79	-0.10359854
37	0x3d87cbe7	0.06630688
38	0x3c89e7ba	0.016834129
39	0xbe7a3f15	-0.24438126
