Experiment/LSTM4-440-128.pth (torch, 617349 bytes, 8 tensors)

lstm.weight_ih_l0 f4 [512, 128]
00000000: fd9c 31be 66a1 10bd 3c2a 493f 34f7 7b3d
00000010: fda2 233c 21ab be3d 578c 8e3e 3a8d 9e3c
00000020: 69d3 e43c 53ab da3e 66c2 1bbd bb55 04be
00000030: 95aa 3e3e 4b4d 2c3e d38d b53d 2c92 f13d
00000040: b6bc b0bd 7f5a 07be 3658 973d df05 e53d
00000050: 0b08 013e cdae 94bc 767d c4bd 7335 2d3e
00000060: 1605 23be c0ff 7e3e 37b8 dd3c ec21 80bd
00000070: 166e 00be 3184 9c3c aefe f8bc 09f2 83bc
00000080: a616 8bbe 6656 66bd a1bd 69be 9448 e13c
00000090: 4923 a6bd 110b 76be 8386 2fbe d368 64be
000000a0: 459c c0bd 9db2 97bd 1321 133c a1a1 4ebe
000000b0: d6bc c2be b0f3 193e 8fca 2d3e 9e55 de3c
000000c0: a58f 173d dd1d 033f 6425 403f a7f6 e9be
000000d0: d13d b9be 1639 8e3d dfb5 c13c 6861 713e
000000e0: c8eb 9c3d bb12 d23d 3acd da3d 92f6 9c3c
000000f0: 4ddc 8d3d a4aa a93d beb7 343f a08f bd3d
00000100: b508 323e f86b 93be e43c 573c f9a1 1ebe
00000110: ba02 3ebe 0396 c9be 09e3 03be 596e babd
00000120: 35a3 a7be 0956 e93d d1f4 ad3c a670 933d
00000130: 36e2 80be 51a8 26bf cd0d 16bc 8427 0dbf
00000140: e8b9 633e a88b 113e 56ad 60be da1a ca3e
00000150: 57db 6cbd 41ea babe 9420 a03e f367 513e
00000160: e23a 353e dcfb 0b3e 1526 263c b625 023e
00000170: b0a0 57be 82c1 f5bd d6fc e5bd c9c6 79be
00000180: 793e 093c 3183 b83d ad09 a0bd 4418 783d
00000190: 83aa 493e 9741 12bf 48c4 41bf ff72 0ebe
000001a0: c065 733d b4ad 0fbe ef32 fcbd 7c2e 243d
000001b0: dab7 0dbd 1d34 8abe 2b6f e33e c0c4 ebbe
000001c0: 5c0a ef3d 887a 8abe 080f 8fbd cb85 063d
000001d0: f359 e4bd 1b3d 443f 2b82 b73d 0d7a f3bd
000001e0: 60d1 9fbd df64 293d b316 81bd 0a54 e0bd
000001f0: aba3 fcbd 2c7a 933d 4269 96be ac7f bb3d
00000200: d783 843e 6e2f 99bc 8fe5 11be d364 41be
00000210: 6c0c f33c 9e20 773d 5761 e03e a470 7cbe
00000220: 1f20 22be d52c 3e3d 142e adbe b113 de3d
00000230: 8b93 89bd 7fde 823e f798 033e d859 bd3c
00000240: 1283 5abe e916 fbbd 1c67 b7bd 2fcf c73e
00000250: f26d 453e 9f44 3d3e cd57 0cbe 6ce2 8fbe
00000260: b21e dcbd 30b4 f83e 7d38 e3bc bc0c a7bd
00000270: 11f6 f83c d029 093d f490 143d b1f3 b5bd
00000280: bcb7 6a3d 7dab ea3e 6921 da3e e736 a93e
00000290: 807b 913c 7f6c f33e c775 4d3d 0790 a53e
000002a0: d63e b0bd 2386 62bf 08ce 73bd f155 0e3e
000002b0: 8b35 ac3e b6ec cfbd 3535 973d 2308 343e
000002c0: f77a 8b3d 2eaf 9c3d 044d dcbc 02fe 07be
000002d0: eb32 5abe c9a6 13bd d69b 21be 7774 203f
000002e0: 23d4 97be 0ccd d23b 8c21 debd c0ee eebe
000002f0: bcf5 4ebe eec9 7fbe 2264 f6be 2dbb 23bf
00000300: 2137 ac3c 1e64 50be f9b1 80bd 57d9 04be
00000310: 7734 4e3d 89d9 1f3d 7b28 6cbe aeb5 0b3f
00000320: 9ff5 c73c fed4 a93d 52f5 6f3c 78bd c4bd
00000330: f58a 583e f6a9 51be fff3 d53e a282 c5bc
00000340: fa09 143e 01b2 8e3e 8604 5fbe dc9f 1d3d
00000350: 2e87 70be 7509 b5be 6df6 70bd c1e3 dbbd
00000360: f8e3 6bbd 3429 fdbd e175 2e3e f8e8 32be
00000370: 093f 77be 7a70 c63e b403 e0bd 4ee6 9ebe
00000380: 8bae c9bd 119c e83d 6881 8e3e 6e6c 45be
00000390: 0dcb ff3d 9bba ee3e 0253 83bf c74a 73bf
000003a0: 5509 8fbe 0a71 d8bc f353 5fbd 232e d33d
000003b0: 91ac 2fbd 90f7 fbbb 82f8 8c3d c759 b7bc
000003c0: 584d 86bd c6eb 1bbf 7afa 19bf 3203 0fbf
000003d0: 5cfe 2ebe 8719 19be b4d3 4fbe 6b35 85be
000003e0: d45c 8abe 319e 76be c8c5 1a3d 37ea 133e
000003f0: 936a c83d 6ad9 90be dfc6 dfbd ccba aebe
-0.17345043 -0.03531017 0.7858007 0.06151505 0.00998759 0.09309984 0.27841446 0.019354451
0.02793284 0.42708835 -0.03802719 -0.12923329 0.1861976 0.1682636 0.088649414 0.11795458
-0.08629744 -0.13218115 0.07389872 0.111827604 0.12600724 -0.018149758 -0.09594242 0.1691492
-0.15919909 0.24902248 0.02706538 -0.0625647 -0.12541994 0.019106003 -0.030394878 -0.016106622
-0.27165717 -0.05623474 -0.22826244 0.027500428 -0.08112199 -0.24027659 -0.17141156 -0.22305612
-0.09404806 -0.07407115 0.0089800535 -0.20178844 -0.38034695 0.15034366 0.16971801 0.027140435
0.037002224 0.5121744 0.75057054 -0.45695993 -0.36179975 0.06944482 0.023646293 0.23572314
0.07662159 0.10257479 0.10683675 0.019160543 0.06926785 0.082845 0.7059287 0.0925591
0.17386134 -0.2879331 0.013137076 -0.15491475 -0.18555728 -0.39372262 -0.12879576 -0.091030784
-0.32741705 0.11393363 0.021234902 0.0719922 -0.25172585 -0.6510058 -0.009158564 -0.5513842
0.22238886 0.14213431 -0.21941122 0.3947361 -0.057826366 -0.36506847 0.31274855 0.2044981
0.17698243 0.13670295 0.010140915 0.12709698 -0.21057391 -0.11999799 -0.11229865 -0.24392237
0.008376711 0.09009398 -0.078143455 0.060570017 0.19693951 -0.5713133 -0.75690126 -0.13911055
0.05942321 -0.14031106 -0.12314402 0.040083393 -0.034599163 -0.26992884 0.44420752 -0.46048546
0.11671898 -0.2704661 -0.06985289 0.03284244 -0.11149969 0.7665574 0.089603744 -0.11888514
-0.07803607 0.041355964 -0.06303158 -0.10953529 -0.12335905 0.07201037 -0.2937718 0.09155211
0.25881836 -0.018699374 -0.14247726 -0.18886118 0.02966901 0.06033384 0.43824264 -0.24652344
-0.15832566 0.046429474 -0.33824217 0.108435996 -0.06717595 0.25560376 0.1285132 0.02311413
-0.21339062 -0.12260229 -0.089552134 0.39025256 0.19280222 0.18483208 -0.13705368 -0.28102434
-0.10748042 0.48574972 -0.027736897 -0.08156726 0.030390771 0.03348714 0.03627105 -0.08884371
0.05730413 0.4583396 0.42603615 0.330497 0.017759085 0.47543713 0.05016115 0.32336447
-0.08605735 -0.88485926 -0.05952266 0.13899972 0.336346 -0.10152571 0.07383195 0.17581229
0.06810563 0.076506004 -0.026892193 -0.1328049 -0.21308486 -0.03604773 -0.15782103 0.6267771
-0.29654035 0.006433135 -0.10846242 -0.46666527 -0.20210928 -0.24979374 -0.4812327 -0.6395748
0.021022381 -0.20350692 -0.062839456 -0.12973534 0.050343003 0.039025817 -0.23062317 0.54574096
0.024409113 0.08292578 0.014645891 -0.09606451 0.21146758 -0.20474991 0.41787717 -0.024110142
0.14456931 0.2787018 -0.2177907 0.038482532 -0.23489067 -0.35358778 -0.05882876 -0.107368
-0.057590455 -0.123613745 0.17037155 -0.17471683 -0.2414514 0.38757688 -0.10938206 -0.31035084
-0.098477446 0.11357892 0.27833104 -0.19279644 0.12489901 0.46626744 -1.0259707 -0.95035976
-0.27936807 -0.026421089 -0.05452342 0.10311534 -0.04288918 -0.007689424 0.068833366 -0.022381676
-0.06557721 -0.60906637 -0.6014782 -0.5586425 -0.17089218 -0.14951144 -0.20295602 -0.26017317
-0.27023947 -0.24083783 0.037786275 0.14444815 0.097859524 -0.28290874 -0.109266035 -0.3412689

lstm.weight_hh_l0 f4 [512, 128]
00000000: 37db 07be fe65 bcbd 3d7e 513e 39b9 6f3e
00000010: 72af a5be ea08 7a3e 36c7 e93e d0fd 4a3e
00000020: 4355 09be f3d1 823e 5116 913e c3ec 31be
00000030: 49df 453e f162 d1bd 2b33 81bd 71fc 633d
00000040: 71e7 343e 2a2d aabd 67a9 573d fee7 453e
00000050: 0d51 3d3e 1a0e 15be 561c 94bd a709 28bc
00000060: 88c1 573d 32ed e33e 06a3 bd3e cace 1d3e
00000070: 5297 f23d 511b 01be a12a a3bd b66f a5bd
00000080: 5506 0e3d 30bb 143e 6d93 d0bd 1f31 a83e
00000090: a44d ec3d 52c2 aabc 0202 983e 3c2a d43e
000000a0: dd40 81bb 4798 04be 7a80 8fbe 9597 c13d
000000b0: 3cbc e43c 0eac 17be d58c b0bd 1c34 813e
000000c0: 3548 24bc a4f8 c6bd 8ae8 33bd b376 4c3e
000000d0: 0cba d7bc c07c b73d 5095 4cbd 2be4 edbd
000000e0: 3dda a9be 2886 15be 5bb2 e13d 55d8 8ebd
000000f0: b091 9e3e 4b04 fdb9 e3b9 4d3e 04f3 ff3e
00000100: 6e85 00be 7ff1 723d c545 1bbf 1f64 70be
00000110: a7a1 26be 0636 c1be 7c6a 703c 5259 aabe
00000120: dd71 0e3e 36eb 313d cdd6 85be d93c 11be
00000130: 105d 84be 8e02 dfbd 583c 313e d948 443e
00000140: f96a 8abe 56a8 963d d4c2 4bbe 7ca9 96bc
00000150: 0fa1 01bc 3e26 9fbc 7fb9 263d 7244 733d
00000160: e464 0bbe d15b a8bd d373 dbbe d0df 8abd
00000170: 17ae 513e e66c 9f3d 1d42 043e 7cf9 99bc
00000180: 026d 0b3e 1aeb ec3d 2e07 573d cf82 3e3e
00000190: 7646 e83e e29e 313e 7a72 e43c e25f 813e
000001a0: bbe0 5c3c f573 3cbe f8b4 9bbe 8ddd 993e
000001b0: 9f8d f73d 3fa2 833e 1102 c13e d17c 79be
000001c0: 2261 c7bc 2986 34be c466 d23c f9d3 95bb
000001d0: 02ac bd3e 9ebf 82be 7057 04be 16c7 56be
000001e0: 50fa 27be e7dc 34be c563 66be cef6 153e
000001f0: 4ab5 d73d 3e8e b2bd 333b 4b3e a93b 6b3e
00000200: f395 863e b225 e73d 8703 893e a026 7e3d
00000210: a848 193e 4df3 a3bd fef7 78bd b8a8 6e3e
00000220: 5b3f 313e 35e1 ba3d 1a17 03be f517 023e
00000230: 457a 293e c70c 103d 225d 01bd 1d31 ba3d
00000240: 72e1 533e 0444 01bf 3c7f 383e 8cc3 e1bd
00000250: a61a 823e 5290 67bd 68e4 0fbf b415 b83d
00000260: 62a5 5abe 29a0 f73e 78bb 003f dfe1 b7bc
00000270: 8bcc b6be 307e 353c 473f b23e 711a 1cbe
00000280: 60bb 003e 9e68 52be 258e cf3e 71f2 eb3d
00000290: 1938 2fbe 94b5 d6be b027 c93d 6032 633f
000002a0: 3000 5b3e f17d c0be 9037 013f 6509 06bf
000002b0: 196f b83c 472f 79bd e67c d7bc 0fef 4a3e
000002c0: 97c4 c1bc d641 97be 47c6 e0be 8e7a 53be
000002d0: 02bd 993d cc5f f1bd e3a1 c73e 24a9 bdbe
000002e0: bfb0 2e3e 7c5b e33e e31b 73bc 361c 053e
000002f0: 8995 e23e 8860 2e3f 9dc7 5c3d 8928 093c
00000300: e8d8 8d3d 9183 683e 460c 853e d4c9 d63d
00000310: 6ae6 c03e 856d 783d 4a7b 873e 5975 e5be
00000320: 6253 363e 22a6 243b 51f5 4ebd 7211 243e
00000330: ce87 8a3c e65d ce3d eefc 513e f090 6e3e
00000340: 901d 953c bf38 5e3e d1c0 7fbe d287 93bd
00000350: 6546 473e 23ea 683e b8e0 dabe 9bdf 80be
00000360: 480f 5e3e e01c b6be 7917 78bc 9405 e6bd
00000370: 51c4 2dbe 4d4e ca3e e082 40bc 9ea1 da3d
00000380: cd6a a23e 8300 4abd f193 0cbe 4d99 e73e
00000390: dcf7 48be 1bbf 9d3d 4d90 213f 0cf9 8fbe
000003a0: be0a ea3d 65fe bebd 3469 653d a963 72bd
000003b0: bde8 1b3e a5d6 d2bd eeb9 b23e d0d7 99be
000003c0: 5aa5 14be 9135 1cbe 348d 70be bff0 b9bc
000003d0: 9a71 e53e 41de b7be c7ae 03bf 0e05 a23e
000003e0: d5d1 09bf b94e 4a3e 9fac 7bbe 8da8 d43e
000003f0: bc41 d4be 1a60 ecbe 0c15 8cbc bbbe eabe
-0.13267218 -0.09199141 0.20458312 0.234105 -0.32360417 0.24417463 0.45659798 0.19823384
-0.13411431 0.25550804 0.2833734 -0.17375474 0.19323458 -0.1022395 -0.06308588 0.05566067
0.17666413 -0.083093956 0.05265179 0.19326779 0.1848795 -0.1455616 -0.07231967 -0.010256208
0.0526748 0.44516903 0.3703844 0.15410915 0.11845268 -0.12608077 -0.07967115 -0.08077948
0.034674007 0.14524531 -0.10184369 0.32849976 0.11538246 -0.020844612 0.29689032 0.41438472
-0.0039445 -0.12948714 -0.28027707 0.0945274 0.027921788 -0.14811727 -0.086206116 0.2523507
-0.010026981 -0.09715393 -0.04392294 0.19967155 -0.026333831 0.08959341 -0.049947083 -0.11615785
-0.33174315 -0.14601958 0.11020347 -0.06974856 0.30970526 -0.0004825912 0.20090441 0.49990094
-0.125509 0.05931234 -0.60653335 -0.23475693 -0.16272603 -0.3773653 0.014673825 -0.3327127
0.13910623 0.043437205 -0.26140442 -0.14183368 -0.2585225 -0.10889159 0.17308176 0.19168414
-0.2703474 0.07356326 -0.1989854 -0.018391363 -0.0079119345 -0.019427415 0.040704247 0.059391446
-0.13612705 -0.082206376 -0.42861804 -0.0678097 0.20476566 0.077844426 0.12915845 -0.018795721
0.13615802 0.115682796 0.05249708 0.18604587 0.45366257 0.17345765 0.027886618 0.25268465
0.013481314 -0.18403609 -0.30411506 0.30051842 0.12087559 0.2570972 0.3769689 -0.2436402
-0.024338309 -0.17629303 0.025683768 -0.0045723883 0.37045294 -0.25536817 -0.1292398 -0.20974383
-0.1640408 -0.17662393 -0.22498997 0.1464493 0.10532625 -0.08718537 0.19846801 0.22971977
0.26286277 0.11286487 0.26760504 0.062048554 0.14969122 -0.0800539 -0.06078338 0.23306549
0.17309324 0.09124986 -0.12801781 0.12704451 0.16550548 0.035168435 -0.03158296 0.09091399
0.2069147 -0.5049441 0.18017286 -0.11023626 0.25410956 -0.05653412 -0.56207895 0.089885145
-0.21352151 0.4836438 0.50286055 -0.02244657 -0.3570293 0.011077449 0.34813902 -0.15244462
0.12571478 -0.20547721 0.40538135 0.115208514 -0.17111243 -0.41935408 0.09822023 0.8874874
0.2138679 -0.37596086 0.50475407 -0.52358085 0.022513913 -0.060836103 -0.026304673 0.19817756
-0.023653312 -0.29542416 -0.43901274 -0.2065222 0.075067535 -0.1178585 0.38990697 -0.37043107
0.17059611 0.44405735 -0.014838192 0.12999043 0.4425471 0.68116045 0.053901304 0.008371481
0.06926137 0.22706439 0.25985926 0.104877144 0.37675792 0.06065132 0.2646125 -0.44816092
0.17805246 0.0025123437 -0.05052692 0.1602228 0.01691046 0.100765035 0.20506641 0.23297477
0.018202573 0.21701334 -0.24975897 -0.0720364 0.19460447 0.22745566 -0.42749572 -0.25170597
0.21685517 -0.35568905 -0.015142315 -0.11231533 -0.1696942 0.39512864 -0.011749953 0.10675357
0.31722108 -0.049316894 -0.1372831 0.45234147 -0.19625801 0.07702466 0.6311081 -0.28119695
0.1142783 -0.09325866 0.056008533 -0.059177075 0.15225501 -0.102948464 0.34907478 -0.30047464
-0.14516202 -0.15254809 -0.23491365 -0.022697804 0.44813234 -0.35911754 -0.51438564 0.3164448
-0.53835803 0.19756593 -0.24577568 0.41534844 -0.414564 -0.4616707 -0.01709988 -0.4584864

lstm.bias_ih_l0 f4 [512]
00000000: 6e73 96be b284 a83e 6415 fcbe 3962 163e
00000010: 8d7e 6b3d f293 aabd 8cc7 ea3e 8c6e d2be
00000020: e23d d5be a526 323d 40df a2be 1f88 783e
00000030: aead b33e 7538 0f3f ebe7 96be 5402 30be
00000040: 8e0b fabe ac2c f4be 72c3 1c3e c133 99be
00000050: 83f8 fdbc 830b b23d 671c ce3e c043 29be
00000060: d536 13be 78ae d03e 78b9 8dbd 6a18 51be
00000070: 5461 f3be e9a4 86be ea27 0a3d 8b10 9cbd
00000080: fdbe 933e 8271 f7bd e701 e93e 288f a63e
00000090: ab76 27be f59e febc 4f23 b23e 7a8f de3e
000000a0: 205f b2bd f046 46be 12fb 78bc 40f7 8e3c
000000b0: b697 9cbb d8f4 583e 0b6d efbd 890c afbe
000000c0: acc2 233e 9242 c9be 4ab4 133e feb2 a3be
000000d0: 194b 1b3c 22eb 39be 1fa2 edbd 2833 813d
000000e0: c802 703e c4a8 e2bc 1014 91be 5bec f33d
000000f0: 7ab0 07be 8bf4 29be a8ea 62be b0d4 89be
00000100: 0485 c23e 8050 403d d2ab 4d3c 80f9 14bd
00000110: 78c3 61be 4685 8e3c 0551 dd3e 51d7 813e
00000120: 4c19 87be e9ad 903e d7c4 693d 537f a73e
00000130: 0c15 22be 5731 ba3e fe4e 84bd 745b b9be
00000140: fd36 08be 3f6b 3bbe cce4 b3bb d3d0 8abe
00000150: 075a 083c 6d06 9ebe b71a 513e 2d20 60be
00000160: 3384 9c3c 895e c23d ef11 8cbe 1572 13be
00000170: de14 903c 4338 323e f046 323d 3f46 fd3d
00000180: 7422 95be 0f2b 6fbe fb4b bebe 28d7 f43d
00000190: 6c4f 08bf 554c aabe 9066 0ebe 5592 39bc
000001a0: 28d0 80be 9223 85be 0a76 09be 8bc5 8cbd
000001b0: 0ee8 3bbd b424 a93c 9b11 b63c 726f 6fbe
000001c0: fd88 213c 846a b83e ada3 5d3c 9782 94bd
000001d0: 675c 823e 1212 c23c 11bc e1bd d618 ac3e
000001e0: 2ef3 f03d 959f d7bd 2f38 62be ae4f cdbe
000001f0: 1eb2 413e 5d59 de3e d2f2 9f3d cda9 1dbd
00000200: 7172 143e b689 0a3e c30f 663d 3100 6cbe
00000210: 732c 443e 225d 923e 8611 e7bd ed70 a03e
00000220: 66f5 ad3e c1d1 d23d 0c79 af3d 3e4f 37bd
00000230: cb62 3d3d 88b5 15be 0686 993e b833 9c3c
00000240: 821b 103e 7955 c33e c2b1 5bbc cc61 cc3d
00000250: 0194 07be 6492 64bd 5e83 a6bd cf22 af3d
00000260: 1dec 5c3e aae4 04be 94fb 783e 408b 9539
00000270: 8ee7 293e fb93 273e 0733 34bc bcdd 843d
00000280: a847 8f3d ba7f 943d a0f9 8a3d ae35 e23e
00000290: e900 743d f7f4 933e de51 f4bd ea2e 2d3d
000002a0: b637 cabd c919 cd3c cb69 66be 6e72 1c3e
000002b0: f6b1 0a3e 54a5 21be 1e15 05be 05b4 f63d
000002c0: d837 a13d f3b9 c0ba 7c8e a2bd 5206 ffbc
000002d0: 3de2 31be afa0 e13d ac15 843e 69ed df3d
000002e0: b40e 6f3d d3f8 cf3c 3e78 a33e 99c4 4a3e
000002f0: 99bf 123e 6cd1 993d f568 e83c 824e f13d
00000300: d489 dc3d 60a2 10bc 77ed 913d ed42 a5bd
00000310: f4ee 9b3e 261b 46bd 16bb d13d b3ad 3cbd
00000320: 8833 8f3d f08a 72be 746d e8bc dd66 1a3d
00000330: 722e 083e b3df 00be 8aea 73be 0a8d aa3d
00000340: 816a 0ebd a185 0a3d 2ef6 4abd 9a40 113d
00000350: 60e7 083e 78d4 4dbe 2e9a 87bb a57c 4d3b
00000360: a4e0 683d 608f 933e a9d2 b638 90c3 033e
00000370: 7f06 893b 6324 29be 8be5 563d 4142 1ebd
00000380: 8889 343d 3b33 e2bc 238a 02be b2de 0f3c
00000390: e137 2abe 0422 45bd 53a0 e83d 34f3 e93d
000003a0: 1997 5dbd fe03 6f3d 85af 93bd 80b2 5dbc
000003b0: 6794 363e 79e9 eebd 84db 323d b71e ef3d
000003c0: ca11 213e 0e42 a03d 25e8 10be 6188 003e
000003d0: 26e6 763e 5e0d ad3c 5d3c 5a3d 60cc 493e
000003e0: a79a 29be cbf5 0c3e 2264 913d 1daf 9b3d
000003f0: dfb2 843d 45ee 503e a5c6 6f3c be84 51be
-0.2938494 0.32913738 -0.4923507 0.14685906 0.057493735 -0.083289996 0.45855367 -0.41099966
-0.41648775 0.043493886 -0.3181095 0.24270676 0.35093445 0.5594552 -0.29473814 -0.17188388
-0.4883694 -0.47690332 0.15308931 -0.29922298 -0.031002289 0.08693602 0.40256044 -0.16529751
-0.14376386 0.4075811 -0.06920141 -0.2041947 -0.47535193 -0.2629769 0.03372947 -0.07620343
0.2885665 -0.12082197 0.45509264 0.32531095 -0.16353862 -0.031081656 0.34792563 0.4346884
-0.0870955 -0.19362998 -0.015196579 0.017451882 -0.0047788275 0.2118715 -0.1169072 -0.3418925
0.1599223 -0.39308602 0.14424244 -0.31972498 0.009478354 -0.18156102 -0.11603188 0.063085854
0.23438561 -0.027668364 -0.2833562 0.119103156 -0.13250914 -0.16597192 -0.22159827 -0.2692008
0.37992108 0.04695177 0.012553172 -0.036370754 -0.22047222 0.017397534 0.43225875 0.25359586
-0.26386487 0.28257683 0.057072487 0.32714328 -0.15828341 0.36365768 -0.06460379 -0.36202586
-0.13302226 -0.1830263 -0.005489921 -0.27112445 0.008322245 -0.30864277 0.20420347 -0.21887274
0.019106006 0.094906874 -0.27357432 -0.14398988 0.017588075 0.17404275 0.043524683 0.12366914
-0.29127848 -0.2335627 -0.37167343 0.119551 -0.5324619 -0.33261362 -0.13906312 -0.011326392
-0.2515881 -0.260037 -0.13423935 -0.06873616 -0.0458756 0.020647384 0.022225192 -0.23382357
0.009859321 0.36018765 0.013527793 -0.072514705 0.25461122 0.023690257 -0.11022199 0.33612698
0.11765133 -0.10528485 -0.22091745 -0.40099853 0.18915603 0.43427554 0.07809986 -0.038492013
0.14496781 0.13529095 0.056167375 -0.23046948 0.19157581 0.2858668 -0.11282639 0.31336156
0.33976287 0.10293914 0.0856801 -0.044753306 0.046236794 -0.1462003 0.29985064 0.01906763
0.14072993 0.38151148 -0.01340908 0.09979591 -0.13240053 -0.05580367 -0.08130525 0.08551561
0.21574445 -0.12977853 0.2431472 0.00028523244 0.16592237 0.16365044 -0.010998494 0.06487605
0.06996089 0.072509244 0.067858934 0.4418158 0.05957118 0.2889783 -0.119296774 0.04228107
-0.09873907 0.02503671 -0.22501294 0.15278026 0.13544449 -0.15785724 -0.12996337 0.12046055
0.078719795 -0.0014703855 -0.07937333 -0.031130943 -0.1737146 0.11016976 0.25797784 0.10933954
0.05836363 0.025387203 0.31927675 0.19801559 0.14330901 0.07510647 0.02837036 0.11782552
0.10768476 -0.008827776 0.07125371 -0.08069406 0.30455744 -0.048365735 0.10240762 -0.04606409
0.06992251 -0.23685813 -0.028372504 0.037695754 0.13298967 -0.12585334 -0.23819938 0.08327682
-0.03476954 0.033818845 -0.04955118 0.035462 0.13369513 -0.20100582 -0.0041382527 0.0031354812
0.05685486 0.28820324 8.717675e-05 0.1286757 0.0041816826 -0.16517787 0.052465003 -0.038637403
0.044076473 -0.02761232 -0.12748007 0.008781122 -0.16622879 -0.048128143 0.113587044 0.114233404
-0.054099176 0.058353417 -0.07211212 -0.013531327 0.17830049 -0.11665625 0.043666378 0.1167578
0.15729442 0.07825099 -0.14151056 0.12552024 0.24111232 0.021124538 0.053280223 0.19706869
-0.16562901 0.13765638 0.07099177 0.076017596 0.064794295 0.20403393 0.014634763 -0.20460793

lstm.bias_hh_l0 f4 [512]
00000000: c992 81be 24ab 8d3e 717d fabe 7474 e23d
00000010: ffe1 113e cbaf 6dbd 2e34 c03e dfb6 b3be
00000020: c3fc f2be 1bb9 4cbd 036b 7bbe 97d3 9f3e
00000030: d92a c23e 2ee3 0e3f a030 a8be 1062 2abe
00000040: d77a 16bf 5d02 fabe 16fc 3b3e fbdd 5bbe
00000050: b071 10be 042b f53d a050 a83e b3d8 28be
00000060: 7d59 8cbe a58b e13e eb75 d1bd cb80 1cbe
00000070: 6192 a2be 3d4e 55be 199d 1f3e fe7d 9ebd
00000080: b493 bd3e dfaa 81be 62a0 d43e 64ae b83e
00000090: f687 eabc a339 20be 2971 9d3e 0591 e03e
000000a0: 5ec2 ecbd 529e 5fbe 5289 053c 4535 b53d
000000b0: ba9f 463d 2d79 173e f974 fbbd 1423 9ebe
000000c0: 440e 513e c34e e6be ea0b 3b3e 5b12 8cbe
000000d0: 8df8 993d 2a93 19be 1565 ef3c 6f3b fd3d
000000e0: 46f0 013e c147 94bd f152 afbe cc06 583d
000000f0: d59b 83be 6150 36be c93a 76be b185 a7be
00000100: 6a7e 063f b961 083d 0b32 48bd 6ee3 e4bd
00000110: 85dd a4be 38dd 023e 3868 c83e 2b73 943e
00000120: 4fe9 28be 8f14 843e 27af bf3d 1321 543e
00000130: 7267 4bbe 4d46 c33e eb04 473c e3b4 dabe
00000140: 2c39 f9bd ba79 9abe 71da 9bbc def3 1dbe
00000150: 8d26 ffbd 399d 33be cd23 b53e 2a7a d7bd
00000160: 3b71 febd fbe3 a1bc 085c 3abe 7e10 1abe
00000170: df9c 79bc 3e92 363e d347 a03c 0d51 1f3e
00000180: 6923 40be ef5a a5be 949b a8be 4da9 913d
00000190: de36 fbbe 08bd 41be 0f16 43be 41eb 323d
000001a0: c345 bdbe 6fa5 3ebe b3e1 f8bd a55d a63c
000001b0: ddff 90bd be92 b73c 2f3d 953b 3c11 17be
000001c0: 70d3 ec3d 69e6 a93e b471 133d 9ad3 9ebd
000001d0: bac4 063e 9bc0 9f3d ef0c 29be d920 b23e
000001e0: 2f47 2e3e ab91 07be 4dce 35be ccd8 d2be
000001f0: 0902 3b3e 85ea c93e 2fda 533d dbf3 96bd
00000200: f81d 6a3d beb2 3d3e 586f 5e3d 662f 47be
00000210: 1489 293d 909a 983e 3dd1 14be b728 843e
00000220: 4e64 553e 26c9 133e ad9e 003e 73d1 b4bd
00000230: 33cd de3d 9d86 50be 8ea2 9c3e 5162 1bba
00000240: 3a62 2a3e d9a8 c93e c6f2 2fbd c772 21bd
00000250: d537 dabd 2c9e 8b3a 4797 a13d 58ed 06bc
00000260: b10f 743e 3359 ebbd b4d5 a43e fc63 853d
00000270: 8530 203e 8b76 1c3e 717d 36bd 3a89 b63d
00000280: f574 e13d 82ac c5bd b8ec e03d 9444 983e
00000290: adbb 7c3d 242b 0b3e 6f95 e9bd 49c2 d1bd
000002a0: 440f dbbd 5e9b f5bd ba01 49be 6917 273e
000002b0: 3f7e 323e defe f5bd 7f52 d6bd e00d 5a3d
000002c0: 45c3 553d 1542 4fbd c1fd 6c3a 0f57 f8bd
000002d0: dda7 25be ca29 743d 7b41 933e 2640 9a3b
000002e0: 6880 63bd 640c a83d a75d 823e 9fbe 6d3e
000002f0: 74dc a33d 39ab 823d fceb 1e3e 9088 f53d
00000300: 0faa fb3d 733a 60bd 3ff1 213e 0b50 993d
00000310: 0f19 8b3e f803 2abd 46cc 443e 366b 4cbd
00000320: c852 253e d2b5 64be 916e 873d 7bf4 053e
00000330: 306e 773e 8d07 09bd 2d61 75be 5938 333e
00000340: e90e a03d 4b07 68b9 8547 803d 1578 18bd
00000350: 42f3 f73d 5f31 97be 9596 26bc 7a45 8a3d
00000360: 251f c23d df3c a63e 65d6 463d 60dc e03d
00000370: 65b3 763d 8291 72be a066 b73c b93d f3ba
00000380: 9f3f ffbb 9691 8ebd 5351 5e3b 8be2 debd
00000390: b59a 86be 6a8b 0ebc 9555 263d 0260 373d
000003a0: 33b9 1bbc 0a4b 253d ce1e bebc db2f 56bd
000003b0: ac95 673e e14d d6bd 2b28 2f3d c527 d03d
000003c0: c426 033e 6929 863d bb7f 95bd fc48 1c3e
000003d0: d559 9b3e 9d4a b9bc 43f3 8a3c bb60 023e
000003e0: 6770 12be ea0a 293e fd53 0c3e 824d 48bc
000003f0: 3534 023e 8fb9 a43e e8f7 8a3d 66d0 60be
-0.253073 0.27669632 -0.4892383 0.11057368 0.14246367 -0.058028977 0.3753981 -0.35100457
-0.47458467 -0.049981218 -0.2455254 0.31216118 0.37923315 0.558154 -0.32849598 -0.1663897
-0.5878119 -0.48829928 0.18357882 -0.21471398 -0.14105868 0.11971095 0.32874012 -0.16488914
-0.27412024 0.44051853 -0.10227569 -0.15283506 -0.31752303 -0.20830627 0.15587272 -0.07738875
0.3702675 -0.25325677 0.41528612 0.3607055 -0.028629284 -0.15646987 0.30750397 0.4386064
-0.1156051 -0.21837738 0.0081504155 0.08848051 0.04849217 0.14792319 -0.1227817 -0.30886137
0.20415598 -0.44981965 0.18266264 -0.27357754 0.075181104 -0.14997545 0.029223004 0.12364852
0.12689313 -0.072402485 -0.34242967 0.052740857 -0.25704828 -0.178041 -0.24045862 -0.32719186
0.5253664 0.03329632 -0.04887585 -0.11176191 -0.32200256 0.12779701 0.39142013 0.28994116
-0.1649525 0.25796935 0.093595795 0.20715742 -0.1986368 0.38139573 0.012147169 -0.4271613
-0.12169108 -0.30170995 -0.01902506 -0.15425059 -0.12458525 -0.17540444 0.35378876 -0.10521348
-0.12423941 -0.01976203 -0.1819917 -0.15045354 -0.015235155 0.17829224 0.019565498 0.15558262
-0.18763508 -0.3229594 -0.32931197 0.0711237 -0.49065298 -0.18919766 -0.19051383 0.043681387
-0.36967286 -0.18617795 -0.12152424 0.020308325 -0.07080052 0.02240884 0.004554413 -0.14752668
0.11563766 0.33183601 0.035997108 -0.077552035 0.13160983 0.078004085 -0.1650884 0.34790686
0.17019342 -0.13239162 -0.17754479 -0.41181028 0.18262495 0.39436737 0.051721748 -0.073707305
0.057157487 0.18525216 0.054305404 -0.19451675 0.041390494 0.29805422 -0.14532943 0.25812313
0.20839044 0.14432201 0.1256053 -0.08829012 0.108789824 -0.20363851 0.3059277 -0.0005927431
0.16639033 0.39386633 -0.042956136 -0.0394161 -0.1065518 0.0010651997 0.07890182 -0.008235298
0.23834111 -0.11491623 0.32194293 0.06513211 0.15643509 0.15279596 -0.044553224 0.08912893
0.11008636 -0.09652044 0.109826505 0.2973982 0.06170242 0.13590676 -0.11405455 -0.10242135
-0.10696271 -0.119925246 -0.19629565 0.16317524 0.17430972 -0.12011503 -0.10464954 0.05323589
0.052188177 -0.05060013 0.0009040498 -0.1212598 -0.16177316 0.059610166 0.28760895 0.004707354
-0.05554238 0.08205488 0.25462076 0.23217247 0.080010325 0.063803144 0.15519708 0.11988938
0.122882955 -0.05474324 0.15814684 0.0748597 0.27167556 -0.04150769 0.19218549 -0.04990693
0.1614486 -0.22334984 0.06612886 0.13081543 0.24163127 -0.033454467 -0.23962851 0.17501964
0.07815344 -0.00022127961 0.06263641 -0.037223894 0.121069446 -0.29529855 -0.0101677375 0.06751533
0.094785966 0.32468316 0.048544306 0.10979533 0.060229678 -0.2368832 0.022387803 -0.0018557823
-0.0077895666 -0.06961362 0.0033922985 -0.108830534 -0.26289907 -0.008700231 0.04060896 0.044769295
-0.009504604 0.040354766 -0.023208048 -0.052291732 0.22615689 -0.10464073 0.042762917 0.101638354
0.12807757 0.06550867 -0.07299753 0.15262216 0.30341974 -0.022618586 0.0169617 0.12732212
-0.1430069 0.1650807 0.13703914 -0.012225511 0.12715228 0.3217282 0.067855656 -0.21954498

output1.weight f4 [128, 128]
00000000: 1c36 a2be 4ee4 103f ccb5 ac3c 13cb 92bd
00000010: 1201 47be 387b ae3d cbe1 3a3c 892b 133e
00000020: 51b9 fbbe e287 87bd 2145 8ebe d43c 62be
00000030: c2a1 1f3f 5df0 74be 4cd2 4cbd 52d6 66be
00000040: 899b 2f3e c8f5 02be 47b6 8abe cd65 67bd
00000050: 9d3f 49be f24a 6e3e 78ae 13bf 1b5d 37be
00000060: a419 fd3d 9ad3 dcbe 5914 d2be e292 afbe
00000070: 251a 953d e2f3 ab3d c29f e4bd 85d1 163e
00000080: 92f9 debe 7ce1 2d3c bf96 94be a1eb fb3e
00000090: db28 5d3e 671b f7bd bd1b c83e 7a8a 8e3d
000000a0: 7e1c 553e 2c33 73bd 5507 193b 96f6 2ebf
000000b0: 429f 24bf 6288 8a3e 9aaa a0be ca36 92be
000000c0: bab0 47be 34d9 f6bd e17a 0b3d 16ce 07bf
000000d0: bc95 b93e ba32 24be 3bdd a23d c311 2d3e
000000e0: e1dd 24be 215c 883d 0f7a 6cbe 053d d43e
000000f0: 1e19 bc3c e03a 1e3f 086a 44bb 7779 66be
00000100: 8a1d b33d bb10 fdb9 0d9d 82be f9e6 f83e
00000110: 9f08 abbe 2274 8ebe fc5a cdbc f905 1fbe
00000120: b038 e3be d0b0 713b eb6f b23e 4bb3 47bd
00000130: dda5 51be 7c3f 103f 5602 163e bda0 81bd
00000140: cb90 6ebe 6060 bfbe e188 463e ff9d 85bc
00000150: 4fbe c13d 6196 173e c667 78be 8d52 d53a
00000160: 7b6b 4abe 0ed6 4bbe 5246 1f3e baf6 99be
00000170: 0fee dcbd 4dea 60bf 4219 a03e e77a 0b3d
00000180: 484a a93d 46b7 393e 22d9 2b3d ecd1 113d
00000190: a172 a1be 31be 7dbe 8a8e 0c3f f46e b03e
000001a0: 0013 2a3e bfda 8abc 8c10 2fbe bbd3 953e
000001b0: c370 913e 8e47 2dbe a86b 343e e257 28be
000001c0: 26c7 9dbe d029 8a3e 7feb c03e eb72 55be
000001d0: 39d5 2fbf 48ba 073e bf9f 25bf 8639 2b3e
000001e0: b5cf e7bd 16bc 14bf 699d e2be 8646 0fbe
000001f0: 7ecf 403e 1bd0 f9be d879 99be 6ae5 dfbe
00000200: 9c92 003d af7a 3b3f 64cf e3be bd16 19bd
00000210: ee66 e3bc fc04 59be 2fb0 8a3d 52ca bb3d
00000220: 981c 98bd c321 4f3e b286 a83e 6732 cd3d
00000230: 03d6 4f3e 4bab 90be 1433 173e 5595 5f3f
00000240: 63fc c63d 5bf4 113c ed28 873c d453 173e
00000250: 2c5c bdbe 6554 d93e 96c9 10bf 7198 993e
00000260: ed8c a6be 3636 0a3f 51ff 9cbe 57dd 69be
00000270: 5fca cebd 4f1b 11bf 0657 1f3f db13 f03d
00000280: 6d3f 4fbe 5ae9 c0be 1492 19bf c01c 94be
00000290: b6a0 13be f076 afbe 5cb7 83be 40f6 58be
000002a0: fb03 7cbd 9a59 bd3e 905c ce3d 0363 04be
000002b0: c348 76be 2292 11bf b5f3 adbe 806f 9d3e
000002c0: 185f 553c 250d 36be c74a 8ebe e064 08bf
000002d0: 0c45 16be c1b5 babc 780c 5ebe 5090 b53e
000002e0: a709 a43d ab94 53be 17b4 103e 9b8b 603e
000002f0: 34bf fe3e 2ca9 303d 25a4 913e 1df3 b2bd
00000300: 2fa8 aebe 322f 01bf 7beb 973e 259a 28be
00000310: 9f17 313c 13b8 79bd 57a3 12bf 8b94 14bf
00000320: 570a 5b3e 8f8a 753e 44d2 0abf cfe9 bdbe
00000330: 431a ae3e e157 6abb 4dcb e13e fbb3 e1be
00000340: 1e7e 873e df04 a53c 45ad 2f3f e2bd acbe
00000350: 2e9d b4be 6747 163e 8433 7d3e 7298 013e
00000360: b6f6 233f 0aab 0d3f a786 25bf 388d 983e
00000370: 977d a83e eda2 3ebe d032 ab3e dce3 72be
00000380: d20d 3d3e 8ab3 a03d f0d8 c5be a226 c73e
00000390: 8061 ca3e e577 0e3e e311 edbd 5f35 bdbe
000003a0: c9f7 8f3e 43e9 13bf 3c46 b53d 90d3 533f
000003b0: 3ebf 4cbe e55f 29be 8c1c 213f 8b69 7b3f
000003c0: ca42 5a3e 9567 203d 6f28 803d cc21 353e
000003d0: 2789 6f3e 5a8a b43e 3537 8e3e 744b bc3e
000003e0: f926 d2bd a59e 013f fc17 563e ca6c a33e
000003f0: ee24 dfbd fb1c 5dbe 08a4 bcbe ec86 bf3e
-0.31681907 0.56598365 0.021082781 -0.071676396 -0.19434002 0.08519596 0.011406372 0.14372076
-0.49164823 -0.066177145 -0.27787116 -0.22093517 0.623562 -0.23919816 -0.050005242 -0.22542694
0.17149176 -0.1278907 -0.27092192 -0.05649357 -0.19653173 0.23270777 -0.57688093 -0.1790661
0.12358406 -0.4313019 -0.4103115 -0.3429175 0.07280377 0.08396126 -0.11163284 0.14728363
-0.43549782 0.010612842 -0.2902126 0.49203208 0.21597616 -0.120657735 0.39083663 0.06960006
0.2081165 -0.059374973 0.0023350317 -0.6834501 -0.6430551 0.27057177 -0.3138016 -0.28557426
-0.1950101 -0.12053147 0.034052733 -0.5304884 0.3624705 -0.16034976 0.079523526 0.16901307
-0.16100265 0.06658197 -0.23093437 0.41452804 0.022961196 0.61808586 -0.0029970426 -0.22507273
0.087458685 -0.00048268386 -0.25510445 0.48613718 -0.33405015 -0.27822977 -0.025067799 -0.15529622
-0.44379187 0.003687907 0.34851012 -0.04875497 -0.20473428 0.5634687 0.14649329 -0.063294865
-0.23297422 -0.37378216 0.19388153 -0.01631069 0.094601266 0.14803459 -0.24258336 0.0016275212
-0.19767563 -0.19905874 0.15554169 -0.3007105 -0.107875936 -0.87857515 0.3126927 0.034052756
0.08266121 0.1813632 0.04195512 0.035600588 -0.31532767 -0.24779584 0.54905 0.3445965
0.1660881 -0.01695001 -0.17096156 0.292631 0.28406343 -0.16921827 0.17619193 -0.16439775
-0.30816 0.26985025 0.3767967 -0.20844619 -0.68684727 0.13254654 -0.6469688 0.16721162
-0.11318914 -0.58099496 -0.4426072 -0.13991746 0.18829152 -0.48791584 -0.29975772 -0.43729717
0.031389818 0.73234075 -0.44494164 -0.0373752 -0.027759042 -0.21193308 0.067718856 0.09169449
-0.07427329 0.20227723 0.32915264 0.10019379 0.20296483 -0.28255686 0.14765579 0.8733724
0.09716108 0.008908357 0.016499007 0.14778072 -0.36984384 0.424472 -0.56557596 0.29999116
-0.32529393 0.5398897 -0.3066354 -0.2283834 -0.10097193 -0.56682295 0.6224216 0.11722537
-0.20239039 -0.37678033 -0.5998852 -0.28928185 -0.14416775 -0.3427043 -0.2572583 -0.21187687
-0.061527234 0.36982423 0.10076249 -0.12928395 -0.24051194 -0.56863606 -0.33974996 0.3074913
0.01302316 -0.17778452 -0.27791426 -0.53278923 -0.14674777 -0.022791745 -0.21684444 0.35461664
0.080096535 -0.20662181 0.14131199 0.21928255 0.4975525 0.043130085 0.28445545 -0.087377764
-0.3411269 -0.5046264 0.29671845 -0.16465051 0.010808854 -0.060966562 -0.57280487 -0.5803916
0.21390663 0.23978637 -0.5422709 -0.37092444 0.3400441 -0.0035757946 0.4410042 -0.44082627
0.26463407 0.020143924 0.68623763 -0.3373862 -0.3527617 0.14675675 0.24726683 0.1265581
0.64048326 0.5533911 -0.6465859 0.2979524 0.32908317 -0.18616839 0.33437204 -0.23719734
0.18462303 0.07846744 -0.38642073 0.38896662 0.39527512 0.13912924 -0.11575677 -0.3695478
0.28118733 -0.57777804 0.08851287 0.82744694 -0.19994828 -0.16540487 0.62934184 0.9820792
0.2131454 0.039161284 0.06257712 0.17688674 0.23392163 0.35261804 0.27776495 0.36776316
-0.1026134 0.506327 0.20907587 0.31918937 -0.10895716 -0.21593086 -0.36843896 0.37407625

output1.bias f4 [128]
00000000: 6f97 593d 858b aa3b 44cb 223e 73fa ecbd
00000010: 3a3d b43d af87 2bbe 1253 7e3e 9383 093e
00000020: 0807 8f3e 1f8e ccbd 98e7 5d3e 5167 97bd
00000030: a92d 4b3e 6fb8 963e e27c 9f3b 7394 9c3e
00000040: cc88 433e b830 6a3c 5846 e73e ec45 5a3e
00000050: df83 1a3f 382f 473c 4bc9 c43d da76 bf3e
00000060: e250 ad3d f7aa 993e 45f2 d9bd b4d1 66bb
00000070: 5a27 2d3d dd1b 18be 9bdd b3bd 3adb 47bd
00000080: 3d64 3f3e 206b 323e 3e55 033f cc71 913e
00000090: b368 a83d ed27 91bd 1049 9d3d a810 803e
000000a0: 7d2e 1d3e e828 8bbd 99eb 05be b103 3abd
000000b0: 1309 583e 5d9e 5b3e 7434 fa3e 8858 babd
000000c0: 81c5 af3e f79e 5b3e 1328 183e 441b 583e
000000d0: e731 cd3e 3577 70be e50a 4c3e 5672 423e
000000e0: bc76 1e3f 94b1 2a3e 7c35 ba3e adfc 25be
000000f0: 226d 1b3e 8c9a 8e3d 8c99 a9bc 0beb 34bc
00000100: 943f 5e3e cf36 f93d abad 633e a1e5 393e
00000110: 50a2 40be 4ffa 8dbe be8a 283e dca1 9f3d
00000120: 8985 a83d f33e 2b3e 7eef bf3b c95c 023e
00000130: 42a7 293e 97a3 a3bd c616 4fbd 79ec d13d
00000140: 9cf0 0d3c a647 903e a0e6 6cbe 29c0 833e
00000150: 310d 4f3e ec87 373e 7e39 493e 0ba2 813e
00000160: 79ee 133d 3114 683d 0772 0f3e b948 e43e
00000170: a2f8 593e f235 3b3e c7e4 8d3e 5861 523d
00000180: e2ab 23be fac9 873e 56e5 f53d 5665 a3bc
00000190: 2b50 6bbd 4a4a 663e a494 a13e fbfd 0bbc
000001a0: baa1 4c3d 5e4a bb3d e8ce 423e c809 6fbc
000001b0: 8e9e b13d 5522 ba3d ff7c 93bd 162d 6b3d
000001c0: 6dc5 0b3d dc05 153d 9c7c 3dbc d535 bf3e
000001d0: d360 c83d 2148 4a3e 3527 e13d abdc 523d
000001e0: 50b5 813e 0e92 4d3e 3b6d 80bd aafe 0ebe
000001f0: 3d09 42be 7d1b 793d aeb3 6c3d 53ef 8bbc
0.053122934 0.0052046203 0.15897852 -0.11571207 0.088007405 -0.16750978 0.24836376 0.13429098
0.27935052 -0.09988045 0.21670377 -0.07392753 0.19841637 0.29437587 0.004867182 0.30582008
0.19095153 0.014293842 0.45170856 0.21315736 0.6035747 0.012157254 0.09608706 0.37395364
0.08462693 0.30013248 -0.10641912 -0.0035220208 0.042273857 -0.14854379 -0.08782502 -0.048793055
0.18690582 0.17423677 0.51301944 0.28407133 0.08223095 -0.07087693 0.07679951 0.25012708
0.15349765 -0.067949116 -0.13078155 -0.045413677 0.21097212 0.2144713 0.48868144 -0.09098917
0.3433037 0.21447359 0.14859037 0.21104151 0.40077135 -0.23482974 0.19926031 0.18988928
0.61899924 0.16669303 0.3636893 -0.1620967 0.1517835 0.06963071 -0.0207031 -0.011042367
0.2170394 0.12168657 0.22234218 0.18154003 -0.18811917 -0.27730033 0.16459176 0.07794544
0.08228595 0.16723232 0.005857407 0.12730707 0.1656771 -0.07990187 -0.050558828 0.10250182
0.008663323 0.28179663 -0.23134851 0.25732544 0.20219876 0.17922944 0.19650838 0.2531894
0.036116097 0.05665988 0.14008342 0.44586733 0.21286252 0.18282297 0.27713606 0.051362365
-0.15983537 0.26521283 0.12006633 -0.019945782 -0.0574495 0.22489277 0.31558716 -0.00854444
0.049958922 0.09145044 0.19024241 -0.014589734 0.0867282 0.090885796 -0.072015755 0.057416044
0.034123827 0.03638254 -0.011565354 0.37345758 0.09784093 0.19754077 0.10993806 0.051479977
0.25333643 0.20075247 -0.06270834 -0.13964334 -0.18948837 0.06081723 0.057788543 -0.017081892

output2.weight f4 [40, 128]
00000000: 3a14 3abf 58d0 143e 4573 a3be 21ed 573e
00000010: 086a 4abf ee98 41bf 1ff7 95bf fe85 c5bd
00000020: 62d3 a43e 3c6d df3e 07df 05bf b4e5 213e
00000030: a8fc 0abe 0766 83bd 4f6b b93e c915 20bf
00000040: 13ea 2abe 80c1 44bd b9b4 d3bf a1c3 863c
00000050: f3ac 313e 967f da3d d852 80bd a50c 2dbf
00000060: 153f 99be 0ce9 48be 722c 453e 8675 babd
00000070: b5bf 8c3e 8932 0bbf fdf6 7c3d 2367 45bf
00000080: 0b4e 7d3e df5a e5be fe51 763e 2ec2 55bf
00000090: c88e b8be e6ab 8cbe 9462 83bf 98f1 30be
000000a0: cf11 19bf 5cfd 30bf 8c61 2d3e 84ac 633e
000000b0: ff9b fe3c 504e 2ebe d73a efbe 2fae 0d3c
000000c0: 0f05 bfbe 4def 193f 0ab8 44bf 3eb7 dcbe
000000d0: e9ea 04bf 351b 45bf 6c80 d43e b45a 3ebf
000000e0: c936 a9bd c17c b2be e06d 60bf 508b b53d
000000f0: bef6 52bf 4997 aebe a4fc cc3e 29f6 323e
00000100: 066b f63c 3e53 06bf 8341 b6bf c548 b03e
00000110: 9173 48bf fff5 63be 6741 8b3e b7e2 23bf
00000120: 373c 463e 5884 9bbf 05f3 c3be 3f9d 26bf
00000130: 4d80 b53d 5bd4 893d 2f7f 12bf e6e2 5d3e
00000140: 97be 87ba 70ee 8d3d eab4 75bf 81ba e33d
00000150: b70f ff3d 9177 3dbe 3a6d 0a3f 049a 823e
00000160: c728 8fbc 87bc 15bf 8e0b 93bd ed8a 053c
00000170: e4b2 bb3e 6856 34bf 9cac 1fbf f32c abbe
00000180: aef9 4bbf 4ebb 65be 9319 433e 3535 55bf
00000190: 201d 5fbf c401 1a3e 50af 52be 7daa 08bf
000001a0: 41a4 c0be 9bde 98bb 1554 e93e 018d c13e
000001b0: 7469 833e 3985 6d3d 7b72 debe 8f18 d0bd
000001c0: 0ff8 0bbe d3f4 1a3e 99c8 433e 2c7f 80bd
000001d0: 6c31 7d3e 4770 ad3e 8c15 c23d 4323 34bd
000001e0: c54e 013f ac9d 1c3e 2bfd 903e 36dc 14bc
000001f0: 3b69 ffbe ee71 c33e f787 94bf 0aa2 3b3e
00000200: 8a0a cbbe 6e03 c2be 5ff4 0bbe d09b edbd
00000210: 6cf0 3ebf f0e0 a73e 7491 1f3e 516d b9bd
00000220: de43 8c3e 535d 053f 71e7 293f ece2 8c3e
00000230: 3e41 d83e 3c35 ea3d fff7 33bf e67d bfbf
00000240: 0e5d c5bd 6940 2ebf ade5 ad3d 4ad4 223e
00000250: 08db 88bd 048c 6c3e c7fc d4be f788 cdbd
00000260: 6240 afbe b14b 26bf 46eb 90be 67cc f7be
00000270: c29f 723d 3e5c bd3e 3463 df3d 8422 773c
00000280: d4e6 6ebf b2ed a03e 6bb0 66be f2a5 2a3e
00000290: 7dd7 2abe c629 86bc 412a 9d3d e0fd 33bf
000002a0: ee46 ccbe 412e 353f 35db 083e facc 5abf
000002b0: 0504 fe3e cd3d 48be 254c 0bbf dc0f 14bf
000002c0: 7e6d dabd a713 a53e 57bf 293e b8d3 e2bd
000002d0: 530e b43d 2da2 49be 5dbf 6ebf 261d 93be
000002e0: 306b efbd 4e43 66be 224a bc3d 4ccf 5e3e
000002f0: d97f 113f a57f 7abe 2420 46be a6cd 57be
00000300: 1a7c d8bd 4a90 14be 9b93 bd3d 1bad 943c
00000310: 136b 293f 09e0 26bf 2e4a 133e 32f8 6b3e
00000320: e005 babd 9b63 60bd 586a 1abe 7db6 8fbe
00000330: 17f9 c7be bea1 19bf e135 113e efea 1ebf
00000340: 485e 72bf ef19 253e 0b35 2abc 9e3b c43e
00000350: e418 53be 4bec cf3e a44f 453f 25c3 33bf
00000360: c896 24be c50b debe 063c 04bf d632 a1bd
00000370: 21dd 383e f1f6 a73e cd20 b8be aab0 06bd
00000380: 4267 b53e 3352 d2be d221 81bf 8a40 9b3d
00000390: 7f49 7abf 1d7f f83e 7f63 a1bd b3a9 ab3e
000003a0: ab9f 3dbd 6213 0dbf 4d61 48bf 4442 38bd
000003b0: 81bd 203f 9a5d 823e aeaf 413f e382 e1bd
000003c0: 33d2 ba3e 6b45 cabe 64fb 4ebf 517d 09bf
000003d0: 8fcd d03a 04a9 39bf 9cb2 0bbf f432 843e
000003e0: d409 1bbf 63bf ed3a d3ad 113e a4ad 59bf
000003f0: 8a6c d93c 63a3 02c0 a32d 75be eb8b ebbe
-0.72687113 0.14532602 -0.3192388 0.21086551 -0.7906804 -0.7562398 -1.171604 -0.096446976
0.32192522 0.43638027 -0.5229344 0.15810281 -0.13572943 -0.064159445 0.36214682 -0.6253324
-0.16690855 -0.0480361 -1.6539527 0.016450705 0.17351131 0.10668866 -0.06265801 -0.6759742
-0.2993094 -0.1962015 0.19255236 -0.09104447 0.2749001 -0.54373986 0.061758984 -0.771105
0.24736802 -0.44795892 0.24054715 -0.8349942 -0.36046433 -0.27474898 -1.0264459 -0.1727966
-0.597928 -0.69136596 0.16931742 0.22233778 0.031080244 -0.17022061 -0.4672458 0.008647486
-0.37308547 0.6013077 -0.7684332 -0.43108553 -0.51920944 -0.7699464 0.41504228 -0.7435715
-0.082624026 -0.34860805 -0.87667656 0.088644624 -0.8240775 -0.34099796 0.400365 0.17476715
0.03008033 -0.5247077 -1.4238743 0.3443052 -0.7830134 -0.22261809 0.27198336 -0.64017814
0.19358908 -1.2149763 -0.38271347 -0.6508369 0.08862362 0.06729957 -0.57225317 0.21668586
-0.0010356483 0.06930244 -0.9597918 0.11119557 0.12454169 -0.18502642 0.54072917 0.2550813
-0.017475499 -0.58490795 -0.07179938 0.008150798 0.3665992 -0.70444345 -0.62372756 -0.3343273
-0.79677856 -0.22434732 0.19052725 -0.8328431 -0.87153816 0.15039736 -0.20574689 -0.53385144
-0.37625316 -0.0046652085 0.45571962 0.3780289 0.25666392 0.05798838 -0.43446717 -0.10160934
-0.13668846 0.15132456 0.1911949 -0.06274256 0.24725884 0.33874723 0.09476766 -0.04397894
0.5051082 0.15294522 0.28318152 -0.0090857055 -0.49884972 0.3817286 -1.1603993 0.18323532
-0.39656478 -0.37893242 -0.13667439 -0.116019845 -0.74585605 0.327888 0.1558283 -0.090540536
0.2739553 0.52095526 0.66368777 0.27516878 0.42237276 0.11435935 -0.70300287 -1.4960296
-0.096368894 -0.6806703 0.08491073 0.15901294 -0.06682402 0.23100287 -0.41599104 -0.100358896
-0.34228808 -0.64959246 -0.283045 -0.48398134 0.05923439 0.36984438 0.10907593 0.015083913
-0.93320966 0.31431347 -0.22528236 0.16664866 -0.16683765 -0.016377341 0.07674075 -0.7030926
-0.39897865 0.707737 0.13364871 -0.8546902 0.49612442 -0.19554825 -0.5441306 -0.578367
-0.10665415 0.32241556 0.16576897 -0.110755384 0.08791795 -0.19690771 -0.9326075 -0.28733176
-0.11690366 -0.22486612 0.09193827 0.21758765 0.56835705 -0.24462755 -0.19348198 -0.21074542
-0.105705455 -0.14508167 0.09256669 0.01814895 0.6617901 -0.651856 0.14383766 0.23043898
-0.09083152 -0.05478249 -0.1507963 -0.28068915 -0.39057228 -0.60012424 0.1418071 -0.6207723
-0.9467511 0.16123174 -0.010388623 0.38326734 -0.20614964 0.40609965 0.77074647 -0.7021964
-0.16073143 -0.43368354 -0.5165409 -0.07871024 0.18053104 0.3280559 -0.35962525 -0.032883324
0.35430342 -0.41078338 -1.0088446 0.07580669 -0.97768396 0.4853448 -0.078803055 0.33527908
-0.04629485 -0.551077 -0.7827347 -0.04498507 0.6278916 0.25462037 0.7565869 -0.11011293
0.36488494 -0.39506087 -0.8085234 -0.5370684 0.0015930402 -0.7252352 -0.5456941 0.25820124
-0.6056187 0.0018138703 0.14226465 -0.8503058 0.026541013 -2.0412223 -0.2394319 -0.46005186

output2.bias f4 [40]
00000000: 5620 b63d 9a97 edbd 1966 f83d 3cc6 82bd
00000010: 19db 343d 4f72 803d e0aa 663d e44c 4e3d
00000020: 5512 94bc e1a8 3fbe 4cee 903c b27b 3abe
00000030: f63c a3bd 9b33 0dbd 660c 1dbd bbe3 4ebd
00000040: 2b24 263e 39b3 eabd 1833 a03d 21ff 913c
00000050: 2b2f a03d 8f05 1fbe 7cd0 a63d 5d09 603d
00000060: edde 3f3e cc74 983d f46b e3bc 49b5 3bbe
00000070: ff98 f53d ad93 083d 8767 0fbd 4a5c ea3d
00000080: cde8 bb3d 8732 20be 4544 103e f3c7 4e3d
00000090: 3207 85bc 9916 a6bc 8b34 5b3d 41fb 21be
0.08892886 -0.11601181 0.121288486 -0.063854665 0.04415426 0.06271803 0.056315303 0.050366297
-0.018075148 -0.18716766 0.017691754 -0.18211249 -0.07970612 -0.034473043 -0.038341902 -0.05051015
0.16224734 -0.11459965 0.07822245 0.01782185 0.078214966 -0.15529464 0.08145234 0.05469643
0.18737383 0.07444152 -0.027761437 -0.18330874 0.11992072 0.03334396 -0.03501084 0.11443384
0.091752626 -0.15644275 0.14088543 0.050483655 -0.016238783 -0.020274447 0.053516906 -0.15818502
