Experiment/EEGClassification/LSTM_embed_128_ReLU_batch16_5_95_test/model.pth (torch, 617165 bytes, 8 tensors)

backbone.lstm.weight_ih_l0 f4 [512, 128]
0.14262411 0.079429634 -0.24884607 0.1336256 0.093517326 0.22038405 0.03881546 0.022607129
0.1926158 -0.04524906 -0.071618766 -0.04235336 0.08396857 -0.059850853 -0.038702346 -0.15137438
-0.061387543 -0.05944474 0.07330518 -0.04766948 -0.10988603 -0.034491062 -0.04600405 -0.044782173
0.21012676 -0.043436218 -0.04390252 -0.12645957 -0.06917653 -0.074096985 -0.11192614 -0.059461977
0.2354012 -0.028758025 -0.028145967 0.01695978 0.023905937 -0.0161846 -0.018015973 -0.03812302
0.078253105 0.035565622 0.15471902 -0.009580959 -0.025848694 0.09931717 -0.0700988 -0.01990254
0.009636521 -0.11715679 -0.09483035 0.027672572 0.031874623 -0.041346468 0.021482104 -0.28287303
-0.045460448 -0.22785981 -0.026011255 -0.0006119733 -0.077093594 -0.006149663 -0.058232136 0.043671712
0.08681069 -0.060166985 -0.02848306 0.02724539 -0.05191121 0.039967716 0.10117336 0.06301084
0.048020415 -0.026515173 0.033491086 0.031315647 -0.066800945 0.014850767 0.033972032 0.12587366
-0.06739986 -0.06984805 0.112962835 -0.07716929 0.0028265344 0.21023196 -0.056140754 -0.057046685
0.03738933 0.03156141 0.037208825 -0.02504535 0.15939969 -0.0057542226 0.013766348 -0.029261531
-0.059391405 -0.110367775 0.055435423 -0.1469824 -0.09397211 0.005949344 -0.1493276 -0.14317365
0.19584428 0.06355752 0.009006191 0.038997695 0.0064838715 0.119169794 0.29058748 0.02546717
0.0517959 0.0043236013 0.036288604 0.0211484 -0.10707921 -0.045532074 0.0012153544 -0.008634421
-0.06086764 0.06727895 0.08313583 0.065012045 0.05698599 -0.00086225825 0.06713249 0.057118144
0.1437794 0.12991597 -0.85612786 0.0056491555 0.048895914 0.0643513 0.042732105 0.06784767
0.0779144 0.32191396 0.42801532 -0.039315358 -0.014841248 0.03188989 -0.03901834 -0.0697308
0.15250395 -0.049420174 -0.024139775 -0.025258414 -0.058062818 -0.0055387043 0.0066163046 -0.10309379
0.40002334 0.3122213 -0.043422647 -0.07310134 0.065508954 -0.042352572 -0.09155862 -0.018926794
0.028147873 -0.114524156 -0.14312942 0.009117767 0.034214687 0.08722376 -0.21936129 0.0103399
0.025716122 0.00529135 -0.0088349525 -0.0450533 -0.21193935 0.03158067 0.040373366 -0.055701833
-0.020122465 -0.10592967 0.021670235 0.09134273 0.27798358 0.007883947 0.027434096 -0.24443945
-0.058705933 0.0018922676 0.05299846 0.0034156865 0.028135069 0.014815466 -0.27750728 0.021925133
0.11000888 -0.046408594 -0.034300294 -0.025318867 -0.024866195 0.1958011 -0.024911147 0.13468464
0.016278995 -0.024085717 0.055548716 0.016448501 -0.102627866 0.36313325 0.072897315 0.2121271
-0.18149807 0.0017187914 -0.035741065 -0.28540623 -0.008161023 0.13372378 -0.07220982 -0.008164066
0.018074958 -0.029156841 0.036537223 -0.034274545 -0.15371193 -0.10293005 -0.00019534914 -0.08229474
-0.16009103 0.06575398 0.08384675 0.09020874 -0.011933328 -0.061042756 0.5630706 0.04258463
0.08014768 0.13049883 -0.1853428 -0.013013569 0.026722325 0.33206746 -0.28593817 0.23156242
0.0099713225 0.06211185 0.06453246 0.005805266 -0.057881877 0.630367 0.02700367 -0.027207712
-0.021623947 -0.017190678 0.12409991 0.54663825 0.14061338 -0.045801114 -0.0031772314 -0.10498467
00000000: 0e0c 123e 01ac a23d 81d1 7ebe 26d5 083e
00000010: 0386 bf3d 5bac 613e f6fc 1e3d 9632 b93c
00000020: 143d 453e 1457 39bd dcac 92bd b87a 2dbd
00000030: b7f7 ab3d 2b26 75bd 5a86 1ebd e301 1bbe
00000040: 8171 7bbd 547c 73bd 0721 963d 1341 43bd
00000050: ed0b e1bd 8046 0dbd be6e 3cbd 836d 37bd
00000060: 782b 573e 2dea 31bd 21d3 33bd 9e7e 01be
00000070: 6dac 8dbd 29c0 97bd 8839 e5bd 678e 73bd
00000080: 030d 713e f395 ebbc 5f92 e6bc 3def 8a3c
00000090: 62d6 c33c 9195 84bc 3c96 93bc e226 1cbd
000000a0: 2a43 a03d 42ad 113d aa6e 1e3e 74f9 1cbc
000000b0: a4c0 d3bc cd66 cb3d f68f 8fbd a70a a3bc
000000c0: 80e2 1d3c e6ef efbd 6a36 c2bd 97b1 e23c
000000d0: f78e 023d ea5a 29bd 3dfb af3c bcd4 90be
000000e0: bc34 3abd 1554 69be 8e15 d5bc d56c 20ba
000000f0: 3fe3 9dbd 1d83 c9bb d284 6ebd 1ce1 323d
00000100: cec9 b13d a871 76bd 4e55 e9bc b931 df3c
00000110: d9a0 54bd 30b5 233d fb33 cf3d d40b 813d
00000120: 0eb1 443d 5936 d9bc f32d 093d d644 003d
00000130: efce 88bd a250 733c 4226 0b3d 06e5 003e
00000140: f008 8abd 7f0c 8fbd 0f59 e73d ef0a 9ebd
00000150: 613d 393b 0c47 573e d9f3 65bd c9a9 69bd
00000160: 8e25 193d 8946 013d 4868 183d e82b cdbc
00000170: ac39 233e eb8d bcbb 408c 613c e1b5 efbc
00000180: 6744 73bd 8008 e2bd 4110 633d 8e82 16be
00000190: 7374 c0bd b7f2 c23b 56e9 18be 1d9c 12be
000001a0: 678b 483e 722a 823d b48e 133c 0cbc 1f3d
000001b0: a876 d43b 4b0f f43d e2c7 943e 87a0 d03c
000001c0: f027 543d ffac 8d3b 5ca3 143d 693f ad3c
000001d0: 584c dbbd d77f 3abd 874c 9f3a 6377 0dbc
000001e0: 5950 79bd 8cc9 893d 1e43 aa3d 0925 853d
000001f0: 246a 693d 2c09 62ba c27c 893d b7f4 693d
00000200: e83a 133e b108 053e 322b 5bbf 8d1c b93b
00000210: 1547 483d 9dca 833d dc07 2f3d b8f3 8a3d
00000220: 9691 9f3d e8d1 a43e d324 db3e 2409 21bd
00000230: b528 73bc f99e 023d b2d1 1fbd 06cf 8ebd
00000240: ff29 1c3e cf6c 4abd c7c0 c5bc bcea cebc
00000250: 47d3 6dbd 057e b5bb 96cd d83b d622 d3bd
00000260: dccf cc3e 78db 9f3e f2db 31bd 28b6 95bd
00000270: 8f29 863d e479 2dbd 1683 bbbd 5d0c 9bbc
00000280: 5e96 e63c a48b eabd 8590 12be b062 153c
00000290: b324 0c3d 5fa2 b23d 3fa0 60be af68 293c
000002a0: 9eaa d23c 1063 ad3b 7ac0 10bc cf89 38bd
000002b0: a106 59be bc5a 013d 8b5e 253d 9b27 64bd
000002c0: ded7 a4bc a8f1 d8bd c785 b13c e611 bb3d
000002d0: dd53 8e3e ac2b 013c 78bd e03c 564e 7abe
000002e0: a275 70bd f705 f83a ea14 593d b6d9 5f3b
000002f0: 847b e63c 91bc 723c 6f15 8ebe 569c b33c
00000300: 564c e13d f016 3ebd 777e 0cbd 8369 cfbc
00000310: 31b4 cbbc 1580 483e 7612 ccbc c5ea 093e
00000320: 875b 853c 694f c5bc 0d87 633d 02bf 863c
00000330: 8f2e d2bd 9aec b93e 304b 953d d937 593e
00000340: a1da 39be 1249 e13a 3965 12bd c420 92be
00000350: d0b5 05bc e3ee 083e bee2 93bd 93c2 05bc
00000360: ef11 943c 54da eebc 0ea8 153d 7763 0cbd
00000370: a966 1dbe fdcc d2bd a3d6 4cb9 258a a8bd
00000380: e7ee 23be 06aa 863d d8b7 ab3d 5cbf b83d
00000390: 0184 43bc f807 7abd 6525 103f 396d 2e3d
000003a0: 7824 a43d 7ca1 053e 81ca 3dbe dd36 55bc
000003b0: c7e8 da3c bf04 aa3e 7d66 92be b31e 6d3e
000003c0: c25e 233c ff68 7e3d 9829 843d 1a3a be3b
000003d0: 8c15 6dbd bb5f 213f cd36 dd3c b5e2 debc
000003e0: b424 b1bc 77d3 8cbc 1828 fe3d 7cf0 0b3f
000003f0: f4fc 0f3e f399 3bbd 1939 50bb 3402 d7bd

backbone.lstm.weight_hh_l0 f4 [512, 128]
-0.07879795 -0.09463745 0.11186644 -0.00057740597 -0.029916223 -0.1196151 -0.13224398 0.039115943
-0.0045851483 -0.04884617 -0.0029082573 -0.020927373 0.038424205 0.0016560471 -0.0501379 0.012610498
-0.0014959458 -0.014898071 0.097812735 0.010343546 -0.020376164 -0.07224917 -0.061114863 -0.021928515
-0.030918272 -0.12239198 0.07046872 -0.09083069 -0.014520582 -0.028125275 0.10866275 0.010528913
-0.0022825068 0.052497372 -0.093041696 -0.0218255 -0.015686508 0.0026139817 -0.00029310255 -0.02136022
-0.007038385 0.045967605 -0.093596496 -0.030026594 -0.017147051 0.024291854 0.02104908 0.06684354
0.019698557 0.0006951726 0.13352118 -0.035400864 0.08434582 0.035948023 0.020229373 0.023275692
-0.05224205 -0.01936242 0.019396704 -0.012050909 -0.095036864 0.11679823 -0.012244589 0.0462051
-0.055733565 0.07010506 -0.081892736 0.10485207 -0.053622887 -0.0075714937 -0.047894843 -0.05631166
0.03037984 -0.08671357 0.025817454 0.0051149703 0.21418586 0.09971537 0.015696872 -0.0682073
-0.021230081 0.053575575 0.046369262 0.0056178416 -0.014086383 -0.033182006 -0.019655054 -0.10017057
-0.027475867 0.02594717 0.019105688 -0.073614314 0.0039393203 0.023509147 0.025709061 0.019944625
0.018101858 0.08351146 -0.0032038332 0.02043074 0.0018131444 0.021263758 -0.034998078 0.04300296
0.112718314 -0.042387888 -0.005552246 0.006492328 -0.050693344 0.055253144 0.054177362 0.16062859
-0.10008363 -0.0054858658 -0.029745428 -0.016997298 0.020706102 -0.028598217 -0.085178345 0.14272317
0.0008323451 0.028563818 0.060891908 -0.007157553 0.031813417 -0.021524634 0.0102920495 -0.009000813
-0.035932735 -0.01555283 -0.029644188 0.09604207 -0.051969312 -0.07541597 -0.055664834 0.032278128
-0.016998803 -0.004946235 -0.03049026 0.08214272 0.11169738 0.0234047 0.061590575 -0.023655804
-0.04357551 -0.008073342 0.11266112 -0.04366514 -0.02198281 0.037650142 0.033390068 -0.11648083
0.108623035 -0.054593686 0.034347635 -0.04225199 -0.078383096 0.078845516 -0.053774573 -0.08931434
0.01540405 -0.055500332 -0.057925202 -0.02892132 -0.06390185 -0.005414136 -0.009356889 -0.031648077
-0.014172005 0.08807235 -0.018580945 0.022253042 -0.05744468 -0.08347856 0.03927757 0.08575252
-0.07167112 -0.012202872 0.025215367 -0.08218107 -0.0034751424 -0.09382609 -0.067685105 0.07643821
0.13918759 -0.042006966 0.1940957 -0.018378554 -0.059519596 0.0067124907 0.05557478 -0.05744792
0.008815767 0.18372415 -0.012936403 -0.012846216 0.18162477 0.022559455 0.0117520625 0.08563916
-0.10381012 -0.062027756 0.15296271 0.09929941 0.018460173 0.11960058 -0.04220378 -0.05509631
-0.062110063 0.09113492 0.030406794 0.0338408 0.115034446 -0.032523368 0.10468939 -0.039442785
0.110167526 -0.0259141 0.10349665 -0.111002 -0.09475719 -0.0640684 0.08711103 0.014076572
0.03287255 -0.097749695 0.068179436 0.047727074 0.028731596 0.0018096268 -0.055221166 0.012147185
0.033687945 0.11775942 -0.007320327 0.061041176 0.104908995 0.023939058 0.038742382 0.086531684
0.054909363 0.15661334 0.06751103 0.12717311 -0.08270719 0.06643207 -0.035154823 -0.07740551
-0.011465047 -0.024446933 -0.043723095 0.045386195 0.09068226 0.05585654 0.02730053 -0.15867047
00000000: d260 a1bd 48d1 c1bd 3b1a e53d 0f5d 17ba
00000010: de12 f5bc c3f8 f4bd f76a 07be 0a38 203d
00000020: 033f 96bb ec12 48bd 7698 3ebb e26f abbc
00000030: b362 1d3d b80f d93a 665d 4dbd 439c 4e3c
00000040: 9d13 c4ba 0a17 74bc 0b52 c83d fa77 293c
00000050: eaeb a6bc 5ff7 93bd 9453 7abd 6ea3 b3bc
00000060: 5148 fdbc a5a8 fabd e751 903d 7105 babd
00000070: bce7 6dbc fa66 e6bc 938a de3d 7681 2c3c
00000080: 1c96 15bb 7c07 573d a58c bebd 64cb b2bc
00000090: fe80 80bc 564f 2b3b 8fab 99b9 a1fb aebc
000000a0: 41a2 e6bb 8748 3c3d 85af bfbd 55fa f5bc
000000b0: f977 8cbc b6ff c63c 1f6f ac3c 44e5 883d
000000c0: de5e a13c 3e3c 363a c7b9 083e 7f00 11bd
000000d0: 80bd ac3d 3c3e 133d 12b8 a53c aaac be3c
000000e0: c3fb 55bd f09d 9ebc d6e5 9e3c 2d71 45bc
000000f0: b0a2 c2bd e933 ef3d 879d 48bc 8f41 3d3d
00000100: e148 64bd 3e93 8f3d 61b7 a7bd afbc d63d
00000110: aca3 5bbd 4b1a f8bb 622d 44bd 0ea7 66bd
00000120: 24df f83c e296 b1bd 207f d33c 7b9b a73b
00000130: 8a53 5b3e 9237 cc3d ba96 803c 45b0 8bbd
00000140: b5ea adbc 1072 5b3d b2ed 3d3d df15 b83b
00000150: 93ca 66bc dbe9 07bd a303 a1bc 3a26 cdbd
00000160: 1215 e1bc 298f d43c 8883 9c3c 1ac3 96bd
00000170: 6a15 813b 4196 c03c cf9b d23c e962 a33c
00000180: 594a 943c 0e08 ab3d 67f7 51bb 5e5e a73c
00000190: 08a7 ed3a 5531 ae3c 255a 0fbd df23 303d
000001a0: dcd8 e63d ec9e 2dbd 9def b5bb 98bd d43b
000001b0: d3a3 4fbd 1f51 623d 15e9 5d3d d27b 243e
000001c0: a5f8 ccbd c7c2 b3bb afac f3bc eb3d 8bbc
000001d0: d89f a93c cf46 eabc fc71 aebd 0626 123e
000001e0: bc31 5a3a abfe e93c cb69 793d e889 eabb
000001f0: c94e 023d 6e54 b0bc fc9f 283c 2578 13bc
00000200: 342e 13bd 4cd1 7ebc 5ed8 f2bc b4b1 c43d
00000210: c6dd 54bd b073 9abd cf00 64bd 1236 043d
00000220: 1341 8bbc 0714 a2bb b6c6 f9bc 713a a83d
00000230: 99c1 e43d 37bb bf3c 6646 7c3d d1c9 c1bc
00000240: 3c7c 32bd 0d46 04bc e0ba e63d 38da 32bd
00000250: 4b15 b4bc 0937 1a3d 06c4 083d 808d eebd
00000260: c175 de3d a19d 5fbd 1bb0 0c3d 6c10 2dbd
00000270: 5187 a0bd c279 a13d ba42 5cbd 70ea b6bd
00000280: 4561 7c3c 5154 63bd fa42 6dbd 67ec ecbc
00000290: f9de 82bd 1169 b1bb a34d 19bc 6aa1 01bd
000002a0: b231 68bc 475f b43d 1137 98bc 034c b63c
000002b0: 1d4b 6bbd cff6 aabd 84e1 203d 049f af3d
000002c0: 4fc8 92bd 8eee 47bc 7590 ce3c 8d4e a8bd
000002d0: 37bf 63bb e527 c0bd 7d9e 8abd a38b 9c3d
000002e0: 3187 0e3e 7f0f 2cbd 06c1 463e 9f8e 96bc
000002f0: d2ca 73bd 74f4 db3b 61a2 633d 834e 6bbd
00000300: 0270 103c 2f22 3c3e 35f3 53bc ef78 52bc
00000310: d8fb 393e 9bce b83c b98b 403c 9563 af3d
00000320: 669a d4bd d110 7ebd 42a2 1c3e 7d5d cb3d
00000330: ca39 973c 26f1 f43d dfdd 2cbd abac 61bd
00000340: 1f67 7ebd f2a4 ba3d ab17 f93c a79c 0a3d
00000350: 2e97 eb3d 3937 05bd 6467 d63d c28e 21bd
00000360: 839f e13d cf49 d4bc 0df6 d33d 0455 e3bd
00000370: 0f10 c2bd 4b36 83bd 4567 b23d 6ca1 663c
00000380: 5ea5 063d fe30 c8bd a9a1 8b3d 777d 433d
00000390: 865e eb3c 0031 ed3a 972f 62bd fd04 473c
000003a0: 5ffc 093d da2b f13d 5bdf efbb 5006 7a3d
000003b0: 87da d63d d81b c43c 55b0 1e3d 8637 b13d
000003c0: a4e8 603d 3f5f 203e 3943 8a3d ab39 023e
000003d0: 6362 a9bd 8a0d 883d 81fe 0fbd c886 9ebd
000003e0: e4d7 3bbc ef44 c8bc fd16 33bd e0e6 393d
000003f0: 9fb7 b93d d4c9 643d 5ca5 df3c 837a 22be

backbone.lstm.bias_ih_l0 f4 [512]
0.060203522 -0.263771 0.02007744 -0.010452532 -0.12138752 -0.027624978 0.0550553 -0.041155595
0.07536079 0.08895906 0.037954498 0.022871703 -0.012011621 0.023146285 0.0930301 -0.020465227
0.1199665 -0.047327965 -0.016865015 -0.025022242 0.0155821 -0.004643732 0.05560519 -0.116341665
0.030798556 -0.045384213 0.016328547 0.024870543 0.023469262 -0.0028238704 0.034079347 0.018155815
0.0056178533 0.08824535 0.052117433 0.050370038 0.06277601 0.042411722 0.113349386 0.09659126
0.048682783 -0.06648892 0.06539387 -0.07571927 0.024455886 0.13153696 -0.094774656 -0.04183111
0.032948837 0.10125929 -0.10740114 0.04283476 -0.14028852 0.13406946 -0.0821471 -0.05649597
-0.02115221 -0.036887646 0.060825855 0.048945997 0.015415649 0.11746652 -0.0043781847 0.07171528
0.021338545 0.06678928 0.08894173 0.009023157 0.06059763 -0.014172964 0.00052079285 0.02378264
0.092905216 0.030144533 -0.011536128 0.010062366 0.023021696 0.007255732 0.0896646 0.042175386
-0.048346806 0.12453192 -0.1541294 0.07707318 0.02418375 0.07467675 0.014068544 0.013861672
0.008967633 0.024054753 -0.0047282814 0.081667826 -0.031912472 0.025791913 -0.008005225 -0.05053554
-0.05165619 -0.01072822 0.08599839 0.0030148095 -0.0643442 0.08381116 0.004876827 0.036964525
-0.01763408 -0.18181272 0.021264346 0.037567407 0.106033914 -0.038113676 0.031014435 -0.03260732
-0.01047038 0.05002349 -0.049459517 0.041050978 0.00940479 -0.041377448 -0.05507813 0.06853655
0.06625285 -0.065809965 0.022964435 0.031091912 -0.06506225 0.033021398 0.17363562 0.005233541
0.036421943 0.19099046 0.09210095 0.16990854 0.034673627 0.12204632 0.10160652 0.028154211
0.09624289 0.09706582 0.15280777 0.078558676 0.10197092 0.14727294 -0.027554868 0.17007974
0.049697354 0.009236535 0.071365595 -0.044394672 0.08970275 0.013656723 0.12921077 0.019763196
0.052521396 0.029866923 0.047227304 -0.010785513 -0.011061123 0.0051556705 -0.029861048 0.016965654
-0.026054038 0.14025372 0.17584693 0.14539441 -0.015297331 0.20973101 0.04438301 0.04579741
1.0129226e-05 0.0203731 0.045463085 0.080604 0.15880582 0.059531227 0.012434217 0.093330584
0.11613999 0.03868818 0.09397141 0.09824836 0.1949818 0.16654101 0.081269115 0.08731549
0.054252632 0.0072793732 0.15582697 -0.033514146 0.032244872 -0.008123754 0.06279398 0.07675473
0.04040315 0.048744358 -0.0048632477 -0.0115812905 0.11145475 0.07337707 0.14654744 0.112680726
0.1419209 0.065018244 0.033314038 0.15518573 0.005685514 0.006773558 0.16871381 0.15944313
0.14721318 0.14411429 0.14355943 0.10746167 0.09947109 0.048196282 0.13036668 -0.02230811
0.04576118 0.16241537 0.1774882 0.0750815 0.14606756 0.06170708 0.09472592 0.0011742708
0.22925039 -0.0064621437 0.05582776 0.012406673 0.009132273 0.11522873 0.08326539 0.038794193
0.09860099 0.16399968 0.029623741 0.03537604 0.0016916374 0.061775275 0.04235803 0.08362283
0.096342005 0.18446496 0.11986789 0.11631945 0.17420147 -0.041523617 8.560765e-05 0.09698006
0.042538464 0.13596135 0.10855675 0.038319938 0.04445427 0.100758076 0.18334444 0.07786046
00000000: f897 763d fe0c 87be 7279 a43c 1941 2bbc
00000010: 059a f8bd c74d e2bc ab81 613d c592 28bd
00000020: c256 9a3d 2b30 b63d 2d76 1b3d 705d bb3c
00000030: 64cc 44bc 479d bd3c 9186 be3d b1a6 a7bc
00000040: ffb0 f53d f8da 41bd 8028 8abc 72fb ccbc
00000050: 104c 7f3c 732a 98bb 45c2 633d 8a44 eebd
00000060: 414d fc3c cce4 39bd 72c3 853c 4fbd cb3c
00000070: 9c42 c03c af10 39bb c996 0b3d 81bb 943c
00000080: f815 b83b fab9 b43d 1779 553d d050 4e3d
00000090: b590 803d eab7 2d3d b923 e83d a3d1 c53d
000000a0: 9967 473d 582b 88bd 39ed 853d b412 9bbd
000000b0: b657 c83c a0b1 063e 3719 c2bd 1957 2bbd
000000c0: 5cf5 063d 0861 cf3d 21f5 dbbd 8073 2f3d
000000d0: cba7 0fbe 8149 093e bd3c a8bd 5168 67bd
000000e0: 6647 adbc 8017 17bd 8824 793d 997b 483d
000000f0: eb91 7c3c 4992 f03d e076 8fbb 76df 923d
00000100: 2cce ae3c d1c8 883d 1527 b63d ddd5 133c
00000110: 3835 783d b835 68bc d185 083a d0d3 c23c
00000120: 1745 be3d abf1 f63c 0702 3dbc 9fdc 243c
00000130: ff97 bc3c 7ec1 ed3b 13a2 b73d 19c0 2c3d
00000140: 4d07 46bd 970a ff3d 19d4 1dbe 8bd8 9d3d
00000150: 001d c63c 20f0 983d c07f 663c 111c 633c
00000160: fbec 123c 790e c53c b3ef 9abb 7641 a73d
00000170: a7b6 02bd 9049 d33c 5928 03bc 5bfe 4ebd
00000180: 7195 53bd 6bc5 2fbc ed1f b03d 1c94 453b
00000190: e4c6 83bd 2fa5 ab3d cacd 9f3b 1d68 173d
000001a0: 5975 90bc 1d2d 3abe 9132 ae3c 48e0 193d
000001b0: 4f28 d93d 161d 1cbd fc11 fe3c 418f 05bd
000001c0: f58b 2bbc 6ee5 4c3d 1096 4abd 1225 283d
000001d0: 8c16 1a3c 667b 29bd 9b99 61bd e45c 8c3d
000001e0: 93af 873d 60c7 86bd e91f bc3c 77b4 fe3c
000001f0: 5b3f 85bd 7241 073d 89cd 313e 207e ab3b
00000200: 2d2f 153d 0193 433e 6c9f bc3d 81fc 2d3e
00000210: ef05 0e3d 6cf3 f93d 1417 d03d a9a3 e63c
00000220: fe1a c53d 72ca c63d a479 1c3e 5fe3 a03d
00000230: 21d6 d03d b8ce 163e bfba e1bc 6229 2e3e
00000240: 748f 4b3d d654 173c 2028 923d 30d7 35bd
00000250: 13b6 b73d 73c0 5f3c d44f 043e 6de6 a13c
00000260: ad20 573d 7aab f43c 6b71 413d b8b5 30bc
00000270: b639 35bc e6f0 a83b 289f f4bc 8efb 8a3c
00000280: 476f d5bc ac9e 0f3e 3811 343e 46e2 143e
00000290: a8a1 7abc bac3 563e f6ca 353d 1196 3b3d
000002a0: b2f0 2937 7de5 a63c 8037 3a3d b613 a53d
000002b0: fe9d 223e 04d7 733d e3b8 4b3c 1b24 bf3d
000002c0: ceda ed3d 7f77 1e3d 1574 c03d 7036 c93d
000002d0: 4fa9 473e ba89 2a3e 6c70 a63d 77d2 b23d
000002e0: 0238 5e3d cf87 ee3b 1b91 1f3e 2146 09bd
000002f0: 3313 043d 7e19 05bc 219a 803d 9531 9d3d
00000300: c67d 253d 2aa8 473d e15b 9fbb 74bf 3dbc
00000310: 6342 e43d b846 963d 8810 163e 27c5 e63d
00000320: b653 113e 4928 853d 4d74 083d 02e9 1e3e
00000330: 8c4d ba3b b9f4 dd3b 50c3 2c3e 0f45 233e
00000340: 0dbf 163e b292 133e 3e01 133e dd14 dc3d
00000350: 80b7 cb3d 7769 453d d87e 053e 7fbf b6bc
00000360: 1370 3b3d 3750 263e 77bf 353e 54c4 993d
00000370: bc92 153e 90c0 7c3d aaff c13d fde9 993a
00000380: 9dc0 6a3e 64c0 d3bb a6ab 643d 5c45 4b3c
00000390: 879f 153c 0afd eb3d 0b87 aa3d a9e6 1e3d
000003a0: 51ef c93d 88ef 273e 7dad f23c 77e6 103d
000003b0: efb9 dd3a 1208 7d3d 9d7f 2d3d 7242 ab3d
000003c0: f54e c53d 62e4 3c3e 4c7d f53d e438 ee3d
000003d0: df61 323e ab14 2abd 4288 b338 7b9d c63d
000003e0: d03c 2e3d 7439 0b3e 0053 de3d 5ef5 1c3d
000003f0: ae15 363d 405a ce3d a5be 3b3e 4e75 9f3d

backbone.lstm.bias_hh_l0 f4 [512]
-0.0069925436 -0.25332466 -0.037193082 -0.0011571139 -0.14043398 -0.067061655 0.029988904 -0.03877376
0.08128143 0.10357595 0.018791426 -0.010017834 -0.016222635 0.023099365 0.10077138 0.009560235
0.10648597 -0.023305185 -0.0012412816 0.051093344 -0.045045916 -0.0021171444 0.04449256 0.02498397
0.035907313 -0.048544858 0.038661428 -0.048366044 0.046366535 0.026113898 -0.024361288 -0.00685247
0.013409533 0.080327116 0.061450735 0.034857497 0.06403932 0.027114931 0.10998178 0.083205305
-0.029472794 -0.023304297 0.025029516 -0.090512335 0.049635988 0.10013058 -0.093788765 -0.06242507
0.041463602 0.068541616 -0.063764356 0.08957609 -0.12478257 0.14605342 -0.16799529 -0.0799701
-0.086372554 -0.041735526 0.02502259 0.076964706 -0.0072991014 0.12762862 -0.03842905 0.039675117
0.025335832 0.09174483 0.083412364 0.02117117 0.04306407 -0.012585802 0.01156609 0.021093791
0.039124407 0.026622936 -0.0041849865 -0.026324019 0.011205526 0.010649356 0.07328909 0.03726078
-0.080595806 0.14295915 -0.11493008 0.06429815 0.0070970585 0.04385511 0.014780596 -0.023299152
-0.010886035 0.016880825 -0.012126449 0.07653755 -0.063243404 0.0013842752 -0.0025121875 -0.06422009
-0.13579795 -0.01275017 0.078945644 -0.0051981276 -0.075755484 0.05177391 -0.011383264 0.01406583
0.022798687 -0.13941875 -0.007156214 0.034461703 0.097972766 0.046993252 -0.0077786297 -0.018873792
-0.0036444666 0.07054664 -0.0106677 0.026905157 0.021989938 -0.0711788 -0.06757646 0.02920991
0.048656013 -0.07373634 -0.004334003 0.044963393 -0.02186845 0.048213605 0.15526569 0.0047634724
0.03798213 0.20123558 0.14077894 0.12652205 0.09776318 0.15458114 0.09517098 0.07106652
0.10721976 0.0815882 0.15122826 0.0791252 0.110881105 0.19813246 0.048421893 0.17302866
0.07050474 0.0002702188 0.005702676 0.012449319 0.08395892 0.027047824 0.14338782 -0.059346426
0.04540331 -0.039359923 0.032560095 -0.013914361 0.0054565673 0.024615817 0.008491454 0.017575124
0.047353078 0.13551864 0.19608073 0.12679078 -0.03481488 0.16087767 0.047952987 0.01486315
0.0070621087 0.025762755 0.049765997 0.011266994 0.1770102 0.011193521 0.021891614 0.024745028
0.07950153 0.12800156 0.089538656 0.09719997 0.11899011 0.15998726 0.17669448 0.10468194
-0.0055165924 0.029384088 0.12985246 -0.03418879 0.05064899 -0.0101775965 0.15330347 0.03365397
0.09116707 0.09359095 0.052139 0.016443979 0.1329827 0.12640478 0.1535311 0.09324423
0.1428311 0.049196552 0.08845749 0.061436545 0.08180732 0.0018403851 0.15597169 0.19517258
0.15863982 0.17399001 0.22405833 0.07015019 0.09729532 0.10977763 0.092323236 0.061854713
0.033319537 0.11421853 0.062501304 0.12571773 0.09977225 0.10295999 0.101144895 0.052327577
0.20588498 0.06830917 0.07921369 0.027313374 -0.016317125 0.17463279 0.08903401 0.07085638
0.061471347 0.16019645 0.030690605 0.04074192 -0.012346809 0.06384466 0.03661106 0.15155375
0.10603978 0.19553295 0.124873474 0.12422743 0.15228248 -0.05456291 0.00012673123 0.15668891
0.025586555 0.13592826 0.12355452 0.07859655 0.10350882 0.13239148 0.1720168 0.08963843
00000000: b521 e5bb c5b3 81be c657 18bd 4daa 97ba
00000010: edcd 0fbe 9f57 89bd 4aab f53c 3cd1 1ebd
00000020: e176 a63d a11f d43d 7af0 993c d721 24bc
00000030: 55e5 84bc e13a bd3c 3a61 ce3d 88a2 1c3c
00000040: 5115 da3d 84ea bebc 80b2 a2ba 4147 513d
00000050: 1182 38bd cabf 0abb d53d 363d 2fab cc3c
00000060: 8c13 133d f9d6 46bd 725b 1e3d 791b 46bd
00000070: d6ea 3d3d d0ec d53c 5391 c7bc af8a e0bb
00000080: a8b3 5b3c 8b82 a43d c4b3 7b3d bcc6 0e3d
00000090: 0c27 833d 2220 de3c 213e e13d 8b67 aa3d
000000a0: ee70 f1bc a7e8 bebc b30a cd3c 885e b9bd
000000b0: 1b4f 4b3d 4311 cd3d 5314 c0bd 6eb1 7fbd
000000c0: bdd5 293d 8c5f 8c3d e396 82bd ab73 b73d
000000d0: 018e ffbd 078f 153e f506 2cbe 5dc7 a3bd
000000e0: 18e4 b0bd dff2 2abd 2dfc cc3c ac9f 9d3d
000000f0: 4d2d efbb 14b1 023e c867 1dbd 6082 223d
00000100: 178d cf3c b7e4 bb3d 1ad4 aa3d 296f ad3c
00000110: f363 303d ae34 4ebc b37f 3d3c e3cc ac3c
00000120: ea40 203d 5818 da3c 3622 89bb 78a5 d7bc
00000130: 6297 373c a37a 2e3c 9718 963d c29e 183d
00000140: 6a0f a5bd e263 123e 7660 ebbd c0ae 833d
00000150: 718e e83b 6aa1 333d 502a 723c dddd bebc
00000160: 575b 32bc a849 8a3c 03ae 46bc b8bf 9c3d
00000170: c285 81bd 9170 b53a 83a3 24bb d385 83bd
00000180: 9e0e 0bbe 17e6 50bc 41ae a13d 0e55 aabb
00000190: b125 9bbd e110 543d df80 3abc 5e74 663c
000001a0: 50c4 ba3c cac3 0ebe ad7e eabb b727 0d3d
000001b0: f2a5 c83d ff7b 403d e0e3 febb 369d 9abc
000001c0: 01d8 6ebb c27a 903d 94c7 2ebc 3468 dc3c
000001d0: 3e24 b43c 31c6 91bd 8765 8abd 9f49 ef3c
000001e0: 874b 473d 1403 97bd 4104 8ebb 892b 383d
000001f0: 7725 b3bc a17b 453d f8fd 1e3e e716 9c3b
00000200: 2693 1b3d b310 4e3e 5b28 103e ff8e 013e
00000210: 1038 c83d 854a 1e3e 01e9 c23d 538b 913d
00000220: 0996 db3d b717 a73d 95db 1a3e 650c a23d
00000230: a215 e33d 3ce3 4a3e 0956 463d 6d2e 313e
00000240: ca64 903d 27ac 8d39 83dd ba3b 3af8 4b3c
00000250: a7f2 ab3d 6693 dd3c 42d4 123e 3d15 73bd
00000260: d2f8 393d df37 21bd bc5d 053d 0ff9 63bc
00000270: 01cd b23b 1ca7 c93c bd1f 0b3c b5f9 8f3c
00000280: 4df5 413d 66c5 0a3e 63c9 483e 71d5 013e
00000290: 0c9a 0ebd 1ebd 243e 5a6a 443d 9284 733c
000002a0: 4369 e73b 6a0c d33c 6ed7 4b3d 3399 383c
000002b0: 2942 353e 0865 373c 0b56 b33c 16b6 ca3c
000002c0: b3d1 a23d d712 033e 0b60 b73d c710 c73d
000002d0: 16b1 f33d b3d3 233e 66ef 343e 7c63 d63d
000002e0: 88c4 b4bb e6b6 f03c 0bf8 043e 8b09 0cbd
000002f0: 5175 4f3d efbf 26bc 96fb 1c3e bfd8 093d
00000300: cdb5 ba3d 9dac bf3d b48f 553d 86b5 863c
00000310: 9e2c 083e 4170 013e 4237 1d3e d5f6 be3d
00000320: 5142 123e 5382 493d 3329 b53d e3a4 7b3d
00000330: 998a a73d 1439 f13a 0bb7 1f3e 52db 473e
00000340: 7a72 223e 702a 323e 8c6f 653e e7aa 8f3d
00000350: c542 c73d 18d3 e03d f713 bd3d 5e5b 7d3d
00000360: 117a 083d 68eb e93d af00 803d 26bc 003e
00000370: 6555 cc3d b0dc d23d 0e25 cf3d 7155 563d
00000380: 83d3 523e aee5 8b3d c93a a23d 4cc0 df3c
00000390: 7eab 85bc f0d2 323e 7757 b63d 261d 913d
000003a0: 61c9 7b3d 8a0a 243e dd6a fb3c 00e1 263d
000003b0: 454a 4abc fdc0 823d 7bf5 153d e830 1b3e
000003c0: 622b d93d ca39 483e aabd ff3d f36a fe3d
000003d0: f0ef 1b3e 5c7d 5fbd 28e3 0439 0f73 203e
000003e0: e59a d13c c730 0b3e 270a fd3d 3af7 a03d
000003f0: 6ffc d33d a291 073e 2c25 303e 5a94 b73d

backbone.output1.weight f4 [128, 128]
-1.6554e-41 -2.2484e-41 1.397e-41 -6.4112e-41 -1.981e-41 9.193e-42 6.5603e-41 4.4456e-41
-5.567e-42 -2.6158e-41 -3.625e-41 6.5965e-41 -4.9024e-41 5.0277e-41 6.6612e-41 8.238e-42
2.6333e-41 4.2707e-41 3.4506e-41 2.094e-42 -2.592e-41 -6.8815e-41 -2.287e-41 8.605e-42
-3.895e-41 5.6757e-41 -5.0148e-41 3.2901e-41 -3.088e-41 1.1901e-41 -3.0373e-41 -6.6783e-41
1.3998e-41 5.2281e-41 -3.43e-41 4.4502e-41 -3.8047e-41 -1.925e-41 4.5377e-41 -1.5175e-41
4.3959e-41 3.2332e-41 -5.0237e-41 -6.4292e-41 4.4519e-41 8.16e-42 -5.768e-41 6.0243e-41
5.5095e-41 5.0745e-41 -9.12e-43 -2.5534e-41 -6.8054e-41 9.434e-42 1.4555e-41 1.006e-41
6.7e-41 8.018e-42 -3.4602e-41 6.1377e-41 -2.4545e-41 6.1836e-41 -1.7732e-41 1.0891e-41
2.7275e-41 6.4894e-41 6.155e-42 -6.7e-41 6.1692e-41 -3.3795e-41 2.855e-41 2.2978e-41
3.9752e-41 6.155e-42 -6.6112e-41 -1.8267e-41 -2.6608e-41 4.4815e-41 2.7963e-41 -3.774e-42
2.5791e-41 -3.7525e-41 -6.363e-41 5.3681e-41 -4.7435e-41 3.767e-42 5.1098e-41 -2.7964e-41
-5.262e-42 -6.8316e-41 -2.431e-41 5.2399e-41 1.5912e-41 -4.1911e-41 -6.6913e-41 -4.48e-42
1.9388e-41 1.7752e-41 6.4584e-41 -6.6473e-41 -3.5323e-41 -4.7648e-41 -2.0537e-41 3.6274e-41
-4.9257e-41 3.6306e-41 -1.9175e-41 6.132e-42 6.5211e-41 -3.1944e-41 1.01e-43 4.787e-42
-5.1097e-41 3.0798e-41 1.254e-41 5.9306e-41 -8.758e-42 2.2268e-41 2.0365e-41 -1.4994e-41
4.4228e-41 3.88e-42 4.944e-42 -6.094e-42 4.35e-41 -4.9214e-41 -5.583e-41 -5.4803e-41
0.19295862 0.2632413 -0.24691455 -0.037692573 0.18599625 -0.26528022 -0.13877632 -0.053959507
0.07519746 0.013698611 -0.30512005 -0.010165865 -0.19930425 -0.1500136 -0.17219539 -0.18987183
0.09267248 0.13863246 0.034376815 0.11554037 0.20582029 -0.15665877 -0.20750831 0.15257403
-0.05883398 -0.18259028 -0.0045345337 -0.06998046 0.16626759 -0.013492399 -0.09855473 0.23149109
-0.084823795 0.113846965 -0.19851989 0.013329914 -0.11665139 -0.11174568 -0.07355865 -0.11538187
0.048696786 0.2037993 0.11743299 0.040090524 -0.10402583 0.07051192 -0.02044569 -0.08812762
0.13828886 -0.12011165 0.026201552 0.18679938 0.25697342 0.12145077 0.11031089 -0.037122924
0.08010085 -0.07826374 -0.07295374 0.12123577 -0.21400465 0.12904534 -0.12869085 0.13787353
-0.028809693 -0.058656335 0.099263765 0.27887437 -0.12653911 0.08465617 0.020196155 -0.032989856
0.047754664 -0.19103043 0.04039845 -0.22022 -0.1441846 -0.008062502 0.16811034 0.07663831
0.37614435 -0.12082195 0.26365525 -0.06168905 -0.088266194 0.07017748 -0.11854608 -0.0035070537
-0.13965005 0.14503582 -0.029390851 0.061264724 0.059527107 -0.01651678 -0.013329249 -0.018388981
-0.18848647 0.10123484 -0.15765093 0.2258026 -0.052884873 -0.10040486 -0.14696507 0.123324476
0.17429112 0.09172434 -0.15123099 -0.1815595 0.009813895 -0.081806436 0.12459385 -0.013635219
0.08800617 -0.135404 -0.095783785 -0.10284897 0.04523727 0.0028279368 -0.016753329 -0.030525861
0.019826673 -0.057932228 -0.04873816 -0.20370884 0.0024655487 -0.10549689 -0.07829105 0.028574295
00000000: 252e 0080 ad3e 0080 f126 0000 b8b2 0080
00000010: 3937 0080 a019 0000 e0b6 0000 ed7b 0000
00000020: 850f 0080 eb48 0080 0d65 0080 e2b7 0000
00000030: a988 0080 278c 0000 b0b9 0000 f716 0000
00000040: 6849 0000 0d77 0000 3060 0000 d605 0000
00000050: 4148 0080 d4bf 0080 c13f 0080 fd17 0000
00000060: 946c 0080 379e 0000 cb8b 0080 b75b 0000
00000070: 1556 0080 2d21 0000 ab54 0080 2aba 0080
00000080: 0527 0000 bd91 0000 9d5f 0080 0e7c 0000
00000090: 0f6a 0080 a935 0080 7e7e 0000 4d2a 0080
000000a0: 8a7a 0000 215a 0000 0a8c 0080 38b3 0080
000000b0: 1a7c 0000 bf16 0000 caa0 0080 efa7 0000
000000c0: 9599 0000 758d 0000 8b02 0080 2e47 0080
000000d0: b5bd 0080 4c1a 0000 9328 0000 0b1c 0000
000000e0: c5ba 0000 5a16 0000 7560 0080 18ab 0000
000000f0: 6c44 0080 60ac 0000 6e31 0080 5c1e 0000
00000100: 084c 0000 e6b4 0000 2811 0000 c5ba 0080
00000110: f9ab 0000 355e 0080 964f 0000 0e40 0000
00000120: d06e 0000 2811 0000 4bb8 0080 ec32 0080
00000130: 2c4a 0080 ed7c 0000 f34d 0000 850a 0080
00000140: e547 0000 9b68 0080 60b1 0080 a495 0000
00000150: 3b84 0080 800a 0000 718e 0000 f44d 0080
00000160: ab0e 0080 70be 0080 c443 0080 1192 0000
00000170: 5b2c 0000 d574 0080 87ba 0080 7d0c 0080
00000180: 0c36 0000 7c31 0000 09b4 0000 4db9 0080
00000190: 7762 0080 d384 0080 4039 0080 1e65 0000
000001a0: 4f89 0080 3565 0000 7435 0080 1811 0000
000001b0: c8b5 0000 0c59 0080 4800 0000 580d 0000
000001c0: 708e 0080 da55 0000 f522 0000 52a5 0000
000001d0: 6a18 0080 133e 0000 c538 0000 cc29 0080
000001e0: 4a7b 0000 d10a 0000 c80d 0000 fd10 0080
000001f0: 4379 0000 3089 0080 a29b 0080 c598 0080
00000200: f296 453e 90c7 863e 2bd7 7cbe 8763 1abd
00000210: cd75 3e3e cfd2 87be 611b 0ebe a504 5dbd
00000220: 2001 9a3d 2470 603c b238 9cbe ba8e 26bc
00000230: 6a16 4cbe 2a9d 19be fd53 30be c36d 42be
00000240: 12cb bd3d abf5 0d3e b4ce 0c3d 6ea0 ec3d
00000250: 8ec2 523e 286b 20be 0f7d 54be 5e3c 1c3e
00000260: e6fb 70bd f2f8 3abe 6d96 94bb ea51 8fbd
00000270: 0d42 2a3e 390f 5dbc 10d7 c9bd 000c 6d3e
00000280: 19b8 adbd 9928 e93d cc48 4bbe b665 5a3c
00000290: ede6 eebd ebda e4bd eba5 96bd 544d ecbd
000002a0: 4876 473d c4b0 503e b580 f03d f635 243d
000002b0: 7f0b d5bd 8e68 903d b87d a7bc 417c b4bd
000002c0: 989b 0d3e 19fd f5bd a3a4 d63c 5648 3f3e
000002d0: 0592 833e 2ebb f83d adea e13d 350e 18bd
000002e0: ea0b a43d bd48 a0bd c568 95bd 764a f83d
000002f0: 0924 5bbe 7624 043e 89c7 03be b82e 0d3e
00000300: 4e02 ecbc a041 70bd cd4a cb3d 9fc8 8e3e
00000310: 7893 01be 3760 ad3d 6872 a53c 5f20 07bd
00000320: 659a 433d 7b9d 43be d878 253d 5a81 61be
00000330: 21a5 13be 9618 04bc 1e25 2c3e 8cf4 9c3d
00000340: fe95 c03e 8071 f7bd d2fd 863e a8ad 7cbd
00000350: e8c4 b4bd 36b9 8f3d 4ac8 f2bd 99d6 65bb
00000360: 6c00 0fbe 4584 143e 15c5 f0bc b8f0 7a3d
00000370: b2d2 733d 334e 87bc ec62 5abc 7da4 96bc
00000380: 9902 41be 3654 cf3d 3f6f 21be cc38 673e
00000390: cf9d 58bd 10a1 cdbd 037e 16be 8b91 fc3d
000003a0: 5f79 323e f9d9 bb3d 4cdc 1abe bcea 39be
000003b0: 76ca 203c 228a a7bd 0f2b ff3d 4166 5fbc
000003c0: 943c b43d 59a7 0abe 4a2a c4bd 7ba2 d2bd
000003d0: b74a 393d e854 393b 473e 89bc 5f11 fabc
000003e0: 8c6b a23c 584a 6dbd aaa1 47bd 0d99 50be
000003f0: 0b95 213b c10e d8bd 0f57 a0bd a414 ea3c

backbone.output1.bias f4 [128]
-2.0449732e-35 0.022784881 0.08777373 0.078278676 -0.0096022235 0.014912436 0.088324055 0.13183835
0.15813078 0.013549498 0.12435723 0.09361583 0.12175477 0.09319441 0.11042011 0.020929413
0.05188613 0.004231601 0.12484934 0.122155406 0.10589747 0.07391321 0.13010687 0.031076211
0.021597875 -0.023767214 0.014610882 -1.6423662e-26 0.1477018 0.037772946 0.14555867 0.15407236
0.0005497923 0.04998046 0.056142166 0.15954992 0.15875702 -0.015353378 0.095654145 -0.0059392294
-3.8194747e-07 -4.1296466e-06 -4.318048e-08 -1.2402878e-05 -5.5698102e-12 -1.0721235e-05 -9.262317e-13 -1.5434326e-09
-7.4648056e-34 -1.9690656e-17 -1.4013857e-07 -2.3935582e-21 -1.834664e-10 -6.3506483e-12 -6.928397e-11 -6.909358e-06
-1.76225e-12 -4.534782e-14 -1.720834e-13 -2.092279e-11 -1.5209334e-08 -1.9652653e-09 -3.248974e-20 -1.324867e-09
-1.7042636e-15 -4.3705564e-09 -1.3236627e-10 -2.4435443e-12 -3.958422e-09 -1.345259e-32 -1.0000044e-12 -3.393729e-09
-7.947276e-06 -3.215871e-19 -5.2632067e-06 -2.3392717e-09 -1.9950463e-07 -3.7927203e-13 -2.1139565e-17 -1.0439962e-05
-8.323294e-22 -6.196477e-08 -4.456207e-13 -6.1734873e-13 -1.3544279e-09 -1.5260296e-07 -6.555249e-15 -1.5049166e-15
-1.7217528e-12 -1.17367485e-07 -4.5596953e-09 -0.00014110073 -1.7014943e-07 -2.1734958e-23 -2.2422073e-11 -2.8200074e-11
-1.0309105e-05 -1.01511126e-10 -3.2255842e-10 -5.6441973e-10 -9.7494635e-08 -3.5298506e-10 -2.5313436e-09 -6.714703e-07
-7.2125315e-09 -6.984627e-14 -6.7261493e-07 -2.7740956e-12 -5.7762142e-11 -1.157081e-10 -5.1862906e-05 -1.03413775e-08
-5.0526603e-18 -4.8635727e-12 -5.4204155e-29 -2.6583688e-24 -4.739535e-07 -2.8378409e-14 -2.02534e-06 -2.431385e-15
-2.3389697e-08 -2.8430014e-08 -2.0147158e-06 -3.9410285e-08 -2.825651e-12 -5.015046e-07 -2.602035e-08 -2.1671116e-07
00000000: 7775 d985 5ca7 ba3c b7c2 b33d 9250 a03d
00000010: a552 1dbc 4a53 743c 3ee3 b43d a200 073e
00000020: 09ed 213e b7fe 5d3c 01af fe3d a8b9 bf3d
00000030: 915a f93d b6dc be3d f023 e23d 2974 ab3c
00000040: 8d86 543d 3ea9 8a3b 03b1 ff3d 9d2c fa3d
00000050: c6e0 d83d cf5f 973d bc3a 053e 8a93 fe3c
00000060: 07ee b03c 76b3 c2bc 7b62 6f3c eea6 a294
00000070: 243f 173e ceb7 1a3d 550d 153e 25c5 1d3e
00000080: f01f 103a 50b8 4c3d 54f5 653d 0e61 233e
00000090: 3391 223e bc8c 7bbc 52e6 c33d de9d c2bb
000000a0: 760e cdb4 6591 8ab6 7175 39b3 f515 50b7
000000b0: 64f8 c3ac 5bdf 33b7 045b 82ab b520 d4b0
000000c0: 8b0f 7888 3f9d b5a3 ff78 16b4 26da 349d
000000d0: 33b9 49af 8e71 dfac 685b 98ae efd6 e7b6
000000e0: bf03 f8ab 7a3a 4ca9 aabf 41aa ef09 b8ad
000000f0: aea5 82b2 500d 07b1 b06d 199f 9d16 b6b0
00000100: 3b9c f5a6 d22b 96b1 cb89 11af fbf2 2bac
00000110: a602 88b1 1eb3 8b8a f5bc 8cab 1d37 69b1
00000120: 4a55 05b7 ded4 bda0 9a9a b0b6 e7c0 20b1
00000130: 6a37 56b4 dc82 d5aa 63fa c2a3 4c27 2fb7
00000140: 5e8e 7b9c 7e11 85b3 b6dc faaa aac4 2dab
00000150: b226 bab0 2fdb 23b4 802d eca7 9fe1 d8a6
00000160: af50 f2ab 750b fcb3 81ab 9cb1 70f4 13b9
00000170: 52b2 36b4 2635 d299 053a c5ad ec0c f8ad
00000180: 45f5 2cb7 af39 dfae 1054 b1af 8225 1bb0
00000190: 3e5e d1b3 3b0e c2af def3 2db1 163f 34b5
000001a0: 19d2 f7b1 a247 9da9 bf8d 34b5 aa35 43ac
000001b0: 640a 7eae df71 feae 5f87 59b8 dca9 31b2
000001c0: 0769 baa2 2b1f abac 826c 8990 6bae 4d98
000001d0: ac73 feb4 289c ffa8 14eb 07b6 2333 2fa7
000001e0: 7dea c8b2 4336 f4b2 8e34 07b6 1144 29b3
000001f0: 67d6 46ac 229f 06b5 5b83 dfb2 1cb1 68b4

classifier.0.weight f4 [40, 128]
0.014229492 0.048647724 -0.06287624 -0.08308958 0.023678584 0.04538912 -0.015126641 0.07354353
-0.02630724 -0.045428876 -0.067820765 0.044498842 0.08753275 0.04204635 -0.06159573 -0.05470017
0.01824241 0.008006183 0.021903358 -0.051346295 -0.0707364 0.06006246 0.011825342 -0.059477936
0.07627295 -0.019359132 0.07597509 -0.05608125 0.06067981 -0.08827123 -0.0493958 0.021812944
-0.041711967 -0.051794652 0.0869248 -0.013872803 0.048529565 0.03985955 -0.019501073 -0.0743587
-0.007565612 -0.013516536 0.05490333 0.080958255 0.06347301 0.060440846 0.0051025082 -0.010379304
-0.0737595 0.03114513 -0.050827466 -0.009840857 -0.02415066 0.021069461 0.014506028 0.03764686
0.088345975 0.050494906 0.009567945 -0.0767924 -0.024754109 0.061258882 -0.07562504 -0.06738308
0.085584275 0.0795711 -0.08040801 -0.064262204 0.052394602 0.07487666 0.08453692 0.059377406
-0.008323328 -0.067078255 -0.054605994 0.062353585 0.07119247 -0.0759553 0.008423437 0.044651676
-0.08450075 -0.04593051 0.021500498 0.068280704 0.0852665 0.07230517 -0.015630685 0.03190115
0.030161865 -0.04070435 -0.065596774 0.027136406 -0.064897835 0.052386593 0.036201224 -0.038668383
-0.041997362 -0.058291808 -0.08027886 0.059080724 -0.053361703 0.03237782 -0.060156155 0.008605312
0.072943315 -0.02991459 0.06510315 -0.016296785 0.021713825 0.081073634 -0.004466544 -0.031775013
-0.08535969 -0.048161753 -0.05613364 0.037148222 -0.044084895 0.077712916 0.02442354 0.0154484
0.052710164 -0.029686322 -0.02712902 0.043998707 0.01288407 0.0031673461 -0.024878968 0.032665674
-0.06983882 0.08615648 0.011504657 0.046839256 -0.06637886 -0.04705861 -0.0032036663 -0.07312211
0.012951 -0.023870869 -0.06570253 0.030022096 -0.081596695 -0.05500658 -0.026203338 -0.053662073
-0.008575798 0.0051198513 -0.036423538 0.06422639 0.077342555 -0.04265283 -0.07252224 -0.037925504
0.010824627 0.080223374 -0.022998765 -0.006270682 0.02792942 0.0537035 0.03591256 -0.066790454
0.012559434 -0.0576065 0.07525442 -0.004986752 -0.08435127 -0.088125415 -0.0044865212 0.07275981
-0.0750429 -0.027736314 -0.045697898 -0.06374296 -0.07343202 0.07512786 0.022657176 -0.07904161
-0.0073724743 0.0015190883 -0.07151403 0.008164161 -0.007475207 -0.065189585 0.015081059 -0.05508399
0.012018331 -0.03422578 0.00899675 0.02559223 -0.07491886 0.0010212497 0.08194302 -0.008597198
-0.06962989 -0.06501277 -0.011637946 0.01071139 0.07458141 -0.0669559 0.075695686 0.07946581
-0.08152556 0.037575275 -0.052380715 0.08642389 0.07958974 -0.062488865 -0.05879914 0.015639
-0.04286979 -0.0477178 -0.08317258 0.059646755 -0.0822366 0.016247125 -0.010219472 -0.07306564
0.04532271 -0.04648199 -0.015812738 -0.026002856 0.066144325 -0.07784246 0.049559034 0.047795862
-0.058273908 0.011649262 0.068038344 -0.031900074 0.0035252888 0.061986823 -0.08301672 0.014600511
-0.025147328 -0.014346271 0.055117205 0.025239429 -0.070775166 0.054396037 0.053131677 0.00800101
0.009094183 -0.035838738 -0.0107175745 -0.06020102 0.07517215 -0.005065282 0.06682557 -0.027556978
0.040257983 0.022441827 -0.023118114 -0.03372874 0.03909488 -0.011236687 -0.01960017 -0.065554194
00000000: d122 693c d642 473d 42c5 80bd df2a aabd
00000010: 97f9 c13c f1e9 393d bbd5 77bc fe9d 963d
00000020: 4882 d7bc a113 3abd 9de5 8abd 6b44 363d
00000030: 5f44 b33d cb38 2c3d ce4b 7cbd 490d 60bd
00000040: 1b71 953c 5e2c 033c ac6e b33c 7e50 52bd
00000050: 3fde 90bd 0e04 763d 14bf 413c 239f 73bd
00000060: fe34 9c3d 0b97 9ebc d498 9b3d 74b5 65bd
00000070: 648b 783d 8cc7 b4bd 4053 4abd 0fb1 b23c
00000080: 2bda 2abd a126 54bd a105 b23d c14a 63bc
00000090: f0c6 463d c443 233d b7c0 9fbc 6049 98bd
000000a0: f4e8 f7bb 7674 5dbc 50e2 603d 71cd a53d
000000b0: 23fe 813d d290 773d f132 a73b f50d 2abc
000000c0: 390f 97bd 1224 ff3c 7630 50bd 8c3b 21bc
000000d0: 9bd7 c5bc dd99 ac3c b1aa 6d3c 9833 1a3d
000000e0: bcee b43d bfd3 4e3d dfc2 1c3c 5545 9dbd
000000f0: 21c9 cabc 98ea 7a3d 4de1 9abd 2400 8abd
00000100: cf46 af3d 2cf6 a23d f4ac a4bd e79b 83bd
00000110: b99b 563d ef58 993d b121 ad3d b935 733d
00000120: 915e 08bc 5360 89bd 89aa 5fbd 7966 7f3d
00000130: 5ccd 913d 748e 9bbd 7502 0a3c ade4 363d
00000140: bb0e adbd a121 3cbd d021 b03c c1d6 8b3d
00000150: 34a0 ae3d bc14 943d ec0b 80bc c8aa 023d
00000160: 0416 f73c 9bb9 26bd 9a57 86bd 2b4d de3c
00000170: 28e9 84bd 5393 563d bc47 143d bd62 1ebd
00000180: 6d05 2cbd 64c3 6ebd 3e69 a4bd a1fe 713d
00000190: cd91 5abd 9b9e 043d 4d66 76bd 4bfd 0c3c
000001a0: 4e63 953d 710f f5bc cd54 853d d680 85bc
000001b0: 31e1 b13c ef09 a63d 165c 92bb 8426 02bd
000001c0: 10d1 aebd 4245 45bd 63ec 65bd bc28 183d
000001d0: 5d92 34bd f327 9f3d e013 c83c 491b 7d3c
000001e0: 9de6 573d bb30 f3bc ae3d debc fd37 343d
000001f0: b517 533c 4093 4f3b face cbbc 71cc 053d
00000200: a807 8fbd cf72 b03d 077e 3c3c 85da 3f3d
00000210: a4f1 87bd 87c0 40bd 9af4 51bb 0bc1 95bd
00000220: 6e30 543c d78c c3bc 0c8f 86bd e6f0 f53c
00000230: 2b1c a7bd 944e 61bd 62a8 d6bc c3cc 5bbd
00000240: 8181 0cbc 6dc4 a73b d930 15bd 2089 833d
00000250: c665 9e3d bcb4 2ebd 8a86 94bd c657 1bbd
00000260: c759 313c 274c a43d e867 bcbc 4b7a cdbb
00000270: 3dcc e43c 34f8 5b3d 0c19 133d 6fc9 88bd
00000280: 16c6 4d3c cbf4 6bbd fd1e 9a3d e867 a3bb
00000290: 5cc0 acbd 197b b4bd ab03 93bb 1803 953d
000002a0: 18b0 99bd 4437 e3bc b82d 3bbd ab8b 82bd
000002b0: 8763 96bd a3dc 993d 8b9b b93c 91e0 a1bd
000002c0: cc94 f1bb 251c c73a f375 92bd f9c2 053c
000002d0: 95f2 f4bb 1e82 85bd 8c16 773c c09f 61bd
000002e0: 89e8 443c 5530 0cbd 1b67 133c cca6 d13c
000002f0: 0f6f 99bd 74db 853a bed1 a73d 43db 0cbc
00000300: 1e9a 8ebd 6a25 85bd 15ad 3ebc d37e 2f3c
00000310: 23be 983d 2d20 89bd 5706 9b3d f8be a23d
00000320: dff6 a6bd 88e8 193d 298d 56bd 02ff b03d
00000330: f2ff a23d 53f4 7fbd 5ed7 70bd 5c1d 803c
00000340: 3c98 2fbd bd73 43bd 6356 aabd 2850 743d
00000350: aa6b a8bd b118 853c 936f 27bc 70a3 95bd
00000360: 4ea4 393d e663 3ebd b789 81bc f103 d5bc
00000370: ad76 873d de6b 9fbd 6afe 4a3d 98c5 433d
00000380: 9fb0 6ebd 8cdc 3e3c b057 8b3d a7a9 02bd
00000390: 8808 673b e5e5 7d3d ac04 aabd fb36 6f3c
000003a0: c501 cebc 9f0c 6bbc 94c2 613d ebc2 ce3c
000003b0: 92f2 90bd 61ce 5e3d 9aa0 593d ab16 033c
000003c0: c5ff 143c a4cb 12bd c498 2fbc 5895 76bd
000003d0: dbf3 993d aafa a5bb d8db 883d 2cbf e1bc
000003e0: 8ee5 243d ecd7 b73c 3362 bdbc 2627 0abd
000003f0: f421 203d 151a 38bc 8990 a0bc 4741 86bd

classifier.0.bias f4 [40]
0.054982554 -0.015722986 -0.032386534 -0.028725037 -0.032678705 -0.015857646 0.04062738 -0.034607336
0.02777195 -0.009120957 -0.083674535 -0.0003063233 -0.06310997 0.0025358705 -0.070799306 -0.08068742
0.029130269 0.026900858 -0.051881514 -0.04407636 -0.033004574 -0.027967785 -0.02747709 0.08150074
0.043614022 0.07508677 -0.07187767 -0.012469819 -0.042999256 -0.07500126 -0.006994965 0.019846361
0.03935878 0.032119922 0.05616053 -0.03786321 -0.07888625 -0.013369991 -0.062720925 -0.0049491674
00000000: 6335 613d 7ecd 80bc bea7 04bd c550 ebbc
00000010: 1bda 05bd e5e7 81bc e568 263d 6cc0 0dbd
00000020: 0082 e33c 1170 15bc 8e5d abbd 049a a0b9
00000030: cd3f 81bd d930 263b 3aff 90bd 723f a5bd
00000040: 9aa2 ee3c 305f dc3c b681 54bd 6a89 34bd
00000050: ce2f 07bd b21c e5bc a217 e1bc dce9 a63d
00000060: 9ea4 323d 18c7 993d 9a34 93bd 364e 4cbc
00000070: fd1f 30bd 439a 99bd 0536 e5bb d694 a23c
00000080: ac36 213d 2e90 033d 9508 663d 7416 1bbd
00000090: 1d8f a1bd cf0d 5bbc d473 80bd a02c a2bb
