Experiment/EEGClassification/LSTM_embed_128_batch64_55_95/model.pth (torch, 617165 bytes, 8 tensors)

backbone.lstm.weight_ih_l0 f4 [512, 128]
000000 73 5b 34 3d 10 3e 89 3c 66 a8 70 be 36 e5 3c 3d
       0.044032525 0.016753227 -0.23501739 0.04611703
000010 9b e0 31 3d b4 d4 f0 3d 51 75 6b 3d b7 1b c1 3d
       0.04342709 0.1175932 0.05748493 0.09429114
000020 be 61 2a 3e a7 2a 63 3d f2 11 ec bd ad e8 df 3b
       0.16638848 0.0554606 -0.1152686 0.006833157
000030 2b a5 c4 bc b5 ce bb bc a3 db 00 3c f2 01 82 bd
       -0.02400454 -0.022925714 0.0078648655 -0.06348027
000040 2e 11 2d 3d f4 7c c1 bc 8b a6 25 3d 55 5e 7e 3d
       0.042252712 -0.023619153 0.04044203 0.06210168
000050 de 11 a4 bb 70 e4 1e 3d 53 52 81 3c ec 17 f9 bd
       -0.0050070127 0.038792074 0.015786326 -0.12162766
000060 61 d3 27 3d 28 7e 2e 3d 53 ee 79 3d 3d d7 8c bd
       0.04097307 0.04260078 0.0610183 -0.06876991
000070 47 85 3a bc 13 be c8 3b 07 b1 3a bd 24 12 76 3c
       -0.011384315 0.0061261742 -0.045578983 0.0150189735
000080 0c ca 39 bd ba 3c 08 bc a3 f7 a9 3c 0e 4c a7 bd
       -0.045358703 -0.00831526 0.020747965 -0.08168803
000090 fa 87 6b bb 3a bd 40 3d 9b 3c 0a be b9 3f e1 bc
       -0.0035939203 0.04705546 -0.13499682 -0.027496206
0000a0 29 71 7e 3d f2 b7 4f bd 34 88 25 bd 7a b0 85 bd
       0.062119637 -0.050712533 -0.040413097 -0.06527801
0000b0 ae 47 32 be 27 af 4f 3d 67 d5 d5 bd 88 49 c7 bc
       -0.17410156 0.050704148 -0.10441094 -0.024327055
0000c0 fd f8 a0 3c 93 01 b0 3b f1 b0 1b be 94 b8 0d bd
       0.019649977 0.0053712814 -0.15204217 -0.034599856
0000d0 30 3c 9e 3d 9a 51 66 bd 13 8c 93 3b 0c 1a be 3c
       0.077263236 -0.056230165 0.004502782 0.02320578
0000e0 2b a3 81 bd 43 49 3b bd 55 7c 96 bd a6 a7 9f 3c
       -0.0632995 -0.045724165 -0.07347933 0.01948912
0000f0 b0 a6 a2 bd 3d 9d 91 3c 7b f1 19 bd 85 a4 93 3c
       -0.07941949 0.017775172 -0.03758381 0.018022785
000100 10 3e 3b 3e 5e 29 82 3d dd 76 83 bc 49 5e 27 3d
       0.18285394 0.063555464 -0.01604789 0.0408614
000110 04 6f 81 3d a9 f6 c9 3d 58 6e 1c bd 40 a3 f8 bc
       0.06320003 0.098615 -0.03819117 -0.030351281
000120 ef 25 9b 3c 53 f5 cb bd 97 d6 83 3d e6 08 3b 3c
       0.018938987 -0.09958901 0.06437414 0.011415696
000130 0e 64 e0 3c 5d 72 bb bd 81 d9 a0 bc f6 2c 06 3d
       0.02739146 -0.091526724 -0.019634964 0.03275772
000140 76 18 08 bd b5 47 a1 bd bf 12 1e bd 7d a1 a7 bd
       -0.033226453 -0.07875005 -0.038592096 -0.08185098
000150 07 f3 63 3d 2e b8 84 3d f3 1f 0e 3d 84 52 2d bd
       0.05565169 0.06480442 0.034698438 -0.04231502
000160 85 37 6a 3c fe ec b9 3c 01 3f 64 3d 2e 3c 90 bd
       0.014295463 0.022696014 0.055724148 -0.07042728
000170 e7 33 15 3d 19 bb ae bd 03 73 38 3d 80 d4 e0 3d
       0.03642645 -0.0853178 0.04503156 0.10978031
000180 7f 8b e4 bd 3f e1 0f bd 75 03 64 bd e4 93 5c bd
       -0.11159419 -0.03512692 -0.05566736 -0.053851977
000190 dc a7 7d bd 17 a7 6a ba 20 01 03 3e b4 e5 db 3c
       -0.06192766 -0.000895129 0.12793398 0.02684293
0001a0 b2 62 f9 3c 05 16 3d bd cf b8 c7 bd c9 50 9c 3d
       0.03044257 -0.046163578 -0.09752046 0.07632596
0001b0 2b 29 bc 3c 38 ab 4a 3d 66 8a bc 3c 19 da 11 3d
       0.02296885 0.049479693 0.023015212 0.035608385
0001c0 c5 8b e2 3c 0e 39 85 3c 9d c4 50 3d 47 30 10 3d
       0.027654538 0.016262557 0.050968755 0.03520229
0001d0 ac ba 40 be 21 7a ae 3d 73 ff ce 3c dd ee ce bd
       -0.1882121 0.08519388 0.025268292 -0.10104153
0001e0 6d 92 9a bd 5d 56 6a 3c a7 10 9b 3c 5e c4 0a 3d
       -0.0754746 0.014302817 0.018928839 0.033878677
0001f0 1f ff 6f 3d 0b a9 c9 3c cf 95 3b bc e2 ef 05 be
       0.05859291 0.024616739 -0.011449291 -0.1307979
000200 9a 7d 92 3a 43 7a a2 3d e5 35 09 be 9d 93 88 bd
       0.0011176348 0.07933476 -0.13399465 -0.0666878
000210 24 d0 a1 bd bd 3d 09 3e 30 09 5d 3c 8e 9c b3 3d
       -0.07901028 0.13402458 0.01349096 0.08770095
000220 0e 99 6a 3d 0f 62 e4 3d 4e 66 94 3c 2d 98 92 bd
       0.05727487 0.11151516 0.018115189 -0.071579315
000230 b2 65 77 3c d8 c3 81 3d 7b 1d 91 bd 37 10 6e bd
       0.01509993 0.06336182 -0.07085701 -0.058120932
000240 ab 37 09 3d 22 12 40 bd 03 25 2c 3d 18 b6 8c bd
       0.033500355 -0.046892293 0.042027485 -0.06870669
000250 db 35 b7 bd cb a9 34 3d 9c a0 45 3c dc 6b 34 bd
       -0.08945819 0.04410724 0.012062218 -0.044048175
000260 3c 74 4f 3d 56 f1 65 3d 79 53 5c bd ec 17 28 bd
       0.05064796 0.05613836 -0.053790543 -0.04103844
000270 c6 b8 2c bc 65 78 19 bc 35 8d 91 bd 6a 76 b2 bb
       -0.0105421 -0.009367083 -0.07107011 -0.005446245
000280 81 3c a4 bc 22 8b 30 3c 00 f0 1b bc ee 2d ab bc
       -0.020048382 0.010775359 -0.00951767 -0.020895924
000290 5f 34 87 bc ff 6c 78 3d 24 5e 15 3d 0b d4 f8 3c
       -0.016504465 0.06065082 0.036466733 0.030374547
0002a0 58 19 b5 bc e7 0f c9 3b c9 07 80 3d d4 5c c5 bd
       -0.022106811 0.006135929 0.06251485 -0.09636846
0002b0 cd 99 07 bd dc 38 24 3d e2 38 ad bc ca 57 b8 bd
       -0.03310566 0.040093288 -0.021145288 -0.090011194
0002c0 6f 98 16 bd 77 1f 1c 3a 54 00 5b 3c 5a e0 4b 3d
       -0.036766466 0.00059556164 0.013366777 0.049774505
0002d0 d3 18 c4 bd d1 9a 94 bc 46 dd e6 3c de 6b ae bb
       -0.09575047 -0.018140228 0.028181683 -0.0053229174
0002e0 84 b7 9e bd 11 48 82 bd 7f 30 89 3d 2a 93 e1 3c
       -0.077498466 -0.06361402 0.06698703 0.027535994
0002f0 aa 1a c8 3c e5 96 eb 3c 82 48 aa bd 40 e9 3a 3d
       0.024426777 0.028758476 -0.08314611 0.0456326
000300 d3 ae 4d bd fc 23 e2 3d a4 bd fd bc f4 b6 ea 3b
       -0.050215553 0.1104202 -0.030974217 0.007162923
000310 99 ac 7e 3d 03 c7 56 3d ac 79 2c 3d cd 51 9f bc
       0.06217632 0.052435886 0.042108223 -0.019448185
000320 dc 35 03 be 25 53 cd 3c be 58 4e 3d dc 59 b1 3c
       -0.12813514 0.02506406 0.0503776 0.021649294
000330 6a a6 75 3d e4 65 32 3e bd 2b 07 3e 34 e9 40 bc
       0.059973158 0.1742168 0.13200279 -0.01177435
000340 b4 93 34 3d 45 8a 4e 3c a5 77 7b 3d ac b7 89 bd
       0.044086173 0.012606208 0.0613934 -0.06724486
000350 11 74 bd bb 0c f3 63 bd c7 56 3b bd 7c 12 24 3d
       -0.0057816585 -0.05565171 -0.045737054 0.04005669
000360 91 69 9b 3d d9 8e 0b 3d 15 06 3e bd 70 05 85 3b
       0.075884946 0.034071777 -0.04639252 0.004059486
000370 1f 5d 3b bd 84 5c 85 bc d5 7f 11 3d c8 21 ab 3d
       -0.045743104 -0.016279466 0.0355223 0.08356053
000380 8f 2f d8 bd 43 82 46 bd df 35 2b 3c aa 01 4e 3d
       -0.10555946 -0.04846407 0.010449856 0.050294556
000390 5d 4d 00 3d 45 1f cc bd 14 be 57 bd 21 36 e8 3c
       0.03132378 -0.09966902 -0.052671507 0.028346123
0003a0 e2 cb d9 3d 3a c0 39 3d 70 5b 9a bc a8 9d 9b 3c
       0.10634591 0.045349337 -0.018842429 0.018996075
0003b0 40 66 5f 3c 71 fe 24 3e 9b 3b 5d 3e 28 47 b9 bd
       0.013635218 0.16112687 0.21604769 -0.09046775
0003c0 e6 06 3c 3d 89 60 04 3d 49 db b8 3d b1 8e 7d 3c
       0.045905016 0.032318626 0.090262 0.015475915
0003d0 0c fa 9c 3d ed d8 25 bd 31 d7 f9 3c c6 86 ea bd
       0.0766488 -0.04049008 0.03049812 -0.11451487
0003e0 16 e8 38 bd 62 26 c5 bc d3 75 a1 bd 97 68 b6 3d
       -0.04514321 -0.024066154 -0.07883801 0.08906668
0003f0 95 b0 93 3c 36 90 15 bd a0 10 d1 3d e6 b6 27 3d
       0.018028537 -0.036514483 0.10208249 0.04094591

backbone.lstm.weight_hh_l0 f4 [512, 128]
000000 9f e5 f7 b9 76 95 f0 bc 78 95 92 bc 9f 73 63 3b
       -0.00047282592 -0.029368144 -0.017893538 0.0034706367
000010 d6 e7 1c b9 ba 5a 34 bd 99 23 91 bc 13 de 2f 3e
       -0.00014963685 -0.044031836 -0.01771717 0.17174558
000020 75 3b a2 bc c4 b4 2c bd 91 4e 8c 3c f4 b7 74 3d
       -0.019803742 -0.04216458 0.017127307 0.059745744
000030 2d 1c 03 bd 2e 57 d3 3d 9f c2 1f 3b 7f 79 86 bd
       -0.032009292 0.103193626 0.0024377478 -0.06566142
000040 6a d3 90 bd 7d fc 85 bc 9b fb f3 3d 8f 7e 1e bd
       -0.07071574 -0.016355747 0.11913224 -0.038694914
000050 50 9c 8b 3c 0a 12 88 bd f1 9c c4 bb 44 36 db bc
       0.017042309 -0.06644066 -0.006000154 -0.026759274
000060 c1 45 f8 3c 98 ed ab bc 0f 24 ad bc b0 9c 26 bd
       0.030306699 -0.020987317 -0.021135358 -0.040676773
000070 47 7f 4a 3d b9 a0 91 bd ee 8c 8e 3d ea 51 08 bc
       0.049437787 -0.071107335 0.06960474 -0.008320311
000080 c9 96 38 3d b8 ee 81 3c f3 21 9f bd 84 61 a0 3c
       0.045065675 0.0158609 -0.07770147 0.01957775
000090 1d fa 15 3d 43 5f 0b 3c dc 4c 3f 3c 5c 9f 17 3c
       0.03661548 0.008506599 0.01167604 0.009254303
0000a0 83 ea 97 3c c0 e0 9b 3c d9 2f 3e 3d b2 43 14 3d
       0.018544441 0.019028068 0.04643235 0.03619737
0000b0 86 8f 0d bd dd 5b 2c 3d 9f 2e 06 bd f7 b4 a4 bc
       -0.034560703 0.042079795 -0.032759305 -0.020105822
0000c0 2d 7f 17 3d ac 9e 8e 3d 2b b2 fb 3d f2 32 19 bd
       0.03698652 0.06963858 0.12289842 -0.0374021
0000d0 20 8e 68 3d 75 d8 03 bd 3e ad ca bc 54 f2 57 3d
       0.056776166 -0.03218885 -0.024740811 0.052721336
0000e0 2e 12 a4 bd 5a cc c4 3c d0 ed a7 3d 5e e1 78 3c
       -0.0801128 0.024023224 0.08199656 0.0151904505
0000f0 fe 42 bd bc f4 67 cb bc 3b 1a 02 be 73 c8 a0 bd
       -0.023103233 -0.024829842 -0.12705319 -0.07850733
000100 f0 03 5e 3d 89 57 00 3d 28 22 0e bd 82 c5 f6 3c
       0.054202974 0.03133348 -0.034700543 0.030123476
000110 f2 c7 dc bc a8 82 4b bd 55 03 05 3d 45 71 1b bd
       -0.02695081 -0.04968515 0.03247388 -0.03794982
000120 f7 13 3b bd 5a fc 5b 3d 23 16 80 3c 0b a1 ba 38
       -0.045673337 0.053707458 0.015635556 8.899168e-05
000130 9a 9e 4e bd 0c e3 34 3b 20 a6 a6 3c 3e 3d 79 bd
       -0.050444223 0.002760115 0.020342886 -0.06084942
000140 d2 50 3b 3c 38 1a af 3d 9e 61 08 bd a1 b3 bb 3d
       0.011432843 0.08549923 -0.03329622 0.09165121
000150 e1 ae 64 bd 3d 2b 86 3d 54 20 83 bb d6 19 88 bd
       -0.05583084 0.06551216 -0.0040016565 -0.06645553
000160 5e b9 32 3d 54 61 ef bb 88 e9 65 3c d2 47 99 39
       0.04363381 -0.0073053036 0.014032729 0.00029235944
000170 9d 1a 57 3c 02 79 32 bb a9 62 b2 bb e8 b4 9f bd
       0.013128904 -0.002723277 -0.00544389 -0.07798177
000180 4d 5a 74 bd ae ab 79 bc 5d d8 9c b8 05 9e 64 3d
       -0.05965643 -0.0152386855 -7.4789605e-05 0.05581476
000190 ac cd 94 bc 1f 05 b4 3d b3 57 d6 bc f0 21 89 bc
       -0.018164478 0.08790039 -0.026164865 -0.016739815
0001a0 b6 3c d8 bb 11 ed a2 3b 9d 60 af bc fe 0c 1b bd
       -0.006599034 0.004972108 -0.021408373 -0.037854187
0001b0 fc cc d9 3c 29 39 98 bc 58 4d 2e bc 86 b0 aa 3d
       0.026587002 -0.018581944 -0.010638557 0.083344504
0001c0 be 46 3c 3c 57 d2 15 bc fa 98 2e bd a7 bf 2f bd
       0.011491476 -0.009144387 -0.04262636 -0.042907383
0001d0 63 4d a3 3d cd 27 28 bd ca e6 8e 3d 9c 18 96 3d
       0.07973745 -0.041053582 0.06977613 0.073289126
0001e0 37 d7 ac bd 8c 68 e3 3c e4 74 83 bd 2a 30 21 bd
       -0.084394865 0.027759813 -0.064187795 -0.039352573
0001f0 59 e3 99 bc d3 01 18 bd dd c2 0a 3d 91 4f 36 bd
       -0.018785166 -0.037111115 0.033877242 -0.044509474
000200 41 c9 26 bc 59 2c 77 3d 2e 2f 3d bc 5e 8a d9 bc
       -0.010179819 0.060345028 -0.011546893 -0.026555236
000210 5c 3d 71 bc dd 6c e3 bc 61 48 43 bd 49 65 94 3b
       -0.014724102 -0.027761871 -0.047676448 0.0045286757
000220 71 22 0b 3d fd 64 91 3c 6f 8b 7c 3d d8 f1 39 3d
       0.033968393 0.01774835 0.06165641 0.045396656
000230 10 da 04 bc 12 e6 3c bd ca bd 7f 3c 63 ad 08 3d
       -0.008108631 -0.04611785 0.015609214 0.03336848
000240 95 d4 b6 bd 11 43 d4 3c a2 9b 4c 3e b3 f8 4c 3c
       -0.089272656 0.025910886 0.19981244 0.012510466
000250 d6 d6 cd 3c e6 9d 1e bd c8 13 f8 bb 79 fe 89 bd
       0.025126856 -0.038724802 -0.0075707175 -0.0673799
000260 d3 33 8f 3d e4 4d ba bd b6 84 c6 3c ee 78 b0 3d
       0.069923066 -0.09096888 0.024233203 0.086168155
000270 b1 bc 96 3d dd d5 24 3d 61 6f ff bc 77 6e 1f be
       0.07360209 0.04024302 -0.03118104 -0.15569483
000280 5f 63 11 bd 52 7c ff 3d cc 9d 76 bb 67 fa 58 3d
       -0.03549516 0.12474884 -0.0037630675 0.052973177
000290 f9 a5 f5 bc 13 92 f8 bd 22 0c 5c 3d 5a f8 41 be
       -0.029986368 -0.121372364 0.05372251 -0.18942395
0002a0 38 95 9c bd 0f 64 70 3d f3 09 b7 bc 0e 4a 1e 3d
       -0.07645649 0.058689173 -0.022343611 0.038644843
0002b0 ef b1 7f bd 39 f1 c5 bd 97 1c ba 3d 33 99 3a bd
       -0.06242555 -0.0966515 0.09087484 -0.04555626
0002c0 0c 44 14 3d 15 bb c4 3c a3 36 9b 3d 6b df 9e bc
       0.036197707 0.024014989 0.075787805 -0.019393643
0002d0 26 92 59 3d bc 53 b7 bb c5 d2 01 bd e6 81 21 bd
       0.053117894 -0.0055946987 -0.031695146 -0.03943052
0002e0 f8 31 3e 3c f7 ba f9 bd fb c9 93 3d 4a fc 9a bd
       0.011608593 -0.12193864 0.07216259 -0.075676516
0002f0 64 50 06 3c 84 b1 8e 3c f8 7b 01 be 7c e9 f9 bd
       0.008197878 0.01741863 -0.12644947 -0.12202737
000300 99 d4 37 bd 8b 94 a0 3d 72 a5 90 3d 85 6f 59 3d
       -0.044880483 0.07840832 0.07062806 0.05308487
000310 7b 64 3c 3d fd fd 4c 3d 3e 48 5a 3d 9d 40 92 3d
       0.045994263 0.05004691 0.05329155 0.0714123
000320 ed 15 7c bd 38 55 1a bd 45 91 54 3c b8 2a 99 3d
       -0.061544348 -0.037678927 0.012974088 0.07478851
000330 cb 43 e6 bc 89 4d 31 bd d3 c0 0d 3e 0a 3a 7c bd
       -0.028108498 -0.043286834 0.13843088 -0.061578788
000340 93 86 49 3d 53 d7 8f 3c a4 51 36 3c d6 b7 95 3d
       0.049200606 0.01755873 0.011127863 0.073104545
000350 96 a6 fa bc 0a 50 3e 3b e9 ba ad bc bd 0f 96 bc
       -0.030597012 0.0029039406 -0.02120729 -0.018318051
000360 e7 90 ab bc 46 b2 8d bb aa d1 6b 3d 20 2b 17 bd
       -0.020943118 -0.0043242304 0.057572998 -0.03690636
000370 f6 0e 9e 3d 92 d4 12 3c e1 ed 8b 3d d7 5b 19 3c
       0.07717697 0.0089618135 0.06832481 0.009360275
000380 07 90 e7 3d 33 b4 d0 3c 17 cd 0c 3d 05 74 19 bb
       0.11306768 0.02547655 0.034375276 -0.00234151
000390 69 47 a1 bd 77 66 e7 bc ab 3f ad 3d 10 48 ab bd
       -0.078749485 -0.028247101 0.08459409 -0.08363354
0003a0 d1 d9 ba 3d 87 ba 33 bd 5c aa 49 3c bb 71 8b 3d
       0.091235764 -0.04387906 0.012308683 0.06808802
0003b0 3e cf 44 bc 19 a3 35 3d 28 c4 d2 3c ec 88 0c 3e
       -0.012012301 0.044344995 0.0257283 0.13724107
0003c0 9c 7f ec 3c 7d 6d f4 3d 60 aa 8c bc 0e d7 1b 3d
       0.028869443 0.11934946 -0.017171085 0.03804689
0003d0 ca 3a 63 bd 9d 3e 03 3e 7b 08 59 3d 45 ce 6d bd
       -0.055475987 0.12816854 0.052986603 -0.058058042
0003e0 a8 6e d3 bd 98 9f 84 bd 08 72 43 3d e0 13 cf bd
       -0.103238404 -0.064757526 0.04771617 -0.10111213
0003f0 cb e3 17 3c 32 26 f0 bd 99 df c9 3d 94 f9 0c be
       0.009270619 -0.11726035 0.09857101 -0.13767081

backbone.lstm.bias_ih_l0 f4 [512]
000000 8f 12 2d 3d 7c 31 f6 bd 08 68 08 3d 76 a6 c5 bd
       0.042254027 -0.12021157 0.033302337 -0.096508905
000010 49 06 a2 bc 83 45 c9 3d 7c 19 b7 3c e8 4f 6f bc
       -0.019778388 0.098277114 0.02235102 -0.0146064535
000020 6d d1 ab 3d 10 a4 05 3d 57 56 5c bb 5f 91 69 3d
       0.08389554 0.032627165 -0.0033620798 0.057023402
000030 f6 37 3e 3c ae 7a a5 3d 92 7e 0a 3c 9d 36 09 3d
       0.011610022 0.0808004 0.008453028 0.03349935
000040 b2 1c 57 bc c3 ed 89 bd 25 77 fe 3c 2a 27 20 3c
       -0.0131294 -0.067348026 0.031062672 0.009774962
000050 b8 ad d4 3d 10 46 6e 3d ca 81 4d 3d 98 69 94 bd
       0.10384697 0.058172286 0.050172605 -0.07246703
000060 e6 44 a3 3c e0 50 98 bd 3a 46 97 bc b9 3d e7 bb
       0.019930314 -0.07437301 -0.018466104 -0.0070569185
000070 b2 70 68 3d c1 89 2d 3c e4 0c a0 3d 4d c1 cf 3d
       0.0567481 0.010591925 0.07814959 0.10144291
000080 6b 1d 77 3d 81 1c 82 3d 7b a7 6b 3d d8 20 a5 3d
       0.06033079 0.06353093 0.05753277 0.08062905
000090 0b 04 24 3d 3e d3 bd 3d d8 52 4d 3d 27 6c a9 3d
       0.04004292 0.09268807 0.050127834 0.082725815
0000a0 ca 8c d1 3d ec 9c 0c bd 2e a5 8b 3d f9 71 37 3d
       0.102319315 -0.03432934 0.06818615 0.044786427
0000b0 77 da e8 bb ae a3 8a 3d 21 21 e4 3c 19 e1 ea bc
       -0.007106121 0.06769501 0.027847828 -0.028671788
0000c0 21 87 71 bc 19 e9 e7 3b 28 a1 a3 bc a1 5e df bd
       -0.01474169 0.007077348 -0.019974306 -0.10906721
0000d0 ef 52 99 3c 33 5f 5a 3c 08 ad 74 3d de 6b a4 3d
       0.018716304 0.013328361 0.059735328 0.080283865
0000e0 78 e8 9e 3d 0e 51 e2 3d be ea 43 3d 1d bf 6f 3b
       0.07759184 0.11050616 0.04783129 0.0036582418
0000f0 2c af 1c 3c 57 d2 39 3d d6 15 e5 3b e3 c9 99 39
       0.009563249 0.04536661 0.0069911284 0.0002933285
000100 f2 0b 8e 3d 1a 7b 9a 3d 4c 7c 99 3d af b4 9e 3d
       0.06935872 0.07543011 0.07494411 0.077493064
000110 e8 be a4 3d ae b7 0f bd 0a 32 10 bd 06 39 a4 3d
       0.08044225 -0.03508728 -0.03520397 0.08018689
000120 59 69 c8 3c bf ca a5 ba 18 b8 06 be aa 99 64 3d
       0.024464296 -0.0012648924 -0.13156164 0.055810608
000130 82 f3 10 3c 74 a7 4e 3d 38 a0 6e 3d ea e9 20 3e
       0.008847119 0.050452664 0.058258265 0.15714231
000140 71 64 00 3d 90 89 69 bb ce 99 ae 3c 4a d2 a7 3d
       0.03134579 -0.0035634972 0.021313574 0.08194406
000150 f7 dc 23 bb 58 6c 15 3d 21 af 88 bc 8b dc e6 3d
       -0.0025003531 0.036480278 -0.01668507 0.11272534
000160 fe 9a 6f 3d 64 01 09 3c 23 e7 1e bc ac ae 84 bd
       0.05849742 0.008362148 -0.009698662 -0.064786285
000170 e2 c9 99 3d 68 8e df 3d 45 c4 33 3d ad 78 00 be
       0.07509209 0.10915834 0.04388835 -0.12546034
000180 72 85 dd 3d d1 13 f0 3d 83 da 31 3a 0a 26 56 bc
       0.10816468 0.1172253 0.0006784575 -0.013070593
000190 f4 fe 9d 3d d0 82 a7 3d 51 73 25 3c a5 24 b9 3d
       0.07714644 0.081792474 0.010098294 0.090401925
0001a0 f9 41 f8 bc a5 11 d3 bc c5 16 f9 3c 21 24 e5 3d
       -0.030304896 -0.02576525 0.030406365 0.11188532
0001b0 d9 75 b4 3d d1 e9 92 3c 50 6b 81 3d ce aa cb bc
       0.0881154 0.017933758 0.06319296 -0.02486172
0001c0 25 9f b4 bd 8d 60 1c 3c 7f ae 11 bd d7 9b 04 3e
       -0.08819417 0.009544504 -0.035566803 0.12950073
0001d0 9d a8 29 bd 6f a5 87 3d 2a 5e ca 3d 54 58 d7 3d
       -0.041420568 0.06623351 0.098812416 0.10514894
0001e0 33 69 16 3d 3d 10 f8 3d 5f 3f f0 3d a3 f4 c2 bc
       0.03672142 0.12112472 0.11730837 -0.023798293
0001f0 81 31 a8 bc c2 fa 48 bd fe 43 c5 3d 50 eb a5 3c
       -0.020531418 -0.049067266 0.09632109 0.020253807
000200 63 b4 30 3c 40 6c fe 3d c2 a6 3a bc d6 86 41 3d
       0.010785195 0.12422991 -0.011392297 0.04724773
000210 80 18 70 bd 7e d9 60 3c a9 cb 1a 3e a7 cc 99 3d
       -0.058617115 0.013723729 0.15116753 0.075097375
000220 2d 9f 0e 3e 3f 73 26 3d b8 f3 c9 3d de c7 a0 3d
       0.13927908 0.04063725 0.09860939 0.07850622
000230 f7 5d 3c bc d3 f3 bc bb 87 95 c4 3b 87 47 89 bc
       -0.011497012 -0.005766371 0.0059992704 -0.01675774
000240 80 c9 e3 b9 5b e5 91 bd ce f2 b3 3d a7 a1 97 3d
       -0.00043446943 -0.07123824 0.08786546 0.074038796
000250 93 04 9e 3d b7 fe cf bc 71 94 9e 3d f2 d2 3b 3d
       0.07715716 -0.025390012 0.07743157 0.04585547
000260 a0 8c e8 3d f8 65 dc 3d 3b 58 c8 3c c1 44 7a bc
       0.11354947 0.107616365 0.024456134 -0.015275181
000270 35 29 4b 3d 1a 55 ec 3d 3b c3 57 3b 92 cd f8 3d
       0.049599845 0.11539669 0.0032922763 0.121485844
000280 77 70 9c bc 67 0e 0e 3d 16 8d 20 3e 5a 06 0d 3e
       -0.019096596 0.034681704 0.1567882 0.13771954
000290 47 24 fb 3c ac 7e cc 3d 57 80 fb 3b 49 bd c6 3c
       0.030656947 0.09985098 0.0076752114 0.02426018
0002a0 de 32 9d 3d ad b7 aa 3d c8 70 ee ba b7 72 ea 3d
       0.07675718 0.083358146 -0.001819157 0.11447661
0002b0 d3 16 90 3d be 2a a2 3c 4a e5 bf 3d 19 f9 df 3d
       0.070356034 0.019795772 0.09369905 0.109361835
0002c0 16 71 ae 3d 1e c5 2e bc 42 11 84 3d 2c 87 80 bd
       0.08517663 -0.010667114 0.06448604 -0.06275782
0002d0 41 cf 31 3e bc 4a b6 3d 3f aa 23 bc 9b 95 74 3d
       0.17364217 0.08900973 -0.00998932 0.059712987
0002e0 96 2a 9f 3d 02 70 ef 3d 11 d1 0e 3d 75 e9 9f 3c
       0.077717945 0.11691286 0.03486735 0.0195205
0002f0 17 ab 1d bc a3 5c fe 3c 62 ba dd 3b d0 a9 26 3d
       -0.0096233105 0.031050032 0.0067666033 0.04068929
000300 32 9f cc b7 5f d8 8b 3c b3 7d 47 bd ed d5 28 3d
       -2.4392826e-05 0.017070947 -0.04870386 0.04121964
000310 14 a9 b8 3c 53 a7 97 3d 1c f8 a5 3d 79 ef 89 3d
       0.02254156 0.074049614 0.08103964 0.06735129
000320 04 ab c4 bc 6b 5a f6 3d e6 c1 80 bb 74 6d 04 3e
       -0.024007328 0.120289646 -0.0039293645 0.12932378
000330 cd 97 dc bc 66 0a 84 bd 95 44 84 3c f9 30 9e 3d
       -0.026927853 -0.06447296 0.016145984 0.077241845
000340 6e 39 5c 3d ab ab 88 3d 70 a2 d1 3b c1 5a e4 3d
       0.053765707 0.06673368 0.006397538 0.111501224
000350 d6 e3 a1 3d 44 6c c4 bc 46 7d 9a 3d b9 da bf 3b
       0.079047844 -0.023977406 0.07543425 0.005854931
000360 69 06 b7 3c fb f4 6d 3d c1 44 eb 3d e7 ac 81 bc
       0.022341924 0.05809496 0.11487723 -0.015829517
000370 85 64 75 3d 46 45 7b 3c 1a 4e cd 3d f8 70 50 3d
       0.059910316 0.01533634 0.10024662 0.050888985
000380 11 28 de 3d 51 96 8d 3c 41 c8 39 3d 79 12 ee 3c
       0.10847486 0.01728359 0.045356993 0.029061543
000390 a0 32 e7 3d dc a5 8a 3c ce 6c 61 3d ff 13 4b 3d
       0.11288953 0.016924791 0.055035405 0.049579617
0003a0 c3 a8 12 3e 74 33 83 3d 64 d7 9a 3d 6c 0a 14 3d
       0.1432219 0.06406298 0.07560614 0.03614275
0003b0 96 7d dc 3d e4 8d 02 3d e0 47 70 3d d3 35 13 3e
       0.10766141 0.0318736 0.058662295 0.14376001
0003c0 e3 ce bc 3d 67 02 e8 3c 58 a3 e1 3d 5d f5 d2 3d
       0.09219148 0.028321458 0.110174835 0.103007056
0003d0 f3 45 22 3e c2 b6 91 3d 4b ab 7c 3d ae 07 22 3d
       0.15846996 0.071149364 0.061686795 0.039558105
0003e0 95 c7 3e 3d 11 2d 1b 3e 8e 4d b9 3d ff 89 28 3d
       0.046577055 0.1515391 0.090479955 0.04114723
0003f0 64 49 42 3b 47 59 8d 3c ca b9 08 3e 53 0d cc bc
       0.0029645795 0.017254485 0.13352123 -0.024908697

backbone.lstm.bias_hh_l0 f4 [512]
000000 20 67 3e bd 27 b4 dd bd 62 85 e4 bc 01 b7 66 bd
       -0.046485066 -0.10825377 -0.027895633 -0.05632687
000010 55 65 21 bd 32 c4 65 3d 17 be a5 bc 0a 8b 32 bc
       -0.03940328 0.05609531 -0.020232243 -0.010897407
000020 0c d1 d6 3d 36 79 a1 3d a9 0f d8 bc ee 57 5d 3c
       0.10489091 0.07884447 -0.026374655 0.013509734
000030 33 56 91 ba c5 2a a5 3d 8a a8 b5 3c ee 5e 89 3d
       -0.0011088311 0.08064798 0.022175092 0.067075595
000040 13 97 01 bd 90 b5 0d bd 63 89 75 3d 84 e8 09 3e
       -0.031638216 -0.03459698 0.059945475 0.13467604
000050 4f 00 d8 bc 59 79 8e 3d 4f a9 a7 bb 1f fb a4 3d
       -0.026367335 0.06956739 -0.0051166187 0.0805571
000060 dc 7b 21 3d 11 12 a6 bd 6a 2c 9d 3c a0 ff f6 bd
       0.039424762 -0.08108915 0.019186217 -0.12060475
000070 2b 23 05 3e 7b 20 85 3d 97 7b f7 bc f0 57 6d 3d
       0.13001697 0.06500336 -0.0302103 0.05794519
000080 aa f6 98 3d b6 42 a4 3c 93 8c b6 3d 5d 74 03 3c
       0.074689224 0.020051342 0.08913531 0.008023349
000090 2f 15 33 3d 2c a7 43 3d 17 c9 1c 3d 2e 1f 6e 3d
       0.043721374 0.04776685 0.03827771 0.058135204
0000a0 74 0a a4 bc c0 3d 08 3d 64 5c ae bc fe 0b f8 3c
       -0.020024516 0.033262014 -0.02128429 0.030279156
0000b0 e1 08 be 3d 2e 67 fe 3c 44 06 f4 3c 1e a5 7a bd
       0.09279037 0.03105506 0.029788144 -0.061192624
0000c0 e3 91 00 3d f3 dd 38 bd 4c 8a aa 3d ac bd 4f bd
       0.03138913 -0.045133542 0.08327159 -0.050717995
0000d0 c2 0a 12 3d b0 69 85 3d 55 8d 07 bd f9 2d a4 bc
       0.03565479 0.06514299 -0.03309377 -0.020041453
0000e0 7e 33 3f bd be 1c d7 3d 89 68 00 bd 4d 3e 51 3d
       -0.046679966 0.10503529 -0.031349692 0.051084805
0000f0 34 0c 41 bd 9e 94 95 3d 77 c7 04 bd 5f e4 d9 bd
       -0.04713078 0.07303737 -0.032416787 -0.106392615
000100 57 30 98 3d a3 92 0a 3e 28 c9 6a 3d 6a 57 b9 3d
       0.07431095 0.135325 0.057320744 0.09049876
000110 48 58 cf 3c 64 a6 eb bc 07 f0 ac 3c a7 ce 93 3d
       0.02531065 -0.028765865 0.021110548 0.0721715
000120 79 9c 6c bd 5b 65 07 bc b7 a9 fc bd 63 77 9d bc
       -0.05776641 -0.008263911 -0.12337058 -0.019221967
000130 76 ae cb bb 1c 6e 68 3d c5 11 81 ba d6 89 0e 3e
       -0.0062158657 0.056745633 -0.0009847215 0.13919768
000140 4e 86 20 bb b7 19 f1 3c db 49 84 3d 66 90 21 3d
       -0.0024494114 0.029431207 0.06459399 0.03944435
000150 ce f7 92 bd 06 6f aa bd 21 4c 48 bc 2c 43 76 3d
       -0.07176171 -0.08321957 -0.012225182 0.060122654
000160 df 1f 2a 3c 2d da 1e bc 6b f1 ba bc 46 5e 9e bd
       0.010383575 -0.009695572 -0.022820195 -0.07732825
000170 49 e9 23 3d 4a d1 0c 3d 46 11 69 3d b9 f3 15 be
       0.0400174 0.03437928 0.05690124 -0.14643754
000180 d5 5f ce 3c df 00 e9 3d 1f 8a 78 bc 06 3b 0e bd
       0.02519218 0.11377119 -0.015169649 -0.034724258
000190 2d 94 06 3d d4 0f e4 bc 62 aa 0e bc 98 fe 31 3d
       0.032856155 -0.027839579 -0.008707615 0.04345569
0001a0 ba 7f f6 3c 3a 27 cf 3c 7e c0 ff bc 2a 80 d0 3d
       0.030090202 0.02528726 -0.031219717 0.10180695
0001b0 51 1d a2 3d f6 76 e6 3d 80 b3 fe 3b 2d 31 8c bb
       0.07915748 0.11253159 0.007772863 -0.004278323
0001c0 bb 9b 20 bd c2 d5 5a 3d 23 a7 81 3d 6a 4a 91 3d
       -0.039211016 0.05342651 0.06330707 0.070942715
0001d0 2b b0 b1 bc 38 c4 e6 3c 16 73 af 3d 55 98 6c 3d
       -0.021690449 0.028169736 0.08566873 0.057762463
0001e0 db ec a8 3a fd f6 d2 3d 4b 57 b1 3d db 70 d8 3c
       0.0012887971 0.103010155 0.08659228 0.026421001
0001f0 2d f0 e4 3c 90 cd 00 3d d8 70 7f 3b b9 90 9a 3c
       0.027946556 0.03144604 0.0038977172 0.018867837
000200 f7 fd 4e 3c 62 24 0b 3e 92 8a 38 3d 38 ad 1d bd
       0.012633792 0.13588098 0.045054026 -0.038495272
000210 5d 68 bc 3b fd f2 3d 3d 47 4a 12 3e d6 5f 09 3e
       0.0057497458 0.04637431 0.14286147 0.13415465
000220 75 33 2b 3e f4 15 46 3c 60 fd c5 3d 4d 38 a2 3d
       0.16718848 0.012090195 0.09667468 0.07920895
000230 55 c7 9b 3b 2d 39 a3 3d 2f de db 3d ed a8 62 bc
       0.004753987 0.0796989 0.107357375 -0.01383422
000240 aa f3 bc 3c 75 45 a9 bd 4a b0 d1 3b dd 2a 26 3e
       0.023065407 -0.08265201 0.006399189 0.16227289
000250 0e 64 8c 3d 41 95 22 3c 87 c9 d3 3d 56 0d 48 bd
       0.068550214 0.00992328 0.10341173 -0.048840843
000260 0a cc cb 3d a8 f4 3e bb e2 b2 9b 3b 68 4d a8 bc
       0.09951027 -0.0029137526 0.004751549 -0.020544723
000270 55 4e a6 3d fe ac 15 3e f5 40 96 3d ab 39 fb 3d
       0.081204094 0.14616773 0.07336608 0.12266859
000280 42 c0 94 3d 7a d5 c5 3c a0 9c 41 3e 4d 14 bd 3d
       0.07263233 0.024149645 0.18907404 0.09232388
000290 4d 87 7b 3b 0a a8 c9 3a 95 3b 5a 3c df 68 8b bc
       0.0038380206 0.0015385163 0.0133198695 -0.01701778
0002a0 f0 46 b5 3d d2 af c0 3d b8 9f a0 3b 06 0e 2d 3d
       0.08851421 0.09408535 0.0049018525 0.042249702
0002b0 7c 08 ce 3d 19 68 02 bd 1f 24 db 3d ca bf 04 3c
       0.10060212 -0.031837557 0.10700249 0.008102367
0002c0 4e a1 45 bc df 4c ad 3d a7 08 6c 3d 76 dd 82 bd
       -0.012062384 0.084619276 0.05762544 -0.063898966
0002d0 60 a7 bc 3d e3 1b 9a 3d 51 68 ad 3d 61 4e ca 3d
       0.09211612 0.0752485 0.084671624 0.09878231
0002e0 07 b8 3f 39 14 94 15 3e e9 0e b9 bb 8c 40 98 3c
       0.00018283735 0.14607269 -0.0056475294 0.018585466
0002f0 f5 b9 d2 3c 0a fc e4 3c f2 90 eb 3d 56 94 41 bd
       0.025723437 0.027952213 0.115022555 -0.047260605
000300 bb 38 84 3d 41 a9 c3 3d e5 b2 81 3d ad 25 a5 3d
       0.06456133 0.09553767 0.063329495 0.08063827
000310 ae 97 75 3d b3 5b 37 3e 46 7e bf 3d e9 38 21 3d
       0.059959106 0.17906074 0.093502566 0.039360914
000320 02 1a bb bc a5 64 bc 3d a9 a3 57 3d e2 08 f5 bb
       -0.02283955 0.09198884 0.052646313 -0.0074778656
000330 59 1e 92 3d c6 0c 95 bd 42 2b 44 bc d6 f1 0f 3e
       0.071346946 -0.07277827 -0.011973204 0.14057097
000340 4e 31 85 3d 0c cc d1 3d bc 2e ca 3d ab 8a 40 3d
       0.06503545 0.10243997 0.09872195 0.047007244
000350 00 67 99 3d 35 d9 a9 3d 60 ce 3f bc 15 83 12 3e
       0.07490349 0.08293382 -0.0117069185 0.14307816
000360 d5 a8 98 39 a8 bc 08 bc 69 af c5 bc bb 7d 69 3d
       0.0002911749 -0.00834576 -0.024131494 0.05700467
000370 7f d5 27 3c 3b df c6 3d 3e 18 dd 3d 45 8f 01 3e
       0.0102437725 0.097105466 0.107956395 0.12652309
000380 41 2e ac 3d 49 e7 f3 3d bd c0 97 3d 89 25 77 3d
       0.0840726 0.119093485 0.07409809 0.06033853
000390 e8 d5 5c 3d ae bf 06 3e 48 20 7d 3d 73 c7 be 3d
       0.053914934 0.13159057 0.061798364 0.09315386
0003a0 74 6c c0 3d a8 86 74 3d 26 c1 9d 3d 00 6f 35 3d
       0.09395686 0.05969873 0.07702856 0.04429531
0003b0 77 1a c0 3d ce 79 0c 3d 2f 1a 4c 3d fa ae 69 3e
       0.09380048 0.03429585 0.049829658 0.22820655
0003c0 11 c0 f1 3d cf 8e 36 3d 1e e4 f3 3d 85 19 f3 3d
       0.11804212 0.044569787 0.11908744 0.11870102
0003d0 55 dc 07 3e 04 03 53 3d a0 e3 7c 3d e4 e4 cd 3d
       0.13267644 0.051516548 0.061740518 0.10053423
0003e0 79 b2 ae 3c f0 21 1b 3e 4d cc db 3d dd 88 01 3e
       0.021325337 0.15149665 0.10732327 0.12649865
0003f0 d1 c0 8f 3d 55 30 bf 3d 46 4d e8 3d 27 e6 cb ba
       0.07019199 0.093353905 0.11342864 -0.0015556262

backbone.output1.weight f4 [128, 128]
000000 36 98 9a bd a9 4c b8 3d 82 d0 68 be ca 8a 05 be
       -0.07548563 0.08998997 -0.2273579 -0.13041225
000010 f3 26 f7 3d bb 5d 0e 3e fa 3f 05 3e ef a6 a5 3e
       0.12067976 0.13902943 0.13012686 0.32353923
000020 82 2f 36 be aa 66 28 be 72 e4 80 bd 70 31 fc bc
       -0.1779156 -0.16445413 -0.062935725 -0.030785292
000030 6c fc 93 3d c3 ce 90 3e e3 0d 14 bd 08 59 0f 3e
       0.0722588 0.28282747 -0.036146056 0.13998806
000040 18 b3 1d be 9d 81 5b bc 0a 1f 8c be a4 23 e4 bd
       -0.1540035 -0.013397601 -0.2736743 -0.111396104
000050 9e 49 32 3d c1 2d 49 3d 3f 19 20 3e f7 25 df bd
       0.043527238 0.0491159 0.1563463 -0.10895913
000060 1b 1f e8 3d 0d 13 f7 3c 8c fe 13 3e 75 71 2e be
       0.11334058 0.030160451 0.1445257 -0.17035468
000070 0a 83 ba 3d 98 62 0f be ab 1b 15 3d da 0b 10 3e
       0.09107025 -0.14002454 0.03640334 0.14067021
000080 86 05 44 3e 24 c4 04 be f6 ec ac be e6 78 4d bd
       0.19142732 -0.12965447 -0.33774537 -0.050164126
000090 4d a5 fd 3c dd 2e 32 bd 72 3a 2d 3e f0 79 50 3e
       0.03096261 -0.043501724 0.16916826 0.20359015
0000a0 65 1e 69 be ad b4 be 3e 68 30 84 bd d9 51 3f bb
       -0.22765501 0.3724722 -0.06454545 -0.0029193072
0000b0 57 57 8d bd b2 33 2d 3e 91 aa c7 3c 40 5f 71 be
       -0.069014244 0.16914251 0.024373325 -0.23571491
0000c0 86 2b f1 bd b3 ea 2f 3e 5a bd 7f bd 09 c2 b0 3c
       -0.117758796 0.17179374 -0.06243644 0.021576898
0000d0 a6 77 a6 3d e3 b5 0f be 4b 99 43 bd a7 9d 08 3e
       0.0812829 -0.14034228 -0.047753613 0.1334139
0000e0 f4 ac 58 be 9b be 6d 3b 9f fd 98 39 7c 7f 58 3e
       -0.21159726 0.003627694 0.00029180662 0.21142381
0000f0 5c 16 1f 3c 2f 47 c3 3d f8 30 03 3d b3 61 5f 3e
       0.009709921 0.095350616 0.032029122 0.21814613
000100 3f 22 d6 3d 76 c7 38 3d 00 79 74 be d7 45 9a be
       0.10455751 0.045112096 -0.23874283 -0.3013141
000110 76 9a 80 be 4e ce 00 bc 1c fe b0 bd 2a df a8 bd
       -0.25117844 -0.007861687 -0.086422175 -0.0824569
000120 a6 ec 07 be fe 67 cf 3d 81 01 98 bc 6d 8d bd 3e
       -0.13273868 0.10127257 -0.018555405 0.37021962
000130 a8 00 ca 3c f4 3d 37 bd 96 41 4a 3d 8e bd 44 be
       0.024658516 -0.044736817 0.049378954 -0.19212934
000140 98 60 8c be 19 02 0e 3e 95 7b 20 be 40 cd 50 3e
       -0.27417445 0.13867988 -0.15672143 0.20390797
000150 d9 10 4c 3e 21 63 87 be 40 4a 75 3e 16 2a c7 bd
       0.19928302 -0.26442817 0.23954105 -0.09724824
000160 af 25 57 3d 34 19 aa 3c a5 35 c5 3d da fb cd bc
       0.052526172 0.02076397 0.096293725 -0.025144506
000170 1d b2 6c 3e 1e dc ac bd 08 39 42 be aa 01 3a be
       0.2311482 -0.084404215 -0.18967068 -0.18164697
000180 88 0e 8b 3c 64 0e 81 be 1f 9e 08 bd e7 11 dd bd
       0.016974702 -0.25206292 -0.03335392 -0.1079443
000190 8d 28 b4 3d 92 15 c6 bd e4 c9 77 be 51 d5 5e 3e
       0.08796797 -0.09672083 -0.24198109 0.21761061
0001a0 a0 f5 3f 3e ed 56 4f 3e 73 b5 1c 3d 3d 36 cd bc
       0.18746042 0.20248003 0.03825898 -0.025050277
0001b0 f1 31 3d 3d 77 90 66 3e 11 eb 9d 3d 56 dc 50 be
       0.046190206 0.22516046 0.07710851 -0.20396551
0001c0 ea 48 85 3e df 35 93 bd ab 64 ab 3e 17 5d 66 3e
       0.26032192 -0.071880095 0.3347524 0.22496448
0001d0 f2 88 79 be 8b 67 41 bd e1 1b 4e 3d d6 ba 88 3d
       -0.24368647 -0.047217887 0.050319556 0.06676261
0001e0 d8 9f 08 be 36 64 15 be 92 a8 3a 3e 11 f9 9b 3d
       -0.13342226 -0.14589009 0.18228367 0.07615865
0001f0 68 18 4a bd 61 c0 d9 bd f4 a0 c1 3d 77 1d d8 bd
       -0.049339682 -0.106323965 0.094545275 -0.10552495
000200 63 00 2f 3e 87 15 36 3d e7 1b 2b 3e 05 8a 27 3e
       0.17089991 0.044454124 0.16709863 0.16361244
000210 55 47 11 3d 3e 02 3e be 30 33 19 be b3 a7 b0 bd
       0.03546842 -0.18555543 -0.14960933 -0.08625736
000220 e0 b4 67 3e a3 df 7d 3d 1e f3 03 3e 50 b6 b9 3d
       0.22627592 0.061980855 0.1288571 0.090679765
000230 28 bd 3e 3d b3 c1 17 be da db 05 3d 8f 8b 32 be
       0.046567112 -0.14819984 0.03268037 -0.1743605
000240 0a be 23 bb 07 bf 59 3e d1 4a b8 bc 9e d4 af 3d
       -0.0024985098 0.21264277 -0.022496613 0.085854754
000250 e2 75 6a bd 9b f9 a1 bd a3 e6 9d be 1d ca 08 bd
       -0.057241328 -0.079089366 -0.30840024 -0.033395875
000260 87 a2 7e bc b0 4c c2 bd 63 0a 08 be 49 b3 56 3d
       -0.015541679 -0.09487283 -0.13285212 0.052417073
000270 b0 67 7d bb af a0 81 3e 89 5e 01 be 2d ed 88 bd
       -0.003866654 0.25317904 -0.12633719 -0.06685863
000280 e8 41 41 be 73 3d 0c 3e 69 b6 06 3d 1a b2 4f 3e
       -0.18872797 0.13695316 0.032888804 0.20282784
000290 8f ed 3f be 3b 82 cc bd 89 03 0d be 20 f5 73 be
       -0.18742965 -0.09985777 -0.1377088 -0.23823977
0002a0 58 1b 93 3e 83 e4 d4 bb 88 2a 1b 3e c7 0c c9 3c
       0.287318 -0.0064969673 0.15152943 0.024542226
0002b0 9f 19 f1 bd 4a 81 00 be fc 86 68 bd 06 1a 4d 3c
       -0.11772465 -0.1254932 -0.056769356 0.0125184115
0002c0 d3 4f 3b 3e 75 02 29 be 46 53 05 3e 97 6f 3c 3d
       0.1829217 -0.16504844 0.13020048 0.046004858
0002d0 1a 9b aa 3d 12 8f 57 3d e7 d6 02 bd 6b 1f 84 3d
       0.083303645 0.052626677 -0.031943228 0.06451305
0002e0 cc 89 ba 3d 64 29 30 3e d1 ba d0 bd d3 fb a1 bd
       0.09108314 0.1720329 -0.101918824 -0.0790936
0002f0 30 5e 12 3d 25 b3 8e 3d f9 50 57 bc 8b d3 3a bd
       0.035734355 0.06967763 -0.013141864 -0.0456119
000300 3a f7 e8 bd ba ab b5 3b 01 c1 73 3e 5b 6b ab 3d
       -0.1137528 0.005544153 0.23804094 0.08370086
000310 80 03 37 3d 9f 70 4b 3e 17 c8 e9 3d bf f3 d3 3d
       0.044681072 0.1986718 0.11415117 0.10349225
000320 d7 bf 9c 3d 4c 2e 59 be 78 ea 85 bc 8f dd a7 be
       0.07653778 -0.21209067 -0.016347155 -0.32786223
000330 a5 af 79 be b4 c4 b5 3d 86 8b 2a 3e a5 1a 14 3e
       -0.2438341 0.08875409 0.16654786 0.14463289
000340 a0 21 66 3e a3 a0 2b be a1 46 51 bd df 7f 56 bd
       0.22473764 -0.16760497 -0.051092748 -0.05236804
000350 e6 f2 22 be 79 bd 7b 3e 80 3d 37 be 35 64 1d bd
       -0.15912971 0.24583997 -0.17894554 -0.038425643
000360 f7 6f 93 bd 25 97 1b 3e 3d e3 41 be 23 75 ce 3d
       -0.0719909 0.15194376 -0.18934341 0.10080936
000370 ac 57 2c be 28 cb 3f bd 5a a8 86 3d 69 87 64 3d
       -0.16830319 -0.046824604 0.06575079 0.0557932
000380 30 9e 0d 3d ce e0 04 3e d8 10 49 be 28 7f 37 3e
       0.034574687 0.12976381 -0.19635332 0.179196
000390 75 d9 8e be 6f 27 23 bc aa 68 39 3e e5 33 b0 3d
       -0.27900282 -0.009958132 0.18106332 0.08603648
0003a0 92 67 c9 3d 15 63 f5 bd 76 fc 9c 3d 14 17 2d 3c
       0.098342076 -0.11981789 0.076653406 0.010564584
0003b0 df f6 97 3d 61 4a 8b 3d 66 75 24 3d e8 b0 6a 3e
       0.07420134 0.06801296 0.040151022 0.22919047
0003c0 a4 22 ab bd 3f af fe 3d 96 d7 9e bb 39 d2 38 be
       -0.083562165 0.12435769 -0.004847477 -0.18048944
0003d0 b6 79 91 3e fe d2 e6 3d 16 86 59 bd bf 0a 45 be
       0.2841317 0.11270712 -0.05310639 -0.1924238
0003e0 5d f4 46 bc 3a cf f0 bc eb 8e 94 bd db 47 6f be
       -0.012143222 -0.029395688 -0.07253822 -0.23367254
0003f0 2e 35 cc 3d 74 26 d0 bd 40 dc 63 be 5e 01 27 3e
       0.09971081 -0.10163584 -0.22251987 0.16309115

backbone.output1.bias f4 [128]
000000 a9 b5 84 3d 34 29 ac 3d c5 2a e4 3d f5 d5 ad 3d
       0.064799614 0.08406296 0.1114097 0.08488075
000010 56 73 03 3e 47 e5 6c 3d 10 a9 fa 3d c7 a2 5a 3e
       0.12836966 0.057835843 0.12239277 0.21351157
000020 47 ec 43 3e 54 90 21 3d 13 c5 13 3e 61 b5 94 3d
       0.19133101 0.039444283 0.14430647 0.07261158
000030 b0 be 3c 3e 42 9b 0a 3e e1 21 65 3e da 85 4c 3d
       0.18432117 0.13535789 0.22376205 0.04993234
000040 fd 31 74 3d 6f 82 ca 3d c4 3c 33 3e 1c e7 02 3e
       0.059617985 0.098881595 0.17503649 0.12783474
000050 c5 eb 68 3d 29 0a 8a 3d a5 7e 11 3e 91 ca f1 3d
       0.056865472 0.06740219 0.14208467 0.118062146
000060 31 0b 2d 3e d7 91 93 ba a6 5b c5 3c 94 0c d6 3c
       0.168988 -0.0011258674 0.024091553 0.026129045
000070 19 c5 26 3e c2 94 31 3e 3e dc a6 3d 22 3d 1d 3e
       0.16286124 0.17341903 0.081474766 0.15355352
000080 a9 f6 85 3d 87 06 51 3d 6a 88 b1 3d a9 88 1e 3e
       0.06541187 0.051031616 0.08668597 0.15481819
000090 54 ed be 3d 88 97 d9 bc ba 6f 3b 3e cc 45 6f 3e
       0.093226105 -0.026561514 0.18304339 0.23366469
0000a0 3e 67 1d 3e c0 ef ba 3d 2d a0 1f 3e 3d a2 63 3e
       0.15371415 0.0912776 0.15588446 0.22229858
0000b0 45 43 c3 3d 1a 4f 1b 3e e1 45 12 3e af 48 b0 3d
       0.09534315 0.15166894 0.14284469 0.08607613
0000c0 16 13 57 bd 8f 71 88 bc 4c 2e 18 3d 23 3d 24 3d
       -0.052508436 -0.016655711 0.037153527 0.040097367
0000d0 64 5d f5 3d 65 91 94 3d 8c d2 0e 3e f6 07 ce 3d
       0.119807035 0.07254294 0.13947505 0.10060112
0000e0 e6 d0 6c bd 71 f0 da 3d a0 ae bc 3d fe ec 64 3d
       -0.05781641 0.10690392 0.092129946 0.055890076
0000f0 d5 32 f1 3d 27 a6 a7 3b 49 d4 ad 3d 14 e3 b4 3d
       0.117772736 0.0051162424 0.08487756 0.08832374
000100 45 75 8d bc fe 3b 7a 3d 5e e5 5e 3d b7 97 1a 3d
       -0.017267833 0.06109237 0.05441796 0.037742343
000110 69 04 73 3d f8 ff 38 3d 41 f2 85 3d 83 d4 32 3d
       0.059330378 0.045165986 0.06540347 0.0436597
000120 85 d0 33 3e a9 18 7a 3c af 4c 06 3e 96 24 7c 3e
       0.17560013 0.0152646685 0.1311519 0.24623331
000130 3c 80 38 3e fc c1 fa 3d 35 18 a5 3d 90 61 fa 3d
       0.18017668 0.12244031 0.08061258 0.1222564
000140 bc 73 51 3d 2e 41 6a 3d 0f ab c5 3d b6 46 93 3d
       0.051135764 0.057191066 0.096517675 0.071912214
000150 ff 2e 1e 3e 69 62 a1 3d 02 cb 06 3c 20 07 a5 3d
       0.15447615 0.078800984 0.008227112 0.080579996
000160 ca ee d9 b9 64 b3 b7 3d cd ab d3 3d 40 04 0e 3e
       -0.00041567377 0.08969763 0.10335503 0.13868809
000170 57 3f f2 3d 95 6b 30 3d ec aa 3b 3d 51 6d 51 3e
       0.11828487 0.04307135 0.0458173 0.20451857
000180 cf 83 34 3e 03 e7 1c 3e c6 4e 36 b9 18 90 d1 3d
       0.17628406 0.15322499 -0.00017386218 0.10232562
000190 90 75 61 3d a4 d8 c9 3d d1 8d 2f 3c 06 15 04 3e
       0.055043757 0.09855774 0.010714964 0.12898645
0001a0 af 3f d0 3d f2 75 ef 3d 84 c0 28 3e 25 ed e3 3c
       0.10168397 0.11692418 0.16479689 0.02782304
0001b0 d2 fc 81 3d 59 23 0b 3d 9e 73 08 3e f1 13 2a 3e
       0.0634705 0.033969257 0.13325354 0.1660917
0001c0 34 10 0b 3e 47 91 35 3d 6d 59 00 bc 17 ef 81 3d
       0.135804 0.044328 -0.007833821 0.06344431
0001d0 c4 95 27 3e 5c 37 05 3d b7 e5 3b 3d 9a 9b b2 3b
       0.16365725 0.032523498 0.04587337 0.005450678
0001e0 0b 05 f4 3d 9c 87 01 3d 14 34 ff 3d 74 e0 cb 3d
       0.11915024 0.031623468 0.12461105 0.099549204
0001f0 02 25 30 3e 73 51 6e 3e 5d ee 98 3c 6d 20 c4 3d
       0.17201617 0.23273258 0.018668348 0.09576497

classifier.0.weight f4 [40, 128]
000000 34 ce 01 3e b2 ff bf bd bb f5 4c be 62 07 9b bd
       0.12676316 -0.09374942 -0.20015614 -0.075697675
000010 26 03 00 3e fa ae 3d be 5a e3 82 3d e0 cf 30 3e
       0.12501201 -0.1852378 0.0639102 0.17266798
000020 18 8b 56 3b f0 89 03 3b db ff cc bd ac 02 6c bd
       0.0032736715 0.002007123 -0.10009738 -0.057619736
000030 72 14 c1 3d 48 1f e6 3d 83 82 b8 be 05 26 13 be
       0.09427728 0.11236435 -0.36037073 -0.14369972
000040 c8 56 cd bc 35 5c 00 be 38 41 ee 3d 68 96 ea bd
       -0.025065795 -0.12535174 0.11633533 -0.11454469
000050 8e d7 59 be ba 31 14 3e b8 66 76 be 24 55 c3 bd
       -0.21273634 0.14472094 -0.24062622 -0.09537724
000060 2e 80 31 3e 5a d4 d2 bd 5f ca f8 3c 1c e8 15 bd
       0.17334053 -0.10294409 0.030369936 -0.03659831
000070 da ca 1d 3d c5 75 b3 be 2a 17 65 be ed f1 33 bd
       0.038523532 -0.3505079 -0.22372118 -0.04393189
000080 1f 9d 10 be 55 5a 8b bd 3e 2c 62 3d eb dc d7 bc
       -0.14122437 -0.06804339 0.055217974 -0.02635046
000090 e6 41 59 3c f6 ed ad 3d 50 46 c5 be bf 74 1c bd
       0.01326034 0.08492653 -0.38530207 -0.038197275
0000a0 84 5c 0d be 75 44 14 3c c8 8c 66 be f9 f0 30 3e
       -0.13804823 0.009049525 -0.22514641 0.17279424
0000b0 ff 1c d2 3d 3b 6e de 3b 24 8f 34 be 69 ed 1d 3d
       0.10259437 0.006788043 -0.17632729 0.03855649
0000c0 ac fb c3 bd 4f 39 17 bd 2d 80 82 be 49 e8 bd bd
       -0.09569487 -0.036919888 -0.25488415 -0.092728205
0000d0 5c f9 99 bd 3b 12 cf 3d 8d 7f b6 3d 7b 8d 7b be
       -0.07518265 0.10110899 0.08911047 -0.2456569
0000e0 36 ff 27 bd d2 44 8e 3d 17 39 43 be ac ff ad be
       -0.041014872 0.0694672 -0.19064747 -0.33984125
0000f0 34 49 59 be 1c 92 ef 3d de 86 97 be 43 9e b2 be
       -0.21219331 0.1169779 -0.29595083 -0.3488637
000100 b2 6a 9c 3d fa d6 df 3c d8 66 88 bd f8 34 2e be
       0.07637538 0.027324189 -0.06660241 -0.17012393
000110 9d 5f d4 3b f9 3b 2e 3e 42 73 0c 3e fd 35 64 be
       0.0064811246 0.17015065 0.13715842 -0.2228622
000120 98 f7 8a 3d 1c 8f af be 33 7d 0f be dd 3a 22 3d
       0.06785506 -0.3428887 -0.14012603 0.039606918
000130 41 2f 1b be e6 22 61 be 40 66 86 be a2 c3 33 bd
       -0.15154745 -0.21985969 -0.26249886 -0.043887742
000140 c2 26 cc bd b4 6a 56 be 21 e6 bc 3d 8b 48 79 3d
       -0.0996833 -0.20939142 0.09223581 0.060860198
000150 4b eb 2d 3e 3f d2 7f bd ed 87 7c 3d b3 54 0c 3e
       0.16984288 -0.062456366 0.061653066 0.13704185
000160 7b 93 e9 bd 6a 1f ae bd c0 3d 1a be ed 23 ae ba
       -0.11405083 -0.085020855 -0.15062618 -0.0013285853
000170 55 d2 89 bd 62 91 6b 3d 3a 2b 9e 3d 67 0b 91 be
       -0.06729571 0.057511695 0.077230886 -0.28329012
000180 57 eb 03 be 43 e6 29 3d a5 4a 7d be 74 1d f9 3d
       -0.12882744 0.04147936 -0.24735506 0.12163821
000190 fd 7d a4 bd 1b a3 60 3d d9 ff 5a be 95 74 9a 3d
       -0.08031843 0.05484305 -0.2138666 0.075417675
0001a0 22 8b c7 bd 4d 2f 10 be 3e 6b 92 3d a4 fa ea bd
       -0.09743334 -0.14080544 0.07149361 -0.11473587
0001b0 54 7b 7f 3d db 66 fa 3d d4 29 61 bd 84 5b 9b be
       0.062373474 0.122266494 -0.05497153 -0.30343258
0001c0 25 ff 89 bd 72 d3 ea 3c fc 63 80 bd c4 02 57 bb
       -0.06738118 0.028665278 -0.062690705 -0.0032808045
0001d0 fe 2e 2e be 26 6f ae bd ef 2b 9e 3d 2e d7 e8 3d
       -0.17010114 -0.08517294 0.077232234 0.11369167
0001e0 a7 b0 a9 bd e6 f7 c9 be 05 95 76 be ca b8 a1 bd
       -0.08285647 -0.39446944 -0.24080284 -0.07896574
0001f0 1b 68 19 bd 0f 6e ec be 1a 49 27 be 29 76 0d 3e
       -0.0374528 -0.46177718 -0.1633648 0.13814606
000200 a0 39 91 bd 10 9c 02 3e 18 55 58 3d e7 1a 94 3d
       -0.07091069 0.12754846 0.052815527 0.07231694
000210 59 b0 c9 bd 7b dc 07 be 0e c3 30 bd e9 5e 28 be
       -0.09848089 -0.132677 -0.04315477 -0.16442455
000220 ab 57 07 be ef 41 ad bc 07 74 00 be 76 7b b0 3c
       -0.13217036 -0.021149604 -0.12544261 0.021543246
000230 46 c8 17 be d9 67 85 bd a5 38 9e bc 86 73 3a 3c
       -0.14822492 -0.06513948 -0.01931412 0.011380082
000240 4b a0 29 3d ef 55 09 3c 50 0b 68 bd 57 f7 34 bd
       0.041412633 0.008382305 -0.056651413 -0.044181194
000250 70 c6 65 3e 27 d8 02 be 2f 33 d4 bd 9b 64 88 bd
       0.22438979 -0.12777768 -0.10361325 -0.06659814
000260 70 7e ae bd 33 d4 2d 3e b0 ba 42 bb 88 a0 30 be
       -0.0852021 0.16975479 -0.0029713325 -0.17248738
000270 31 9b 5a bb 29 35 c2 3d 91 91 21 3d bc f5 f5 bd
       -0.0033356661 0.09482796 0.039445464 -0.12009761
000280 e6 2c 1c 3c 92 38 d4 bd 3b 7f d9 3d 50 d3 60 3d
       0.009532189 -0.103623524 0.106199704 0.054889023
000290 5b cb b4 bd a1 5a c9 bc 5c e0 45 3d 5f 78 07 3d
       -0.088278495 -0.024579348 0.04830967 0.03307378
0002a0 30 8e 4f bd 21 a8 2e bd f0 27 0e bd db d2 ce bd
       -0.05067271 -0.04264081 -0.034706056 -0.10098811
0002b0 99 1b 23 be a5 3a 75 3d 5b 04 3f 3d 01 e1 04 be
       -0.15928496 0.05987038 0.046635013 -0.12976457
0002c0 e2 40 eb bd 41 58 89 bd b3 f6 8e bd c4 83 93 3d
       -0.11486985 -0.06706286 -0.06980648 0.07202867
0002d0 e9 8e 07 3d 4e d3 e7 bd fd 58 0c be 14 fd d2 bb
       0.033095274 -0.113196 -0.13705821 -0.0064388607
0002e0 35 87 98 bc 0e 0a 0b be b1 e6 8f bb a7 a1 4f 3c
       -0.01861916 -0.13578054 -0.004391514 0.012672818
0002f0 ed ae 9b bd e8 da fb bd 6b fa f6 3d b4 2a 3e bd
       -0.07601724 -0.122976124 0.12059482 -0.046427444
000300 9c d4 ab be 10 db 18 be c5 b4 86 bd 6b 7e af 3b
       -0.33560646 -0.14927316 -0.06577448 0.0053556464
000310 c8 93 4f 3e d0 00 0d be 5e 24 9b 3b 31 91 dd 3d
       0.20271218 -0.13769841 0.00473456 0.10818709
000320 41 e5 da bd aa d1 26 3e f6 55 83 bd 62 b6 34 3e
       -0.10688258 0.16290918 -0.0641288 0.17647699
000330 c4 01 ba 3d 0a 0a 45 bd 5e f5 00 bd 0c c0 42 3d
       0.09082368 -0.048105277 -0.031484 0.04754643
000340 45 02 23 be b4 88 91 bd fe c5 a3 be 40 7e 8e 3d
       -0.15918835 -0.07106152 -0.31986994 0.06957674
000350 41 fc 41 be 8f a1 1a 3d b8 3d 93 bd 5a 1c 2a be
       -0.18943883 0.03775173 -0.07189506 -0.16612378
000360 79 a2 06 3e 70 8a f8 bc c6 dc a8 bd 2b 3d bd 3c
       0.13147916 -0.03033945 -0.08245234 0.023100456
000370 ad 35 b0 3d 79 5c 17 be 7c 48 45 3e b0 01 a9 3d
       0.08603988 -0.1478137 0.19265932 0.08252275
000380 cc de dc bd cf 10 2e 3d f7 31 13 3e 03 b3 02 be
       -0.10784683 0.0424965 0.14374529 -0.127636
000390 d4 09 85 3d ce 47 0a 3e dd 52 6d be 5a 4d d7 bc
       0.06496015 0.13503954 -0.23176141 -0.026282001
0003a0 8d d3 23 bc 6c 8e 18 bd 2e bb 39 3e 68 66 f7 3d
       -0.009999168 -0.0372452 0.1813781 0.12080079
0003b0 82 65 14 bd ab 0a af 3d 8a c5 12 3e b7 a1 f6 3c
       -0.036229618 0.08546957 0.14333168 0.030106409
0003c0 b5 f6 1a be 84 13 86 bd db 0b 22 be 31 ed 90 bd
       -0.15133174 -0.06546691 -0.15824835 -0.07076491
0003d0 95 94 06 3e ef 1a 81 3d dd ca ba 3b 9c 9f 35 3c
       0.13142617 0.06303965 0.0057004527 0.011085417
0003e0 86 99 f1 3d ac 2e c2 3d 3e 60 b7 bc 44 ec 32 3d
       0.117968604 0.09481558 -0.022384759 0.04368235
0003f0 5d 8f bb 3c 21 cb 02 3c 68 4d bf bc de 5b 4d be
       0.02289551 0.007983 -0.02335234 -0.20054576

classifier.0.bias f4 [40]
000000 6b b3 72 3d 97 1c 0a 3a 9a c6 f0 39 82 f7 a0 bd
       0.059253138 0.00052685424 0.00045924337 -0.07859708
000010 17 62 50 bc b9 78 1e bd 96 ae 5c 3d ea 74 cc bc
       -0.012718699 -0.03868935 0.053877436 -0.024958093
000020 ba 7a eb 3c 2d 21 21 bd e7 0f 1a bd 58 76 97 bc
       0.028745044 -0.03933828 -0.037612822 -0.018489048
000030 cd df 4b bd 09 1e 90 bc 2a 9b 46 bd 39 8e 10 be
       -0.04977398 -0.017592447 -0.04848782 -0.14116754
000040 43 a7 87 3d d7 5b 7e bc bc 4d a4 bd 3f 4c b9 bd
       0.066236995 -0.015524826 -0.08022639 -0.09047746
000050 79 18 26 bc f0 b4 a6 bc f8 e3 cd bc ae 61 e1 3d
       -0.010137671 -0.02034995 -0.025133118 0.11004959
000060 79 ee d0 3c ce a9 33 3d 82 68 a1 bd 8b a6 02 3d
       0.025504338 0.04386311 -0.078812614 0.03189711
000070 04 c0 db bc 37 5a 70 bd ee f3 23 3d 47 dd 03 3d
       -0.026824959 -0.058679786 0.04002755 0.03219345
000080 02 9f 93 bb 29 2d 27 bd 2c b0 5c 3d e6 1a cc bb
       -0.004505039 -0.040814552 0.053878948 -0.0062287925
000090 c1 ef e0 bd f4 ff 10 3c 02 c7 8a bd 9a 09 7a 3b
       -0.109832294 0.0088500865 -0.06776239 0.0038152696
