Experiment/EEGClassification/classifier_LSTM_embed_128_raw_test/model.pth (torch, 617165 bytes, 8 tensors)

backbone.lstm.weight_ih_l0 f4 [512, 128]
0	0xbcbcc998	-0.023045346
1	0xbd826b39	-0.06368107
2	0xbb2daf13	-0.0026502057
3	0x3bed2d39	0.007238057
4	0x3d4288d6	0.04749378
5	0x3d130790	0.035895884
6	0x3d825d17	0.06365412
7	0x3d8cc314	0.06873146
8	0x3d177fc6	0.03698709
9	0xbda80aea	-0.08205207
10	0xbd6b98ee	-0.057518892
11	0x3cdb03b6	0.026735168
12	0x3cc2cfb6	0.023780685
13	0x3acea5ae	0.0015765929
14	0x3c74943e	0.014927922
15	0xbd1e543e	-0.03865456
16	0x3ca3c797	0.019992633
17	0x3b88e4e1	0.004177675
18	0xbcd19788	-0.025584951
19	0x3d668a15	0.05628403
20	0x3ab7f5bc	0.0014035027
21	0x3d3a1a8e	0.04543548
22	0x3cbb5e9e	0.022872265
23	0xbcd90a4c	-0.026494168
24	0x3dac05c9	0.08399541
25	0xbd5589a6	-0.052133225
26	0x3d7c6705	0.061621685
27	0xbd146183	-0.036225807
28	0xbc39b1ca	-0.011333892
29	0x3cf71fd7	0.03016655
30	0xbc9f8ac0	-0.01947534
31	0x3ca5e8a3	0.020252531
32	0xbc9e0b7d	-0.019292587
33	0xbcd96d69	-0.026541429
34	0x3b6364a0	0.0034697428
35	0xbdb12386	-0.08649354
36	0xbd667dc0	-0.05627227
37	0xbc880d4c	-0.016607903
38	0xbd826699	-0.06367225
39	0xbd520e66	-0.051283263
40	0x3dcadb49	0.099051066
41	0xbd83a654	-0.06428209
42	0xbcb77cba	-0.022398341
43	0x3c77c06c	0.015121561
44	0xbdcb7cf7	-0.099359445
45	0x3d43b932	0.047784038
46	0xbd95f00f	-0.07321178
47	0x381b723f	3.706128e-05
48	0x3cde9504	0.027170666
49	0x3d4b7478	0.04967162
50	0xbd4807a5	-0.048835415
51	0x3d6397c9	0.055564675
52	0x3d3ec410	0.0465737
53	0xbd695ba3	-0.056972157
54	0xbb894008	-0.0041885413
55	0xbda908be	-0.082536206
56	0xbd8f9389	-0.07010562
57	0x3bc1e533	0.0059172153
58	0xbc29fa3e	-0.010374604
59	0x3d34be3f	0.044126745
60	0xbda8c4b0	-0.0824064
61	0x3cebe651	0.028796347
62	0xbbe1f602	-0.0068957815
63	0x3cd261c4	0.025681384
64	0x3c466f53	0.012111503
65	0xbcca3d44	-0.024687417
66	0xbd002652	-0.031286545
67	0x3caea965	0.021321008
68	0xbcb96b88	-0.022634283
69	0x3d7f945f	0.062397357
70	0xbdb408af	-0.08790719
71	0xbddadf00	-0.10687065
72	0xbda1dfa6	-0.07903986
73	0xbdae41fc	-0.08508679
74	0x3cc9d0d4	0.02463571
75	0xbc6157a3	-0.013753804
76	0xbd811552	-0.06302895
77	0xbd5be459	-0.053684566
78	0xbcc38a7b	-0.023869744
79	0x3d11f474	0.03563352
80	0xbd150c05	-0.036388416
81	0xbd8f953d	-0.07010887
82	0xbd8a80d8	-0.06762856
83	0xbd061aaa	-0.032740273
84	0x3d2ab52b	0.04167668
85	0xb9ff264d	-0.00048665926
86	0x3cbee8b5	0.023304323
87	0xbd1cfec4	-0.0383289
88	0x3c86f9a0	0.016476452
89	0x3cd6d8ab	0.026226362
90	0x3cda119e	0.026619729
91	0xbd0e021d	-0.034669984
92	0x3c0ba610	0.008523479
93	0xbd997b5d	-0.07494233
94	0x3d89a90b	0.067216955
95	0x3c85a4ed	0.016313994
96	0xbd5aa051	-0.053375546
97	0xbd44b3c4	-0.048023
98	0xbcfbc72a	-0.030734617
99	0xbdc015f7	-0.093791895
100	0xbd605b27	-0.05477443
101	0xbcbc4448	-0.022981778
102	0xbcdedf00	-0.027205944
103	0xbcdc14e1	-0.026865425
104	0x3db62a61	0.08894802
105	0xbcddf335	-0.02709351
106	0x3d86e933	0.06587448
107	0xbcbe8ece	-0.023261454
108	0xbba11d2e	-0.0049168086
109	0x3da736b2	0.08164729
110	0x3cbb191d	0.022839123
111	0xbcac9dfc	-0.021071427
112	0x3d170c14	0.036876753
113	0x3c75b72a	0.014997283
114	0x3d2ff0eb	0.042954367
115	0x3d3e0ee1	0.04640091
116	0xbda5904a	-0.080841616
117	0xbd7fd595	-0.062459547
118	0x3d39cf52	0.04536373
119	0xbdb9f287	-0.090794615
120	0xbd960d09	-0.07326705
121	0x3d846861	0.06465221
122	0x3c80b141	0.015709521
123	0xbdaa3e57	-0.08312672
124	0x3d66c6c1	0.05634189
125	0x3d416964	0.04721965
126	0xbd27602b	-0.040863197
127	0xbd01a26c	-0.03164904
128	0x3d4741a3	0.04864658
129	0x3de50434	0.11182442
130	0xbd6cf35b	-0.05784927
131	0xb9bd8129	-0.0003614512
132	0x3caf0458	0.021364376
133	0x3d1e7a91	0.038691107
134	0xbc89541c	-0.01676374
135	0x3c3c41b9	0.011490279
136	0x3c8e7760	0.017390907
137	0xbdbc099d	-0.09181521
138	0xbd3cf87e	-0.046135418
139	0xbdc3d0a0	-0.095612764
140	0x3c94eab3	0.01817832
141	0x3c1faada	0.009745324
142	0x3c26af37	0.01017361
143	0xbda76a28	-0.081745446
144	0xbc5e59f3	-0.01357125
145	0xbdbd177a	-0.092329934
146	0xbd3d08dd	-0.04615103
147	0xbdc53a4a	-0.096302584
148	0xbde04695	-0.109509625
149	0xbc988f62	-0.018623058
150	0xbcf2cc42	-0.029638413
151	0xbc21b7f0	-0.009870514
152	0xbc157f3a	-0.009124571
153	0x3d32bdb2	0.04363794
154	0xbdb07f23	-0.086179994
155	0xbdbf498f	-0.09340202
156	0xbd6414d5	-0.05568393
157	0xbd714d10	-0.058911383
158	0xbdf513c1	-0.119666584
159	0xbd328648	-0.04358509
160	0xbd7c191b	-0.06154738
161	0xbbc28446	-0.0059361784
162	0xbd37a0ca	-0.044831075
163	0x3c898b4d	0.016790057
164	0xbd6c1599	-0.057637785
165	0x3ca12a48	0.019673482
166	0x3d159b09	0.036524806
167	0x3c36670f	0.0111329695
168	0xbbcda6a4	-0.0062759686
169	0xbc8f8052	-0.017517243
170	0x3d09ae69	0.033613596
171	0xbd6d5901	-0.05794621
172	0xbd3397d5	-0.04384597
173	0x3d24806c	0.040161535
174	0xbd5206fe	-0.0512762
175	0xbd5090e6	-0.050919436
176	0xbd179db3	-0.037015628
177	0xbc00697b	-0.0078376485
178	0xbd0fa201	-0.03506661
179	0xbccdff23	-0.025146073
180	0x3ce10579	0.02746843
181	0x3cb51cdd	0.02210849
182	0x3da2335f	0.079199545
183	0x3d09afc4	0.03361489
184	0xbd09bbc1	-0.03362632
185	0xbb217df0	-0.0024641715
186	0x3e10e71a	0.14150658
187	0x3d5a55ab	0.053304356
188	0x3d8d212e	0.06891094
189	0x3db46c71	0.08809746
190	0x3ccf924a	0.02533831
191	0x3dc01408	0.09378821
192	0xbd5f25e8	-0.05447951
193	0xbd18f1dc	-0.03734003
194	0xbcca7767	-0.024715139
195	0x3bc1800b	0.0059051565
196	0xbd9e7033	-0.07736244
197	0x3cebbc2f	0.028776256
198	0x3da5b0c0	0.08090353
199	0x3b95c762	0.0045708874
200	0xbdb28453	-0.08716645
201	0x3d0e817a	0.034791447
202	0x3d6b40f2	0.057434984
203	0x3d01b595	0.03166731
204	0xbdb1c201	-0.086795814
205	0x3c8c9ad0	0.017163664
206	0x3cdaaeda	0.026694704
207	0xbdaf2e42	-0.08553745
208	0x3b6b84f5	0.0035937403
209	0x3cc1819a	0.02362137
210	0x3dabb13f	0.083834164
211	0xbba1020a	-0.004913573
212	0x3d136428	0.03598419
213	0x3d098e9e	0.033583276
214	0x3bd945d8	0.0066306405
215	0x3d558df7	0.05213734
216	0x3dbf54e9	0.09342367
217	0x3d3e27fc	0.04642485
218	0xbad66bde	-0.0016359051
219	0x3ce1da8f	0.027570037
220	0xbd65bcb0	-0.05608815
221	0x3c121f2a	0.008918563
222	0x3d9c0c2a	0.076195076
223	0xbdad7f61	-0.08471561
224	0xbdd3d0e4	-0.10342577
225	0x3d6d00e8	0.057862192
226	0xbc1b2b10	-0.009470716
227	0x3cba5985	0.022747764
228	0x3c11f9a0	0.008909613
229	0xbd98725f	-0.074436896
230	0x39f6ded0	0.00047086785
231	0x3d96282c	0.07331881
232	0x3d1a4c00	0.037670135
233	0x3d702ca8	0.058636338
234	0xbdc2e9c7	-0.09517246
235	0xbc51095f	-0.012758582
236	0x3d46de4b	0.04855184
237	0xbb11a4ba	-0.0022223429
238	0x3cefcd26	0.029272627
239	0x3b0d0657	0.0021518671
240	0x3d4d1e57	0.050077762
241	0x3dff9c01	0.12480927
242	0x3e036838	0.12832725
243	0x3d1a9745	0.037741918
244	0x3c3fb9c9	0.0117020095
245	0x3d1551ad	0.036454845
246	0x3d9b696e	0.075884685
247	0xbd3770d8	-0.04478535
248	0x3c81ebcf	0.015859513
249	0x3d1ea38f	0.0387302
250	0x3cd1d268	0.025613025
251	0xbc2b7935	-0.01046591
252	0x3d8c5a01	0.068531044
253	0x3c3c0204	0.01147509
254	0x3da3cf5f	0.07998537
255	0x3daa6088	0.08319193

backbone.lstm.weight_hh_l0 f4 [512, 128]
0	0xb8033b8e	-3.12883e-05
1	0xb6bd3c02	-5.6396248e-06
2	0xb8380b7e	-4.387972e-05
3	0x3a86de07	0.0010289558
4	0xb5d09c41	-1.5542684e-06
5	0xbae05035	-0.0017113747
6	0xb9d78dce	-0.00041113648
7	0xba92561a	-0.0011164576
8	0x39934087	0.00028086102
9	0xbbff382a	-0.0077886777
10	0x3af643a4	0.0018788469
11	0xb666d45a	-3.4396276e-06
12	0xbae4d9a0	-0.0017459877
13	0xbb4496b0	-0.0029997043
14	0x3a912d95	0.0011076207
15	0x3a2f3c7b	0.00066847325
16	0x39f845cb	0.00047354246
17	0xbb9bddf7	-0.004756685
18	0xbb10bcc9	-0.002208518
19	0xba941e9c	-0.0011300626
20	0x3968f67b	0.00022217065
21	0xbb7debbc	-0.0038745245
22	0x3b1fc5ed	0.0024379448
23	0xb31691e8	-3.5057298e-08
24	0xba580add	-0.0008241365
25	0x3a696f47	0.0008904826
26	0x373ffd5c	1.1443477e-05
27	0xb889ab20	-6.5645436e-05
28	0xbb0f2696	-0.0021843067
29	0xba2c2c92	-0.0006567921
30	0x3b075c3a	0.0020654337
31	0x39103a26	0.00013754572
32	0x3a55f4a9	0.00081617624
33	0xbac7b209	-0.0015235554
34	0xb9fdde83	-0.00048421705
35	0xbb0a36e0	-0.0021089837
36	0xbb44da9b	-0.0030037526
37	0x3a19612d	0.0005850967
38	0x3b3e25f4	0.002901432
39	0xbb2484cf	-0.0025103574
40	0x37af5c40	2.0904583e-05
41	0x3b9f29da	0.004857284
42	0x3b4c1233	0.0031138777
43	0x3a66bc67	0.0008801878
44	0xb9dfd36a	-0.0004269139
45	0x3ac52aa8	0.001504262
46	0xba592114	-0.0008282822
47	0x3a61d781	0.00086151814
48	0xb9beebc3	-0.0003641528
49	0x3a8201db	0.0009918766
50	0x3a4770d8	0.00076080626
51	0x3aad608d	0.0013227627
52	0x387d4fd4	6.0394246e-05
53	0xb7567ec7	-1.2784912e-05
54	0x39b4408b	0.00034380364
55	0xbb39a3e2	-0.0028326442
56	0x3387edf8	6.3297136e-08
57	0xbb280f6d	-0.002564396
58	0xbade7919	-0.0016973346
59	0xb89c6668	-7.457734e-05
60	0x39f7058e	0.0004711565
61	0x3a996388	0.0011702636
62	0xb8ea3bd0	-0.000111691304
63	0xb88931fb	-6.541979e-05
64	0x3b503ab8	0.003177328
65	0x3b21334d	0.0024597228
66	0x35dd6482	1.6495035e-06
67	0x3974dda3	0.0002335222
68	0x39e66fcf	0.00043952322
69	0xbae94447	-0.0017796837
70	0xba3af7af	-0.00071322446
71	0xbb29db2d	-0.0025917992
72	0x3b1356b9	0.002248211
73	0xbacd88d9	-0.0015681043
74	0xb8e303b0	-0.0001082489
75	0xb9d9d15c	-0.0004154545
76	0xba3f1c07	-0.0007290248
77	0xbab33127	-0.0013671265
78	0xba671c39	-0.0008816156
79	0xb7cb3393	-2.4223502e-05
80	0x3923d5e4	0.00015624572
81	0x3980997b	0.00024528414
82	0x3a56ac49	0.00081891246
83	0x38a9dab9	8.099288e-05
84	0xbaac7c23	-0.0013159554
85	0xbaa2b011	-0.0012412091
86	0xbb09a982	-0.0021005576
87	0x3ad7c87e	0.001646295
88	0x3ad1e271	0.0016012919
89	0x39178042	0.00014448262
90	0x3b12c1c7	0.0022393332
91	0x3ae8a374	0.0017748908
92	0xbb275f35	-0.0025538926
93	0x39af557c	0.00033442292
94	0x398b25ea	0.00026540394
95	0xb8279218	-3.9951963e-05
96	0xbaeb1d7d	-0.0017937865
97	0x39958d9c	0.00028525002
98	0x39e6e39a	0.00044038595
99	0xbb4f1c67	-0.0031602622
100	0xbb773f9f	-0.003772713
101	0x3ab66a8a	0.0013917249
102	0x3adbd636	0.0016772214
103	0xbad61393	-0.0016332738
104	0xbb0b2da3	-0.0021236918
105	0xba547254	-0.00081041944
106	0xbb846be1	-0.0040411805
107	0xbb66c591	-0.0035212974
108	0xbab8311d	-0.0014052723
109	0xb82d6352	-4.1338913e-05
110	0xbaaf790f	-0.0013387519
111	0x3a7576fb	0.0009363738
112	0x3a309f41	0.0006737598
113	0xba8a0b23	-0.0010531883
114	0x3b13b73b	0.0022539634
115	0x3b04fcfa	0.0020292387
116	0xb9deb850	-0.00042480463
117	0xb9ae2842	-0.0003321786
118	0xb8dcf544	-0.00010536102
119	0x3821aae8	3.854456e-05
120	0xbb281cdd	-0.002565197
121	0xbba14d82	-0.0049225697
122	0x3a58fdbb	0.0008277555
123	0xb92d5b9c	-0.00016532693
124	0xba1a54c0	-0.00058872625
125	0x384c94f4	4.8776114e-05
126	0x368dd76a	4.227205e-06
127	0xb9d3fa7d	-0.00040431684
128	0x3a654aba	0.0008746792
129	0x3c4eaaef	0.012613996
130	0x389b6b7c	7.4109965e-05
131	0xbafe0c88	-0.0019382397
132	0xbafccb63	-0.0019286688
133	0xbad31cd2	-0.0016106612
134	0x389fd29f	7.620942e-05
135	0xbc1e0b5e	-0.009646265
136	0x3ba2435e	0.0049518785
137	0x3abf89bf	0.0014613195
138	0x3c1ce6b0	0.009576485
139	0xbae250bf	-0.0017266496
140	0xbb0e3c66	-0.002170348
141	0x3b6ab715	0.0035814692
142	0xbbc61ab0	-0.006045662
143	0xbb5b565d	-0.0033468225
144	0x3ba8fe3a	0.0051572593
145	0xb9c3aec9	-0.00037323523
146	0x3b8749eb	0.0041286848
147	0xba78c987	-0.0009490479
148	0xbbd5acd0	-0.006520845
149	0xbc36bb0f	-0.011152997
150	0xbb003ef1	-0.0019568766
151	0x38aff1e8	8.389709e-05
152	0x3c41daa5	0.011831914
153	0xba921300	-0.0011144578
154	0x3bf4b44c	0.007467782
155	0x3c236619	0.009973072
156	0x3b89388f	0.0041876505
157	0x3ba732a0	0.0051024705
158	0xbbd5f69d	-0.0065296427
159	0xb9aa9065	-0.0003253251
160	0x3a2118a3	0.0006145334
161	0xbbc94309	-0.0061420244
162	0xbb9a6fe1	-0.004713044
163	0x3ad88024	0.0016517681
164	0xbbe913ad	-0.0071129412
165	0xbbee812e	-0.007278583
166	0x3b7793f8	0.0037777405
167	0xba3e788e	-0.0007265889
168	0xba694557	-0.0008898577
169	0xbb3f19de	-0.0029159705
170	0xbb9f6fff	-0.004865646
171	0x3c818146	0.015808713
172	0xbacfde37	-0.0015859072
173	0x3bb52618	0.005528223
174	0xbc18c5ad	-0.009324473
175	0xba608a28	-0.0008565509
176	0x3b40ec2e	0.002943765
177	0xbb34a7e1	-0.0027565884
178	0xbbb907b5	-0.0056466707
179	0xbbcbba40	-0.006217271
180	0x390c7ec8	0.0001339867
181	0xb855ab62	-5.094277e-05
182	0x3b590907	0.0033116953
183	0x3b8b176f	0.004244737
184	0xbb183322	-0.0023223837
185	0xbb530773	-0.0032200485
186	0xbb2bfe61	-0.002624415
187	0xb9469284	-0.00018937333
188	0x3bbedb3f	0.005824476
189	0x3a9a7138	0.0011783009
190	0xb92dacf2	-0.00016562993
191	0x3acaa04e	0.0015459151
192	0x3c0908aa	0.008363882
193	0xbba0f6f4	-0.0049122516
194	0x3a6d71fd	0.0009057818
195	0xbb6e8f33	-0.0036401271
196	0x3bb9bfc9	0.0056686145
197	0x3af35007	0.0018563279
198	0x3bc6d3f4	0.0060677473
199	0xbbcafdbb	-0.006194798
200	0x3b0f549c	0.00218705
201	0x3bcd21e8	0.0062601455
202	0xba74446f	-0.0009318059
203	0xbc4080a5	-0.011749421
204	0xbbb0afd0	-0.0053920522
205	0x3ab0d50e	0.001349123
206	0x3b59ea6e	0.0033251303
207	0xba119c15	-0.0005554569
208	0xbb3f028a	-0.00291458
209	0x3c74c478	0.01493942
210	0x3c10c51c	0.008836057
211	0x3b309eb3	0.002695006
212	0xbb730537	-0.0037081966
213	0xbc4503fb	-0.012024875
214	0xbb39faee	-0.0028378326
215	0x3aa69afc	0.0012710984
216	0xba7f5309	-0.0009739851
217	0xb81086f0	-3.4457946e-05
218	0x3b80f902	0.003935934
219	0x3b8e490e	0.004342205
220	0x3b3e7fd9	0.0029067902
221	0xbbf3f4e3	-0.0074449643
222	0xbbe307d7	-0.006928425
223	0x3c3435cb	0.010999153
224	0xbc6ebbfc	-0.014571186
225	0xbc9e1522	-0.019297186
226	0xbc2535c0	-0.010083616
227	0x3b9436b9	0.004523125
228	0x3b79858f	0.0038073992
229	0xba96b183	-0.0011496994
230	0xbb1ce9ed	-0.0023943142
231	0x3c1ff544	0.009763066
232	0xb9895e95	-0.00026201145
233	0xbc35ffd3	-0.0111083565
234	0xbaf1a2b0	-0.0018435325
235	0x3b24ed53	0.002516587
236	0x3a61833b	0.0008602624
237	0x3a8f876b	0.0010950392
238	0xbc3468bf	-0.011011302
239	0xbc1fb424	-0.009747539
240	0x3c0f730c	0.008755457
241	0xba1781a4	-0.0005779511
242	0x3b68251a	0.0035422505
243	0xbb244e03	-0.0025070913
244	0xb985e130	-0.00025535515
245	0x3b4a05cc	0.003082621
246	0x3c0ddacf	0.008658125
247	0x39c79921	0.00038070328
248	0xbb1f2107	-0.002428116
249	0x3ad9aef3	0.0016607925
250	0x3c08fd21	0.008361132
251	0xbb022676	-0.001985935
252	0x3c7cfc16	0.015440961
253	0x3addac47	0.0016912305
254	0x39a5f7bf	0.00031655838
255	0xbafbd0b7	-0.0019211982

backbone.lstm.bias_ih_l0 f4 [512]
0	0x3b0b5bf5	0.0021264527
1	0x3c059b3a	0.008154685
2	0xbb765040	-0.0037584454
3	0x3bc43e12	0.0059888447
4	0x3b234a16	0.0024915985
5	0xbb842b38	-0.0040334724
6	0x3c7da384	0.01548088
7	0x3992eb0d	0.00028022417
8	0x3bb99466	0.0056634424
9	0xbc534245	-0.012894218
10	0xbb4b41a5	-0.003101447
11	0xbc200fd1	-0.009769396
12	0x36c25494	5.7914967e-06
13	0xbb27aa25	-0.0025583592
14	0x3c0add08	0.0084755495
15	0xbb0f444e	-0.002186078
16	0x3a9c98f6	0.0011947441
17	0x3bebfde6	0.007201898
18	0x3bc36e6d	0.0059640915
19	0x3ade252b	0.0016948333
20	0xbab1454a	-0.0013524678
21	0xbb2cf4a9	-0.0026390946
22	0xb9f36587	-0.00046424216
23	0x37585365	1.289402e-05
24	0xbbb0b716	-0.0053929193
25	0xbb3bce15	-0.002865677
26	0x3b4fa16b	0.0031681906
27	0xbb26008c	-0.0025329916
28	0xbc492ed0	-0.012279227
29	0xb955e132	-0.00020397155
30	0x3bcfb6f7	0.00633895
31	0xbaba8539	-0.0014230377
32	0xbbd6d522	-0.006556169
33	0x3ac7761f	0.0015217698
34	0x3ca6758e	0.020319726
35	0xb9d4279e	-0.00040465308
36	0x3b9a1a3a	0.0047028335
37	0x3c00c04d	0.007858348
38	0xbbc2e071	-0.0059471657
39	0x3bbfe3b8	0.0058560036
40	0xbc7f97c4	-0.015600149
41	0x3c52e0e7	0.012871004
42	0x3b7cb5cf	0.0038560515
43	0x3b5a82aa	0.0033342042
44	0xbbe5b545	-0.0070101344
45	0x3c1cc93e	0.009569464
46	0x3b100c18	0.0021979865
47	0x3b8c012e	0.0042726016
48	0xbbeb6b54	-0.0071844254
49	0x3c8084b3	0.015688276
50	0x3abf4e6d	0.0014595516
51	0xbabe7c95	-0.0014532978
52	0xbabaad24	-0.0014242274
53	0x3b7f6456	0.0038969717
54	0xb9f18f7c	-0.00046074006
55	0x3c144656	0.0090499725
56	0x397e0fb9	0.00024229185
57	0x3c6542af	0.013992949
58	0xbaaa95b3	-0.0013014585
59	0xb6af361b	-5.221705e-06
60	0xbb2682c1	-0.0025407525
61	0xbc936cc4	-0.0179962
62	0x3bc32b14	0.005956063
63	0x3c0cb97f	0.008589148
64	0x3b7909b9	0.003800018
65	0x3a94c60a	0.0011350524
66	0xbacc292e	-0.0015576237
67	0x38dd53d3	0.00010553715
68	0xbb42936d	-0.0029689923
69	0xbb3c1619	-0.0028699695
70	0x3b57db6a	0.0032937177
71	0xb9a49c50	-0.0003139698
72	0xbb976f5c	-0.0046214294
73	0xbbcc82ee	-0.006241194
74	0x3b5e4fab	0.0033921998
75	0x3beaee48	0.0071695186
76	0x3b33a1b3	0.0027409613
77	0xb65cd4e4	-3.2906473e-06
78	0xbbd20c44	-0.0064101536
79	0x3b12a919	0.0022378622
80	0x3b3abd66	0.0028494238
81	0xbb79007a	-0.0037994669
82	0xbba6adf4	-0.005086655
83	0x3b1a5754	0.0023550587
84	0x3c0c9c55	0.008582194
85	0xba16004c	-0.000572209
86	0xbac1a145	-0.0014772794
87	0x3b96608a	0.004589145
88	0x3a8e61a1	0.0010862836
89	0x3b1c725a	0.002387187
90	0x3a8f1074	0.0010914938
91	0x39c87713	0.0003823569
92	0xbc0015a4	-0.0078176595
93	0x3c105931	0.008810327
94	0x3b396648	0.0028289724
95	0xbb43d85b	-0.0029883597
96	0xbb916a03	-0.0044376864
97	0x3b22f539	0.0024865402
98	0x3be09e85	0.0068548345
99	0xbbedb0eb	-0.0072537563
100	0x3a64e323	0.0008731356
101	0xbaffc677	-0.0019514103
102	0x3b98c0ee	0.004661671
103	0x3b19cd49	0.0023468307
104	0xbc28a425	-0.010293041
105	0x3bec420a	0.007210021
106	0x3a7e09a8	0.000969077
107	0xbb80e880	-0.003933966
108	0x3b3e6cf1	0.0029056633
109	0xbbf2a405	-0.0074048066
110	0x39349896	0.0001722298
111	0x3b709b85	0.003671379
112	0x3b88ffe3	0.0041808947
113	0xbc110595	-0.0088514285
114	0xbc6d6ed4	-0.0144917555
115	0x3b2d7587	0.0026467757
116	0x3ac18b5b	0.0014766263
117	0xba21580a	-0.00061547814
118	0xbbc661fe	-0.006054162
119	0xba07a733	-0.0005174756
120	0x3bbaf117	0.0057050097
121	0xbbbad4f6	-0.0057016565
122	0x3c0a8d8f	0.008456602
123	0xbb76a01b	-0.0037632051
124	0x3bc45d59	0.005992573
125	0xbcd2d413	-0.02573589
126	0x3a348d1a	0.0006887481
127	0xbb54b287	-0.0032455043
128	0x3964edd7	0.00021832377
129	0xb8039df3	-3.1379936e-05
130	0x3c915390	0.017740041
131	0xbbade700	-0.0053070784
132	0xb8df5de6	-0.000106509586
133	0x3b89ea04	0.004208805
134	0xbc9b44ee	-0.018953767
135	0x3bf39622	0.0074336687
136	0x37be8327	2.2710838e-05
137	0x3c926614	0.01787094
138	0x3c045e55	0.008079131
139	0x3b167dc2	0.002296314
140	0x3b3a301b	0.002841002
141	0x3b3e3a6f	0.0029026528
142	0xbc364a31	-0.011126087
143	0x3bcf5555	0.006327311
144	0x3b0dfdb9	0.0021666123
145	0xbb17b45e	-0.0023148279
146	0xbba4efc1	-0.0050334637
147	0xbc21ea54	-0.009882528
148	0xbc23a09c	-0.009987023
149	0x3c604bd5	0.013689955
150	0xbb69aafc	-0.0035654893
151	0x390f66c3	0.00013675824
152	0x3bef1905	0.0072966837
153	0x3a836274	0.0010023848
154	0x3c23bc21	0.009993584
155	0x3a488f68	0.0007650764
156	0x3bf89c1b	0.0075869686
157	0xbb7c7e42	-0.0038527404
158	0x3a4b1689	0.00077471934
159	0xbb35d952	-0.0027747941
160	0x3c8aeea9	0.016959505
161	0x3ba4ff50	0.0050353184
162	0xbb1119d8	-0.0022140648
163	0x3bdd0c65	0.0067458623
164	0x3c941a6f	0.01807901
165	0xb983ac82	-0.00025114795
166	0xba15a516	-0.00057084986
167	0xbb00decf	-0.0019664054
168	0x3c4077ca	0.01174731
169	0x3c2845a3	0.010270509
170	0x3b407924	0.002936908
171	0x3bdb3add	0.0066903667
172	0x3a37feab	0.00070188445
173	0xbbf47644	-0.0074603874
174	0x3aff153f	0.0019461288
175	0x3b5a3831	0.0033297653
176	0xbbb119d6	-0.005404691
177	0xbba56230	-0.0050471053
178	0xba24a068	-0.0006280006
179	0x3c94bd31	0.01815662
180	0xbb9969fc	-0.004681824
181	0xb9728799	-0.00023129433
182	0x3c0295de	0.007970301
183	0xbbd8b14e	-0.0066129332
184	0xb851adbc	-4.9991286e-05
185	0xba63918a	-0.000868105
186	0x3af758bb	0.0018871048
187	0x3bd93aea	0.0066293376
188	0x3b88c21a	0.0041735293
189	0xbc405ff4	-0.011741627
190	0x3b1747a9	0.0023083484
191	0xba07851b	-0.00051696756
192	0xbacd1274	-0.0015645758
193	0xbb3175e2	-0.002707832
194	0xbbb0b58f	-0.005392737
195	0xb862e42b	-5.4095097e-05
196	0x3a0a6afe	0.00052802253
197	0xbabe54d3	-0.0014521129
198	0x3aad7c04	0.0013235812
199	0x3bf64b7b	0.007516322
200	0x3a913426	0.0011078164
201	0x3ca4e5b7	0.020129068
202	0xb92ce106	-0.00016487026
203	0x3b427189	0.0029669723
204	0x3a462e3f	0.0007559992
205	0xbba382c5	-0.004989954
206	0x3bef08a1	0.00729473
207	0x3ca2998d	0.01984861
208	0xbbdb4ce1	-0.0066925143
209	0x3b36e3ba	0.0027906732
210	0xbbf7a0f7	-0.0075570303
211	0xb98b0298	-0.00026514078
212	0x3c0e64f9	0.008691066
213	0x39c984d7	0.0003843668
214	0x39d7ec6a	0.00041184138
215	0x3c5fe0aa	0.013664404
216	0xbbdd1d95	-0.006747911
217	0x3b7afcaa	0.0038297572
218	0x3cfcc8d3	0.03085748
219	0x3add7728	0.0016896473
220	0xbba5207b	-0.0050392724
221	0x3c082da2	0.008311661
222	0xbc2d79ee	-0.010588152
223	0x3b828af7	0.003983851
224	0x3c08df0d	0.008353961
225	0xb9d3da88	-0.00040407875
226	0xbc3960ef	-0.011314615
227	0x3bf4382a	0.0074529843
228	0x3bcee056	0.006313364
229	0x3b066b5d	0.002051077
230	0xbbaf5c67	-0.0053515914
231	0xbc29b8b3	-0.010358977
232	0xbc0123bf	-0.007882058
233	0xb92dfb81	-0.00016592258
234	0xbaede6b0	-0.0018150415
235	0x3ba85a27	0.0051377
236	0xbc1d5a49	-0.009604045
237	0xbc2246bb	-0.009904559
238	0xb9e19c6b	-0.00043031885
239	0x3c8e56b2	0.017375324
240	0x3a630247	0.0008659702
241	0xb9625f57	-0.00021588556
242	0x3b69941e	0.0035641263
243	0x3be6b6e8	0.007040847
244	0xb90e0054	-0.00013542298
245	0xba1bba74	-0.00059405644
246	0xbbb2cccf	-0.005456544
247	0xb53051f0	-6.5684344e-07
248	0xbba26047	-0.004955325
249	0xbab514f3	-0.0013815447
250	0xbb930c11	-0.0044875224
251	0x3a1e2b4c	0.00060336734
252	0x3aa81a96	0.0012825306
253	0x394f2368	0.00019754248
254	0x3a712f76	0.00092004926
255	0xbb43540c	-0.0029804735

backbone.lstm.bias_hh_l0 f4 [512]
0	0x3b0916f9	0.0020918234
1	0x3c05a5ca	0.008157203
2	0xbb7695a9	-0.0037625825
3	0x3bc6345d	0.0060487227
4	0x3b234467	0.0024912597
5	0xbbb5ebbe	-0.0055517843
6	0x3c7ccc2c	0.015429538
7	0x3992dd00	0.00028011948
8	0x3bbcb336	0.0057586683
9	0xbc31624f	-0.010826661
10	0xbb54e094	-0.0032482492
11	0xbc20b67c	-0.009809133
12	0xb6094a13	-2.0457708e-06
13	0xbb27aa55	-0.0025583704
14	0x3c0e1708	0.008672483
15	0xbb0f31cb	-0.0021849747
16	0x3a9c8c5d	0.0011943687
17	0x3bf0610c	0.0073357876
18	0x3bc6d4e1	0.0060678576
19	0x3b1f3ca8	0.0024297629
20	0xbb57d02b	-0.0032930474
21	0xbb204d12	-0.002446
22	0xb9f33bae	-0.00046393037
23	0x375ee18d	1.3284746e-05
24	0xbbb0003a	-0.0053711208
25	0xbb3c1475	-0.0028698717
26	0x3b4fe1be	0.0031720246
27	0xbb296a82	-0.0025850837
28	0xbc46644e	-0.012108875
29	0xb8bb681b	-8.936246e-05
30	0x3bc9a98c	0.0061542448
31	0xbabaa8a3	-0.0014240931
32	0xbbd6c21e	-0.0065539023
33	0x3ac0cce6	0.0014709502
34	0x3cb3124f	0.021859316
35	0xba82e610	-0.0009986777
36	0x3b9acf07	0.0047243866
37	0x3bff4518	0.007790219
38	0xbbc2df7c	-0.0059470516
39	0x3bbc9122	0.005754606
40	0xbc9115f5	-0.017710665
41	0x3c552ee5	0.013011669
42	0x3b7c4383	0.0038492389
43	0x3b5a4454	0.0033304887
44	0xbbe5aa98	-0.0070088618
45	0x3c1b8866	0.009492969
46	0x3b0fff31	0.0021972174
47	0x3b879466	0.0041375635
48	0xbbea6968	-0.0071536787
49	0x3c7d7327	0.015469349
50	0x3ad2712f	0.001605546
51	0xba22b1e7	-0.0006206319
52	0xba9c759d	-0.0011936907
53	0x3b829209	0.003984694
54	0xb9f1c147	-0.00046111105
55	0x3bfa1f12	0.0076330984
56	0x38cd2d01	9.7835444e-05
57	0x3c650886	0.013979083
58	0xbac89c56	-0.0015305381
59	0xb6a7dba0	-5.0025556e-06
60	0xbb299eeb	-0.0025882076
61	0xbc935e5f	-0.017989336
62	0x3bbc9d48	0.005756054
63	0x3c0c7f06	0.008575207
64	0x3b7bc0f2	0.0038414565
65	0x3a952ef6	0.0011381793
66	0xbafc07b6	-0.0019228372
67	0x38eb7f91	0.00011229434
68	0xbb45c271	-0.003017571
69	0xbb3bb7be	-0.0028643454
70	0x3b57d832	0.003293526
71	0xb9a5aede	-0.0003160154
72	0xbb9862f3	-0.0046504675
73	0xbbcdb0e9	-0.006277193
74	0x3b5e5795	0.0033926715
75	0x3bdcc7d7	0.00673769
76	0x3b32f6f9	0.0027307852
77	0xb6640e57	-3.3982994e-06
78	0xbbd218c0	-0.006411642
79	0x3b12a253	0.0022374585
80	0x3b36054f	0.002777416
81	0xbb732852	-0.003710289
82	0xbb8dbc23	-0.004325406
83	0x3b1a42b2	0.0023538289
84	0x3c01ce03	0.007922652
85	0xba50ca89	-0.00079647504
86	0xbac1a69e	-0.0014774387
87	0x3b82a608	0.0039870776
88	0x3a53de03	0.00080820936
89	0x3b17e93f	0.0023179797
90	0x3a8af2fb	0.0010600978
91	0x39b6219f	0.00034738795
92	0xbc0e89a0	-0.008699805
93	0x3c0efa36	0.008726647
94	0x3b39662e	0.0028289664
95	0xbb803179	-0.0039121476
96	0xbb983665	-0.004645156
97	0x3b21c85b	0.0024686072
98	0x3be09e86	0.006854835
99	0xbbf0deea	-0.007350792
100	0x3a645e60	0.0008711573
101	0xbb9e047e	-0.004822313
102	0x3b988bae	0.004655323
103	0x3b18e73f	0.0023331193
104	0xbc1dbe7f	-0.009627937
105	0x3bee6c52	0.0072760964
106	0x3a4c3b7a	0.0007790845
107	0xbb878464	-0.0041356552
108	0x3b3d7b3a	0.002891256
109	0xbbd37535	-0.006453181
110	0x3934f35f	0.000172568
111	0x3b70ac31	0.0036723728
112	0x3b893201	0.004186869
113	0xbc107f66	-0.008819437
114	0xbc58a6a9	-0.013223329
115	0x3b2b17b4	0.0026106657
116	0x3ac203e3	0.0014802184
117	0xba2210d3	-0.00061823166
118	0xbbc7e7d9	-0.0061006364
119	0xba41fdab	-0.0007400165
120	0x3b9fda30	0.004878305
121	0xbbbc6ff2	-0.0057506496
122	0x3c0900da	0.008362019
123	0xbb7631ab	-0.0037566226
124	0x3bc4c3d1	0.0060047884
125	0xbccf5494	-0.025308885
126	0x3a32344c	0.0006797954
127	0xbb54b23d	-0.003245487
128	0x39820450	0.00024798745
129	0xb802c9c7	-3.1182335e-05
130	0x3c919211	0.017769845
131	0xbbd99cac	-0.006640991
132	0xb8a9e70a	-8.101582e-05
133	0x3b8acdd7	0.004235964
134	0xbca12f4b	-0.019675871
135	0x3bf6096d	0.007508448
136	0x3917f616	0.00014492156
137	0x3c8d24e9	0.017229514
138	0x3c04252b	0.008065502
139	0x3b17367e	0.0023073251
140	0x3b4a0e79	0.003083138
141	0x3b3e999b	0.0029083255
142	0xbc0537f0	-0.008131012
143	0x3bcf6147	0.006328735
144	0x3b0e53b0	0.0021717362
145	0xbb2ab9b7	-0.0026050636
146	0xbbae3921	-0.005316869
147	0xbc0a7cf1	-0.00845264
148	0xbc248d8a	-0.010043511
149	0x3c677af8	0.014128439
150	0xbb69a99b	-0.0035654071
151	0x39108784	0.00013783394
152	0x3bef196c	0.0072967317
153	0x3a789961	0.00094833045
154	0x3c23c996	0.009996792
155	0x3a1c9e86	0.00059745496
156	0x3bf89ccb	0.0075870506
157	0xbb771e5d	-0.0037707307
158	0x3aea1998	0.0017860411
159	0xbb35afea	-0.002772326
160	0x3c9904ef	0.01867911
161	0x3ba49688	0.0050228275
162	0xb9f19266	-0.00046076177
163	0x3bdc63f3	0.006725782
164	0x3c93d419	0.018045472
165	0xb983b444	-0.00025120575
166	0xba15ba97	-0.0005711703
167	0xbb35aa95	-0.0027720083
168	0x3c4189b7	0.011812619
169	0x3c31c39e	0.010849861
170	0x3b407eff	0.002937257
171	0x3bdb316b	0.0066892407
172	0x3a40c586	0.0007353652
173	0xbc068d81	-0.008212448
174	0x3aff14a9	0.0019461113
175	0x3b4c5421	0.0031178074
176	0xbbb1c8eb	-0.0054255626
177	0xbba5b57e	-0.005057036
178	0xba24d8f6	-0.0006288433
179	0x3c94b96d	0.018154824
180	0xbba30515	-0.004974971
181	0xb970ef19	-0.00022977254
182	0x3c09d818	0.008413337
183	0xbbc4e170	-0.0060083196
184	0xb85002cb	-4.9593666e-05
185	0xba62d8d0	-0.00086535234
186	0x3abcfdf7	0.0014418949
187	0x3bd93bc4	0.006629439
188	0x3b88c1bd	0.004173486
189	0xbc40a1d7	-0.011757336
190	0x3b1d88a5	0.0024037745
191	0xba1eb88a	-0.000605472
192	0xbac8d737	-0.0015322928
193	0xbb2b0cda	-0.002610019
194	0xbb4efdf3	-0.003158447
195	0xb861e481	-5.385699e-05
196	0x3a0ad3c8	0.000529584
197	0xbabe1f80	-0.0014505237
198	0x3aad7a95	0.0013235385
199	0x3bf64949	0.0075160605
200	0x3a91343a	0.0011078187
201	0x3ca4f0a8	0.020134285
202	0xb92ac0cb	-0.00016284284
203	0x3b39602f	0.002828609
204	0x3a5119cc	0.00079765613
205	0xbba3dbac	-0.005000552
206	0x3bef093e	0.007294803
207	0x3ca2df19	0.019881772
208	0xbbd69afb	-0.006549237
209	0x3b38adea	0.0028179833
210	0xbbc7aae8	-0.0060933717
211	0xb988ce41	-0.00026093613
212	0x3c0e72b0	0.008694336
213	0x39db18c1	0.00041789378
214	0x39d676ae	0.00040905684
215	0x3c6aae10	0.014323726
216	0xbbddd782	-0.0067700753
217	0x3b7aeee9	0.0038289374
218	0x3cfccc59	0.03085916
219	0x3b24d700	0.0025152564
220	0xbba53cf7	-0.005042668
221	0x3c0e6bc0	0.008692682
222	0xbc2d65db	-0.010583366
223	0x3b8328a9	0.00400265
224	0x3c0844c8	0.00831718
225	0x3a2e52a0	0.00066498853
226	0xbc3441cd	-0.011002016
227	0x3bf43182	0.007452191
228	0x3bcf56b9	0.006327477
229	0x3b17e789	0.0023178777
230	0xbbaf5c84	-0.005351605
231	0xbc2989c7	-0.01034779
232	0xbc0153c2	-0.007893505
233	0xb92dfdd4	-0.00016593124
234	0xbaec579c	-0.0018031481
235	0x3ba95ca2	0.0051685134
236	0xbc1d6b3b	-0.009608085
237	0xbc22503b	-0.009906824
238	0xb9e1a033	-0.00043034702
239	0x3c8e348b	0.017359039
240	0x3a6e402a	0.00090885407
241	0xb9622d89	-0.00021570003
242	0x3b69a553	0.003565152
243	0x3bf212ba	0.0073874863
244	0xb9306895	-0.00016823628
245	0xba1be28d	-0.00059465395
246	0xbbb2cb16	-0.0054563386
247	0xb50f7747	-5.344522e-07
248	0xbba45487	-0.0050149593
249	0xbab51af8	-0.0013817241
250	0xbb930457	-0.0044866013
251	0x3a2152ae	0.0006153983
252	0x3aac4780	0.0013143867
253	0x394b6b76	0.00019399621
254	0x3a6e8c59	0.0009099893
255	0xbb43a3db	-0.0029852304

backbone.output1.weight f4 [128, 128]
0	0x3c0d337d	0.008618233
1	0x3d7291aa	0.059220947
2	0xbd0f3381	-0.034961227
3	0xbd723b28	-0.059138447
4	0xbd5f591e	-0.05452835
5	0x3dd9d0fa	0.10635562
6	0xbe45a113	-0.19299726
7	0x3da99437	0.08280223
8	0xbcec4224	-0.028840132
9	0x3ca21606	0.019785892
10	0xbe20d1ff	-0.15705107
11	0x3e7ee652	0.24892548
12	0x3dd817f7	0.10551446
13	0x3e0729c1	0.13199522
14	0xbdc60588	-0.09669024
15	0xbd08661e	-0.03330051
16	0x3d664c34	0.056225017
17	0xbd0c66ed	-0.034277845
18	0x3c854be1	0.016271533
19	0x3e3f4f51	0.186826
20	0xbd423d28	-0.047421604
21	0x3d2150c4	0.039383665
22	0x3dc2cb8b	0.09511479
23	0x3dc13ea3	0.09435775
24	0x3dd7fc67	0.10546189
25	0xbcaa7c55	-0.02081124
26	0xbd8000ce	-0.062501535
27	0xbdc2599e	-0.09489749
28	0xbe64e2e9	-0.22352184
29	0xbdd5447f	-0.10413455
30	0xbcd2b239	-0.025719749
31	0x3e229762	0.1587806
32	0x3c3ddb11	0.011587874
33	0xbe02b065	-0.12762602
34	0xbd8e8fb6	-0.069610044
35	0x3e31ead4	0.17374736
36	0x3cdbba4c	0.026822232
37	0xbd96580c	-0.07341012
38	0xbd702f65	-0.05863895
39	0x3d220cf9	0.039563153
40	0x3d3ff986	0.046868823
41	0xbe2ab5ea	-0.16670957
42	0xbdc3429c	-0.09534189
43	0xbd46f428	-0.04857269
44	0xbd8e408a	-0.069459036
45	0xbdd280e6	-0.10278492
46	0x3dd8a5c6	0.10578494
47	0x3cadce89	0.021216648
48	0xbcd7b017	-0.026329083
49	0x3ea42fde	0.3206777
50	0x3d25c41a	0.04047022
51	0x3a5ca0d5	0.00084163
52	0xbe21321b	-0.1574177
53	0xbe42046a	-0.18946996
54	0x3da1e8f1	0.07905758
55	0xbdbb8cb1	-0.09157694
56	0x3d8239a8	0.06358653
57	0x3d9dd103	0.077058814
58	0x3e208507	0.15675746
59	0xbdcc0d3b	-0.09963461
60	0xbcb9d6f0	-0.022685498
61	0x3e2558dd	0.1614718
62	0x3daaf781	0.08347989
63	0x3e192535	0.149556
64	0x3dcd3336	0.10019533
65	0xbd1667b4	-0.036719993
66	0xbe96f174	-0.2948109
67	0x3ceb72af	0.028741209
68	0xbe30ee18	-0.17278326
69	0x3ddf3264	0.10898283
70	0x3e595f77	0.21227823
71	0x3dc2692f	0.094927184
72	0xbc28d013	-0.010303515
73	0xbe48fe65	-0.19628294
74	0x3ce2cadc	0.027684622
75	0xbe2554bb	-0.16145603
76	0x3e0dc23d	0.13843627
77	0xbd8d9a13	-0.06914153
78	0x3c79317c	0.015209552
79	0x3deac20c	0.11462793
80	0x3e80d071	0.25159028
81	0x3e8c572f	0.27410266
82	0xbea7e8dc	-0.32794845
83	0x3dfd3124	0.123628885
84	0xbd00d085	-0.03144886
85	0x3bdd7ecf	0.0067595015
86	0xbd5256f0	-0.05135244
87	0x3e533681	0.2062626
88	0xbcbddc94	-0.023176469
89	0x3e3b085f	0.18264912
90	0xbdd77890	-0.10521042
91	0x3ce8550e	0.02836087
92	0x3d02079d	0.03174554
93	0x3e0406a0	0.12893152
94	0x3dd7886b	0.105240665
95	0x3e4f534c	0.20246619
96	0xbcdc684b	-0.0269052
97	0xbd24207c	-0.040070042
98	0x3e3d47dc	0.18484443
99	0xbdd414e0	-0.10355544
100	0xbbf66307	-0.007519129
101	0xbd187200	-0.037218094
102	0xbdb025d4	-0.08600965
103	0x3d94cad7	0.07265251
104	0x3e493d8a	0.19652382
105	0xbdcfa8e6	-0.10139637
106	0x3dea9c71	0.1145562
107	0xbe504442	-0.20338538
108	0x3a84eaf6	0.0010140825
109	0x3e8465be	0.25858873
110	0xbce0585c	-0.027385883
111	0xbea949bc	-0.33064067
112	0x3d8b1d13	0.06792655
113	0x3deb7141	0.11496211
114	0x3cebd93a	0.028790105
115	0x3caac288	0.020844713
116	0xbe0a5589	-0.13509192
117	0x3e05e4a1	0.13075496
118	0xbcc5e425	-0.02415664
119	0xbcc2c40b	-0.023775121
120	0x3da53c69	0.08068163
121	0x3e0f7257	0.14008461
122	0x3d1845b3	0.037175845
123	0xbc33c03e	-0.010971127
124	0xbe0c0f8c	-0.13677806
125	0xbdfb731b	-0.12277814
126	0xbd56636f	-0.05234092
127	0x3e1936aa	0.14962259
128	0x3e21c13e	0.15796372
129	0x3e3f5407	0.18684398
130	0xbda6b40b	-0.08139809
131	0xbe2c0b94	-0.16801292
132	0x3e18a32a	0.14905992
133	0xbe557c77	-0.20848261
134	0x3e7c6b92	0.2465041
135	0xbe63f4c0	-0.22261333
136	0xbc899c4d	-0.016798163
137	0xbe1581f9	-0.14600362
138	0x3e001923	0.12509589
139	0x3d1a8109	0.037720714
140	0xbea371bd	-0.31922713
141	0xbdb33237	-0.08749812
142	0x3db4afa4	0.08822563
143	0x3ddc2fad	0.10751281
144	0xbd7f2f97	-0.062301245
145	0x3e96b301	0.29433444
146	0xbdf2c592	-0.1185409
147	0x3d4320d2	0.04763872
148	0xbe238193	-0.15967397
149	0xbe246bbe	-0.16056725
150	0xbe0665d2	-0.13124779
151	0x3bc89eb7	0.006122436
152	0x3d91c3e3	0.071174406
153	0xbdbbd9ff	-0.09172439
154	0x3c188c10	0.009310737
155	0x3db58cef	0.088647716
156	0x3e354d3c	0.17705244
157	0x3c928919	0.017887639
158	0xbe0d9abc	-0.13828558
159	0xbd3e8715	-0.046515543
160	0xbe174098	-0.14770734
161	0x3d94b5bb	0.07261225
162	0xbe14b59d	-0.14522405
163	0xbd4436cc	-0.04790382
164	0xbdbb7a5e	-0.09154199
165	0x3e0aacc6	0.1354247
166	0xbe750ced	-0.23930712
167	0xbea13b42	-0.31490523
168	0x3e920d41	0.28525737
169	0x3d637d88	0.055539638
170	0x3e074caf	0.13212846
171	0xbd3fce94	-0.046827868
172	0x3dfd2faa	0.12362607
173	0x3de5d831	0.11222876
174	0xbe26728c	-0.16254634
175	0xbd8d2941	-0.06892634
176	0xbd26d355	-0.040728886
177	0xbab96f3b	-0.0014147529
178	0xbe07956b	-0.13240592
179	0xbdfcf121	-0.12350679
180	0x3ded69ed	0.11592469
181	0x3e6425e1	0.22280075
182	0x3d34b6c4	0.04411961
183	0xba1ee9f2	-0.0006062082
184	0xbe0c5b14	-0.13706619
185	0x3e2947b5	0.1653126
186	0xbda381f2	-0.079837695
187	0xbca1b3fa	-0.01973914
188	0xbcca8e81	-0.024726154
189	0x3e40fa2f	0.18845437
190	0xbd1b72ad	-0.03795116
191	0x3c410c2b	0.011782686
192	0x3e3656b9	0.1780652
193	0xbc53e9ce	-0.012934161
194	0x3ec8d52c	0.39225137
195	0xbd0172cb	-0.031603616
196	0xbd83fbe8	-0.06444532
197	0xbca9df5c	-0.020736389
198	0xbd2c26b1	-0.042029087
199	0xbcfedeba	-0.031112064
200	0xbaa4c8a2	-0.0012572
201	0x3e866712	0.2625051
202	0xbdf2b753	-0.118513726
203	0x3e35dacb	0.17759244
204	0xbe53ffce	-0.2070305
205	0x3e217309	0.15766539
206	0xbcf1bb95	-0.029508391
207	0x3dc8bd84	0.09801772
208	0xbe04d247	-0.1297084
209	0xbd92c53b	-0.07166525
210	0x3e9ce387	0.3064234
211	0xbdb18176	-0.08667271
212	0xbdb45e39	-0.08807034
213	0x3d6999eb	0.057031553
214	0x3ea17397	0.315335
215	0x3e67f93c	0.22653669
216	0xbe1eca74	-0.15506917
217	0x3c5daf65	0.013530587
218	0xbda11400	-0.07865143
219	0xbd511a18	-0.051050276
220	0x3e779a1e	0.24179885
221	0xbde12504	-0.10993388
222	0x3d978986	0.073992774
223	0xbe12f3e3	-0.14350848
224	0xbe257b24	-0.16160256
225	0x3cf06d30	0.02934894
226	0xbf1b4890	-0.60657597
227	0xbd0f89e9	-0.03504363
228	0xbe49ab53	-0.19694261
229	0xbe941c4e	-0.28927845
230	0x3e1653c6	0.14680395
231	0x3d8246b1	0.063611396
232	0x3e3145e0	0.17311811
233	0x3ccfd290	0.025368959
234	0xbdec58d0	-0.11540377
235	0x3e61a73f	0.22036456
236	0x3e5f70ad	0.21820326
237	0xbd3f7a10	-0.046747267
238	0xbe183d95	-0.14867242
239	0xbe627bc7	-0.2211753
240	0x3e77df89	0.24206366
241	0xbe0debbb	-0.13859455
242	0x3dd7ceba	0.10537477
243	0xbd5fd6a5	-0.05464806
244	0xbdff3e75	-0.124630846
245	0x3e879878	0.26483512
246	0xbdbaf011	-0.0912782
247	0x3d31a614	0.043371275
248	0x3e8d69a8	0.27619672
249	0xbdee8ece	-0.116483316
250	0xbdcd9fd7	-0.10040253
251	0x3db67d21	0.08910585
252	0x3de91dc5	0.11382631
253	0x3d0329cc	0.032022282
254	0x3d4f75c5	0.050649423
255	0x3e0eee86	0.13958177

backbone.output1.bias f4 [128]
0	0x3dbaa7c0	0.09114027
1	0x3dbe9204	0.09305194
2	0x3dda203e	0.10650681
3	0x3db4fd7d	0.088374116
4	0x3e191e37	0.14952932
5	0x3de82a21	0.113361605
6	0x3da1f351	0.07907737
7	0x3e2e6f7e	0.17034718
8	0x3e251d75	0.16124518
9	0x3cf01edf	0.029311595
10	0x3e976db8	0.29575896
11	0x3e3d63a2	0.18495038
12	0x3e121903	0.14267354
13	0x3d9e93d7	0.07743042
14	0x3e3c43e4	0.18385273
15	0x3d9e3c47	0.07726341
16	0x3e03a838	0.12857139
17	0x3ac52956	0.0015042226
18	0x3e2473de	0.16059825
19	0x3e09a6c5	0.13442524
20	0x3dc40a45	0.09572271
21	0x3d7f189f	0.06227934
22	0x3dcb10a8	0.09915286
23	0x3da31819	0.07963581
24	0x3dac29d4	0.084064156
25	0x3d5d7a1b	0.054071527
26	0x3c316cf6	0.010829201
27	0x3c198652	0.009370403
28	0x3e464b5f	0.1936469
29	0x3d8001b2	0.06250323
30	0x3e0a9cfe	0.1353645
31	0x3e560517	0.20900379
32	0xbc853118	-0.016258761
33	0x3d0878d0	0.03331834
34	0x3e18dc83	0.14927869
35	0x3dda9e88	0.10674769
36	0x3e2511f2	0.16120127
37	0x3dc760c7	0.09735256
38	0x3dd7bd0f	0.10534107
39	0x3e6376a2	0.22213224
40	0xbe5c6c12	-0.215256
41	0xbe34ee93	-0.17669134
42	0xbe76d9c0	-0.24106503
43	0xbe39e89c	-0.1815514
44	0xbe74cc25	-0.23906
45	0xbe50246f	-0.20326398
46	0xbe8888a9	-0.26666763
47	0xbe87f0cb	-0.26550898
48	0xbea7b2cd	-0.32753602
49	0xbeaa6b8f	-0.33285186
50	0xbe9beb37	-0.30452892
51	0xbea99461	-0.33121017
52	0xbe5c9cc7	-0.21544181
53	0xbe86fc32	-0.26364285
54	0xbe9df098	-0.3084762
55	0xbe5c8972	-0.21536806
56	0xbea08112	-0.31348473
57	0xbe91e798	-0.28497005
58	0xbe9823cb	-0.29714808
59	0xbe8bee50	-0.27330256
60	0xbe644cec	-0.22294968
61	0xbe9cd21b	-0.30629048
62	0xbea82986	-0.3284418
63	0xbe7b3038	-0.24530113
64	0xbea689e2	-0.3252707
65	0xbe91c946	-0.28473872
66	0xbe99b08e	-0.30017513
67	0xbe93bd57	-0.28855392
68	0xbe7bb368	-0.24580157
69	0xbea758bb	-0.32684883
70	0xbe8d13c6	-0.27554148
71	0xbe91a821	-0.28448585
72	0xbe3af5f2	-0.18257883
73	0xbe9b20ad	-0.30298367
74	0xbe4022c2	-0.18763259
75	0xbe659cc1	-0.22423078
76	0xbe655569	-0.22395863
77	0xbe85a54d	-0.26102677
78	0xbea275d2	-0.31730515
79	0xbe36051a	-0.17775384
80	0xbea4494e	-0.32087177
81	0xbe74f61d	-0.2392201
82	0xbea26f25	-0.31725422
83	0xbe9913e8	-0.29898
84	0xbe79da96	-0.2439979
85	0xbe877e9f	-0.26463792
86	0xbea5e917	-0.32404396
87	0xbe9bf918	-0.3046348
88	0xbe8a5b38	-0.2702272
89	0xbe603ba0	-0.21897745
90	0xbe70cbfc	-0.23515314
91	0xbe37f537	-0.17964636
92	0xbe6fa21c	-0.23401684
93	0xbea7d8a6	-0.32782477
94	0xbe8ace22	-0.27110392
95	0xbe8a4a7c	-0.27009952
96	0xbe382cd2	-0.17985848
97	0xbe648c7d	-0.22319217
98	0xbe964254	-0.2934748
99	0xbe87b6a8	-0.26506543
100	0xbe7b0a2f	-0.24515603
101	0xbe9072b3	-0.2821251
102	0xbe94d5b4	-0.29069293
103	0xbe83002d	-0.25586072
104	0xbe70ac08	-0.23503125
105	0xbea23670	-0.31682158
106	0xbe451b56	-0.19248709
107	0xbe9d8a50	-0.30769587
108	0xbe84f006	-0.25964373
109	0xbe89c9f1	-0.26911882
110	0xbe3220cf	-0.17395328
111	0xbe68b33f	-0.22724627
112	0xbe943b20	-0.2895136
113	0xbe96b0a1	-0.29431632
114	0xbeaca364	-0.33718407
115	0xbea76861	-0.32696822
116	0xbe42a202	-0.19007114
117	0xbe92aeb7	-0.28648922
118	0xbe7d70e7	-0.247501
119	0xbea54fe4	-0.32287514
120	0xbe6ba4a8	-0.2301203
121	0xbe8f9275	-0.28041425
122	0xbe306370	-0.17225432
123	0xbe5f8b8e	-0.2183058
124	0xbe7c7d2b	-0.24657123
125	0xbe4ecd25	-0.20195444
126	0xbe79d122	-0.24396184
127	0xbe8742a2	-0.26418024

classifier.0.weight f4 [40, 128]
0	0x3c6922d1	0.014229492
1	0x3d4742d6	0.048647724
2	0xbd80c542	-0.06287624
3	0xbdaa2adf	-0.08308958
4	0x3cc1f997	0.023678584
5	0x3d39e9f1	0.04538912
6	0xbc77d5bb	-0.015126641
7	0x3d969dfe	0.07354353
8	0xbcd78248	-0.02630724
9	0xbd3a13a1	-0.045428876
10	0xbd8ae59d	-0.067820765
11	0x3d36446b	0.044498842
12	0x3db3445f	0.08753275
13	0x3d2c38cb	0.04204635
14	0xbd7c4bce	-0.06159573
15	0xbd600d49	-0.05470017
16	0x3c95711b	0.01824241
17	0x3c032c5e	0.008006183
18	0x3cb36eac	0.021903358
19	0xbd52507e	-0.051346295
20	0xbd90de3f	-0.0707364
21	0x3d76040e	0.06006246
22	0x3c41bf14	0.011825342
23	0xbd739f23	-0.059477936
24	0x3d9c34fe	0.07627295
25	0xbc9e970b	-0.019359132
26	0x3d9b98d4	0.07597509
27	0xbd65b574	-0.05608125
28	0x3d788b64	0.06067981
29	0xbdb4c78c	-0.08827123
30	0xbd4a5340	-0.0493958
31	0x3cb2b10f	0.021812944
32	0xbd2ada2b	-0.041711967
33	0xbd5426a1	-0.051794652
34	0x3db205a1	0.0869248
35	0xbc634ac1	-0.013872803
36	0x3d46c6f0	0.048529565
37	0x3d2343c4	0.03985955
38	0xbc9fc0b7	-0.019501073
39	0xbd984960	-0.0743587
40	0xbbf7e8f4	-0.007565612
41	0xbc5d7476	-0.013516536
42	0x3d60e250	0.05490333
43	0x3da5cd71	0.080958255
44	0x3d81fe23	0.06347301
45	0x3d7790d2	0.060440846
46	0x3ba732f1	0.0051025082
47	0xbc2a0df5	-0.010379304
48	0xbd970f39	-0.0737595
49	0x3cff2412	0.03114513
50	0xbd503076	-0.050827466
51	0xbc213b8c	-0.009840857
52	0xbcc5d79b	-0.02415066
53	0x3cac99dd	0.021069461
54	0x3c6daab1	0.014506028
55	0x3d1a3398	0.03764686
56	0x3db4eebc	0.088345975
57	0x3d4ed3bf	0.050494906
58	0x3c1cc2df	0.009567945
59	0xbd9d4555	-0.0767924
60	0xbccac921	-0.024754109
61	0x3d7aea98	0.061258882
62	0xbd9ae14d	-0.07562504
63	0xbd8a0024	-0.06738308
64	0x3daf46cf	0.085584275
65	0x3da2f62c	0.0795711
66	0xbda4acf4	-0.08040801
67	0xbd839be7	-0.064262204
68	0x3d569bb9	0.052394602
69	0x3d9958ef	0.07487666
70	0x3dad21b1	0.08453692
71	0x3d7335b9	0.059377406
72	0xbc085e91	-0.008323328
73	0xbd896053	-0.067078255
74	0xbd5faa89	-0.054605994
75	0x3d7f6679	0.062353585
76	0x3d91cd5c	0.07119247
77	0xbd9b8e74	-0.0759553
78	0x3c0a0275	0.008423437
79	0x3d36e4ad	0.044651676
80	0xbdad0ebb	-0.08450075
81	0xbd3c21a1	-0.04593051
82	0x3cb021d0	0.021500498
83	0x3d8bd6c1	0.068280704
84	0x3daea034	0.0852665
85	0x3d9414bc	0.07230517
86	0xbc800bec	-0.015630685
87	0x3d02aac8	0.03190115
88	0x3cf71604	0.030161865
89	0xbd26b99b	-0.04070435
90	0xbd86579a	-0.065596774
91	0x3cde4d2b	0.027136406
92	0xbd84e928	-0.064897835
93	0x3d569353	0.052386593
94	0x3d1447bc	0.036201224
95	0xbd1e62bd	-0.038668383
96	0xbd2c056d	-0.041997362
97	0xbd6ec364	-0.058291808
98	0xbda4693e	-0.08027886
99	0x3d71fea1	0.059080724
100	0xbd5a91cd	-0.053361703
101	0x3d049e9b	0.03237782
102	0xbd76664d	-0.060156155
103	0x3c0cfd4b	0.008605312
104	0x3d95634e	0.072943315
105	0xbcf50f71	-0.02991459
106	0x3d8554cd	0.06510315
107	0xbc8580d6	-0.016296785
108	0x3cb1e131	0.021713825
109	0x3da609ef	0.081073634
110	0xbb925c16	-0.004466544
111	0xbd022684	-0.031775013
112	0xbdaed110	-0.08535969
113	0xbd454542	-0.048161753
114	0xbd65ec63	-0.05613364
115	0x3d1828bc	0.037148222
116	0xbd34925d	-0.044084895
117	0x3d9f27f3	0.077712916
118	0x3cc813e0	0.02442354
119	0x3c7d1b49	0.0154484
120	0x3d57e69d	0.052710164
121	0xbcf330bb	-0.029686322
122	0xbcde3dae	-0.02712902
123	0x3d3437fd	0.043998707
124	0x3c5317b5	0.01288407
125	0x3b4f9340	0.0031673461
126	0xbccbcefa	-0.024878968
127	0x3d05cc71	0.032665674
128	0xbd8f07a8	-0.06983882
129	0x3db072cf	0.08615648
130	0x3c3c7e07	0.011504657
131	0x3d3fda85	0.046839256
132	0xbd87f1a4	-0.06637886
133	0xbd40c087	-0.04705861
134	0xbb51f49a	-0.0032036663
135	0xbd95c10b	-0.07312211
136	0x3c54306e	0.012951
137	0xbcc38cd7	-0.023870869
138	0xbd868f0c	-0.06570253
139	0x3cf5f0e6	0.030022096
140	0xbda71c2b	-0.081596695
141	0xbd614e94	-0.05500658
142	0xbcd6a862	-0.026203338
143	0xbd5bccc3	-0.053662073
144	0xbc0c8181	-0.008575798
145	0x3ba7c46d	0.0051198513
146	0xbd1530d9	-0.036423538
147	0x3d838920	0.06422639
148	0x3d9e65c6	0.077342555
149	0xbd2eb4bc	-0.04265283
150	0xbd94868a	-0.07252224
151	0xbd1b57c6	-0.037925504
152	0x3c3159c7	0.010824627
153	0x3da44c27	0.080223374
154	0xbcbc67e8	-0.022998765
155	0xbbcd7a4b	-0.006270682
156	0x3ce4cc3d	0.02792942
157	0x3d5bf834	0.0537035
158	0x3d13190c	0.03591256
159	0xbd88c96f	-0.066790454
160	0x3c4dc616	0.012559434
161	0xbd6bf4cb	-0.0576065
162	0x3d9a1efd	0.07525442
163	0xbba367e8	-0.004986752
164	0xbdacc05c	-0.08435127
165	0xbdb47b19	-0.088125415
166	0xbb9303ab	-0.0044865212
167	0x3d950318	0.07275981
168	0xbd99b018	-0.0750429
169	0xbce33744	-0.027736314
170	0xbd3b2db8	-0.045697898
171	0xbd828bab	-0.06374296
172	0xbd966387	-0.07343202
173	0x3d99dca3	0.07512786
174	0x3cb99b8b	0.022657176
175	0xbda1e091	-0.07904161
176	0xbbf194cc	-0.0073724743
177	0x3ac71c25	0.0015190883
178	0xbd9275f3	-0.07151403
179	0x3c05c2f9	0.008164161
180	0xbbf4f295	-0.007475207
181	0xbd85821e	-0.065189585
182	0x3c77168c	0.015081059
183	0xbd619fc0	-0.05508399
184	0x3c44e889	0.012018331
185	0xbd0c3055	-0.03422578
186	0x3c13671b	0.00899675
187	0x3cd1a6cc	0.02559223
188	0xbd996f0f	-0.07491886
189	0x3a85db74	0.0010212497
190	0x3da7d1be	0.08194302
191	0xbc0cdb43	-0.008597198
192	0xbd8e9a1e	-0.06962989
193	0xbd85256a	-0.06501277
194	0xbc3ead15	-0.011637946
195	0x3c2f7ed3	0.01071139
196	0x3d98be23	0.07458141
197	0xbd89202d	-0.0669559
198	0x3d9b0657	0.075695686
199	0x3da2bef8	0.07946581
200	0xbda6f6df	-0.08152556
201	0x3d19e888	0.037575275
202	0xbd568d29	-0.052380715
203	0x3db0ff02	0.08642389
204	0x3da2fff2	0.07958974
205	0xbd7ff453	-0.062488865
206	0xbd70d75e	-0.05879914
207	0x3c801d5c	0.015639
208	0xbd2f983c	-0.04286979
209	0xbd4373bd	-0.0477178
210	0xbdaa5663	-0.08317258
211	0x3d745028	0.059646755
212	0xbda86baa	-0.0822366
213	0x3c8518b1	0.016247125
214	0xbc276f93	-0.010219472
215	0xbd95a370	-0.07306564
216	0x3d39a44e	0.04532271
217	0xbd3e63e6	-0.04648199
218	0xbc8189b7	-0.015812738
219	0xbcd503f1	-0.026002856
220	0x3d8776ad	0.066144325
221	0xbd9f6bde	-0.07784246
222	0x3d4afe6a	0.049559034
223	0x3d43c598	0.047795862
224	0xbd6eb09f	-0.058273908
225	0x3c3edc8c	0.011649262
226	0x3d8b57b0	0.068038344
227	0xbd02a9a7	-0.031900074
228	0x3b670888	0.0035252888
229	0x3d7de5e5	0.061986823
230	0xbdaa04ac	-0.08301672
231	0x3c6f36fb	0.014600511
232	0xbcce01c5	-0.025147328
233	0xbc6b0c9f	-0.014346271
234	0x3d61c294	0.055117205
235	0x3ccec2eb	0.025239429
236	0xbd90f292	-0.070775166
237	0x3d5ece61	0.054396037
238	0x3d59a09a	0.053131677
239	0x3c0316ab	0.00800101
240	0x3c14ffc5	0.009094183
241	0xbd12cba4	-0.035838738
242	0xbc2f98c4	-0.0107175745
243	0xbd769558	-0.06020102
244	0x3d99f3db	0.07517215
245	0xbba5faaa	-0.005065282
246	0x3d88dbd8	0.06682557
247	0xbce1bf2c	-0.027556978
248	0x3d24e58e	0.040257983
249	0x3cb7d7ec	0.022441827
250	0xbcbd6233	-0.023118114
251	0xbd0a2726	-0.03372874
252	0x3d2021f4	0.03909488
253	0xbc381a15	-0.011236687
254	0xbca09089	-0.01960017
255	0xbd864147	-0.065554194

classifier.0.bias f4 [40]
0	0x3d613563	0.054982554
1	0xbc80cd7e	-0.015722986
2	0xbd04a7be	-0.032386534
3	0xbceb50c5	-0.028725037
4	0xbd05da1b	-0.032678705
5	0xbc81e7e5	-0.015857646
6	0x3d2668e5	0.04062738
7	0xbd0dc06c	-0.034607336
8	0x3ce38200	0.02777195
9	0xbc157011	-0.009120957
10	0xbdab5d8e	-0.083674535
11	0xb9a09a04	-0.0003063233
12	0xbd813fcd	-0.06310997
13	0x3b2630d9	0.0025358705
14	0xbd90ff3a	-0.070799306
15	0xbda53f72	-0.08068742
16	0x3ceea29a	0.029130269
17	0x3cdc5f30	0.026900858
18	0xbd5481b6	-0.051881514
19	0xbd34896a	-0.04407636
20	0xbd072fce	-0.033004574
21	0xbce51cb2	-0.027967785
22	0xbce117a2	-0.02747709
23	0x3da6e9dc	0.08150074
24	0x3d32a49e	0.043614022
25	0x3d99c718	0.07508677
26	0xbd93349a	-0.07187767
27	0xbc4c4e36	-0.012469819
28	0xbd301ffd	-0.042999256
29	0xbd999a43	-0.07500126
30	0xbbe53605	-0.006994965
31	0x3ca294d6	0.019846361
32	0x3d2136ac	0.03935878
33	0x3d03902e	0.032119922
34	0x3d660895	0.05616053
35	0xbd1b1674	-0.03786321
36	0xbda18f1d	-0.07888625
37	0xbc5b0dcf	-0.013369991
38	0xbd8073d4	-0.062720925
39	0xbba22ca0	-0.0049491674
