Experiment/EEGClassification/LSTM_embed_128_ReLU_batch16_raw_test/model.pth (torch, 617165 bytes, 8 tensors)

backbone.lstm.weight_ih_l0 f4 [512, 128]
00000000: 84c4 e23c 1b44 57bc ecb7 ffbc 108a 0e3e
00000010: f524 9a3d 70d8 db3d f366 8a3d 1471 8f3d
00000020: 063f 9c3e 283d 143d 9239 d13b 7a53 25bc
00000030: 0899 573d 7750 a5bc 7654 4c3d 839d 07be
00000040: 96ff 643b 06fa e1bc c403 223e 0fac 873d
00000050: 325f 21bd 09ba d23c d8ae 2ebc 6a72 80bd
00000060: f2df 803d cfd8 853b 3d26 5e3c 6a33 cdbd
00000070: 2fd5 c6bd b753 d5bc c2ac 9dbd c9b7 40bd
00000080: 4c23 64bd 785f 61bd 6741 783c d749 203a
00000090: 4b86 6ebb 94bd b43c a384 4abe 7825 d2bc
000000a0: f230 003d 9aa9 ebbc 2d08 d93c 90bb 9bbc
000000b0: 4aa7 b3bd 47eb 92bd 07a0 e5bd e9d6 90bd
000000c0: 094e 853c 21a1 d73c e259 cfbd 37f0 bfbd
000000d0: 9a88 2d3e c68f 39bd a48d 75bd 5846 bbbc
000000e0: 0855 82bd c46c 12ba 15b4 a4bd 11ad 53bc
000000f0: d385 9ebd 1c2e 70bb 774f 653d 4193 bfba
00000100: c154 613e 8b3c 873d db69 09bd 41f6 773d
00000110: 0d79 553d 8d83 a13c d2e1 143d 0105 a9bd
00000120: f556 22be c5a5 273b 7d96 a63d 3b56 02bd
00000130: ee7a 243c 8f18 8bbe a3cf c53d 144d ffbd
00000140: 78ac 963d dc3b a4bc dafb 92bc c62a 983d
00000150: d324 613c 5512 cebd ab9e 903c 4061 a0bc
00000160: d02b 683d 5edc 3d3d 5bbf 003e 09c2 e8bc
00000170: fd50 103e d4a4 84bd 57c0 b13b c3c3 b23d
00000180: d0a6 3ebe 6bfb 0abe ab43 58bb 74b6 0d3e
00000190: 8399 debc de4e f0bd f599 8c3e df09 503b
000001a0: 0ad5 963d b47f 72bd eec1 e13d cfca 8dbd
000001b0: ee59 f7ba b4bb a43d 1d8f e23d 436f 6b3d
000001c0: f96b 3c3d f454 acbc ead9 d63c 10f0 8a3c
000001d0: 3146 9cbd dac7 7dbe 6830 f6bc 8389 34bb
000001e0: 26ce 88bd d788 6abc c91d a93d 4c83 673e
000001f0: 5cb1 7cbd 8923 36bc 46ff 3e3d 017f 3e3d
00000200: 85f2 a1bd 7f16 2abe 55b2 493e 634f 24be
00000210: 166f b8bb 7d7f be3d a1b4 13bc d2eb 903d
00000220: a655 653e 28e5 42bd 6e46 09bd 0734 6c3c
00000230: 4bed 933d 07f0 c73b 8387 02bd 496c 4137
00000240: 73bc 1b3e ecf4 4db9 1d1a 0e3e 789d 173d
00000250: 35e3 a939 44e8 9e3d 283e 193d 45ba 553b
00000260: 2d15 e93c 152b 983e c36f 9a3c dfb0 9dbc
00000270: 7d98 203d f470 8f3b d8b5 0cbd 8349 b63c
00000280: 2fb7 d43b 7067 723c b60d d5bc e7c8 8b3d
00000290: f1b7 15bd 21d3 783d d425 8a3d 1c7f ca3c
000002a0: a7da 243d a1c0 fc3d 1251 a93c 341c 8abc
000002b0: d943 9e3d a000 c4bc ee2b b53b c250 9e3b
000002c0: 49b5 7bbc 7c60 1eba 6daf f13d 0801 25b9
000002d0: 2eab 363c 6cb6 1f3d 2a89 a63d 4afb a5bd
000002e0: 327b a5bd c32b d3bd a557 b33d 8aff 8b3d
000002f0: 4f56 803b 9a22 c83c fc6b 19be de29 e53d
00000300: f05c 983e 897b 4fbd 3cf0 973d f653 6abd
00000310: 03df d3bc 096b 243d 6de4 ca3d 6dbc 18bd
00000320: d6ba 64be dd05 c73d 86e2 ec3d 9e5b e43d
00000330: 2279 0dbd b59f 653e 3757 f83d 88c0 933c
00000340: 0467 a63c 93ce 263d 90dd 573d 60b9 a53e
00000350: 10a7 f33c 96cb 80bd 5fcc 773d c42e 013d
00000360: 527b 6fb8 2f10 07bd eec8 2f3d eef2 01bd
00000370: 709e 80bd 5dbe 583d e74b 303d bbe7 b7bd
00000380: 3488 023c bad0 4d3d e7c6 303c 6552 2a3e
00000390: 7390 263d a31f 6fbe e4b6 72be a474 e63d
000003a0: bdd9 d63d 72bf a03d 1451 263e 85e6 40be
000003b0: d8ba 603b 355b b13d 4884 333c cea0 46bd
000003c0: c740 303c 1a5e fd3d c640 183e 983c 8f3d
000003d0: 2a2c 1ebe df49 233c fdf3 553d dda9 923d
000003e0: 7632 833c 6352 7a3d 7d77 1cbd 4b7a 733e
000003f0: b47d ea3b e0b3 093d f691 8e3d a077 40bc
0.027681597 -0.013138796 -0.03121563 0.13919854 0.0752658 0.107346416 0.06757917 0.0700399
0.30516833 0.036191136 0.0063850367 -0.010090703 0.052636176 -0.02017997 0.049885236 -0.1324368
0.003494238 -0.02758504 0.15821749 0.066246144 -0.039397426 0.025723474 -0.010661803 -0.06271823
0.06292714 0.0040846835 0.013558921 -0.10019572 -0.0970863 -0.026040895 -0.076989666 -0.04705027
-0.055697724 -0.055022687 0.015152312 0.00061145186 -0.0036395963 0.022063054 -0.1977716 -0.025652632
0.031296678 -0.028767396 0.026493156 -0.019010335 -0.08772142 -0.07173782 -0.112121634 -0.07072241
0.016272562 0.02632195 -0.10124566 -0.09371989 0.1694664 -0.04530313 -0.059949532 -0.022860691
-0.06363875 -0.00055856653 -0.080421604 -0.01291968 -0.07740369 -0.0036648577 0.055983987 -0.0014616029
0.22004987 0.066033445 -0.033548217 0.06053758 0.052117396 0.019716049 0.03634817 -0.082529075
-0.15853484 0.0025580984 0.08134172 -0.031820517 0.010039074 -0.27167174 0.09658744 -0.12465873
0.073571146 -0.020048074 -0.017942358 0.074300334 0.01374169 -0.1006209 0.017653784 -0.019577622
0.056682408 0.046352737 0.12572996 -0.028412836 0.14093395 -0.06476751 0.00542454 0.08728745
-0.18618321 -0.13572471 -0.0032999318 0.13839132 -0.02717281 -0.11733793 0.2746121 0.0031744165
0.07364853 -0.05920382 0.11023317 -0.06923448 -0.0018871406 0.08043614 0.11062453 0.057479154
0.04600141 -0.021036603 0.026226956 0.016960174 -0.076305754 -0.24783269 -0.030052379 -0.0027547784
-0.06679945 -0.014314852 0.08257634 0.2260868 -0.06169258 -0.011116871 0.046630166 0.04650784
-0.07907585 -0.16610144 0.19696935 -0.16045909 -0.005628477 0.0930166 -0.009015233 0.07076229
0.22395954 -0.04758182 -0.033514433 0.014416701 0.072229944 0.0061016115 -0.031867515 1.15289085e-05
0.15208606 -0.00019641564 0.13877149 0.03701541 0.00032403474 0.07759145 0.037412792 0.0032612246
0.02845248 0.2972037 0.01885212 -0.019249378 0.039207924 0.0043774787 -0.034353107 0.02225185
0.0064915637 0.014795169 -0.026007514 0.068254285 -0.036552373 0.060748223 0.067454964 0.024718814
0.040247586 0.123414285 0.02066854 -0.016859151 0.07727785 -0.02392608 0.0055289185 0.0048314044
-0.015363046 -0.0006041599 0.11801038 -0.0001573601 0.011149211 0.03899233 0.08131631 -0.0810457
-0.08080138 -0.10311081 0.08756951 0.068358496 0.003916539 0.024430562 -0.14982599 0.11189626
0.29758406 -0.05065492 0.07418868 -0.057208978 -0.025863176 0.04014114 0.0990685 -0.03728907
-0.22336897 0.09717915 0.115666434 0.11150287 -0.03453935 0.22424205 0.1212601 0.018036142
0.020312794 0.04072435 0.052701533 0.32367992 0.029742748 -0.06288831 0.060497638 0.03153874
-5.709689e-05 -0.03297442 0.04291623 -0.031725816 -0.062802196 0.05291592 0.043041136 -0.08979746
0.007967044 0.050247885 0.0107896095 0.16632994 0.0406651 -0.23351912 -0.2370258 0.11252716
0.10490749 0.07849015 0.16241866 -0.18837936 0.0034291055 0.086599745 0.010956831 -0.0484932
0.010757632 0.12371464 0.14868459 0.06993979 -0.15446535 0.009966343 0.05223464 0.07161305
0.016015273 0.061113726 -0.03819989 0.2377712 0.0071560983 0.033618808 0.069614336 -0.011747271

backbone.lstm.weight_hh_l0 f4 [512, 128]
00000000: 92e2 30bd d3b3 0dbd 73d5 e1bc 7838 a63d
00000010: a589 953b 3e51 d2bd d2d9 db3c c147 09bd
00000020: 355a 0fb9 941d e5bb 804c e23c deae 96bd
00000030: c023 043d d0cb 7e3c 0445 2fbd f5fa 81bc
00000040: 7a34 9fbd b376 4a3c bf57 85bc c0d7 c0bd
00000050: 128a 113c df4a 0dbd 8ab2 5d3d a457 9abd
00000060: 6575 c8bd 1c03 5dbd 00ac e43d 2abd 263d
00000070: 3c90 133d 7d43 21bc 1e66 b0bc 143b b43d
00000080: 071e 21bd 7f64 14be e754 c3bc 46ee 9cbb
00000090: a301 fb3c 7d50 a3bd a55b 12bd 322e 25bd
000000a0: c07b 33bd 1f29 c6bd c2a4 a63d 353b af3d
000000b0: 769f a43c 4e08 bcbc 8732 503c 9ce8 84bb
000000c0: 728c e33c 5146 1a3d a3da d5bc 9ec1 8bbd
000000d0: 7def 293d 10d7 173b 8d52 103d c98f 833d
000000e0: affa 21bb 4a37 ffbd 814b 0fbd 8b73 95bd
000000f0: 344a 863d 55e0 b83d d091 9d3d 2172 5cbd
00000100: 2e16 7d3d d82b 753d b1a2 d9bd 82e3 2e3e
00000110: fc51 20bd 27b6 29bc bffd 083e 686f a5bd
00000120: 4f86 8cbd 40d0 2e3c cc99 6b3d f438 93bd
00000130: 7390 3a3a 6969 69bd fbdf 1b3d fc07 2b3b
00000140: fec9 8e3d b9fb 983d 8916 95bc 2031 56bc
00000150: 49bb 833d 956f 853d 164f 9abc 805e 9abd
00000160: 825b b73c 8e8b 07bb d32b ab3d 3720 93bc
00000170: 4c57 de3c 9b67 92bd 360d 493d 1bac a83b
00000180: 0db3 89bc e829 e4bc b293 513d ab9a a83d
00000190: 5fc4 82bd e3f1 b83c a49d 913d 58e2 41bb
000001a0: 141c 423c c21c 97bc 41f0 443b 69e8 63bc
000001b0: 9e00 7cbd c7f5 a63a fab6 6f3c b2ff 6d3b
000001c0: 9de1 313d 972d 163c 8ca6 7c3c 9c03 db3c
000001d0: a6b1 093d 1c26 a23d 0cf3 833d 3ffd 563d
000001e0: d058 d83c f245 bf3d d1a0 843b 6ae1 173c
000001f0: 161b b23d 2115 753b 1f14 2c3d 684e 45bd
00000200: 17ba d03c 1511 673c 2929 e23d 509d 24be
00000210: 3d09 853d 45e9 123d 420a c53d 8841 8abc
00000220: 2f61 96bd e572 5a3c b0c7 d5bd 34d6 6fbc
00000230: fc05 b2ba 16a3 103d 5e66 e13d 6a21 63bc
00000240: d563 253c b20e 1e3c 4b64 163e 832b 783d
00000250: e06d ae3d 9bac 883d 012f 033e c14c e83d
00000260: 520c fdbc 6048 c63d 6eeb 363e e5d2 bf3b
00000270: 34c7 0fbd bb95 a1bb 59d1 ae3c ce1d 5c3d
00000280: fde6 34bd 291b 9e3c 8356 2cbe 980e 293d
00000290: 1028 abbd a654 c03a 0788 c23c 484d 84bd
000002a0: 82ec ebbd 60c8 48bd 63c5 083c 774e 0ebe
000002b0: 8adf 4fbe 4d7c 62bc 7efe 813c c432 9b3c
000002c0: 6392 1cbe 92d5 073c eced 84bd 0592 453d
000002d0: 6300 19bd 3d5c 4e3d 474f ed3b 8cc0 71bd
000002e0: fd1e 893d 7f4e c9bc d3e3 393d acef 43bd
000002f0: 9a4e fabc 71e3 5cbd 39b7 e23d 70d2 97bd
00000300: c563 4c3c 23c6 4b3c 0a0e 413d 0e0e b33d
00000310: 4221 d8bc def4 ffbc ff3f cc3d 13d9 063d
00000320: 9aa0 4e3d 3fab 29bd 1f37 06bc 4f6c 363c
00000330: b626 19bd 3991 923c 6d4e 26be bf03 65be
00000340: 8a31 b93d d0dd 89bc 9f11 aa3d 3d48 a93d
00000350: 9f09 193e 452b 94bd eb79 ee3d e979 353e
00000360: c6b9 663d 1632 aabc 0007 e63d 5643 d1bd
00000370: c818 79bd 4cd8 c9bb c658 bebd c2f0 bfbd
00000380: cfac 45bd a90b 393e 2148 ca3d 033a c7bd
00000390: 8037 91bc 6cb8 81ba 075c 003e 456d d83c
000003a0: 5140 7bbc 9dc6 c9bb d88a f9bd c7fb ca3d
000003b0: 18d2 c7bc 2abd 0a3d ace3 cdbd cc29 163e
000003c0: 1890 b4bb 3c31 1fbe 8587 afbd 3196 72bd
000003d0: bee2 2ebc d23f a3bc 1f41 1c36 99d0 aabb
000003e0: 2b33 a3bd 75e8 293d e066 2fbd 04b7 67bd
000003f0: 5ad2 ec3d de49 c1bd 9d05 823d 9ea0 8c3d
-0.043184824 -0.034595322 -0.0275676 0.08116239 0.0045635276 -0.10269402 0.026837263 -0.033515695
-0.00013671147 -0.0069920514 0.027624369 -0.07357572 0.032260656 0.015551522 -0.042790428 -0.015866736
-0.07773681 0.012357402 -0.016277192 -0.09416151 0.008883016 -0.03449523 0.054125346 -0.075362474
-0.09788016 -0.053958043 0.11165619 0.040707745 0.036026224 -0.009842751 -0.021533068 0.08800331
-0.039335277 -0.14491461 -0.023844196 -0.0047891466 0.030640429 -0.07974336 -0.03573193 -0.04032726
-0.04381919 -0.09675812 0.08136894 0.08556215 0.020095568 -0.022953179 0.012707359 -0.0040560495
0.02777693 0.037664715 -0.02610523 -0.06824039 0.04148816 0.0023168959 0.035234977 0.06423909
-0.002471607 -0.124617174 -0.034984116 -0.07297429 0.06557122 0.09027163 0.07693827 -0.05381978
0.06178873 0.059856266 -0.10626734 0.17078975 -0.039140686 -0.01035837 0.13378046 -0.0807789
-0.06861555 0.010669768 0.05751972 -0.07188597 0.00071168615 -0.056985293 0.0380554 0.0026097288
0.06972121 0.07469887 -0.018199222 -0.013073236 0.06432206 0.06515423 -0.01883654 -0.07537556
0.022382502 -0.0020682546 0.08357968 -0.017959697 0.027141236 -0.071486674 0.049084865 0.0051474697
-0.01680901 -0.027852014 0.051166244 0.082326256 -0.06385111 0.022576278 0.07110146 -0.0029584374
0.011847515 -0.01844633 0.003005043 -0.013910391 -0.061524026 0.0012738042 0.014631027 0.0036315736
0.043428052 0.009166143 0.015420567 0.02673512 0.033616684 0.07917425 0.06442842 0.052487608
0.026409537 0.09339513 0.004047491 0.0092700515 0.086965725 0.0037396627 0.042011376 -0.048170477
0.02547936 0.014103194 0.11043007 -0.16075635 0.06495903 0.035866994 0.09621097 -0.01687695
-0.07342755 0.013333057 -0.10438478 -0.014638472 -0.0013582106 0.03531178 0.11005853 -0.013862947
0.010094603 0.009647058 0.14686696 0.06058837 0.08517051 0.06673547 0.128109 0.11342765
-0.030889664 0.09681773 0.17863247 0.005853998 -0.035102084 -0.0049311793 0.02134006 0.05373936
-0.0441656 0.01930006 -0.16829877 0.041273683 -0.08357251 0.0014673665 0.023746504 -0.06460053
-0.1151972 -0.049019217 0.008347842 -0.1389712 -0.20300117 -0.013823581 0.015868422 0.018945105
-0.15290217 0.008290665 -0.064906925 0.04823496 -0.037353884 0.050380934 0.0072421166 -0.059021518
0.06695364 -0.024573563 0.045383286 -0.04783599 -0.030555058 -0.053927843 0.11070103 -0.07413185
0.012474959 0.012437376 0.04713253 0.08742915 -0.026383046 -0.031244691 0.09973144 0.03292186
0.05044613 -0.04142308 -0.008191853 0.011134221 -0.037390433 0.017891513 -0.16240855 -0.2236471
0.09042652 -0.016829401 0.08304142 0.082657315 0.14945076 -0.072348155 0.11644348 0.17722286
0.05632951 -0.020775836 0.11231804 -0.102179214 -0.06081465 -0.006159818 -0.09294276 -0.09372093
-0.048260506 0.18070854 0.09877039 -0.09727862 -0.01772666 -0.0009896881 0.12535106 0.026419291
-0.015335158 -0.0061577098 -0.121846855 0.09911304 -0.024392173 0.033871807 -0.100531906 0.14664382
-0.0055103414 -0.15546125 -0.0857077 -0.059225265 -0.010674177 -0.019927893 2.3283717e-06 -0.005212855
-0.07968744 0.041481454 -0.04282272 -0.05657102 0.11563559 -0.09437917 0.06348727 0.06866573

backbone.lstm.bias_ih_l0 f4 [512]
00000000: 53c7 30bd 73bd 50be 1a4c 713e a698 42bd
00000010: de33 1c3e 59e2 51bd 045a 13be 24e9 6abd
00000020: b53f 44bd 2730 f7bd 5492 9ebd 124d ddbc
00000030: a6d9 283e 74d9 2bbe f1e9 dbbd 676a 1ebe
00000040: 68fc edbc 7fef 12be 3420 92bd 06d0 00be
00000050: 9d3e cd3c 4a71 0cbe 79ac 50bc e0bc 3cbe
00000060: d1d0 10be 07f4 21be dee1 d7bb 79b0 193d
00000070: 5d4b 28bd 0f2a 1abe b81a d9bd b7a3 96bd
00000080: 28ab 31bd 7fbd 24bd 4c76 a2bc b811 793d
00000090: efc1 26be 102d 04bd 6e7c babd 49bf 153d
000000a0: 652d b6bc 9553 2bbe 31d1 92bc 4765 75bd
000000b0: 5d93 b9bd aae3 07be b24f 98bd 530f 0ebe
000000c0: 4631 1cbe 7a5d 05be 4cc2 a5bc 64c5 87be
000000d0: 4261 8dbd 003a 47be 2337 0f3b 3dd5 69bd
000000e0: 30a3 f63b 3655 9dbc 13d8 a53c 5f87 2ebe
000000f0: 1c1b a3bd bc38 e4bd 51da 12be eb8b d9bc
00000100: aa1d 2b3c 988f 6dbd 1a05 103c 52bb a3bd
00000110: aa8e 44bd d172 24be 08ef cd3c 6c59 69bd
00000120: e5fe dfbd 07cd 44be 1dcb b9bd 0320 aa3c
00000130: b793 a0bd 2522 9bbd 3bcb 003b fa07 eb3d
00000140: dcf5 9dbd 21eb 4dbe 6c76 d5bd 2b0c d7bc
00000150: 098e c0bd 474a 2d3b 23fb 46be 2785 36bd
00000160: c8c6 f0bd ceff ebbd c8de 04bd 60ee b6bd
00000170: a5ca 00be 7062 1c3e 4d27 14be 2011 43be
00000180: 4f69 76be 04ac 71bd 2588 2dbe e98e fcbd
00000190: 731b 703d 52cb 4c3e d8cd e6bd c320 92bc
000001a0: 361e 30bd 24c7 b93d 16a3 a2bc 87a7 023c
000001b0: 4fef 13be 2611 43be c259 d63d 47c8 77be
000001c0: fddc 32be b360 35be e302 04be e1ef 2cbe
000001d0: e599 5ebe 1c47 28be 93cb e43d fd96 7abd
000001e0: 7ed6 d1bd dd30 5d3c 6721 5cbd 2972 8fbd
000001f0: a755 05be 94d1 ecbc 73ec 05be c38c 363b
00000200: dae1 82ba dff7 893d 9e41 27bd 5f8c 163d
00000210: 847f b93d 725e 53bd 859a ce3d c5c2 1e3e
00000220: 98e2 cb3d 69c6 8cba f26a 1e3d f9eb b73d
00000230: 577a c83d 4d5f 84bd c20d 3a3d 5581 833c
00000240: 4f26 c33d 3b76 febc b058 8c3d f12d 083c
00000250: 5737 71bb 765e 24bd d29c ef3a 6fff 8c3d
00000260: f28e 9d3d f46d 273e 15ce da3d 321a 79bd
00000270: eac1 e93d 54e1 c2bd 2958 89bc 9d7b 653d
00000280: 50b9 e33d 477f b1bc 51a0 263e 3a38 363e
00000290: 8359 583e 695e 9a3d 4bbf 903c 6015 4b3d
000002a0: 30d9 ce3d bdb0 ed3d 12d3 743d cc1a 6f3d
000002b0: d168 9d3d fcfb 393e feb2 853c c6ea 803e
000002c0: d7a8 aa3d fe47 17bd dad3 7e3d 1656 cfbc
000002d0: 200b 073e 9858 543d 2e68 1ebd 1a20 623d
000002e0: d90d 163d 1a97 073e c7b9 e63d b9b1 853d
000002f0: 9f4e 29bd 17f6 1a3e 4d5f e4bd 1f32 de3d
00000300: 86dd 293d 9efe 863d 4ebd 1e3d 8f77 59bd
00000310: 05c0 293d 1a00 033d f685 4f3c 05c4 d33d
00000320: 273c 583d 932c 043e efc1 a13d f23d bd3d
00000330: bc48 a73d 85b0 183c ea75 c93d 77ea cb3d
00000340: 9c73 993d f89e c23d 558d 783d 8133 383e
00000350: dd9b a83d 5123 abbc 47ec cb3d fae0 3fbc
00000360: 0983 19bd 4c34 063b af74 a0b9 f4fa 193e
00000370: 34f3 ef3b 9d57 783d dfde 8c3d 9d99 0b3e
00000380: a3e3 083e d68a c13b 9c89 4a3c 246a 0f3e
00000390: 2aaf 363e 0e9c 2d3d 3502 be3d 74af 653d
000003a0: 1141 2a3e b429 053e d7b9 c23d 1330 0d3e
000003b0: 274d 813d 474a ae3c f42b 8c3d 3705 343b
000003c0: 96b3 0c3e 0d58 563d 3fdc 493e 6547 4b3e
000003d0: ede1 113e 3f6d 2c3e cc17 883d 6966 f7bb
000003e0: 0a11 c73b 2260 4c3d db66 a93d c092 933d
000003f0: fed1 b2bc 5faf bd3d a3db 6c3c 513c 5a3c
-0.04315884 -0.20384769 0.23564187 -0.04750886 0.15254161 -0.051241253 -0.14389807 -0.057351246
-0.04791232 -0.12069731 -0.077427536 -0.027014289 0.16489276 -0.1678217 -0.1073798 -0.15470277
-0.02905102 -0.14349173 -0.071350485 -0.12579355 0.02505427 -0.13715091 -0.012736433 -0.18431425
-0.14142157 -0.15815745 -0.0065882048 0.037521813 -0.041087497 -0.15055107 -0.10600799 -0.07355445
-0.043376118 -0.04021978 -0.019831799 0.060807914 -0.16284917 -0.032269537 -0.09105764 0.036559377
-0.022238443 -0.16731103 -0.017922016 -0.05991104 -0.090613104 -0.1327044 -0.07437076 -0.13873033
-0.15253171 -0.1302394 -0.02023425 -0.26517785 -0.06903316 -0.19455719 0.0021852932 -0.057088125
0.0075267777 -0.01920567 0.020244634 -0.17043827 -0.07964155 -0.11143634 -0.14341094 -0.026555976
0.010444084 -0.05799827 0.008790279 -0.07994713 -0.047987618 -0.16059424 0.025138393 -0.056970045
-0.10937289 -0.19218837 -0.09071944 0.020767218 -0.07840674 -0.07574872 0.0019652385 0.11476131
-0.077129096 -0.20109226 -0.10422978 -0.02625092 -0.09402091 0.0026441978 -0.19431739 -0.044560578
-0.117566645 -0.115234 -0.032439023 -0.08932185 -0.12577303 0.15271926 -0.14468117 -0.19049501
-0.2406361 -0.059001938 -0.16946466 -0.123319454 0.058619928 0.19999436 -0.1126973 -0.017837888
-0.04299756 0.09071186 -0.019853156 0.007974512 -0.14446758 -0.1904951 0.10466339 -0.24197493
-0.17467113 -0.17712669 -0.12891726 -0.16888382 -0.21738394 -0.16433376 0.11171641 -0.06117915
-0.10245989 0.013500419 -0.053742792 -0.07004196 -0.13020955 -0.028908528 -0.1307848 0.0027854897
-0.0009985522 0.06736731 -0.04083406 0.036754962 0.09057525 -0.051603742 0.10088066 0.15503986
0.09955329 -0.0010740283 0.03867621 0.08980555 0.097889595 -0.0646349 0.045423277 0.016052881
0.09528791 -0.031062236 0.06852853 0.008311735 -0.0036806667 -0.040129147 0.0018280989 0.068846576
0.0769328 0.16350538 0.10683838 -0.060815997 0.11413939 -0.09515634 -0.01676567 0.05602609
0.1111933 -0.021667136 0.16272093 0.17794886 0.21127896 0.075375386 0.01766934 0.04958093
0.10100019 0.11605976 0.059771605 0.058375165 0.07686008 0.1816253 0.016320702 0.25179118
0.08332985 -0.03693389 0.062213756 -0.025309604 0.13187838 0.051842302 -0.038673572 0.055206396
0.0366343 0.13241234 0.11265903 0.065280385 -0.041334745 0.15132938 -0.1115099 0.108494036
0.041471027 0.06591533 0.038754754 -0.053092536 0.04144289 0.03198252 0.012666216 0.10340122
0.05279174 0.12907629 0.07898318 0.09240331 0.0816817 0.009319429 0.098369434 0.0995683
0.07492754 0.09502977 0.06068166 0.17988397 0.082328536 -0.020890864 0.09957176 -0.011711353
-0.03747848 0.0020477949 -0.00030604514 0.15037137 0.0073226932 0.06063043 0.06878447 0.13632818
0.13368087 0.005906443 0.01236191 0.14005333 0.17840257 0.042385153 0.09277765 0.05607553
0.16626383 0.1300419 0.095081024 0.1378787 0.06313544 0.021275653 0.06844321 0.0027468929
0.13740382 0.052330066 0.19712923 0.19851454 0.1424634 0.16838549 0.06645164 -0.00755005
0.0060750293 0.049896367 0.08271571 0.07205725 -0.021828648 0.09261965 0.014456662 0.013320045

backbone.lstm.bias_hh_l0 f4 [512]
00000000: 62f8 f4bd 78fc 45be 33d7 3c3e 0342 70bc
00000010: 4a79 0c3e 24f6 b1bd e757 3abe 9704 5fbd
00000020: e3a5 ebbc 039e a6bd cf44 c7bd 8718 82bd
00000030: 5861 1d3e 6101 2cbe 2960 c3bd 9b35 febd
00000040: 638b 3abd fe6a e8bd 40eb 42bd 256b fabb
00000050: 5570 bbbd 54e7 00be 11b5 75bd af74 3ebd
00000060: cbf1 fcbd ce21 28be ef90 d23c 391b 5cbd
00000070: f2d3 f53c 4b4e d3bd 94b3 56be f9db ecbd
00000080: 20b3 f8bc 46c1 a1bd ec0c 313c c8bc e0bb
00000090: 18fe 22be bd29 93bd 74b6 cfbd 63c8 893c
000000a0: 9c91 09be 06d2 d8bd d647 c1bd e91b 95bd
000000b0: c4f1 8cbb b2b5 2dbe e9c0 94bd ec6d 2bbe
000000c0: 53d6 e1bd 136e 34be 318d 893d f1ba 57be
000000d0: 3c4b 5fbd 7f65 13be 239b a3bd 35bf 15be
000000e0: 78a6 ccbd 8944 c8bc e5c2 56bd 3fbd 04be
000000f0: cdf3 06be 7ed4 b0bd e187 37be c6d5 01be
00000100: 00fb 6e3c a6c8 e1bb afe8 04bc e0da 8bbd
00000110: d119 ccbd c485 1ebe f799 8f3d b4d2 84bd
00000120: 4da1 3fbe ce3f 4bbe d003 abbd ca54 28bd
00000130: c2dc bcbd e86a 8fbd 4dc6 63bd 3276 cd3d
00000140: ba94 dbbd a602 30be 2e8e 82bd c084 83bd
00000150: 77ba 22be 1ed6 bdbd 92c1 42be 4506 b8bd
00000160: 3846 21be e01a 07be 3f88 2bbd cb17 cdbd
00000170: d437 20be dc09 b03d f2b0 07be cf6e 57be
00000180: 5274 a0be 82d2 7ebd 9cd5 3dbe dd48 12be
00000190: 31da b73c 571c ed3d f8f4 04be 64f9 69bd
000001a0: 0aa3 033c ebee 063e 1ce4 9dbd 971b 8cba
000001b0: 866e 1dbe 4360 d2bd 3c57 6d3d 3c5e 64be
000001c0: 4b60 08be 7f85 0ebe 5e51 0fbd 459e 62be
000001d0: 245d 4cbe dd0e 4dbe e173 cd3d 8083 d0bd
000001e0: 8239 08be 9708 09bb 1269 acbd 2173 ebbc
000001f0: 78cf b1bd 05f8 373d 0143 5ebe 4339 d93a
00000200: ec37 203a 25ae 9e3d 7c7f 013c 4a42 0cbd
00000210: 8cec 143e cf55 b5bc e48d bf3d 820e 523e
00000220: 5805 003e 60c2 d8bc 6155 173d 9533 b93d
00000230: c20f e73d 98c6 a63c f9c9 0c3e b8ae 993c
00000240: 7ebe ee3d 6fe8 29bd dc5e 5b39 52c7 b93d
00000250: 2617 3fbc b06a a8bb 9eec c73c 5365 8ebc
00000260: 5a0a 833d fa44 7e3d 6381 b63d a504 85bd
00000270: 26fd 133e cc43 8abd 2237 4c3d a844 6a3d
00000280: 9065 493e 354a febc d9d4 453e 11ef 0a3e
00000290: ecc9 3c3e dcf0 47bc 7632 ba3c 8788 6d3c
000002a0: 5a46 e53d e5f7 003e 586d 863d 0aa1 1cbb
000002b0: 4f60 d53d e239 043e b86d e93c 2fb0 223e
000002c0: c78b 9cbb a6a7 3f3d 4ad3 663d a928 d8bc
000002d0: be71 783d 4329 1d3d 4f4d 403d 2cf3 bc3d
000002e0: f33d febc 52c5 223e 4b44 973d e206 843d
000002f0: fce5 e1bb c105 183e a7c3 f5bb 0943 d83c
00000300: 8b78 c33d 37de 083e 8f1b 163e 9cdf 8cbc
00000310: 4495 9d3d 8b97 043e 57ac bf3c d2eb 9a3d
00000320: 7cc0 5c3d 4da4 d33d ce86 043e 28ea e0bc
00000330: d64e 303e 2d3f da3a 9b1a 923d f801 1e3e
00000340: 0c3f ae3d 610c 033e 4422 173e 37b5 f53d
00000350: 9d98 a03d aab6 8c3d 3a34 8d3c 1d7d de3d
00000360: a680 64bd c66e 6dbd dee1 cfbd 2883 5c3e
00000370: 4252 18bd 495d 0a3e 3dba 9b3d f59b 553e
00000380: 88d8 e53d ec03 ce3d 3ce4 2f3d b9a4 2c3e
00000390: c0a6 003e b38e 0b3e 118e ca3d b11a c33d
000003a0: 872d fa3d 0b66 013e eb62 c53d 4ed5 143e
000003b0: edf4 463d 2a2d c13c f1ef 783d e5fb a53d
000003c0: 0016 243e 0839 883d 4971 523e 9e45 5a3e
000003d0: b0be f13d 3b60 193e 2330 883d a944 453d
000003e0: e815 85bc 1e38 4c3d 5d98 cb3d 7b97 133e
000003f0: e801 293d d889 263e 5b79 9dbb 305d 063d
-0.11961438 -0.1933459 0.18441467 -0.014664176 0.13718143 -0.08689526 -0.18197595 -0.054447737
-0.028765624 -0.08135607 -0.09729921 -0.063523345 0.15369165 -0.16797401 -0.095398255 -0.12412568
-0.045543086 -0.11348532 -0.047587633 -0.007642167 -0.09152285 -0.12588245 -0.05998713 -0.046497997
-0.12350806 -0.16419145 0.025703875 -0.0537369 0.03000829 -0.103176676 -0.20966941 -0.11565394
-0.030358851 -0.07898192 0.0108063035 -0.006858442 -0.15917242 -0.07185695 -0.10142222 0.016819185
-0.13434452 -0.10586934 -0.0943753 -0.07280714 -0.0043012816 -0.16963843 -0.07263357 -0.1674115
-0.11027207 -0.17620115 0.06716383 -0.21067406 -0.05451511 -0.14394186 -0.07988574 -0.14623721
-0.09992689 -0.024446743 -0.05243196 -0.12962817 -0.1317894 -0.0863428 -0.17922927 -0.12679204
0.01458621 -0.0068903742 -0.008112117 -0.068288565 -0.099658616 -0.15480715 0.07011788 -0.06485501
-0.18713875 -0.19848558 -0.083503366 -0.041096486 -0.09221794 -0.070028126 -0.055609036 0.100323096
-0.10721727 -0.1718851 -0.06374775 -0.064218044 -0.15891443 -0.09269355 -0.19019154 -0.08985571
-0.15749443 -0.13193846 -0.04187798 -0.10014304 -0.15646297 0.085956305 -0.13251093 -0.21038364
-0.31338745 -0.062212475 -0.18538517 -0.14285608 0.022442909 0.11577671 -0.12984073 -0.057122603
0.008034477 0.13177077 -0.07709524 -0.0010689375 -0.15374193 -0.10272267 0.05794452 -0.22301573
-0.13317983 -0.13918112 -0.034989707 -0.22130688 -0.19957405 -0.20025201 0.10031868 -0.10181332
-0.13303187 -0.002090966 -0.08418478 -0.028741421 -0.0868215 0.044914264 -0.21705247 0.0016572851
0.00061118486 0.07748059 0.00790393 -0.034242906 0.1454336 -0.022135643 0.09353235 0.20513347
0.12502038 -0.026459873 0.036946658 0.090430416 0.112823024 0.020358369 0.13748921 0.01876007
0.11657427 -0.04148143 0.00020920805 0.090712205 -0.011663234 -0.0051396713 0.02440482 -0.0173823
0.06398459 0.0620775 0.08911397 -0.064950265 0.14452037 -0.067512125 0.049857266 0.057194382
0.1966765 -0.031041244 0.19319476 0.13567759 0.18436402 -0.012203421 0.02272914 0.014497883
0.11195059 0.12594564 0.065638244 -0.0023899698 0.1041876 0.12912706 0.0284947 0.15887521
-0.004777405 0.04679074 0.056353845 -0.026386576 0.060655348 0.03836943 0.046948727 0.09226069
-0.031035399 0.15895584 0.07386073 0.06446625 -0.0068938714 0.14845945 -0.00750013 0.026399152
0.09544476 0.13366018 0.1465895 -0.017196469 0.07694486 0.12948434 0.023397608 0.075645104
0.053894505 0.10334072 0.12942049 -0.027455404 0.17217574 0.0016650908 0.07133981 0.15430439
0.08508119 0.12797691 0.14759165 0.119974546 0.07841609 0.06870778 0.017236818 0.10863707
-0.05578675 -0.05796697 -0.101505026 0.21534407 -0.037187822 0.13512148 0.076038815 0.20860274
0.11222941 0.10059342 0.04294227 0.16859712 0.1256361 0.13628654 0.09890378 0.09526575
0.12215715 0.12636583 0.09638008 0.14534494 0.048573423 0.023581106 0.0607757 0.08104686
0.16024017 0.06651503 0.20551027 0.2131562 0.11803949 0.14978115 0.06649806 0.048161183
-0.016245797 0.049858205 0.0994117 0.14413254 0.041261584 0.1626352 -0.0048057265 0.032803714

backbone.output1.weight f4 [128, 128]
00000000: 79a0 b73d 57ca 1cbd 9032 0ebe 0d09 22bd
00000010: f0a1 813e c253 143e 47a7 49be 9e04 243e
00000020: b166 67be 5ff2 4cbe b371 00bc ddf3 4b3e
00000030: 8534 443e 99dc 8f3e b28d 55bd d65f bcbd
00000040: 0d29 b1bc b29a aabd 1999 0dbd 9818 143e
00000050: c9f9 26bd 7f35 1c3e 555b 443d e673 70be
00000060: 1808 fa3d a047 f4bd e99f 4c3c 48ef 21be
00000070: bfd5 193e 7b66 e0bd 299a 80bd f05f 623e
00000080: e1c8 b93e bb03 48bd 8cd9 21be 091e 49be
00000090: 761d 923c 9d18 c8bd 0950 b73d 9629 2e3e
000000a0: 6641 72be 6ab3 fb3d bb45 b0bd 93f4 133e
000000b0: bc1b b3bd 7718 ad3e 90fe 48bd 2a90 5dbe
000000c0: f3f6 68be 6aae 013e 7d30 5cbd 1ed4 433e
000000d0: ab1a be3e da9f b9bb e27f c634 8f35 4fbd
000000e0: d591 ddbd 3b24 ed3d 5822 bcbd b3e6 363e
000000f0: b8fd e73c 27f4 483d 9739 0f3e fb4f 913e
00000100: 72f7 1d3e e840 fabd 8e82 6fbe f567 a5be
00000110: bd77 c8be 6593 42bd 24c4 66bc f4eb 813d
00000120: ccb1 2bbe f546 203e 9b88 4b3d 9888 8a3d
00000130: d64a 323d 3069 a63d a7bb 8d3d 31a5 f4bc
00000140: 300f 17be 3fd7 a13d 3b27 b5be 395f 9a3e
00000150: c8e6 353e f2be e5bd 4099 6e3e fd42 fcbd
00000160: 0795 b5bd 53e5 0e3e 30f5 c23d 01cd 113d
00000170: 7d15 353e 51a9 643b 906d b3be 410e 98be
00000180: 8785 503d af4c 7bbd c39d 0cbe fd58 97bd
00000190: a49f 12bd b939 3abe 8c85 88bd c3c7 583e
000001a0: 9781 f73d 9c7d 043e d2fd ad3d 9f0a 683c
000001b0: 4095 ca3e 4e8a a03e 8596 bfbd 4295 3fbe
000001c0: 6f26 323e 0cf5 83bd cbda 3a3e f242 a3bc
000001d0: fb71 8fbe e096 243d 6ce4 283d a5ef c33d
000001e0: de4d 06be aae9 6fbe c841 673e fd20 acbd
000001f0: 05f5 71bd 17e0 3bbb 8385 4c3e 4b74 8b3d
00000200: 5407 c7bd d3d8 e23d 0b8f 7cbd 4be9 a63e
00000210: 71cc 673e e768 85bc df1a fdbd ad53 dcbc
00000220: d884 a93d d8a1 a13a 909e 5f3e 935d 7dbc
00000230: 3949 223d 94b2 86bc 4d71 98bc 1693 81be
00000240: a4af c9bd 90f0 413e 8ac4 bb3c 7ab0 14be
00000250: 1c2b 18bd 97a0 06bc 23e0 27be aff8 583d
00000260: aa4f b7bd 6c56 18be 7fa1 42bd 5357 9c3d
00000270: 92bf 153c 915b 3a3e f94d 81bd 7ff4 54bd
00000280: 84e6 aabd ff89 833d 6dde c13b 8ea6 85bd
00000290: 4883 6a3d 9dc0 a3be e3bf f0bc 99da 9cbd
000002a0: fdb1 f7bd 56e3 2ebc dfb9 0a3e 63e1 733d
000002b0: bf34 8abe bfb9 60bc 242d 9fbd 2942 14be
000002c0: 7042 3dbb 9846 78bd 2c25 2fbe dd84 6e3d
000002d0: 0607 803d 450e 533d 6d7e 5ebe 68cf 1d3d
000002e0: 6d09 94be f250 383e fc76 a5bd 9620 d3bb
000002f0: 640c fabb b855 2f3d 0987 6e3d 3cc5 d9bd
00000300: ce27 abbd 6496 753b a2da 023e 7a56 27be
00000310: 3ace 9ebb 1cee 373e a65c 183e e500 02bc
00000320: c3bf 56bc ae89 26be f485 c4bd 4be6 cfbd
00000330: ef89 cabe 7a5a ea3d 1e90 073e ac48 853e
00000340: 764d eb3d 776f edbd 5d60 1fbe a6a1 c6bd
00000350: 9080 5dbd 1797 523b d56f 6f3d b4ab 213d
00000360: d742 64be f61a 293e 85a0 253e 77c6 2a3e
00000370: ed67 bd3d 9025 52be ffd0 e83d da5d ed3c
00000380: bd2c 983b 0abb 183e a307 86be b2e0 643d
00000390: 3fbd 14be c29e 5ebd c6ef 953d 004e b93e
000003a0: 8fc2 5e3e b52a 28be 705c cebc d4bf 46be
000003b0: ca18 27bd 6d81 febd d422 70bd f89b 5b3d
000003c0: 6f9b ad3d 7f47 e8bd 8514 0d3e 2eb8 7ebe
000003d0: 821e 37bd 6355 bf3c 8b26 6cbc c776 aabe
000003e0: fba0 81be b786 aabc b757 513d c24d 37be
000003f0: ca38 d93d 3208 8dbd 5a2c d0bd a77a 85be
0.089661546 -0.038278904 -0.13886476 -0.039559413 0.2531886 0.14485076 -0.19692717 0.16017386
-0.22597767 -0.20014332 -0.007839608 0.19917245 0.1916066 0.2809799 -0.052137084 -0.09197967
-0.02162602 -0.08330287 -0.034569833 0.14462507 -0.040765557 0.15254782 0.047938664 -0.23481712
0.12208575 -0.11927724 0.012489297 -0.15813935 0.15022944 -0.109570466 -0.06279404 0.2210691
0.3628607 -0.048831683 -0.15805644 -0.19640364 0.017836314 -0.097703196 0.08950812 0.17008051
-0.2365776 0.1229008 -0.0860705 0.14448766 -0.08745524 0.33807728 -0.049070895 -0.21637025
-0.22750454 0.1266419 -0.05375718 0.19123885 0.3712972 -0.0056648077 3.697342e-07 -0.050588187
-0.10818831 0.11579176 -0.09186238 0.17861442 0.028319225 0.049060967 0.13986813 0.28381333
0.15426424 -0.12219411 -0.23389646 -0.32305875 -0.39153853 -0.047503848 -0.0140848495 0.063438326
-0.16767043 0.15652068 0.049690824 0.067643344 0.0435284 0.08125532 0.069205575 -0.029863926
-0.14751887 0.07902383 -0.35381493 0.30150774 0.17763817 -0.112180606 0.23300648 -0.123174645
-0.08866315 0.13954668 0.09519422 0.035595898 0.17683978 0.003489096 -0.35044527 -0.29698375
0.05090859 -0.061352428 -0.13732056 -0.0739002 -0.035796776 -0.18186082 -0.06666097 0.21169953
0.12085264 0.12938541 0.08495678 0.0141626885 0.39566994 0.31355518 -0.09354881 -0.18709281
0.17397474 -0.06443223 0.18247525 -0.019929383 -0.28016648 0.040182948 0.041233465 0.09567193
-0.13115641 -0.2342898 0.22583687 -0.084047295 -0.05907156 -0.0028667504 0.19972806 0.068092905
-0.097181946 0.11076512 -0.061659854 0.32599863 0.22636582 -0.016285373 -0.12358641 -0.026895368
0.08277291 0.0012331558 0.2183783 -0.015464204 0.03962061 -0.016442575 -0.018608714 -0.2530753
-0.09847954 0.18939424 0.022920866 -0.14520445 -0.037150487 -0.008216999 -0.16394095 0.05297154
-0.089507416 -0.14876717 -0.047517296 0.07633843 0.009139912 0.18198992 -0.063137 -0.051990982
-0.083447486 0.06422805 0.005916408 -0.065259084 0.057254106 -0.3198289 -0.029388374 -0.07658882
-0.120944954 -0.010674318 0.13547467 0.059541117 -0.26993367 -0.01371616 -0.07772282 -0.14478363
-0.002887871 -0.0606142 -0.17104024 0.058232177 0.062513396 0.05152728 -0.21727915 0.038527876
-0.2891344 0.17999628 -0.08079335 -0.0064430935 -0.0076308716 0.042806357 0.05823425 -0.106333226
-0.083572015 0.0037473673 0.12778714 -0.16341582 -0.0048463615 0.17961925 0.14879093 -0.007934784
-0.013107243 -0.16263458 -0.09595862 -0.10151347 -0.3955836 0.11443038 0.1323857 0.26032007
0.11489384 -0.11593526 -0.15564103 -0.09698801 -0.054077685 0.0032133514 0.05845626 0.03947039
-0.22291122 0.16514191 0.16174515 0.16677271 0.09248338 -0.20522141 0.11367988 0.028975416
0.004644005 0.149151 -0.261777 0.05587835 -0.14525317 -0.054350622 0.07321124 0.36192322
0.21753906 -0.16422541 -0.025190562 -0.19409114 -0.040795125 -0.1242703 -0.058626965 0.05361554
0.08476912 -0.11341762 0.13777359 -0.24874946 -0.04470683 0.023356145 -0.014413486 -0.33293745
-0.2531813 -0.02081619 0.051109042 -0.17900756 0.10606535 -0.06886329 -0.101647094 -0.2607014

backbone.output1.bias f4 [128]
00000000: a1e8 483c 7d2a 4b3d 01e9 2c3d 5a7a 5a3e
00000010: bc87 343e 7513 95bc df1b 403e 35a2 523e
00000020: 2ab7 993e 22e6 84bd f2a9 973d ffd2 c0bc
00000030: 9c7a 8b3e b9bc 4d3e ad4f 4c3e 9f27 023d
00000040: a82d 833e 3c28 783d 8035 523e 406c e63d
00000050: b466 3f3e 8a52 c53c fe21 4e3d 291e 2f3e
00000060: 6a1a cf3d 54e7 c13d 77df 043d f21c 58bc
00000070: bf70 be3d b169 273e a43e 253e 95de cf3d
00000080: 4402 943b aa86 033e 5e1c 763d 7276 323d
00000090: e3ba 493e 22cb d23b b35d 093e 25eb 213e
000000a0: bebc 163d c114 253e 8c91 8cbd 4137 7c3e
000000b0: 012f 3d3e 93a3 0f3e 6741 103e 1a15 8b3d
000000c0: 02eb f6bc bda9 1a3d 9c65 f53d cd46 bcbc
000000d0: 9001 e93d 1f86 0c3c 5b14 d83a e6db 883e
000000e0: b34f 21bd 9c5b 8d3d 0647 253d 06b0 963d
000000f0: 528a 863e a5ff 443c cabd 4a3d 7dbe e83d
00000100: 6bdc 80bd e1a6 c13c fc81 fabc 4b6e 713d
00000110: e633 563d b2ee 1c3c 7732 0c3d 48f1 97bd
00000120: e7d8 863e 7ada 6d3d a0eb 173e 77b7 7f3e
00000130: c13e 3c3e 465c 963d 5e88 b53c e9be 0f3d
00000140: c324 8fbc 750c 1c3d f1ca 02bd 44d6 e03d
00000150: ce48 b23e 30d1 d238 bc1c 91bc f6ef f43c
00000160: 38e9 b93b a32d 923d 5122 3c3e d6c3 193e
00000170: 4c0d b63d 1662 fdbd f40d ff3d 548d cc3d
00000180: 0930 023e 2358 003e 8012 94bd 6436 a43d
00000190: 48e7 b8bd 6c62 d53d aaf9 823b 119d 273e
000001a0: c18e d23d 6342 ac3d 8202 5d3e c049 3c3d
000001b0: e948 b43d 348e a1bd 50d9 f53d fc68 163e
000001c0: 8bc6 3b3d 250b 9f3c dce7 ca3d 66a6 673e
000001d0: aead ab3d 6c33 dbbd 3138 1c3e a32d 2bbd
000001e0: 7945 933d 125c b3bc 20d0 7d3d be42 f23d
000001f0: 6b56 7d3e 61f6 fc3d 523a 253e 77aa 203e
0.012262494 0.049601067 0.042214397 0.21335736 0.17629904 -0.018197754 0.18760632 0.2056969
0.30022556 -0.06489207 0.07405461 -0.02353811 0.2724198 0.20091523 0.19952269 0.031776067
0.2562077 0.060585245 0.20528221 0.11251116 0.18691522 0.02408721 0.050325386 0.17101349
0.1011246 0.094679505 0.032439675 -0.013190495 0.09298848 0.16348912 0.16137177 0.10149876
0.0045168716 0.12844339 0.060085647 0.04356999 0.19700198 0.0064329067 0.1341465 0.15812357
0.036801092 0.16121198 -0.06863698 0.24630453 0.18474962 0.14027242 0.14087449 0.06791134
-0.030141357 0.03775953 0.11982271 -0.02298298 0.11377251 0.008576899 0.0016485559 0.2673027
-0.039382648 0.06902239 0.040350936 0.073577926 0.26277405 0.012023841 0.049497403 0.11364458
-0.062920414 0.023639144 -0.03057956 0.058943074 0.052295588 0.009578394 0.034227815 -0.074190676
0.26337358 0.058069684 0.14835978 0.2497233 0.18383314 0.073418185 0.022159752 0.035094175
-0.017473584 0.038097817 -0.03193182 0.10978368 0.3482117 0.000100525445 -0.017713897 0.029899579
0.005673554 0.07137611 0.18372466 0.15016112 0.08889255 -0.12372224 0.12453833 0.09987894
0.12713636 0.12533621 -0.07230091 0.08018187 -0.090284884 0.10419163 0.0039970474 0.1636851
0.102811344 0.084111 0.21582988 0.04596877 0.08802969 -0.07888451 0.1200434 0.14688486
0.045843642 0.019414494 0.09907505 0.2262207 0.08382736 -0.10703167 0.1525581 -0.04179157
0.07190985 -0.021894488 0.06196606 0.11829136 0.24739997 0.123516805 0.16135529 0.15690027

classifier.0.weight f4 [40, 128]
00000000: dda3 b13d 68fc 823c 6547 3cbe 283e 183c
00000010: 7303 393e f9bc 22be 4dbe 303d 9b20 553e
00000020: 1f3f 553d 29e1 edbb 8372 37be 4baa 51be
00000030: 257a 183e 2854 b63d fa09 b5be 4bcc 48be
00000040: 8598 5bbe 14f0 c6bd c58b 303e 0462 0d3c
00000050: f82c 90be 2b88 bd3d 3b01 2abe 9142 243c
00000060: c16f 4c3e 6fef e6bd 939c bc3d 59f5 fbbd
00000070: fb71 ee3d 8b23 aabe ecbf 82be e3c2 55bd
00000080: d34a 113e 766a 36be f437 973d d3bc e9bd
00000090: 286b a83d 3fda c5bd bd78 93be eb9c f4bd
000000a0: 93cf 17bd a798 f43a 5c5a bcbd e0d1 4f3e
000000b0: 475f 3c3d 081f d4bc 2e89 81be 2d7e ecbc
000000c0: de55 c9be bbae b83d 3b54 9cbe 5660 8bbc
000000d0: 922d 50be 3e7b cf3d d27d 153e a133 15be
000000e0: 3fad a33c 2515 5dbd c10a 8ebe 9b37 a4be
000000f0: 4182 c1bc 8c4e f93d 488b dbbe c74c c9bd
00000100: ab70 40be 7d78 4a3e e265 2ebc d6c8 f8be
00000110: cc8b 5a3d 2a60 f53d f64a 1f3e 62fd 45be
00000120: f7c5 d53d 9fe2 0abf 8851 c7bd 82fc c9bc
00000130: bdec 15be 070f c0bd a571 51be 308c 18be
00000140: 880f 86be 09dd 06be 6688 cc3d 0a0a 523d
00000150: 7569 213e 3f15 cebd 679f 71bc 7bbf 003e
00000160: 6ce8 ccbe 9ef4 e2be 1b74 53be 0fcf cfbe
00000170: c22e 01be d1ae 4b3e eb09 763d 2cae 9cbe
00000180: fefe 7c3d a51c 9d3d b844 09be 777b bd3d
00000190: 0d19 d4be 2b8c f93d 64ed adbe a486 ca3c
000001a0: dcef fdbc 3642 33bd 9b17 b13d 2fab 0bbe
000001b0: 5133 c73d d446 273e 3b72 d3ba 991d d5bd
000001c0: fc3e 4bba 44e4 bb3d f2c5 17be 3349 66bd
000001d0: ad30 4fbe 1945 8fbe 4713 d63d 1611 cbbe
000001e0: 815b bebc 78cc efbe 2d54 6fbe 38cf 873d
000001f0: ac56 50be a77f c2be 5d55 d8bd 92bd 363e
00000200: 1121 5bbe 7406 503e 9d4b 8ebd 318d 853e
00000210: 42d7 98be 5f65 c9bd c6f9 14be d18b a3be
00000220: 8431 c8be ad3d 12be 5c4b 5cbe d017 c5bc
00000230: 7886 a5be 61a4 5ebe 554c 393c 08de 96bd
00000240: b506 10bb cb2a 693d 3551 3cbe 7b13 89be
00000250: d685 053e fb51 11be 1a60 8abe 4e83 2abd
00000260: 6d5c 6cbe 1858 453e 8983 163e ef5c a2be
00000270: 7539 40bc 3f8c 053e e350 983d 87a1 1ebe
00000280: 561f 1ebd 7f5f 03be e9db 4b3e cd41 5d39
00000290: 6261 e7bd 6752 52be 9e87 dd3c 21fb bebd
000002a0: 581f e7bd afdd 3cbd 1ee6 b13d c771 9dbd
000002b0: 10ac 80be 5c52 d43d b1d8 b33d 896e 84be
000002c0: 06bb a73d a93b 97bc d526 0ebe 8266 f33d
000002d0: 248b cd3b c2a9 3bbe aaf8 cf3c 4d3b 03be
000002e0: feff 25be 3bde 11be d975 cbbd a7ce 273e
000002f0: 2b01 ed3c 14f0 733e 7917 013e 9dd7 21be
00000300: 017c 72be b51c 93be 976c 84be 298f 6abd
00000310: cd43 b4bb 69f8 aabd e4fe 303e da81 e6bd
00000320: 314f 36be 6638 bb3d 94db 46be 759f c83d
00000330: 5043 323e f7c8 39be 284d 12bd 4371 ffbc
00000340: aa2d 83bd 8b49 97be 175b 03be 2f4b b63d
00000350: 4da8 8fbe 78d5 04bd c711 07be e736 1cbe
00000360: 4458 553e 80a9 50bc c425 62bc 5ce7 0c3d
00000370: 79d1 e53d 73e3 2f3b e22b 41bb 2666 de3d
00000380: 5d22 2fbe b995 08be e83d 513e daeb 3dbe
00000390: 1901 a1bc 53be 52be 467e 31be 6e56 aebd
000003a0: c924 223e e0b9 8c3d bf96 943d 36cb 3c3d
000003b0: 0ccb b7bd 1941 4b3d 7901 4b3e cd4e ba3d
000003c0: d044 6d3d 62d2 81be 8cc4 41be d8b5 4b3c
000003d0: d8a9 2e3e ebc8 bdbd 84d1 0e3d 4dfb febc
000003e0: fbd6 5cbd ba96 04be 9377 6bbd d76e 05be
000003f0: 6d41 af3a a79c 243d 3b26 3dbe 1de8 80be
0.086738326 0.015989497 -0.1838661 0.009292163 0.18067722 -0.158924 0.043150235 0.20813219
0.05206215 -0.007259507 -0.17914777 -0.20475118 0.14890344 0.0890277 -0.35359174 -0.19609182
-0.214449 -0.0971376 0.17240818 0.008629326 -0.28159308 0.092544876 -0.16602032 0.010025636
0.19964506 -0.11276137 0.09209552 -0.12302656 0.11642834 -0.33230242 -0.2553705 -0.05218781
0.141887 -0.17814049 0.07383719 -0.114129685 0.082235634 -0.09660768 -0.28803053 -0.11943992
-0.037063193 0.0018661217 -0.09196922 0.20294905 0.0459893 -0.025893703 -0.25299972 -0.028868759
-0.39323324 0.09017702 -0.30533013 -0.01701371 -0.20329884 0.101309285 0.14598778 -0.14570476
0.019980071 -0.053975243 -0.2774258 -0.32073674 -0.02362168 0.12173185 -0.428797 -0.09829097
-0.1879298 0.19772525 -0.010644408 -0.48590726 0.053355977 0.119812325 0.15555939 -0.19334939
0.104381494 -0.54252046 -0.09732348 -0.024656538 -0.1464109 -0.09377866 -0.20453508 -0.14897227
-0.26183724 -0.13170256 0.099869534 0.051279105 0.15762885 -0.10062646 -0.014747477 0.12573044
-0.40021074 -0.44327253 -0.2064976 -0.4058766 -0.12615493 0.19890906 0.060068052 -0.30601633
0.061766617 0.07671479 -0.1340512 0.09252065 -0.41425362 0.12184938 -0.33970177 0.024722405
-0.030998163 -0.043764316 0.086470805 -0.1363952 0.09726585 0.16335613 -0.0016132066 -0.10406036
-0.0007753221 0.091743976 -0.14821604 -0.056222152 -0.20233412 -0.27982405 0.104528956 -0.39661473
-0.023236992 -0.46835685 -0.23371954 0.06631321 -0.20345563 -0.37988016 -0.10563157 0.17845753
-0.21399333 0.20314962 -0.06948016 0.26084283 -0.2985173 -0.09833788 -0.14548406 -0.3194261
-0.39100277 -0.1428134 -0.21513122 -0.024059206 -0.32329154 -0.21742393 0.011309703 -0.07366568
-0.0021976654 0.056925576 -0.18390353 -0.26772675 0.13039336 -0.1419143 -0.27026445 -0.04162913
-0.23082133 0.19271886 0.14698614 -0.31711528 -0.011732449 0.13041781 0.07437303 -0.15491305
-0.038604103 -0.12829398 0.19908108 0.00021100715 -0.11297871 -0.20539246 0.027042206 -0.09325243
-0.11285275 -0.04610985 0.086864695 -0.07687717 -0.25131273 0.10367271 0.08781565 -0.25865582
0.08189969 -0.018461065 -0.13882 0.11884786 0.0062726904 -0.18326476 0.025387127 -0.1281559
-0.16210935 -0.1424493 -0.09934587 0.16387425 0.028931221 0.23822051 0.1260661 -0.15804906
-0.23680116 -0.2873284 -0.25864097 -0.057265434 -0.0055012465 -0.08348162 0.17284733 -0.11255236
-0.17803647 0.091416165 -0.194197 0.09796039 0.1740849 -0.18143068 -0.035718113 -0.031181937
-0.06405194 -0.29548296 -0.12827717 0.08901059 -0.2805809 -0.032430142 -0.13190375 -0.15255319
0.20834452 -0.012735724 -0.013802949 0.03440033 0.11221594 0.002683845 -0.002947562 0.10859327
-0.17102952 -0.13338365 0.20433772 -0.18547001 -0.019653844 -0.20580415 -0.17333326 -0.08512579
0.15834345 0.0687139 0.07255315 0.046092235 -0.08974275 0.04962263 0.1982478 0.09097061
0.057926953 -0.25355822 -0.18922633 0.012433492 0.17056978 -0.09266838 0.03486778 -0.031125689
-0.05391596 -0.12948123 -0.05748708 -0.13030563 0.0013370939 0.040188458 -0.18471615 -0.25177088

classifier.0.bias f4 [40]
00000000: cc19 073e 8c15 a3bd 83b4 233d d127 b8bd
00000010: 3fca 96bc b95d 75bd 254f df3d 4ef9 c2bd
00000020: ff77 8e3d 7dde c8bd dadf 79bd 5077 1e3b
00000030: c118 00bd 53c8 64bd c000 f4bc c9bc 08be
00000040: 7313 5b3d 0e4d a6ba 80ba a1bd da5d e0bd
00000050: d953 6dbb 226e 13bd ef17 43bd 4edb f43d
00000060: 1388 ca3c e3ee 973d 6de7 51bd ecd7 813c
00000070: 5e51 33bd adea d4bd b4a4 c43d 217c 7f3c
00000080: 98e0 613c a813 0ebe 52a9 553d 0f8f 823b
00000090: 2f69 c1bd 8ff8 0e3d 2a27 70bd aa35 b7bc
0.13193434 -0.07963094 0.03996707 -0.089919694 -0.018406985 -0.059903834 0.109037675 -0.09520207
0.06956481 -0.09808061 -0.061004497 0.0024180003 -0.031273607 -0.055855107 -0.029785514 -0.13353266
0.053485345 -0.0012687759 -0.078969 -0.10955401 -0.0036213307 -0.035993703 -0.047630247 0.119558915
0.024723088 0.07418611 -0.051246095 0.01585003 -0.04377877 -0.10396323 0.09601727 0.0155935595
0.0137864575 -0.13874686 0.05216343 0.003984339 -0.0944389 0.034905013 -0.0586311 -0.022364456
