Experiment/EEGClassification/classifier_LSTM_embed_128_ReLU_raw_test/model.pth (torch, 617165 bytes, 8 tensors)

backbone.lstm.weight_ih_l0 f4 [512, 128]
0	0x3c84e3a3	0.016221827
1	0xbc5899a3	-0.013220224
2	0x3c69fe02	0.014281752
3	0x3d8d7a9e	0.06908153
4	0x3d5dc535	0.05414315
5	0xbc4ee8b4	-0.012628723
6	0x3d61a51a	0.055089094
7	0x3d7b5ecb	0.0613697
8	0x3d85a343	0.0652528
9	0xbda1e9de	-0.07905935
10	0xbdb4bc09	-0.08824927
11	0x3bb247eb	0.005440702
12	0xbd0a3c41	-0.03374887
13	0x39fa91bf	0.00047792305
14	0xbb8dea6e	-0.0043309247
15	0xbd0d9410	-0.03456503
16	0xba343d90	-0.00068756286
17	0xba545aeb	-0.0008100706
18	0xb907ec45	-0.0001296262
19	0x3d1c482d	0.03815477
20	0x3b7872e9	0.0037910289
21	0x3d1378bb	0.03600381
22	0x3bdf2de0	0.0068108886
23	0xbd744a79	-0.059641335
24	0x3d8e2200	0.06940079
25	0xbd552530	-0.052037418
26	0x3d31365e	0.04326474
27	0xbce4d668	-0.027934268
28	0xbc08d5d1	-0.008351759
29	0x3c654e6a	0.013995746
30	0xbadbe291	-0.0016775896
31	0x3b325fc0	0.0027217716
32	0xbd44d953	-0.04805882
33	0xbca65b3e	-0.02030718
34	0xbd550feb	-0.052017134
35	0xbe04bee8	-0.1296345
36	0xbda6659a	-0.08124848
37	0x3c4962d2	0.012291627
38	0xbdde8943	-0.10866024
39	0xbdab6522	-0.08368899
40	0x3d634046	0.055481218
41	0xbdb94b07	-0.090475135
42	0xbd7303fa	-0.059329964
43	0xbd5dbaea	-0.054133333
44	0xbdfabfa9	-0.122435875
45	0x3cf83bff	0.030302046
46	0xbd83229b	-0.06403085
47	0xbd4e14c7	-0.050312784
48	0xbd1f6191	-0.038911406
49	0x3b81baf6	0.003959055
50	0xbd871145	-0.06595091
51	0x3c4c68ec	0.012476187
52	0xbd177fe9	-0.03698722
53	0xbdb65605	-0.08903126
54	0xbc4d5589	-0.0125326
55	0xbd88d906	-0.06682019
56	0xbdbcd00e	-0.09219371
57	0xbd898a74	-0.06715861
58	0xbcd0e1ce	-0.025498297
59	0x3c1e9834	0.009679843
60	0xbda9ea2f	-0.0829662
61	0xbb8c1a0b	-0.0042755655
62	0xbd089d7e	-0.03335332
63	0x3b97c9e0	0.0046322197
64	0x3d33719e	0.043809526
65	0xbc07af45	-0.008281534
66	0xbd312edb	-0.043257575
67	0xbca543ac	-0.02017387
68	0xbbe8d27a	-0.007105169
69	0x3d8afa06	0.067859694
70	0xbdfec911	-0.12440694
71	0xbdd6b6c3	-0.10484078
72	0xbd9b2641	-0.07575656
73	0xbdb54907	-0.088518195
74	0xbd1135d6	-0.035451733
75	0xbd1c16cd	-0.038107682
76	0xbd15cc25	-0.03657164
77	0xbd15bbe8	-0.036556154
78	0xbded4d42	-0.115870014
79	0x3cd5ec4a	0.026113648
80	0xbd884047	-0.06652885
81	0xbdafc84a	-0.08583124
82	0xbdcd9c1d	-0.10039542
83	0xbd800001	-0.06250001
84	0xbc3b584c	-0.011434626
85	0x3900d68c	0.00012286956
86	0xbc945773	-0.018108105
87	0xbd877881	-0.06614781
88	0xbd4f016a	-0.050538458
89	0xbc7eb81d	-0.015546826
90	0xbcd134cb	-0.025537869
91	0xbd3ae9e2	-0.045633204
92	0xbd8014e4	-0.062539846
93	0xbde6720e	-0.11252223
94	0xbbc5acdf	-0.0060325707
95	0x3cd461d3	0.025925552
96	0xbd5b2312	-0.053500243
97	0xbd95ae33	-0.073086165
98	0xbd2f0c93	-0.0427366
99	0xbcfa0a4a	-0.030522484
100	0x3b7af0e5	0.0038290557
101	0xbd444e77	-0.047926392
102	0xbc7e360e	-0.015515817
103	0xbc06c09b	-0.008224632
104	0x3c89cd38	0.016821489
105	0xbd81964d	-0.06327496
106	0x3dcd27c7	0.100173526
107	0xbd6acdcd	-0.057325173
108	0x3b4f1113	0.003159587
109	0x3dd1f019	0.10250873
110	0xbdbdacf5	-0.092615046
111	0xbd9972b3	-0.0749258
112	0x3a4f6c94	0.0007912603
113	0xbcb0c9e2	-0.02158064
114	0x3d443b5e	0.04790818
115	0x3c1a5e02	0.009421827
116	0xbda578ba	-0.080796674
117	0xbdcb6412	-0.09931196
118	0xbb39c17e	-0.002834409
119	0xbd46a5ec	-0.04849808
120	0xbdbb64c5	-0.0915008
121	0x3c30394c	0.010755848
122	0xbc46884e	-0.0121174585
123	0xbdeebfa8	-0.11657649
124	0x3d8fc36b	0.07019695
125	0x3bdb0bdb	0.006684763
126	0xbc6dd0a8	-0.01451508
127	0xbdc7b7c0	-0.097518444
128	0x3cf2a31c	0.029618792
129	0x3da4f277	0.08054059
130	0xbd552fbf	-0.052047487
131	0x3d1169d1	0.035501305
132	0x3bc6a709	0.0060623926
133	0x3cdfa8d2	0.02730218
134	0x3b8dec87	0.004331175
135	0x3d1cf4cb	0.03831939
136	0x3c1f170f	0.009710087
137	0xbd383bd0	-0.044978917
138	0xbca5131d	-0.020150715
139	0xbd9069ae	-0.07051407
140	0x3c3b274a	0.011422941
141	0x3c8bcc0d	0.017065072
142	0xbcbbebff	-0.02293968
143	0xbd3200d9	-0.04345784
144	0xbb7e6784	-0.0038819024
145	0xbd541c00	-0.051784515
146	0xbcb71e12	-0.022353206
147	0xbd8c14fc	-0.0683994
148	0xbd92c8ef	-0.07167231
149	0x3c79f619	0.015256428
150	0xbbf8a79c	-0.00758834
151	0xbca5f73a	-0.020259488
152	0x3ca01800	0.019542694
153	0x3da1f3c6	0.07907824
154	0xbd6d4360	-0.057925582
155	0xbd71b7bd	-0.059013117
156	0xbd205ef7	-0.039153066
157	0xbcd701d1	-0.026245983
158	0xbdb1b9b2	-0.08677997
159	0xbc96e4ec	-0.018419705
160	0xbd5cc06d	-0.05389445
161	0x3c346e0b	0.011012564
162	0xbc3a392e	-0.011366172
163	0x3c9f4e81	0.019446613
164	0xbd2ed9be	-0.042688124
165	0xbc888ba0	-0.01666814
166	0x3da74c09	0.081687994
167	0x3b75060d	0.003738764
168	0xbda2e3d6	-0.079536125
169	0xbd38a9ae	-0.045083694
170	0xbc61365b	-0.0137458695
171	0xbd2d4a79	-0.04230735
172	0xbcb84b9c	-0.02249699
173	0xbc8eae61	-0.017417135
174	0xbd18b13a	-0.03727839
175	0xbcae5468	-0.021280482
176	0xbd413b36	-0.04717561
177	0x3d402944	0.046914354
178	0xbccca69a	-0.024981786
179	0xbcccf20a	-0.025017757
180	0xbc9e8fee	-0.01935574
181	0xbcedfab5	-0.02905021
182	0x3c14019b	0.009033586
183	0xbc57470d	-0.013139498
184	0xbdacd9bd	-0.08439968
185	0xbd864c89	-0.06557567
186	0x3ce0935a	0.027414013
187	0x3c0d2f4a	0.008617232
188	0x3d47841e	0.04870998
189	0x3c386618	0.01125481
190	0xbd97e693	-0.074170254
191	0xbc3e4a00	-0.011614323
192	0xbd13954d	-0.036031056
193	0x3d331a6a	0.043726362
194	0xbd227ce9	-0.039669905
195	0xbbad7d27	-0.0052944603
196	0xbd5f8877	-0.054573502
197	0x3d27a7ee	0.040931635
198	0x3d5beb6a	0.053691305
199	0x3b151436	0.0022747642
200	0xbd9f9606	-0.077922866
201	0x3cf46f64	0.029838271
202	0x3d3e6de3	0.046491515
203	0x3c5f29f2	0.01362084
204	0xbdc00f1d	-0.09377883
205	0x3d89c9dd	0.067279555
206	0x3cb3ad6b	0.021933278
207	0xbd0a4657	-0.033758488
208	0xbd088215	-0.03332718
209	0x3c654b5b	0.013995017
210	0x3d5998c1	0.053124193
211	0xbd491381	-0.049090866
212	0x3b151445	0.0022747677
213	0x3cc97f7a	0.024596918
214	0xbc446c21	-0.011988671
215	0x3cf37587	0.029719127
216	0x3da165d7	0.078807525
217	0x3cc1cd39	0.023657428
218	0x3d94e125	0.072695054
219	0x3c9e9238	0.019356832
220	0xbda94e3d	-0.08266876
221	0xbb097372	-0.0020973352
222	0x3d30265d	0.043005336
223	0xbcaac5f8	-0.020846352
224	0xbdbe82ce	-0.09302293
225	0xbcb1c2f5	-0.021699408
226	0x3bd49ac4	0.006488176
227	0x3d8d425a	0.06897421
228	0x3d9c1e3d	0.07622955
229	0xbd4eaf1e	-0.050459974
230	0x3b998ae4	0.0046857465
231	0x3cf5981c	0.029979758
232	0x3d2a6750	0.041602433
233	0x3d6967a2	0.056983598
234	0xbca08c85	-0.019598255
235	0xbcb0f6ea	-0.021602113
236	0x3b9c38a6	0.004767495
237	0x3d120c98	0.03565654
238	0x3d9e918a	0.07742603
239	0xbd0d9324	-0.034564152
240	0xbd36315b	-0.044480663
241	0x3d8175ef	0.06321322
242	0x3d1f15b0	0.038839042
243	0xbb10c8a1	-0.002209224
244	0xbc5ce0ae	-0.013481302
245	0x3c59f433	0.013302851
246	0x3d095dc9	0.033536706
247	0x3c4d7c11	0.012541787
248	0xbda9522b	-0.082676254
249	0xbd8b8509	-0.06812484
250	0xbb8f173e	-0.0043667844
251	0xbd43826b	-0.0477318
252	0x3dd94290	0.10608399
253	0xbdb815fd	-0.08988569
254	0x3d240f35	0.040053565
255	0x3c83a3ab	0.016069254

backbone.lstm.weight_hh_l0 f4 [512, 128]
0	0x3bdbbe11	0.0067060073
1	0xbb9d6d97	-0.004804324
2	0xbc0c6196	-0.008568188
3	0x3c414b6e	0.011797769
4	0x39583726	0.0002061991
5	0xbc1082c9	-0.008820244
6	0xbc1b4f3c	-0.00947934
7	0xbb293eb4	-0.0025824727
8	0xbc04eee0	-0.008113593
9	0xbaa290b1	-0.001240274
10	0x3c06d63f	0.008229791
11	0x3b372082	0.002794296
12	0x3be819c8	0.0070831515
13	0x3a06b0f6	0.00051380636
14	0x39117053	0.00013870122
15	0xbc058337	-0.00814896
16	0xb8c2c234	-9.286814e-05
17	0xbc2f242d	-0.010689777
18	0xbb105ba7	-0.0022027285
19	0x3b7a4a82	0.0038191383
20	0x3894db27	7.09801e-05
21	0x3b247f9c	0.0025100475
22	0xbbff7abd	-0.007796614
23	0xbc5c8e1f	-0.013461619
24	0xbc8084b3	-0.015688276
25	0x3ae2a849	0.0017292585
26	0xbac24b74	-0.0014823512
27	0xbbeed02e	-0.0072880005
28	0xbb30bbc0	-0.0026967376
29	0xbba650c6	-0.005075547
30	0xbb27ba60	-0.0025593266
31	0x3bfa883f	0.0076456363
32	0x3c14802a	0.00906376
33	0xb97097dd	-0.00022944757
34	0x3bee462c	0.0072715487
35	0x3b3d890f	0.0028920805
36	0xb9b1f965	-0.00033945884
37	0xbabcdd19	-0.0014409154
38	0x3a8a953e	0.0010573042
39	0xbbfe3269	-0.007757474
40	0xbb614b08	-0.0034376998
41	0xba9831be	-0.0011611504
42	0x3ba05bea	0.0048937695
43	0xbb5e28fe	-0.0033898945
44	0x3b2a63f9	0.002599953
45	0xbc3ac826	-0.011400258
46	0x38611d43	5.3671432e-05
47	0x3989811e	0.00026226876
48	0x3c3af69f	0.011411338
49	0x3c198b05	0.009371524
50	0xbc298171	-0.010345803
51	0x3b0c8ee2	0.002144747
52	0xbb611514	-0.003434484
53	0xbb84fe7d	-0.0040586577
54	0xbbec7918	-0.007216584
55	0xbb672cc3	-0.0035274483
56	0xba3bb167	-0.0007159919
57	0x3bdd7a10	0.0067589357
58	0x3c5836c5	0.013196652
59	0x3bc5b501	0.0060335402
60	0xbc879d8b	-0.016554615
61	0xbc6fe710	-0.014642492
62	0xba7b714f	-0.00095917744
63	0xbb3204fe	-0.002716362
64	0x3b2aee95	0.0026082147
65	0x3c22e3e1	0.009942026
66	0xba192c8b	-0.0005843124
67	0x32ca729a	2.356801e-08
68	0x3bbdd474	0.0057931487
69	0x3b5154d0	0.0031941421
70	0x3a634654	0.00086698425
71	0xbac2fd81	-0.0014876575
72	0x3bb841c7	0.0056230756
73	0xbc20fef0	-0.009826407
74	0x3be97f61	0.0071257805
75	0x3ae0605c	0.0017118561
76	0x3b93ff7a	0.004516539
77	0xbb2ea202	-0.0026646857
78	0xbc0e4126	-0.008682525
79	0x38b1a7b2	8.4712534e-05
80	0xbc092fcb	-0.008373211
81	0xbc10b9f7	-0.0088334
82	0x38ae2221	8.3033236e-05
83	0x3c4bdb6d	0.012442452
84	0xbb55a0fe	-0.003259718
85	0xbb0dae93	-0.0021618947
86	0xb9fae116	-0.00047851418
87	0xba94a8a9	-0.0011341769
88	0xbb5559bf	-0.0032554714
89	0xbac4abec	-0.001500485
90	0xbc5a6854	-0.013330538
91	0x39610150	0.00021458161
92	0xbc09c378	-0.00840842
93	0xbc025122	-0.007953914
94	0x3b6b55fc	0.0035909405
95	0xbb4de69e	-0.0031417976
96	0x3bde7b7e	0.0067896238
97	0x3b195918	0.0023399051
98	0x3baf79d8	0.005355101
99	0x3b90804d	0.004409826
100	0xb98dc0f5	-0.0002703738
101	0xbb0b108d	-0.0021219582
102	0x39bbdb7c	0.00035830948
103	0xbc56f6dd	-0.01312038
104	0xbc29e9dd	-0.010370699
105	0x3c2321da	0.009956801
106	0xb8bccf90	-9.0032e-05
107	0xbc92a586	-0.017901193
108	0x3b846e74	0.0040414874
109	0xbb956b05	-0.004559877
110	0xbb26a279	-0.002542643
111	0x3a8ec519	0.001089248
112	0x3a99670b	0.0011703683
113	0x3b846350	0.0040401593
114	0xb8cfecf4	-9.914665e-05
115	0xbb0289ec	-0.0019918634
116	0xbafe92c4	-0.0019422402
117	0x3bb31b4a	0.0054658996
118	0x3a4f05c4	0.00078972825
119	0x3b2e7906	0.0026622429
120	0xb9260e2b	-0.00015836272
121	0xbbec02ba	-0.0072024735
122	0xbc1f7909	-0.009733447
123	0x3a644afb	0.0008708683
124	0xbb8aefb4	-0.0042400006
125	0x3a690478	0.00088889105
126	0x3aee9e86	0.0018205203
127	0xbc01072a	-0.007875243
128	0xaf126a02	-1.3316284e-10
129	0x34287427	1.5688475e-07
130	0x354187f9	7.209597e-07
131	0x3a791b54	0.00095026684
132	0x33e77578	1.0778143e-07
133	0xba862530	-0.0010234471
134	0xb1ab9b87	-4.9944364e-09
135	0xb495afce	-2.7881327e-07
136	0x33663167	5.359598e-08
137	0x371739ff	9.013805e-06
138	0x3938dd61	0.00017630077
139	0x31b1c0dc	5.1733036e-09
140	0x3a304739	0.000672448
141	0xb139415a	-2.6958191e-09
142	0xab8c2841	-9.958771e-13
143	0xb725ed99	-9.890086e-06
144	0xb9a96a73	-0.00032313503
145	0xb9a90f96	-0.00032245804
146	0xb40b4382	-1.2969943e-07
147	0xba7bc5ff	-0.0009604394
148	0x3031f013	6.473339e-10
149	0xb4937e1a	-2.7472635e-07
150	0xba16f0b7	-0.0005757915
151	0x3424f58a	1.5363017e-07
152	0xb9257872	-0.00015780496
153	0x3a6b5b35	0.00089781295
154	0x2e85515c	6.062592e-11
155	0xb7bdd047	-2.2627542e-05
156	0xb2c9d048	-2.3494195e-08
157	0xba7444c5	-0.0009318109
158	0x3a127d71	0.000558815
159	0x363e7657	2.838109e-06
160	0xb7c67dc7	-2.3662009e-05
161	0x35a8ce9e	1.2577109e-06
162	0x3409ec21	1.2845022e-07
163	0x3a961a67	0.001145196
164	0xad105b61	-8.2057425e-12
165	0xb76b143b	-1.4011802e-05
166	0xb5b6c61d	-1.3617715e-06
167	0x39a98541	0.00032333474
168	0x353831d2	6.861784e-07
169	0xb5c87f32	-1.493818e-06
170	0x31b3fba9	5.238196e-09
171	0x350f6cb1	5.342982e-07
172	0x39b36956	0.00034220022
173	0xbaa48543	-0.0012551922
174	0xb3ebdd85	-1.09833344e-07
175	0x30d4b1e6	1.5475592e-09
176	0x3a88570b	0.0010401917
177	0x3a0eb0c2	0.0005443209
178	0x3a8a40a1	0.0010547825
179	0xba431477	-0.0007441709
180	0x370b3804	8.298088e-06
181	0xb94c4a7d	-0.00019482705
182	0xb2a0d352	-1.8722549e-08
183	0xba8256c3	-0.000994407
184	0x314d988d	2.9918141e-09
185	0xb41d57fc	-1.4653773e-07
186	0x39991fe9	0.0002920621
187	0xb652b947	-3.1400284e-06
188	0xb99e4177	-0.00030184884
189	0x37975b81	1.8043213e-05
190	0x394b1bf1	0.00019369998
191	0xba6e7340	-0.0009096153
192	0x345db80a	2.0649182e-07
193	0x39efb198	0.0004571795
194	0x361a78b6	2.3018051e-06
195	0xb5940f63	-1.1031337e-06
196	0x3a25a33e	0.00063185755
197	0xb9d120a7	-0.00039887914
198	0xb417f9e7	-1.4153885e-07
199	0xb3f9184e	-1.1599387e-07
200	0x33e6b289	1.0742685e-07
201	0x30a5edc4	1.2072907e-09
202	0xb40c0896	-1.304164e-07
203	0xb20a9b44	-8.0679605e-09
204	0x3097bee4	1.104095e-09
205	0xb09c52fe	-1.1374082e-09
206	0x327e716c	1.4810535e-08
207	0xb3d6f261	-1.000924e-07
208	0x37c1cbf4	2.3102366e-05
209	0xb9f89b0c	-0.00047417765
210	0xb6379002	-2.7352949e-06
211	0xb133dec5	-2.6174558e-09
212	0xba06bf01	-0.0005140156
213	0x23f31176	2.6353508e-17
214	0x33fe3ae2	1.18385074e-07
215	0xb997dc7b	-0.00028965235
216	0x38f13d82	0.00011503232
217	0x341eb967	1.4782346e-07
218	0x39c0b51c	0.0003675603
219	0xb41f6476	-1.4844576e-07
220	0xb701a97c	-7.72846e-06
221	0xba671c4c	-0.0008816167
222	0xb078e01c	-9.0540353e-10
223	0xb7874c71	-1.612885e-05
224	0x3333cf6f	4.1865345e-08
225	0xba58a18c	-0.00082638185
226	0x3a1359c7	0.0005620983
227	0x32a38971	1.9038199e-08
228	0xb5adc1f6	-1.2945954e-06
229	0x36c5854b	5.886575e-06
230	0x2e8ae286	6.315752e-11
231	0xb9ca05aa	-0.00038532662
232	0xb9c7f9c3	-0.00038142325
233	0x39810386	0.00024607423
234	0xb531e333	-6.6268257e-07
235	0xba2b97a1	-0.0006545727
236	0x392ec166	0.0001666598
237	0x35fd23f0	1.8860428e-06
238	0x3a7ab0c6	0.00095630845
239	0x3a221b74	0.00061839004
240	0xb97ae241	-0.00023926144
241	0xb2b95751	-2.1576541e-08
242	0xb3df5efb	-1.04015236e-07
243	0xba94f1f0	-0.0011363607
244	0x3a157c20	0.0005702395
245	0xb99d7643	-0.00030033485
246	0x39d483d5	0.00040534014
247	0x367a9930	3.734207e-06
248	0x392c1606	0.00016411403
249	0xb41de3c6	-1.4704628e-07
250	0xba529b9b	-0.0008034051
251	0xb215895d	-8.704174e-09
252	0x340c1c11	1.3048727e-07
253	0xb3e9f64a	-1.0894708e-07
254	0xb88fc14b	-6.854775e-05
255	0x36d6a3ca	6.3967645e-06

backbone.lstm.bias_ih_l0 f4 [512]
0	0xbc3e456a	-0.011613229
1	0xbaa63e99	-0.001268345
2	0x3c05f712	0.008176582
3	0xbade2b1b	-0.0016950102
4	0x3c595f5d	0.013267365
5	0xbc851d83	-0.016249424
6	0x38823662	6.209013e-05
7	0xbc41c578	-0.011826865
8	0x3bed5ff1	0.007244103
9	0x3ca9e3be	0.020738479
10	0xbb5e82e9	-0.003395254
11	0x3c829d8d	0.015944267
12	0x3c7a8d97	0.015292547
13	0x3aaf71c8	0.001338535
14	0x3b4769eb	0.0030428122
15	0x3ba4e1e2	0.00503181
16	0x3c790595	0.015199085
17	0xbc5501a9	-0.013000884
18	0x3c11deb8	0.008903198
19	0x3a234d61	0.0006229487
20	0x3b57f799	0.0032953976
21	0xb9d1bca0	-0.00040004123
22	0x3b96e746	0.0046052067
23	0xbac45dc8	-0.0014981562
24	0x3a0760ea	0.00051642826
25	0x38ee75a7	0.00011370639
26	0x3b5a1a04	0.0033279667
27	0xbaa4eb92	-0.0012582412
28	0x3b95d9fd	0.0045731054
29	0x3b85d7dd	0.004084571
30	0xbaf1d700	-0.0018450916
31	0x3c297b29	0.010344305
32	0x3bfcdbe8	0.0077166446
33	0x3bbc7223	0.005750911
34	0x3b1f3775	0.002429453
35	0x3ad9728b	0.0016589923
36	0xbc008140	-0.007843316
37	0xb9d5ab32	-0.00040754076
38	0xbb1327b6	-0.002245409
39	0x3c620fa4	0.013797674
40	0x3b39661e	0.0028289626
41	0x39314288	0.0001690482
42	0x3a0b3aee	0.00053112104
43	0x3bf1d83c	0.0073805135
44	0x3c303dcf	0.010756924
45	0xb96c71a9	-0.00022549056
46	0xba17117e	-0.00057627994
47	0x3b80e1e0	0.0039331764
48	0x3b4d53a7	0.0031330378
49	0xbc17f03f	-0.009273588
50	0x3c79a235	0.015236427
51	0x3b80d2ef	0.0039313952
52	0xbc5bd4f1	-0.013417468
53	0x3b458c65	0.0030143496
54	0xbb4cf7e1	-0.0031275677
55	0xbc1ee7c1	-0.009698809
56	0x3c55c304	0.013046984
57	0x3964db24	0.0002182541
58	0x3d3ea9ac	0.04654853
59	0x3b136467	0.0022490264
60	0xbb775b5e	-0.0037743668
61	0x3ad8ee6e	0.001655055
62	0x3a2e23b9	0.00066428963
63	0x3bd2b1a8	0.0064298697
64	0x3a8ba54e	0.0010654123
65	0xbb27254b	-0.0025504406
66	0xbab5529d	-0.0013833825
67	0xbb374516	-0.0027964762
68	0x3be25d07	0.0069080624
69	0x3b7c052c	0.003845523
70	0x3c1f878a	0.009736905
71	0x3bd62b17	0.0065358984
72	0xbbc09fa7	-0.005878407
73	0xbaecc684	-0.0018064533
74	0x3ba3cebe	0.004999011
75	0x3c28d246	0.010304039
76	0x39932288	0.00028063753
77	0xba9b1719	-0.0011832445
78	0x3b982578	0.0046431385
79	0xbbb2d5cb	-0.005457615
80	0xbc93c3d8	-0.018037722
81	0x3a8820f1	0.0010385794
82	0x3b6b326f	0.0035888215
83	0xbacb7453	-0.0015522338
84	0x3b8448cb	0.004036998
85	0xbb7f9980	-0.0039001405
86	0x3a08032c	0.0005188461
87	0x3c2ec2a1	0.01066652
88	0xbb353df1	-0.0027655328
89	0xbb396f63	-0.0028295151
90	0x3bed8964	0.0072490443
91	0x3bd268e1	0.006421194
92	0xbb9833eb	-0.004644861
93	0x3b831e4e	0.0040014153
94	0xbbab42bb	-0.0052264608
95	0x398fcaf7	0.00027426306
96	0x3c564ae2	0.013079377
97	0x3c2577df	0.01009938
98	0xbc7045b2	-0.014665054
99	0xb9a5ddb1	-0.00031636425
100	0x3c8703c2	0.016481284
101	0xbc7365ec	-0.014855843
102	0xba2de657	-0.00066337496
103	0x3ab627a8	0.0013897317
104	0xba1eae0a	-0.00060531555
105	0x3b578daf	0.0032890846
106	0xb9d7f38a	-0.00041189446
107	0xbb4dcbe9	-0.0031402058
108	0xba728e3a	-0.0009252761
109	0x3b03ae7d	0.0020093017
110	0x3a6b476b	0.00089751807
111	0x3c204e9c	0.009784367
112	0xbb32e088	-0.0027294476
113	0x3b7d39e9	0.0038639253
114	0xba590a8a	-0.00082794635
115	0xbc057b34	-0.00814705
116	0x3c292fc9	0.010326334
117	0x3b5c0af2	0.003357586
118	0xbb22db98	-0.0024850126
119	0xbb431a90	-0.002977047
120	0x3b6e9adf	0.0036408228
121	0x3c0c43e2	0.008561106
122	0xbb89e9c5	-0.0042087757
123	0x3b4c331a	0.0031158389
124	0x3c435c01	0.011923791
125	0x3bae803e	0.0053253463
126	0x3c7d7e84	0.015472058
127	0xbca8b8ef	-0.020595996
128	0xb9892b3d	-0.0002616289
129	0xbb3c8ce5	-0.0028770503
130	0xbb2d8e49	-0.0026482514
131	0x3bd8aaf6	0.006612177
132	0x3b5f2e7f	0.0034054813
133	0x3cc6af22	0.024253432
134	0xbcb5c873	-0.022190308
135	0xbbf32a07	-0.0074207815
136	0xba2397dc	-0.00062405854
137	0x3c9ab8f0	0.018887013
138	0x3a32ac3d	0.00068158266
139	0xbb31b5d7	-0.0027116442
140	0xbc2c5bcb	-0.010519932
141	0xbb51ed6b	-0.0032032381
142	0x3c137c3e	0.00900179
143	0xb759de74	-1.2986002e-05
144	0xbc6cc66b	-0.014451603
145	0x39cebd8b	0.00039432602
146	0x3b768ed0	0.0037621744
147	0x3cf4d0b3	0.029884672
148	0xbb1d963d	-0.0024045848
149	0x3a9b8e7a	0.0011868023
150	0x3b2e399d	0.0026584633
151	0xbb991d6c	-0.004672697
152	0xbbbc32ac	-0.0057433452
153	0x3baa8594	0.005203912
154	0x3c04ac13	0.008097666
155	0x3c852623	0.016253537
156	0xb9a97e21	-0.00032328165
157	0x3bbc8779	0.0057534543
158	0x3c85f77c	0.016353361
159	0x3bf0d786	0.007349911
160	0xb9f3d844	-0.00046509702
161	0x3be8100d	0.0070819915
162	0x3ae9bb95	0.0017832393
163	0xbb355eff	-0.002767503
164	0xbc70d485	-0.014699106
165	0x3bcb8a98	0.00621159
166	0x3affb5b1	0.0019509104
167	0x3c934680	0.017977953
168	0xbbd2483f	-0.006417304
169	0xbabb28ca	-0.0014279124
170	0x3c9ebc37	0.019376857
171	0x3ac30bc4	0.0014880826
172	0x3af0a92c	0.0018360964
173	0x3b451451	0.0030071924
174	0xbb173630	-0.002307307
175	0x3774e5e2	1.4597057e-05
176	0x3b4027b1	0.0029320533
177	0x3c3c28a8	0.011484303
178	0x3c040f97	0.0080603575
179	0x3ba2039c	0.004944278
180	0xba0dcb48	-0.00054090144
181	0x3c06dce3	0.008231374
182	0xba387202	-0.00070360315
183	0x3c923f2e	0.017852392
184	0xbbc3b9db	-0.0059730834
185	0xbb6b3400	-0.0035889149
186	0xbaf30a71	-0.001854254
187	0x3a4f7766	0.0007914215
188	0x3abbb5f2	0.0014321192
189	0x3c534136	0.0128939655
190	0x3be8fb15	0.0071100094
191	0x3bf914c0	0.0076013505
192	0xbc13a7bd	-0.00901216
193	0x3bbb2a6d	0.0057118447
194	0x3b387b34	0.0028149607
195	0xb6fd410d	-7.5475605e-06
196	0x3cde876d	0.027164185
197	0xb9023500	-0.0001241751
198	0xbc1751e3	-0.009235832
199	0x3a1b67f2	0.000592827
200	0x3b300b54	0.002686222
201	0xbb4287dc	-0.002968303
202	0xbae7d866	-0.0017688393
203	0x3babe785	0.005246105
204	0xbc090255	-0.008362372
205	0xba73ea5e	-0.0009304638
206	0x39d0a6af	0.0003979704
207	0xbac4630f	-0.0014983135
208	0xba150eaa	-0.0005686084
209	0x3b4a7e26	0.0030897944
210	0xba83fbb4	-0.001006952
211	0x3b5406c5	0.0032352668
212	0x3c81352e	0.015772428
213	0xb791a1c8	-1.7360682e-05
214	0x3938e4ef	0.00017632892
215	0xbcbe02cf	-0.023194699
216	0xbab08ff8	-0.001347064
217	0x378bea2d	1.6679138e-05
218	0xbb03670a	-0.002005043
219	0xbbb3cd40	-0.005487114
220	0xb184bec4	-3.863393e-09
221	0x3b793738	0.0038027298
222	0xbc906317	-0.017625375
223	0x3a8443e3	0.0010091033
224	0x3c54bcf0	0.012984499
225	0xba2ec322	-0.00066666503
226	0x3c3a4452	0.011368828
227	0x3b9bb385	0.004751625
228	0x3b70f1cf	0.0036765223
229	0x3c03da89	0.008047708
230	0xb6208123	-2.3917025e-06
231	0x3b8b0fc4	0.004243823
232	0x3cc2de41	0.02378762
233	0x3b366119	0.002782887
234	0x3ae896a7	0.0017745093
235	0x3a939581	0.0011259766
236	0x3c4da87a	0.012552375
237	0x3bc45239	0.005991247
238	0x3982621b	0.00024868626
239	0x3c7466de	0.014917104
240	0x3af43f6c	0.0018634624
241	0xba97d679	-0.0011584304
242	0x3a166397	0.0005736886
243	0x3cdb832f	0.026795952
244	0x3c6619ee	0.014044268
245	0x3c11de37	0.008903078
246	0x3a066f10	0.0005128244
247	0x3bedd96f	0.007258586
248	0xbb980458	-0.0046391897
249	0xbabfbac4	-0.0014627804
250	0x3bf2cc2b	0.0074095926
251	0x3bafcd13	0.005365023
252	0x3af38429	0.0018578816
253	0xbc04fd43	-0.008117023
254	0x3c165013	0.009174365
255	0xbabe56f5	-0.0014521765

backbone.lstm.bias_hh_l0 f4 [512]
0	0xbc3e849f	-0.011628299
1	0xbaa5a979	-0.0012639008
2	0x3c060ae9	0.008181312
3	0xbad32440	-0.0016108826
4	0x3c595d0b	0.013266812
5	0xbc91136e	-0.01770946
6	0x3865ba32	5.4771263e-05
7	0xbc419d7b	-0.011817331
8	0x3bf0d038	0.0073490404
9	0x3cb40c0e	0.021978404
10	0xbb5ea1e8	-0.0033971015
11	0x3c8291bb	0.01593863
12	0x3c74389b	0.014906074
13	0x3aaf72af	0.0013385619
14	0x3b4f5d0a	0.003164115
15	0x3ba4eb39	0.0050329235
16	0x3c78e44d	0.01519115
17	0xbc54ef60	-0.012996525
18	0x3c12da67	0.008963204
19	0x3b238c2b	0.0024955373
20	0x3b450666	0.0030063628
21	0xb9a1dc7d	-0.0003087259
22	0x3b969996	0.0045959456
23	0xbac1f75c	-0.001479845
24	0x3a147d29	0.0005664402
25	0x38ec88f6	0.00011278868
26	0x3b633724	0.0034670318
27	0xbaa4d20d	-0.0012574807
28	0x3b96c29d	0.0046008364
29	0x3b886265	0.00416212
30	0xbb0ae5ee	-0.0021194178
31	0x3c23f394	0.010006804
32	0x3bfcdf7f	0.0077170725
33	0x3bba411e	0.005684032
34	0x3b32ae1e	0.0027264426
35	0x3a9593cf	0.0011411848
36	0xbbff5652	-0.0077922726
37	0xb9fc2ad9	-0.0004809711
38	0xbb1b12ab	-0.002366225
39	0x3c601957	0.0136779165
40	0x3a88f304	0.0010448401
41	0x39a4ec17	0.00031456418
42	0xbab0d2f0	-0.0013490599
43	0x3bf1d6f2	0.00738036
44	0x3c34f886	0.011045581
45	0xb9af1d99	-0.00033400653
46	0xba164f31	-0.00057338463
47	0x3b80d9c0	0.003932208
48	0x3b4e75ef	0.00315034
49	0xbc1dbeec	-0.009628039
50	0x3c7f65cb	0.015588234
51	0x3b850660	0.004059598
52	0xbc57ea0d	-0.013178361
53	0x3b4787f5	0.0030446027
54	0xbb4d0e47	-0.0031289028
55	0xbc30746a	-0.010769943
56	0x3c4a172a	0.012334624
57	0x39638716	0.0002169873
58	0x3d3e1d34	0.04641457
59	0x3b132477	0.0022452155
60	0xbb80987d	-0.003924428
61	0x3adf5fe2	0.0017042125
62	0x390cd79f	0.00013431766
63	0x3bd0492a	0.006356378
64	0x3a8e0f1e	0.0010838246
65	0xbb26fc12	-0.0025479835
66	0xbaf24cad	-0.0018485986
67	0xbb35c65a	-0.0027736635
68	0x3b05056c	0.002029742
69	0x3b7bfec6	0.0038451417
70	0x3c1faf9b	0.009746457
71	0x3bd6266a	0.006535341
72	0xbbc09ee5	-0.0058783167
73	0xbaedea04	-0.0018151407
74	0x3ba3d5c5	0.0049998485
75	0x3c14b43d	0.009076175
76	0x3927ad0a	0.00015990823
77	0xba9b3420	-0.0011841096
78	0x3b97f6b1	0.004637562
79	0xbbb7bf51	-0.0056075235
80	0xbc93c590	-0.018038541
81	0x3a884467	0.0010396362
82	0x3b6b3c83	0.0035894222
83	0xbacb9e3b	-0.0015534827
84	0x3b846ff2	0.0040416652
85	0xbb803c98	-0.0039134733
86	0x3a080359	0.0005188487
87	0x3c2d3a20	0.01057294
88	0xbb3e6efd	-0.0029057853
89	0xbb39c801	-0.0028347971
90	0x3bed59f5	0.0072433897
91	0x3bd063ad	0.0063595385
92	0xbb9926dd	-0.0046738223
93	0x3b831e2d	0.0040014
94	0xbbab42c2	-0.005226464
95	0x398ecdeb	0.0002723777
96	0x3c0820ad	0.008308572
97	0x3c254b58	0.010088764
98	0xbc704578	-0.014665
99	0xb9a62baf	-0.00031694534
100	0x3c8695be	0.016428825
101	0xbc8384d0	-0.01605454
102	0xba2de51a	-0.0006633565
103	0x3ab1e5cc	0.0013572513
104	0x3aabb0df	0.0013098976
105	0x3b57cf9e	0.0032930146
106	0xb9d8ac64	-0.00041327171
107	0xbb5991d1	-0.0033198486
108	0xba72e3e7	-0.00092655275
109	0x3b06d8ea	0.0020576068
110	0x3a6b6dcb	0.0008980899
111	0x3c2015d9	0.009770834
112	0xbb1dd13b	-0.002408101
113	0x3b8626d6	0.004093985
114	0xba4b6d0a	-0.00077600835
115	0xbc087183	-0.008327845
116	0x3c2c2d16	0.010508796
117	0x3b5993e7	0.003319973
118	0xbb26f0b0	-0.002547305
119	0xbb67038a	-0.0035249912
120	0x3b69754d	0.0035622895
121	0x3c0b28e0	0.008493632
122	0xbb8b1d10	-0.004245408
123	0x3b54ba51	0.0032459686
124	0x3c43093e	0.011904059
125	0x3baf58a1	0.0053511416
126	0x3c78ed6f	0.015193327
127	0xbca8bbe9	-0.020597415
128	0xb989171c	-0.00026147894
129	0xbb3c96e4	-0.0028776461
130	0xbb2da0a7	-0.0026493461
131	0x3bd8ac4a	0.0066123353
132	0x3b5f4a7b	0.0034071493
133	0x3cc6636e	0.024217334
134	0xbcb5e49e	-0.02220374
135	0xbbf20ad7	-0.007386546
136	0xba246f08	-0.00062726485
137	0x3c9a4b14	0.018834628
138	0x3a3010bb	0.000671636
139	0xbb31b450	-0.0027115531
140	0xbc2bea03	-0.010492804
141	0xbb50d668	-0.0031866077
142	0x3c21604e	0.009849621
143	0xb7a75d19	-1.9951303e-05
144	0xbc5ffd22	-0.013671191
145	0x38cfc0b4	9.906423e-05
146	0x3b632ed2	0.0034665358
147	0x3cfcdef5	0.030868033
148	0xbb1d9a5d	-0.0024048307
149	0x3aa860e0	0.0012846254
150	0x3b2dfa8d	0.0026547045
151	0xbb992b66	-0.004674363
152	0xbbbbdfbb	-0.005733458
153	0x3ba2a8c4	0.004963966
154	0x3c04aca8	0.008097805
155	0x3c852537	0.016253097
156	0xb9a98c0d	-0.00032338538
157	0x3bbd39d6	0.005774717
158	0x3c9f97df	0.019481597
159	0x3bf0e9d2	0.0073520923
160	0xb9ebb9c4	-0.000449611
161	0x3be8106b	0.0070820353
162	0x3aef45cc	0.0018255054
163	0xbb355b7a	-0.0027672932
164	0xbc70db04	-0.014700655
165	0x3bc195aa	0.005907734
166	0x3affaed9	0.0019507065
167	0x3c932d32	0.017965887
168	0xbbd146f7	-0.0063866335
169	0xbaa911ff	-0.001289904
170	0x3c9ec023	0.019378727
171	0x3abe9bda	0.0014542297
172	0x3af0b6a6	0.001836498
173	0x3b416788	0.0029511172
174	0xbb1735ee	-0.0023072916
175	0x3776e667	1.4716387e-05
176	0x3b3e9acf	0.0029083972
177	0x3c3d4e99	0.011554384
178	0x3c025e22	0.007957013
179	0x3ba1feed	0.0049437196
180	0xba0d851d	-0.00053985586
181	0x3c022c65	0.007945155
182	0xba387238	-0.0007036063
183	0x3c94c117	0.018158479
184	0xbbc43e2f	-0.005988858
185	0xbb6b35ed	-0.0035890297
186	0xbaf7f241	-0.0018916802
187	0x3a4f774f	0.00079142017
188	0x3ac2b7ea	0.0014855836
189	0x3c526b1d	0.012842921
190	0x3be92565	0.0071150535
191	0x3bf69024	0.007524507
192	0xbc139a36	-0.009008935
193	0x3bbc3c1e	0.005744471
194	0x3b4453f9	0.0029957278
195	0xb7006c14	-7.654558e-06
196	0x3cdf34b7	0.027246816
197	0xb9028b2a	-0.00012449609
198	0xbc175222	-0.009235891
199	0x3a1b67da	0.0005928256
200	0x3b300b34	0.0026862146
201	0xbb42cf8d	-0.002972576
202	0xbae7a810	-0.0017673988
203	0x3ba63463	0.005072163
204	0xbc08bdad	-0.0083460035
205	0xba7562f1	-0.0009360752
206	0x39cf2d2f	0.0003951578
207	0xbac2f84c	-0.0014875024
208	0xb9f5b904	-0.0004686789
209	0x3b4a9710	0.0030912794
210	0xba8354cb	-0.0010019777
211	0x3b541fc8	0.0032367576
212	0x3c8134f0	0.015772313
213	0xb7947219	-1.7696106e-05
214	0x392f6da3	0.00016730143
215	0xbcbd85f9	-0.023135172
216	0xbab846c3	-0.0014059175
217	0xb6e1f3f4	-6.7339224e-06
218	0xbb0342d6	-0.002002885
219	0xbbb13d6a	-0.0054089325
220	0xb18779e6	-3.9428754e-09
221	0x3b79bcaa	0.0038106837
222	0xbc906191	-0.017624648
223	0x3a8419dc	0.0010078507
224	0x3c52b38e	0.012860192
225	0xb9bd216b	-0.00036073787
226	0x3c3c7537	0.011502556
227	0x3b9bb3d5	0.0047516623
228	0x3b6cb106	0.0036116256
229	0x3c22f851	0.009946899
230	0xb620949f	-2.3928367e-06
231	0x3b8b0148	0.004242096
232	0x3c6a281f	0.014291792
233	0x3b36614d	0.0027828992
234	0x3ae8a195	0.001774835
235	0x3a96a019	0.0011491805
236	0x3c4da9bc	0.012552675
237	0x3bc45254	0.0059912596
238	0x3980c354	0.00024559593
239	0x3c762cc3	0.01502532
240	0x3afe40b7	0.0019397949
241	0xba8f3e5c	-0.0010928619
242	0x3a168cbf	0.00057430187
243	0x3cdedf2a	0.027206022
244	0x3c65f49c	0.01403537
245	0x3c10999f	0.008825689
246	0x3a066f7a	0.00051283056
247	0x3beed80e	0.0072889393
248	0xbb98a0ce	-0.0046578413
249	0xbabfbb37	-0.0014627938
250	0x3bf2cffd	0.007410048
251	0x3baf944b	0.005358254
252	0x3af38b0e	0.001858087
253	0xbc050d38	-0.008120827
254	0x3c167373	0.009182799
255	0xbabe57ee	-0.0014522055

backbone.output1.weight f4 [128, 128]
0	0xbe2aa498	-0.1666435
1	0xbda6175f	-0.081099264
2	0xbcd44cd0	-0.025915533
3	0xbc3082cf	-0.010773375
4	0xbe501acd	-0.20322724
5	0x3e3306be	0.1748304
6	0x3d45f26d	0.0483269
7	0x3e1cbf9b	0.15307467
8	0x3d81e2d9	0.06342096
9	0xbea1d7e2	-0.31610018
10	0xbe6f4d6a	-0.23369375
11	0x3dc9e2b7	0.098576955
12	0x3d060c44	0.03272654
13	0x3e3e2e72	0.18572405
14	0xbddd2320	-0.10797715
15	0x3e1b116d	0.15143366
16	0x3cc6b723	0.024257248
17	0x3df3cfe5	0.11904887
18	0x3e3dece1	0.18547393
19	0x3ee4ec14	0.44711363
20	0xbd1cb06d	-0.03825419
21	0xbd71eb86	-0.059062503
22	0xbcdf9aba	-0.027295459
23	0x3d7b8b30	0.061412036
24	0x3e5cfad5	0.2158006
25	0xbd76f2bc	-0.060290083
26	0xbe7fd2a6	-0.249827
27	0xbe02ad9d	-0.1276154
28	0x3e1e2eb5	0.15447505
29	0x3e276f3d	0.16351028
30	0xbe4dd46f	-0.20100568
31	0x3e6bd380	0.230299
32	0xbddbbb71	-0.10729111
33	0xbe3850a2	-0.17999509
34	0xbe50f89e	-0.2040734
35	0xbc91bf0a	-0.01779129
36	0x3df1f889	0.118149824
37	0xbe9d8732	-0.30767208
38	0xbe0f4f8f	-0.13995193
39	0xbdb40603	-0.08790209
40	0x3e035c5f	0.12828206
41	0xbdb18d57	-0.086695366
42	0x3ce51406	0.02796365
43	0xbe06f986	-0.13181123
44	0xbca109bd	-0.019657964
45	0x3e53f98b	0.20700662
46	0xbdbb2b0f	-0.09139072
47	0xbdcd3586	-0.100199744
48	0xbdd314ff	-0.10306739
49	0x3eb3250e	0.34989208
50	0xbe94bfe9	-0.29052666
51	0x3e25a95e	0.1617789
52	0xbdbc9a40	-0.09209108
53	0xbe6d8b83	-0.23197751
54	0x3dcdbf9a	0.10046311
55	0xbdd259d0	-0.102710366
56	0xbdcafe62	-0.09911801
57	0x3d9c4312	0.0762998
58	0x3e51643e	0.20448396
59	0xbd42a100	-0.047516823
60	0xbdcea4c9	-0.10090024
61	0x3e349c44	0.17637736
62	0xbde6869a	-0.11256142
63	0x3ea24bfc	0.31698596
64	0x3dfb3269	0.12265474
65	0xbe2073ed	-0.15669222
66	0xbea21372	-0.3165546
67	0xbe12f1b0	-0.14350009
68	0xbe329d30	-0.17442775
69	0x3ead4c0c	0.33847082
70	0x3e081acd	0.13291474
71	0x3e0dc085	0.13842972
72	0x3c81f43a	0.015863527
73	0x3d8ec66c	0.0697144
74	0xbc8bc1bf	-0.017060159
75	0x3da36691	0.07978547
76	0xbd8532bf	-0.0650382
77	0xbc3e1e19	-0.0116038555
78	0x3e4665cb	0.19374768
79	0xbdb365e0	-0.087596655
80	0x3e971296	0.29506367
81	0x3ec07b09	0.37593868
82	0xbb26fc9e	-0.0025480161
83	0x3d48d663	0.04903258
84	0x3e2da800	0.16958618
85	0xbe28fca5	-0.16502626
86	0xbba6083e	-0.0050669005
87	0x3e8f67b6	0.28008813
88	0xbde91064	-0.113800794
89	0xbd9892d4	-0.0744988
90	0xbd7efd6a	-0.062253393
91	0x3e008b5c	0.12553161
92	0xbdc20602	-0.09473802
93	0x3e0080a4	0.12549073
94	0xbd2463f7	-0.040134396
95	0xbe3e3ed5	-0.18578656
96	0x3db93bd0	0.090446115
97	0x3e1ac05f	0.15112446
98	0x3e52c75f	0.20583867
99	0xbdab73ad	-0.08371673
100	0x3dd1f13a	0.102510884
101	0x3df36fc7	0.11886554
102	0xbd97a6d1	-0.074048646
103	0x3dbd236e	0.09235273
104	0x3e7c93f1	0.2466581
105	0xbe2acae5	-0.1667896
106	0x3cdb9c07	0.026807798
107	0xbc934900	-0.017979145
108	0x3c9e7e76	0.01934741
109	0x3e76c71a	0.24099389
110	0xbdefea25	-0.117145814
111	0xbe91f62f	-0.28508136
112	0x3e306660	0.17226553
113	0x3dff53dd	0.124671675
114	0x3e199c81	0.15001108
115	0x3eafbc81	0.34323505
116	0xbeb739f8	-0.35786414
117	0x3e4b3bdd	0.19847055
118	0xbe23d42d	-0.15998907
119	0xbe347106	-0.1762124
120	0x3e5d8786	0.2163373
121	0x3e155f92	0.14587238
122	0xbdbc36ec	-0.09190163
123	0x3e907aee	0.28218788
124	0x3e397097	0.18109356
125	0xbe8faa21	-0.28059486
126	0xbdd34cdc	-0.10317394
127	0x3e8fed76	0.28110856
128	0x3e200b35	0.15629275
129	0x3e53a0a7	0.20666753
130	0xbdb3151e	-0.08744262
131	0xbe4aa76c	-0.19790429
132	0xbde0803a	-0.10961957
133	0xbf01cddd	-0.5070475
134	0x3ee8a749	0.45440128
135	0xbdc81d96	-0.09771268
136	0x3de2e45f	0.110787146
137	0x3e40cde9	0.18828548
138	0xbd874948	-0.06605774
139	0x3de589dd	0.11207936
140	0xbeb74f9f	-0.35802934
141	0xbd62d875	-0.05538221
142	0x3e13d674	0.14437276
143	0x3d2f8fe4	0.042861834
144	0xbe82390d	-0.2543415
145	0x3ecd0cab	0.40048727
146	0xbc8651b8	-0.016396388
147	0x3d7cd639	0.061727736
148	0xbe53c46a	-0.20680395
149	0xbe84eb2c	-0.25960672
150	0x3e1f09aa	0.1553103
151	0x3db956d6	0.09049766
152	0x3e6778d5	0.22604688
153	0x3ce627c8	0.028095141
154	0x3db27f4b	0.087156855
155	0xbd371ee0	-0.04470718
156	0x3e915aa7	0.28389475
157	0xbd9a33de	-0.07529424
158	0xbe860241	-0.26173595
159	0x3d32dd9c	0.043668374
160	0xbe870497	-0.2637069
161	0xbe642728	-0.22280562
162	0xbe9a3fc5	-0.30126777
163	0x3de63481	0.11240483
164	0xbe64825e	-0.22315356
165	0x3e33c742	0.1755648
166	0xbe8be223	-0.27320966
167	0xbe83cd90	-0.2574277
168	0x3d967450	0.073464036
169	0x3d7536d6	0.05986675
170	0x3ec638e5	0.38715282
171	0xbd9c02d2	-0.076177254
172	0x3e256e33	0.16155319
173	0x3e3bcbcc	0.18339461
174	0xbe0fa49b	-0.14027636
175	0xbe8398d2	-0.2570253
176	0xbd9ae98b	-0.07564076
177	0xbdb505e6	-0.08839016
178	0xbcd47ee9	-0.025939422
179	0xbd9c848e	-0.0764247
180	0x3e0adbd5	0.13560422
181	0x3e8d3bdc	0.27584732
182	0x3d92679d	0.07148669
183	0x3e9616d6	0.29314297
184	0xbd2f5e27	-0.0428144
185	0x3daeb0f7	0.08529847
186	0xbe10d3cf	-0.14143299
187	0x3e27a139	0.16370095
188	0xbdd0cfa6	-0.10195856
189	0x3e16a6ff	0.14712141
190	0x3e464a2f	0.19364236
191	0x3e1e0345	0.15430935
192	0x3dafc10a	0.08581741
193	0xbd915926	-0.07097082
194	0x3e74ba72	0.23899248
195	0xbe7aefe8	-0.2450558
196	0x3e67d713	0.22640638
197	0x3d9706b6	0.07374327
198	0x3d88d482	0.06681158
199	0xbd1d8c8a	-0.038464107
200	0x3e7efa74	0.24900228
201	0x3e2e2539	0.17006387
202	0xbe097b05	-0.13425834
203	0x3e529e86	0.20568284
204	0xbe49cffe	-0.19708249
205	0x3d555268	0.05208054
206	0x3dddaa0a	0.10823448
207	0x3e67f4a3	0.22651915
208	0x3bce5509	0.006296758
209	0xbd9a3aac	-0.07530722
210	0x3de14274	0.10999003
211	0xbe8eebbf	-0.27914235
212	0xbcd3004a	-0.025756974
213	0xbe135043	-0.14386086
214	0x3c2730a0	0.010204464
215	0x3e42373e	0.18966386
216	0xbe3b33d0	-0.18281484
217	0x3d5fb161	0.05461252
218	0xbe32f2a5	-0.17475374
219	0x3d8f038c	0.069830984
220	0x3e76475c	0.24050659
221	0xbe753708	-0.23946774
222	0xbe26238b	-0.16224496
223	0xbe8dd74e	-0.27703327
224	0xbe91993b	-0.28437218
225	0x3e489fb7	0.19592176
226	0xbd9a1da8	-0.07525188
227	0xbe882bdc	-0.26595962
228	0xbe4d2f60	-0.20037603
229	0xbdbfe868	-0.093705
230	0x3e104a99	0.14090957
231	0x3ea1790c	0.31537664
232	0x3e85c18f	0.26124236
233	0xbe75b752	-0.23995712
234	0xbe651543	-0.22371392
235	0x3e22daa0	0.15903711
236	0xbd1a90ef	-0.037735876
237	0xbbb88175	-0.005630667
238	0xbe68be30	-0.22728801
239	0xbd95954f	-0.07303869
240	0xbd378859	-0.044807766
241	0xbd9a0548	-0.075205386
242	0xbe0cbe60	-0.13744497
243	0xbd994077	-0.07482999
244	0x3d6e6453	0.058201145
245	0x3e9ce063	0.30639943
246	0xbe37b3cb	-0.1793968
247	0x3e01e4c4	0.12684923
248	0x3c84eeda	0.016227175
249	0x3ca02ed5	0.019553581
250	0x3d4956dc	0.0491551
251	0x3d28d99c	0.041223153
252	0x3e7f4857	0.24929939
253	0x3d77c7a1	0.060493115
254	0x3da37e34	0.07983056
255	0x3ed7db5f	0.42159554

backbone.output1.bias f4 [128]
0	0x3e98eafb	0.29866776
1	0x3eabbf76	0.3354451
2	0x3eaf9c42	0.34298903
3	0x3eadf377	0.3397481
4	0x3ec8ec16	0.3924262
5	0x3ec2a5c4	0.38017094
6	0x3e8d9ab2	0.27657086
7	0x3ecb05ce	0.39652866
8	0x3ec45720	0.3834772
9	0x3e812ce5	0.25229564
10	0x3ef67165	0.48133388
11	0x3ed74432	0.42044216
12	0x3e9fad4f	0.3118691
13	0x3e8e60ab	0.27808127
14	0x3ecc5e45	0.39915672
15	0x3e94d5dc	0.29069412
16	0x3ea9a35a	0.3313244
17	0x3e7ad6d3	0.24496011
18	0x3ebe80ea	0.3720773
19	0x3ec4cb07	0.38436148
20	0x3eaa9d71	0.33323243
21	0x3e8b38e6	0.27191848
22	0x3ea9ae8e	0.33140987
23	0x3e846fb5	0.25866476
24	0x3e971ad2	0.2951265
25	0x3e900502	0.2812882
26	0x3e7c49f8	0.24637592
27	0x3e578940	0.2104845
28	0x3ec940bd	0.39307204
29	0x3e8787a1	0.26470664
30	0x3eaf83b5	0.34280172
31	0x3ed5c450	0.41751337
32	0x3e6b4e5e	0.22979113
33	0x3e946965	0.2898666
34	0x3eb617e2	0.35565096
35	0x3ec1e12c	0.37867105
36	0x3eccc1ef	0.3999171
37	0x3ea1e6a7	0.31621286
38	0x3e8d77d4	0.27630484
39	0x3ed9c6cb	0.4253448
40	0xbcbd2f48	-0.023093835
41	0x3b6eb7c1	0.0036425444
42	0xbd396853	-0.045265507
43	0xbb20ad8c	-0.0024517504
44	0xbd0e8f61	-0.034804706
45	0xbc6c889e	-0.014436869
46	0xbd3d753f	-0.046254393
47	0xbd7f0a53	-0.062265705
48	0xbdafdbe2	-0.08586861
49	0xbdd59a3d	-0.10429809
50	0xbda6830b	-0.08130463
51	0xbdc7658d	-0.09736166
52	0xbcf1a241	-0.029496314
53	0xbd59edb3	-0.053205203
54	0xbdb10063	-0.08642652
55	0xbce17156	-0.027519863
56	0xbdc1dc8c	-0.09465894
57	0xbd51da95	-0.051233847
58	0xbd8830ae	-0.0664991
59	0xbd62ca63	-0.055368792
60	0xbcc1bb0c	-0.023648761
61	0xbdb1fe7a	-0.08691116
62	0xbda9322c	-0.08261523
63	0xbd0115d7	-0.03151497
64	0xbd9fbf08	-0.07800108
65	0xbd8d968f	-0.069134824
66	0xbd891920	-0.06694245
67	0xbd9ef8ab	-0.077622734
68	0xbd5059c8	-0.050866872
69	0xbda80c1c	-0.08205435
70	0xbd8029e1	-0.06257988
71	0xbd962ab3	-0.07332363
72	0x3b099ad9	0.0020996837
73	0xbd8fd209	-0.07022483
74	0xba093c6b	-0.0005235138
75	0xbd03840b	-0.032108348
76	0xbce7b778	-0.028285727
77	0xbd67face	-0.05663567
78	0xbd9102b5	-0.070805945
79	0xbac8f74c	-0.0015332489
80	0xbd94338c	-0.07236394
81	0xbd40267c	-0.0469117
82	0xbdb4d2c0	-0.0882926
83	0xbdb5a220	-0.088688135
84	0xbd190227	-0.03735557
85	0xbd7435dc	-0.059621677
86	0xbdbda0d7	-0.092591934
87	0xbdb43eff	-0.08801078
88	0xbd821b59	-0.063528724
89	0xbd038396	-0.032107912
90	0xbd1b2bab	-0.037883442
91	0x3b84469d	0.004036738
92	0xbd25211e	-0.040314786
93	0xbdcc7ab4	-0.09984341
94	0xbd822edc	-0.06356594
95	0xbd584461	-0.052799586
96	0xba6c4aaf	-0.0009013814
97	0xbd0f017b	-0.03491352
98	0xbd985d00	-0.07439613
99	0xbd88e4b3	-0.06684246
100	0xbd221152	-0.0395673
101	0xbda6c9de	-0.08143972
102	0xbd979434	-0.074013144
103	0xbd5c371d	-0.053763498
104	0xbd2d4b4f	-0.042308148
105	0xbdc6440c	-0.09680948
106	0xbbb054f4	-0.005381221
107	0xbdc7fa02	-0.09764482
108	0xbd571666	-0.052511595
109	0xbd8025e5	-0.06257228
110	0xbbe53d78	-0.006995853
111	0xbd0e5ef9	-0.03475854
112	0xbd978a53	-0.0739943
113	0xbd8c846c	-0.06861195
114	0xbd62ccb6	-0.05537101
115	0xbdc44189	-0.09582812
116	0xbb1fd8d3	-0.0024390712
117	0xbd9928cd	-0.07478485
118	0xbd2f1969	-0.042748842
119	0xbd9d9d9e	-0.07696079
120	0xbd37075e	-0.04468476
121	0xbd92ef45	-0.07174543
122	0x3c042e56	0.008067688
123	0xbcc22d66	-0.023703288
124	0xbd34df1d	-0.04415809
125	0xbc7ad59f	-0.01530972
126	0xbd5fbdad	-0.05462425
127	0xbd79fda8	-0.06103292

classifier.0.weight f4 [40, 128]
0	0x3c6922d1	0.014229492
1	0x3d4742d6	0.048647724
2	0xbd80c542	-0.06287624
3	0xbdaa2adf	-0.08308958
4	0x3cc1f997	0.023678584
5	0x3d39e9f1	0.04538912
6	0xbc77d5bb	-0.015126641
7	0x3d969dfe	0.07354353
8	0xbcd78248	-0.02630724
9	0xbd3a13a1	-0.045428876
10	0xbd8ae59d	-0.067820765
11	0x3d36446b	0.044498842
12	0x3db3445f	0.08753275
13	0x3d2c38cb	0.04204635
14	0xbd7c4bce	-0.06159573
15	0xbd600d49	-0.05470017
16	0x3c95711b	0.01824241
17	0x3c032c5e	0.008006183
18	0x3cb36eac	0.021903358
19	0xbd52507e	-0.051346295
20	0xbd90de3f	-0.0707364
21	0x3d76040e	0.06006246
22	0x3c41bf14	0.011825342
23	0xbd739f23	-0.059477936
24	0x3d9c34fe	0.07627295
25	0xbc9e970b	-0.019359132
26	0x3d9b98d4	0.07597509
27	0xbd65b574	-0.05608125
28	0x3d788b64	0.06067981
29	0xbdb4c78c	-0.08827123
30	0xbd4a5340	-0.0493958
31	0x3cb2b10f	0.021812944
32	0xbd2ada2b	-0.041711967
33	0xbd5426a1	-0.051794652
34	0x3db205a1	0.0869248
35	0xbc634ac1	-0.013872803
36	0x3d46c6f0	0.048529565
37	0x3d2343c4	0.03985955
38	0xbc9fc0b7	-0.019501073
39	0xbd984960	-0.0743587
40	0xbbf7e8f4	-0.007565612
41	0xbc5d7476	-0.013516536
42	0x3d60e250	0.05490333
43	0x3da5cd71	0.080958255
44	0x3d81fe23	0.06347301
45	0x3d7790d2	0.060440846
46	0x3ba732f1	0.0051025082
47	0xbc2a0df5	-0.010379304
48	0xbd970f39	-0.0737595
49	0x3cff2412	0.03114513
50	0xbd503076	-0.050827466
51	0xbc213b8c	-0.009840857
52	0xbcc5d79b	-0.02415066
53	0x3cac99dd	0.021069461
54	0x3c6daab1	0.014506028
55	0x3d1a3398	0.03764686
56	0x3db4eebc	0.088345975
57	0x3d4ed3bf	0.050494906
58	0x3c1cc2df	0.009567945
59	0xbd9d4555	-0.0767924
60	0xbccac921	-0.024754109
61	0x3d7aea98	0.061258882
62	0xbd9ae14d	-0.07562504
63	0xbd8a0024	-0.06738308
64	0x3daf46cf	0.085584275
65	0x3da2f62c	0.0795711
66	0xbda4acf4	-0.08040801
67	0xbd839be7	-0.064262204
68	0x3d569bb9	0.052394602
69	0x3d9958ef	0.07487666
70	0x3dad21b1	0.08453692
71	0x3d7335b9	0.059377406
72	0xbc085e91	-0.008323328
73	0xbd896053	-0.067078255
74	0xbd5faa89	-0.054605994
75	0x3d7f6679	0.062353585
76	0x3d91cd5c	0.07119247
77	0xbd9b8e74	-0.0759553
78	0x3c0a0275	0.008423437
79	0x3d36e4ad	0.044651676
80	0xbdad0ebb	-0.08450075
81	0xbd3c21a1	-0.04593051
82	0x3cb021d0	0.021500498
83	0x3d8bd6c1	0.068280704
84	0x3daea034	0.0852665
85	0x3d9414bc	0.07230517
86	0xbc800bec	-0.015630685
87	0x3d02aac8	0.03190115
88	0x3cf71604	0.030161865
89	0xbd26b99b	-0.04070435
90	0xbd86579a	-0.065596774
91	0x3cde4d2b	0.027136406
92	0xbd84e928	-0.064897835
93	0x3d569353	0.052386593
94	0x3d1447bc	0.036201224
95	0xbd1e62bd	-0.038668383
96	0xbd2c056d	-0.041997362
97	0xbd6ec364	-0.058291808
98	0xbda4693e	-0.08027886
99	0x3d71fea1	0.059080724
100	0xbd5a91cd	-0.053361703
101	0x3d049e9b	0.03237782
102	0xbd76664d	-0.060156155
103	0x3c0cfd4b	0.008605312
104	0x3d95634e	0.072943315
105	0xbcf50f71	-0.02991459
106	0x3d8554cd	0.06510315
107	0xbc8580d6	-0.016296785
108	0x3cb1e131	0.021713825
109	0x3da609ef	0.081073634
110	0xbb925c16	-0.004466544
111	0xbd022684	-0.031775013
112	0xbdaed110	-0.08535969
113	0xbd454542	-0.048161753
114	0xbd65ec63	-0.05613364
115	0x3d1828bc	0.037148222
116	0xbd34925d	-0.044084895
117	0x3d9f27f3	0.077712916
118	0x3cc813e0	0.02442354
119	0x3c7d1b49	0.0154484
120	0x3d57e69d	0.052710164
121	0xbcf330bb	-0.029686322
122	0xbcde3dae	-0.02712902
123	0x3d3437fd	0.043998707
124	0x3c5317b5	0.01288407
125	0x3b4f9340	0.0031673461
126	0xbccbcefa	-0.024878968
127	0x3d05cc71	0.032665674
128	0xbd8f07a8	-0.06983882
129	0x3db072cf	0.08615648
130	0x3c3c7e07	0.011504657
131	0x3d3fda85	0.046839256
132	0xbd87f1a4	-0.06637886
133	0xbd40c087	-0.04705861
134	0xbb51f49a	-0.0032036663
135	0xbd95c10b	-0.07312211
136	0x3c54306e	0.012951
137	0xbcc38cd7	-0.023870869
138	0xbd868f0c	-0.06570253
139	0x3cf5f0e6	0.030022096
140	0xbda71c2b	-0.081596695
141	0xbd614e94	-0.05500658
142	0xbcd6a862	-0.026203338
143	0xbd5bccc3	-0.053662073
144	0xbc0c8181	-0.008575798
145	0x3ba7c46d	0.0051198513
146	0xbd1530d9	-0.036423538
147	0x3d838920	0.06422639
148	0x3d9e65c6	0.077342555
149	0xbd2eb4bc	-0.04265283
150	0xbd94868a	-0.07252224
151	0xbd1b57c6	-0.037925504
152	0x3c3159c7	0.010824627
153	0x3da44c27	0.080223374
154	0xbcbc67e8	-0.022998765
155	0xbbcd7a4b	-0.006270682
156	0x3ce4cc3d	0.02792942
157	0x3d5bf834	0.0537035
158	0x3d13190c	0.03591256
159	0xbd88c96f	-0.066790454
160	0x3c4dc616	0.012559434
161	0xbd6bf4cb	-0.0576065
162	0x3d9a1efd	0.07525442
163	0xbba367e8	-0.004986752
164	0xbdacc05c	-0.08435127
165	0xbdb47b19	-0.088125415
166	0xbb9303ab	-0.0044865212
167	0x3d950318	0.07275981
168	0xbd99b018	-0.0750429
169	0xbce33744	-0.027736314
170	0xbd3b2db8	-0.045697898
171	0xbd828bab	-0.06374296
172	0xbd966387	-0.07343202
173	0x3d99dca3	0.07512786
174	0x3cb99b8b	0.022657176
175	0xbda1e091	-0.07904161
176	0xbbf194cc	-0.0073724743
177	0x3ac71c25	0.0015190883
178	0xbd9275f3	-0.07151403
179	0x3c05c2f9	0.008164161
180	0xbbf4f295	-0.007475207
181	0xbd85821e	-0.065189585
182	0x3c77168c	0.015081059
183	0xbd619fc0	-0.05508399
184	0x3c44e889	0.012018331
185	0xbd0c3055	-0.03422578
186	0x3c13671b	0.00899675
187	0x3cd1a6cc	0.02559223
188	0xbd996f0f	-0.07491886
189	0x3a85db74	0.0010212497
190	0x3da7d1be	0.08194302
191	0xbc0cdb43	-0.008597198
192	0xbd8e9a1e	-0.06962989
193	0xbd85256a	-0.06501277
194	0xbc3ead15	-0.011637946
195	0x3c2f7ed3	0.01071139
196	0x3d98be23	0.07458141
197	0xbd89202d	-0.0669559
198	0x3d9b0657	0.075695686
199	0x3da2bef8	0.07946581
200	0xbda6f6df	-0.08152556
201	0x3d19e888	0.037575275
202	0xbd568d29	-0.052380715
203	0x3db0ff02	0.08642389
204	0x3da2fff2	0.07958974
205	0xbd7ff453	-0.062488865
206	0xbd70d75e	-0.05879914
207	0x3c801d5c	0.015639
208	0xbd2f983c	-0.04286979
209	0xbd4373bd	-0.0477178
210	0xbdaa5663	-0.08317258
211	0x3d745028	0.059646755
212	0xbda86baa	-0.0822366
213	0x3c8518b1	0.016247125
214	0xbc276f93	-0.010219472
215	0xbd95a370	-0.07306564
216	0x3d39a44e	0.04532271
217	0xbd3e63e6	-0.04648199
218	0xbc8189b7	-0.015812738
219	0xbcd503f1	-0.026002856
220	0x3d8776ad	0.066144325
221	0xbd9f6bde	-0.07784246
222	0x3d4afe6a	0.049559034
223	0x3d43c598	0.047795862
224	0xbd6eb09f	-0.058273908
225	0x3c3edc8c	0.011649262
226	0x3d8b57b0	0.068038344
227	0xbd02a9a7	-0.031900074
228	0x3b670888	0.0035252888
229	0x3d7de5e5	0.061986823
230	0xbdaa04ac	-0.08301672
231	0x3c6f36fb	0.014600511
232	0xbcce01c5	-0.025147328
233	0xbc6b0c9f	-0.014346271
234	0x3d61c294	0.055117205
235	0x3ccec2eb	0.025239429
236	0xbd90f292	-0.070775166
237	0x3d5ece61	0.054396037
238	0x3d59a09a	0.053131677
239	0x3c0316ab	0.00800101
240	0x3c14ffc5	0.009094183
241	0xbd12cba4	-0.035838738
242	0xbc2f98c4	-0.0107175745
243	0xbd769558	-0.06020102
244	0x3d99f3db	0.07517215
245	0xbba5faaa	-0.005065282
246	0x3d88dbd8	0.06682557
247	0xbce1bf2c	-0.027556978
248	0x3d24e58e	0.040257983
249	0x3cb7d7ec	0.022441827
250	0xbcbd6233	-0.023118114
251	0xbd0a2726	-0.03372874
252	0x3d2021f4	0.03909488
253	0xbc381a15	-0.011236687
254	0xbca09089	-0.01960017
255	0xbd864147	-0.065554194

classifier.0.bias f4 [40]
0	0x3d613563	0.054982554
1	0xbc80cd7e	-0.015722986
2	0xbd04a7be	-0.032386534
3	0xbceb50c5	-0.028725037
4	0xbd05da1b	-0.032678705
5	0xbc81e7e5	-0.015857646
6	0x3d2668e5	0.04062738
7	0xbd0dc06c	-0.034607336
8	0x3ce38200	0.02777195
9	0xbc157011	-0.009120957
10	0xbdab5d8e	-0.083674535
11	0xb9a09a04	-0.0003063233
12	0xbd813fcd	-0.06310997
13	0x3b2630d9	0.0025358705
14	0xbd90ff3a	-0.070799306
15	0xbda53f72	-0.08068742
16	0x3ceea29a	0.029130269
17	0x3cdc5f30	0.026900858
18	0xbd5481b6	-0.051881514
19	0xbd34896a	-0.04407636
20	0xbd072fce	-0.033004574
21	0xbce51cb2	-0.027967785
22	0xbce117a2	-0.02747709
23	0x3da6e9dc	0.08150074
24	0x3d32a49e	0.043614022
25	0x3d99c718	0.07508677
26	0xbd93349a	-0.07187767
27	0xbc4c4e36	-0.012469819
28	0xbd301ffd	-0.042999256
29	0xbd999a43	-0.07500126
30	0xbbe53605	-0.006994965
31	0x3ca294d6	0.019846361
32	0x3d2136ac	0.03935878
33	0x3d03902e	0.032119922
34	0x3d660895	0.05616053
35	0xbd1b1674	-0.03786321
36	0xbda18f1d	-0.07888625
37	0xbc5b0dcf	-0.013369991
38	0xbd8073d4	-0.062720925
39	0xbba22ca0	-0.0049491674
